models/cifar10_conv6_base.pt (torch, 113551 bytes, 8 tensors)

0.weight f4 [16, 3, 3, 3]
0	0xbe58a2d2	-0.21155861
1	0xbc1e513a	-0.009662921
2	0xbe15a9e0	-0.14615583
3	0xbcd42798	-0.025897786
4	0x3d1050ed	0.035233427
5	0x3d81e964	0.06343344
6	0xbdf4b273	-0.11948099
7	0xbe74122e	-0.2383506
8	0xbe27d2eb	-0.16389053
9	0xbe033e3e	-0.12816712
10	0xbdeb0125	-0.11474828
11	0x3dd9553a	0.10611959
12	0x3e0ab3e5	0.13545187
13	0x3e103f68	0.14086688
14	0x3d9100ae	0.07080208
15	0x3e39dd09	0.18150724
16	0x3e8430bd	0.25818434
17	0x3e09b73f	0.13448809
18	0xbe33f20b	-0.17572801
19	0xbe08d35a	-0.13361874
20	0xbdf8ec24	-0.12154415
21	0x3dd2d520	0.102945566
22	0xbc4d7f6e	-0.012542589
23	0x3e46724e	0.19379541
24	0x3c8e25a8	0.01735194
25	0x3e41fc33	0.18943863
26	0x3e2575c7	0.1615821
27	0x3dfaa4fa	0.12238498
28	0xbd8872a0	-0.06662488
29	0xbcb81100	-0.022469044
30	0x3e16bc2e	0.14720222
31	0xbd47e067	-0.04879799
32	0xbd6818b7	-0.056664195
33	0x3e2c1626	0.16805324
34	0xbdb146f9	-0.08656115
35	0xbe202f74	-0.15643102
36	0x3e878003	0.26464853
37	0xbc589645	-0.013219421
38	0xbe55f66c	-0.20894784
39	0x3e9569fc	0.29182422
40	0xbd144e65	-0.036207575
41	0xbe9578af	-0.29193637
42	0x3e6996bd	0.22811408
43	0xbd9f58c7	-0.07780605
44	0xbe25bac4	-0.16184527
45	0x3e1501a0	0.14551401
46	0xbe016f36	-0.1264008
47	0xbdf1c7b0	-0.118056655
48	0x3e8b7a88	0.2724192
49	0xbd1e7417	-0.03868493
50	0xbe370a02	-0.17874911
51	0x3e62df98	0.22155607
52	0xbcbc0cb7	-0.022955282
53	0xbe41c069	-0.18921055
54	0x3d0676c4	0.032828107
55	0x3dfe838f	0.124274366
56	0x3e0b46ba	0.13601199
57	0xbd690729	-0.056891594
58	0x3e0fe715	0.14052995
59	0x3e132788	0.14370549
60	0xbd8108d7	-0.06300514
61	0x3da961d7	0.082706146
62	0x3d745365	0.059649844
63	0x3e0b7399	0.13618316
64	0x3e8818f5	0.2658154
65	0x3e436805	0.19082649
66	0x3e22d3dd	0.15901132
67	0x3dd9ea29	0.10640366
68	0x3dab2614	0.08356872
69	0xbd7409db	-0.05957971
70	0x3e897e6e	0.2685427
71	0x3e1cae18	0.15300786
72	0xbdb5ab3f	-0.08870553
73	0x3e22bfc6	0.15893468
74	0x3db74cb8	0.0895018
75	0xbdd35fcf	-0.103210084
76	0x3e51cf2a	0.20489183
77	0x3e1cba20	0.15305376
78	0x3db27f01	0.0871563
79	0x3d3f3e58	0.046690315
80	0xbc713562	-0.0147222
81	0x3ea3e4c7	0.3201048
82	0x3c7b3d49	0.015334436
83	0xbe967540	-0.2938633
84	0x3ebbbb58	0.3666637
85	0x3d30466a	0.043035902
86	0xbe3acf38	-0.1824311
87	0x3e869636	0.26286477
88	0x3e030910	0.12796426
89	0xbe91d552	-0.28483063
90	0x3cbb61a5	0.022873709
91	0xbe136508	-0.14394009
92	0xbd10a012	-0.035308905
93	0x3c5a604c	0.013328623
94	0xbd0c54ca	-0.03426055
95	0xbe1f7a3f	-0.15573977
96	0xbd25b655	-0.04045709
97	0x3d52ba98	0.05144748
98	0xbe94a790	-0.2903409
99	0x3ca9b063	0.02071399
100	0x3d8362dc	0.0641534
101	0xbe21fc70	-0.15818954
102	0x3e1991cd	0.14997025
103	0x3d4ab2f8	0.049487084
104	0xbe4daab2	-0.20084646
105	0x3e32d14c	0.17462653
106	0xbd71e0ab	-0.05905215
107	0xbe084b5e	-0.1331
108	0x3e3ad059	0.18243541
109	0x3dd2a4d4	0.10285345
110	0xbdf91992	-0.1216308
111	0x3de7bf49	0.113157816
112	0x3dda4443	0.10657551
113	0x3e1fd39a	0.15608063
114	0x3e800506	0.25003833
115	0x3e62045c	0.22071975
116	0x3db76b2e	0.0895599
117	0x3e302a69	0.17203678
118	0xbd40f40d	-0.047107745
119	0xbdb9682f	-0.090530746
120	0xbd12d067	-0.03584328
121	0x3dc03769	0.09385569
122	0x3d8d1173	0.06888094
123	0x3d9db677	0.07700818
124	0xbdd0bb6a	-0.101919964
125	0xbde12630	-0.10993612
126	0xb90e709f	-0.0001358413
127	0x3c0d483b	0.008623178
128	0xbe345017	-0.17608677
129	0x3dccc907	0.099992804
130	0xbda1f107	-0.079073004
131	0xbe0e2622	-0.13881734
132	0xbe629584	-0.22127348
133	0xbdcf14e6	-0.10111408
134	0xbe6aa640	-0.22914982
135	0x3e5c148d	0.21492215
136	0x3e866e19	0.26255873
137	0x3de9dcab	0.11419042
138	0x3cb6ac72	0.022299025
139	0x3e32c6f6	0.1745871
140	0x3e6ff777	0.23434244
141	0x3e8c51db	0.274062
142	0xbc924ade	-0.017857965
143	0x3e1781fa	0.14795676
144	0xbde299e1	-0.11064506
145	0xbe01839c	-0.12647861
146	0xbde97fdb	-0.114013396
147	0xbd462065	-0.048370738
148	0x3ccee8b4	0.025257446
149	0xbe5d20bc	-0.21594518
150	0xbe21dd6b	-0.1580712
151	0xbd0af84d	-0.033928204
152	0xbda2957f	-0.0793867
153	0xbe052019	-0.13000526
154	0xbe1168e4	-0.14200169
155	0xbe866e26	-0.26255912
156	0xbe131d9b	-0.14366762
157	0xbdccfe3f	-0.10009431
158	0xbde451a4	-0.11148384
159	0xbb399133	-0.0028315305
160	0xbdf7fbea	-0.12108596
161	0x3ca2df89	0.01988198
162	0x3bb2442b	0.005440255
163	0x3bd71e68	0.006564904
164	0x3dc4674e	0.09590016
165	0xbdfd402d	-0.12365756
166	0x3c3fd453	0.011708337
167	0x3e06f029	0.13177551
168	0xbe8b9adc	-0.27266586
169	0xbd97e0aa	-0.07415898
170	0x3eaca6c4	0.33720982
171	0xbdfb4895	-0.12269703
172	0xbdfd7cd1	-0.123773225
173	0x3e918742	0.28423506
174	0xbe474589	-0.1946012
175	0xbdbe6f06	-0.0929852
176	0x3e38ef8c	0.1806013
177	0xbe107533	-0.14107208
178	0xbdc67899	-0.09690971
179	0x3de9f1a2	0.11423041
180	0xbe90a7c4	-0.28252995
181	0xbdd17f27	-0.102293305
182	0x3e974eb9	0.29552248
183	0xbe63c39f	-0.22242592
184	0xbd200a05	-0.039072055
185	0x3ea553ca	0.32290488
186	0xbed1b387	-0.4095728
187	0xbd8915c3	-0.06693604
188	0x3ea114c6	0.3146116
189	0xbd8489d4	-0.06471601
190	0x3e5d9947	0.21640502
191	0xbd3503a9	-0.044192944
192	0xbdb79519	-0.08963985
193	0x3dbc3e44	0.09191564
194	0xbea7b5d1	-0.32755902
195	0x3e0296ba	0.1275281
196	0x3e4a29f3	0.19742565
197	0xbda9ae54	-0.082852036
198	0xbd7045bb	-0.05866025
199	0x3d617038	0.05503866
200	0xbde34f21	-0.11099077
201	0x3c51ca7e	0.012804626
202	0x3dccdc4a	0.10002954
203	0xbe93ee66	-0.2889282
204	0x3dcfd901	0.10148812
205	0x3e9dbba5	0.30807224
206	0xbe13ec64	-0.14445645
207	0x3d021646	0.031759523
208	0x3de7a0e2	0.11309983
209	0xbe17766a	-0.14791265
210	0xbdcacc0f	-0.09902202
211	0x3d51b52d	0.051198173
212	0xbea49b2e	-0.32149643
213	0x3e6d97a0	0.23202372
214	0x3e806765	0.25078884
215	0xbe148250	-0.14502835
216	0x3e758012	0.23974636
217	0x3e74a3b0	0.23890567
218	0x3e3fbfea	0.18725553
219	0x3dafb2b0	0.08579004
220	0x3e87c8a2	0.26520258
221	0x3d84cd91	0.06484521
222	0xbcd78c8b	-0.026312133
223	0x3ea0fb9a	0.31441957
224	0x3e23a268	0.15979922
225	0xbd785a93	-0.060633253
226	0xbe000e1b	-0.12505381
227	0x3d27d8f5	0.04097839
228	0xbe33edd1	-0.17571189
229	0x3ab8cf0c	0.0014099791
230	0xbd265277	-0.04060599
231	0xbe4f56e3	-0.20247988
232	0x3d3bf307	0.045886066
233	0xbcd772a3	-0.02629978
234	0xbc2139c4	-0.009840433
235	0xbdbb35c0	-0.091411114
236	0x3e245e8f	0.16051696
237	0xbe4e357b	-0.20137589
238	0x3c20143b	0.009770448
239	0xbda77464	-0.081764966
240	0xbe606770	-0.21914458
241	0x3d1179f0	0.03551668
242	0xbd9eb396	-0.07749097
243	0x3dc428f4	0.09578124
244	0xbd15c88b	-0.036568206
245	0x3e033b5c	0.12815613
246	0x3d214016	0.039367758
247	0xbd5be971	-0.053689424
248	0xbe034b68	-0.12821734
249	0x3bd26197	0.006420325
250	0x3de4ea3e	0.11177491
251	0xbdd9724d	-0.10617504
252	0x3cbeb1ec	0.0232782
253	0x3e29c4a3	0.16578917
254	0x3e19b835	0.15011676
255	0x3e8b044e	0.27151722

0.bias f4 [16]
0	0x3e1714d8	0.14754045
1	0xbb05b8bd	-0.0020404302
2	0xbd892874	-0.06697169
3	0x3dbf238c	0.09332952
4	0xbd69b64a	-0.05705861
5	0x3e9d6275	0.3073918
6	0x3dccf3f5	0.100074686
7	0xbc082315	-0.008309145
8	0xbcd9a081	-0.026565792
9	0x3e844548	0.25834107
10	0x3e015d97	0.12633358
11	0xbe126fbd	-0.14300437
12	0xbcba32c6	-0.022729289
13	0xbe6d22d2	-0.23157814
14	0xbcc9c82d	-0.024631584
15	0xbc7fbeb7	-0.015609435

2.weight f4 [8, 16, 3, 3]
0	0x3e2aee1d	0.16692396
1	0x3cf08c84	0.029363878
2	0x3d118375	0.035525758
3	0xbda5a5da	-0.08088274
4	0xbe199a5f	-0.15000294
5	0xbe13cfbd	-0.14434715
6	0xbda4a3e6	-0.08039074
7	0xbe2df60b	-0.16988389
8	0xbe79a73d	-0.24380203
9	0xbf0ecbdc	-0.55779815
10	0xbf04a1ff	-0.51809686
11	0xbc2e0111	-0.010620371
12	0xbdbf8a6b	-0.09352573
13	0xbea184e2	-0.31546694
14	0xbe532683	-0.2062016
15	0x3ecb384b	0.39691386
16	0x3e5d13dc	0.21589607
17	0x3d71926e	0.058977537
18	0xbd0e6042	-0.034759767
19	0xbd8ce93c	-0.068804234
20	0x3b3d9f42	0.0028934036
21	0x3d4a9373	0.049457025
22	0xbccb1c86	-0.024793874
23	0xbd3672da	-0.044543125
24	0xbd014378	-0.031558484
25	0xbd2c69e2	-0.042093165
26	0xbc0683a0	-0.008210093
27	0xbe3ce7d0	-0.18447804
28	0xbdd5c0ed	-0.10437188
29	0x3dd336f0	0.10313213
30	0x3d3088b4	0.04309912
31	0x3e455420	0.19270372
32	0x3e0db84c	0.13839835
33	0x3e547726	0.20748577
34	0x3e9463a2	0.28982264
35	0x3e6e20a3	0.23254637
36	0xbd09f292	-0.0336786
37	0xba5905df	-0.0008278768
38	0x3e0ef176	0.13959298
39	0x3ddf8674	0.10914317
40	0x3df2a741	0.118483074
41	0x3da538ec	0.080674976
42	0x3dfa6495	0.12226216
43	0x3dd7197f	0.1050291
44	0x3d5de8e4	0.05417718
45	0x3d6f5be0	0.05843723
46	0x3dd41a52	0.10356583
47	0x3d8cda8a	0.068776205
48	0x3e27aa7d	0.1637363
49	0x3e90af28	0.28258634
50	0x3e886a80	0.26643753
51	0x3df421cf	0.11920511
52	0x3e922a25	0.2854778
53	0x3e966bdd	0.29379168
54	0xbd6e1dca	-0.058133878
55	0xbd7a1c87	-0.061062362
56	0xbc8781eb	-0.016541442
57	0xbd35180f	-0.044212397
58	0x3dc4bb3a	0.09606023
59	0x3d73d5ff	0.059530254
60	0xbb07eca4	-0.0020740414
61	0x3d995166	0.07486229
62	0x3e410603	0.1884995
63	0xbe3607e7	-0.17776452
64	0xbeb13e38	-0.34617782
65	0xbd967db1	-0.073481925
66	0xbc9fb936	-0.019497495
67	0xbc57f25d	-0.0131803425
68	0xbc66299f	-0.014048009
69	0x3d53432d	0.051577736
70	0x3d65893e	0.056039087
71	0xbe634b41	-0.22196676
72	0xbd4ecab6	-0.05048629
73	0xbbe1885d	-0.006882711
74	0x3c8a0d87	0.016852153
75	0x3d499a3c	0.049219355
76	0x3e0d1739	0.1377839
77	0x3e50098c	0.20316142
78	0x3d6eeab5	0.058329303
79	0x3e1a2407	0.15052806
80	0x3e6b3dfb	0.22972862
81	0xbe1cdae2	-0.15317872
82	0xbe4dbf9c	-0.20092624
83	0xbe3af37a	-0.18256941
84	0xbd81782f	-0.06321751
85	0xbd9b09ad	-0.07570205
86	0xbd8227e2	-0.06355263
87	0xbdfa28fe	-0.1221485
88	0x3c1f720c	0.009731781
89	0xbc2b8d5e	-0.010470716
90	0x3e61ee47	0.22063552
91	0x3e35cfc4	0.17755038
92	0x3dbdbaf0	0.09264171
93	0x3dfb3b4c	0.12267169
94	0x3d70518e	0.058671527
95	0x3c062a37	0.008188776
96	0x3d80b078	0.06283659
97	0xbd9bafc5	-0.07601885
98	0xbdfd65c8	-0.12372929
99	0x36112d64	2.1633105e-06
100	0x36f506b1	7.302348e-06
101	0xb89c392e	-7.44931e-05
102	0xb97454cc	-0.00023301243
103	0x3913b24d	0.00014085435
104	0xb80f6d8e	-3.4195888e-05
105	0xb834919c	-4.3050954e-05
106	0x38439a23	4.6635174e-05
107	0x389678bf	7.175048e-05
108	0xbf02cf7a	-0.51097834
109	0xbe9ff510	-0.31241655
110	0xbd96379f	-0.07334828
111	0xbeea9db2	-0.45823437
112	0xbefddae0	-0.4958105
113	0xbe92b28e	-0.2865185
114	0xbc0e8355	-0.008698304
115	0xbd031dc6	-0.032010816
116	0xbe2617c2	-0.1622
117	0x3d6c0d00	0.057629585
118	0x3e259e76	0.1617373
119	0x3d5869b6	0.05283519
120	0x3e02926d	0.1275117
121	0x3e4bac11	0.19889857
122	0x3da4ee25	0.08053235
123	0x3db6e9c4	0.08931306
124	0x3e5a5406	0.21321115
125	0x3e09d54b	0.13460271
126	0x3df39e1c	0.11895391
127	0x3e9fd7c9	0.31219319
128	0x3ebeb0f7	0.37244388
129	0x3dbe70a5	0.09298829
130	0x3eac0073	0.33594093
131	0x3e4ddaf7	0.2010306
132	0xbe0672a1	-0.13129665
133	0xbd3e6ae1	-0.046488646
134	0x3ca1ef24	0.019767351
135	0x3e49c3bc	0.19703573
136	0x3efa8ea7	0.4893696
137	0x3f1c87c1	0.61144644
138	0x3f059ff5	0.521972
139	0x3f589568	0.84602976
140	0x3f348d79	0.7052837
141	0x3eb9aff5	0.36267057
142	0x3ec6677a	0.3875082
143	0x3ebbc5fd	0.3667449
144	0x3c2193d0	0.009861901
145	0x3dbc6fed	0.09201036
146	0x3dc404ea	0.0957125
147	0xbbaf42c3	-0.005348535
148	0x3df8ee9f	0.12154888
149	0x3dd0411a	0.10168667
150	0xbcaf1083	-0.021370178
151	0x3d51a6dd	0.051184524
152	0x3d54b6e4	0.05193223
153	0xbe8dec8d	-0.27719536
154	0xbe5d1bce	-0.21592638
155	0xbd8e2a99	-0.069417186
156	0xbcf73f19	-0.030181454
157	0xbe46736f	-0.19379972
158	0x3c993356	0.018701237
159	0x3e3cbb23	0.18430762
160	0x3ceb987c	0.028759234
161	0x3e19ab71	0.15006806
162	0x3d0f968f	0.035055693
163	0xbba7f358	-0.0051254444
164	0xbd92aa42	-0.0716138
165	0x3ce72270	0.028214663
166	0xbc312f1e	-0.010814456
167	0x3cfbe09c	0.03074675
168	0xbd945b26	-0.07243948
169	0xbd859c73	-0.06523981
170	0xbd904b0e	-0.070455655
171	0xbe181d1a	-0.14854851
172	0x3e0270f0	0.12738395
173	0x3da4486e	0.08021627
174	0xbe1acc92	-0.151171
175	0xbd811f2b	-0.06304773
176	0x3c8aa26d	0.016923154
177	0xbe1da88a	-0.15396324
178	0xbda50247	-0.08057075
179	0xbd60b121	-0.054856423
180	0x3e808f41	0.25109294
181	0x3e4d6d66	0.20061263
182	0x3e214b47	0.15751372
183	0x3d231e0e	0.039823584
184	0xbd3789e3	-0.044809233
185	0x3d44f0fd	0.048081387
186	0xbe5c60a4	-0.2152124
187	0xbe9d9f57	-0.3078563
188	0xbe969bef	-0.29415843
189	0x3e85543a	0.26040822
190	0x3e93e2e3	0.28884038
191	0x3e6f928b	0.23395745
192	0xbbea8a36	-0.0071575893
193	0x3da32624	0.07966259
194	0x3c3d6fe8	0.011562325
195	0xbea5ee40	-0.32408333
196	0xbe76268b	-0.2403814
197	0xbe8d11b0	-0.27552557
198	0xbc732e9c	-0.0148426555
199	0xbe2951bd	-0.16535087
200	0xbe8e77b3	-0.27825698
201	0x3dedb593	0.11606898
202	0xbc9108a3	-0.017704314
203	0xbc603694	-0.013684887
204	0xbdb29ae1	-0.08720947
205	0x3d24f05c	0.040268287
206	0x3e2aa5df	0.16664837
207	0xbd3bb9a3	-0.045831334
208	0xbdd89e25	-0.10577039
209	0xbc990af7	-0.018681986
210	0x3d12a62d	0.03580301
211	0x3e0a9479	0.135332
212	0x3d24fd4b	0.04028062
213	0x3e6ef744	0.23336512
214	0x3ece1df1	0.40257218
215	0x3e4614d4	0.19343883
216	0x3e5b051e	0.21388671
217	0x3e1698cf	0.1470673
218	0x3e19e031	0.15026928
219	0xbaade9b6	-0.0013268504
220	0xbddd29de	-0.10799001
221	0xbdf6c3ac	-0.1204904
222	0xbe3bab6c	-0.18327111
223	0xbeccfe09	-0.40037563
224	0xbe6b4319	-0.22974814
225	0x3d4ca7ac	0.04996459
226	0x3e23a2af	0.15980028
227	0x3e62c7a7	0.22146474
228	0x3c8cc754	0.01718489
229	0x3e07d29d	0.13263936
230	0x3e003b8b	0.12522714
231	0xbe42f8c5	-0.1904021
232	0xbd925013	-0.07144179
233	0xbde41e3f	-0.111385815
234	0xbd87e9b7	-0.066363744
235	0xbca6b8e2	-0.02035183
236	0xbd77a2dd	-0.060458053
237	0x3da73d46	0.08165984
238	0x3df534a5	0.11972932
239	0x3cd3c77b	0.025851956
240	0x3d4002a8	0.046877533
241	0x3e00f782	0.12594417
242	0x3d72eed1	0.059309784
243	0x38a4ec38	7.8641286e-05
244	0x3835b9c0	4.3326756e-05
245	0x38d92822	0.00010354842
246	0xb83d0ec4	-4.5074863e-05
247	0xb5bec311	-1.4212875e-06
248	0x3896554e	7.1684466e-05
249	0xb9348ab0	-0.00017217803
250	0x382ed27b	4.1680858e-05
251	0x3765e389	1.3702441e-05
252	0x3e37c3a5	0.17945726
253	0x3eadcb32	0.33944088
254	0x3f01dbe4	0.5072615
255	0x3e859301	0.26088718

2.bias f4 [8]
0	0xbdecb13e	-0.11557244
1	0x3e489855	0.1958936
2	0xbe2dfe56	-0.16991553
3	0xbe0d1b50	-0.1377995
4	0x3d5f0207	0.054445293
5	0xbcb9aeb2	-0.022666309
6	0xbd8c4c17	-0.068504505
7	0x3e08038d	0.13282605

5.weight f4 [50, 512]
0	0xbe128b42	-0.14310935
1	0x3e341532	0.1758621
2	0x3d2cada2	0.042157777
3	0x3d835b30	0.06413877
4	0xbd7c8a7b	-0.061655503
5	0x3c583f68	0.013198711
6	0x3e986e07	0.29771444
7	0x3dfc89af	0.123309486
8	0xbbb01803	-0.005373956
9	0x3dee4a89	0.1163531
10	0x3dce4dbc	0.100734204
11	0xbca1fda3	-0.019774264
12	0x3ca4f8c4	0.020138152
13	0x3dda2cb1	0.106530555
14	0xbaf01037	-0.0018315379
15	0xbd3a8f65	-0.045546908
16	0x3d7aab54	0.061198547
17	0x3dcecbcd	0.10097466
18	0xbc8bdfb6	-0.017074447
19	0x3d98ecd6	0.07467048
20	0x3ce314f9	0.027719961
21	0x3db82f59	0.08993406
22	0x3d149ab0	0.036280334
23	0xbdd8f12e	-0.105928764
24	0x3e347da7	0.17626058
25	0xbbf65a91	-0.0075181206
26	0xbd678c5a	-0.056530334
27	0xbd65d063	-0.056106936
28	0x3dacbf1e	0.0843489
29	0xbdd82c0a	-0.10555275
30	0xbd8bbaa3	-0.068227075
31	0x3e3193a7	0.17341481
32	0x3e5bd665	0.21468504
33	0x3d356e83	0.044294845
34	0xbdbee27b	-0.093205415
35	0xbd72b56d	-0.059255052
36	0xbbdfc518	-0.0068289153
37	0x3d2e4155	0.042542774
38	0x3dc884d3	0.09790959
39	0x3deb8a1a	0.1150095
40	0xbd97343c	-0.0738301
41	0xbc9e89f7	-0.019352896
42	0x3ccce20e	0.025010135
43	0xbdb0d0d2	-0.08633579
44	0xbd8fa69c	-0.070142
45	0xbdf5bf02	-0.119993225
46	0xbdb3e989	-0.08784778
47	0x3cc82bc6	0.024434935
48	0xbd919380	-0.071082115
49	0xbd5745e2	-0.05255688
50	0xbe0d4b6e	-0.13798305
51	0x3ddf3998	0.10899657
52	0x3d3a1b8d	0.04543643
53	0x3d855369	0.0651005
54	0xbd5f121e	-0.054460637
55	0x3d41a5c7	0.04727724
56	0xbdf4858c	-0.119395345
57	0x3df51aa6	0.119679734
58	0x3da353eb	0.079749905
59	0x3cae44c1	0.021273019
60	0xbd6b0618	-0.05737886
61	0x3dec1c00	0.11528778
62	0xbd0afefa	-0.03393457
63	0xbc6e34ae	-0.014538927
64	0x3d1955b0	0.037435234
65	0xbc68a401	-0.014199258
66	0xbe0491b7	-0.12946211
67	0xba21f63b	-0.0006178354
68	0xbe3b665f	-0.1830077
69	0xbe938a2b	-0.2881635
70	0xbe52a370	-0.20570159
71	0xbe8a2de3	-0.26988134
72	0xbc391726	-0.011297023
73	0x3c14615f	0.009056418
74	0x3dddf270	0.10837257
75	0x3d9cb5ab	0.07651838
76	0x3ddb0b43	0.106955074
77	0x3db12b90	0.08650887
78	0xbd3c168a	-0.045919932
79	0xbe4ff813	-0.20309477
80	0xbd993aa5	-0.07481889
81	0x3e08ffea	0.13378873
82	0xbd61f4d6	-0.055165134
83	0x3bada7d8	0.0052995495
84	0xbd10d306	-0.035357498
85	0xbddc36f1	-0.10752667
86	0x3c817c89	0.015806453
87	0x3d8cbcf9	0.06871981
88	0x3beef88f	0.007292814
89	0x3d315cea	0.0433015
90	0xbcdf2594	-0.027239598
91	0xbe275ce3	-0.16344027
92	0x3d755bc1	0.059901956
93	0xbc790d12	-0.01520087
94	0xbe19e1f6	-0.15027604
95	0x3e2486cb	0.16067044
96	0x3d33ea21	0.043924455
97	0xbd467b91	-0.048457686
98	0xbd8dc7f7	-0.06922906
99	0xbdd554b5	-0.10416547
100	0xbe2897a2	-0.16464093
101	0x3d2aa740	0.04166341
102	0xbde85c88	-0.11345774
103	0x3d7db21d	0.06193744
104	0x3e5f6a6b	0.21817939
105	0x3da4492e	0.080217704
106	0xbdecb3c8	-0.11557728
107	0xbb8d14b6	-0.0043054475
108	0x3e354c28	0.17704833
109	0x3cccb1b4	0.02498708
110	0xbcacf108	-0.021111026
111	0xbc8b50f8	-0.017006382
112	0x3e851ec2	0.2600003
113	0xbdfa70c6	-0.12228541
114	0xbd0727ef	-0.032997068
115	0x3de6acbd	0.11263416
116	0x3ac60c5d	0.0015109886
117	0x3d8259a2	0.06364752
118	0xbd4f397c	-0.05059193
119	0x3d4aad92	0.049481936
120	0x3c417216	0.011806985
121	0x3da035f1	0.078227885
122	0x3c9653eb	0.018350562
123	0xbd2f58ba	-0.042809226
124	0xbd6e2697	-0.05814227
125	0x3e2830c9	0.1642486
126	0xbe01b31a	-0.12665978
127	0x3d2510cd	0.040299226
128	0x3dffed06	0.124963805
129	0xbd0af1bd	-0.033921946
130	0x3d87537a	0.06607719
131	0x3dc8d076	0.09805386
132	0xbcef05b8	-0.029177532
133	0xbdf03f0d	-0.11730776
134	0x3d498165	0.049195666
135	0x3e2cdbbc	0.16880697
136	0x3dea6b77	0.114462785
137	0xbd2e2f43	-0.04252554
138	0x3d3d7d85	0.046262283
139	0xbd3521cb	-0.04422168
140	0x3d3e1bdc	0.046413288
141	0xbdaeff7f	-0.08544826
142	0xbd01ff73	-0.031737756
143	0xbd17b9f9	-0.03704259
144	0x3e1b3b9a	0.15159455
145	0xbdccb725	-0.099958695
146	0xba167402	-0.00057393324
147	0xbc3807fd	-0.011232373
148	0x3d6f37a0	0.058402658
149	0xbb5e6f39	-0.0033940806
150	0xbdcc16e2	-0.09965302
151	0xbc220e12	-0.00989105
152	0x3db8752b	0.09006723
153	0x3d2261b7	0.03964397
154	0xbcdef8de	-0.027218278
155	0xbdec2a8a	-0.11531551
156	0xbdb8706a	-0.09005816
157	0xbd06ee2e	-0.03294199
158	0xbce0b977	-0.027432187
159	0x3d26d88b	0.040733855
160	0x3caa6e7a	0.020804632
161	0x3ce6bd15	0.028166333
162	0x3cbbe1a5	0.022934744
163	0xbe1af3db	-0.15132086
164	0xbe4c7dd9	-0.19969882
165	0xbe32b116	-0.17450365
166	0x3d9b90c4	0.07595971
167	0x3da86e28	0.08224136
168	0x3de89468	0.11356431
169	0x3dc5c271	0.096562274
170	0xbe534968	-0.20633471
171	0xbdefdd9c	-0.117121905
172	0xbe377a25	-0.17917688
173	0xbd8f05ee	-0.06983553
174	0x3e22fa6f	0.15915845
175	0x3e06bfb7	0.13159071
176	0x3db905a7	0.09034281
177	0x3de0fe83	0.10986044
178	0xbe8bbb88	-0.27291512
179	0xbecbea48	-0.3982718
180	0xbda8b45a	-0.08237524
181	0xbce69534	-0.028147317
182	0x3da987b8	0.082778394
183	0x3e7230d6	0.23651442
184	0x3dae8892	0.085221425
185	0x3e675a7a	0.22593108
186	0x3cd05500	0.025431156
187	0xbe2f5150	-0.17120862
188	0xbd8f8cf3	-0.07009306
189	0xbd0898ea	-0.033348955
190	0x3ccd031d	0.025025899
191	0x3e4db8d1	0.20090033
192	0x3de0484b	0.10951289
193	0xbd839111	-0.064241536
194	0x3c51daa5	0.012808477
195	0x3d14f111	0.03636271
196	0x3db32f5f	0.0874927
197	0xbd071178	-0.032975644
198	0x3cf4a6ee	0.029864755
199	0x3bfb9248	0.00767735
200	0x3e0276a7	0.12740575
201	0xbdbbebb2	-0.09175815
202	0xb97908d4	-0.00023749779
203	0x3e05713c	0.13031477
204	0x3e0daf42	0.13836387
205	0xbc8d2a67	-0.017232133
206	0x3e359d49	0.17735781
207	0x3df1bf43	0.118040584
208	0x3d6e295d	0.058144916
209	0xbc4be7ec	-0.012445431
210	0xbd59bc7d	-0.053158272
211	0x3cb7d437	0.02244006
212	0xbbacdee8	-0.005275596
213	0xbda4741d	-0.08029959
214	0x3bc77fe3	0.0060882433
215	0x3cea03d6	0.028566282
216	0x3d93b405	0.072120704
217	0xbdee28e5	-0.11628894
218	0xbdaa58d5	-0.083177246
219	0xbdcedf6a	-0.101012066
220	0xbbe6047b	-0.007019577
221	0xbe274909	-0.16336454
222	0xbcd104df	-0.025515018
223	0x3d4ea97c	0.0504546
224	0x3e228bea	0.15873685
225	0x3c56b9fb	0.013105865
226	0xbdbfabf2	-0.09358968
227	0xbe4d83d9	-0.20069827
228	0xbe8c45fd	-0.27397147
229	0xbd712798	-0.05887565
230	0xbc98316f	-0.01857826
231	0xbd0dac0f	-0.034587916
232	0x3d3cb86d	0.04607432
233	0xbe461613	-0.19344358
234	0xbe4f6e57	-0.20256935
235	0xbe86aaa6	-0.2630207
236	0xbe3d9f62	-0.18517831
237	0xbe6a9fba	-0.22912493
238	0xbdd3caf4	-0.103414446
239	0xbc9c3a63	-0.01907081
240	0x3e1a0cf6	0.15044007
241	0xbe3770be	-0.17914101
242	0xbece8a4f	-0.40339896
243	0xbebd5493	-0.36978588
244	0xbea04ade	-0.3130712
245	0xbea90eba	-0.33019048
246	0xbdbfb28b	-0.09360226
247	0x3c930308	0.017945781
248	0x3e207be9	0.15672268
249	0xbdd0c523	-0.10193851
250	0xbef9cbaf	-0.4878821
251	0xbe60a6c4	-0.21938616
252	0xbef70107	-0.4824297
253	0xbec48491	-0.3838239
254	0xbe32e117	-0.17468677
255	0xbd711c7e	-0.058865063

5.bias f4 [50]
0	0x3e08479f	0.13308571
1	0x3e35aaf8	0.17741
2	0xbcba80ae	-0.022766437
3	0xbc36e2b4	-0.011162449
4	0xbce0ac0e	-0.027425792
5	0x3e5442bf	0.20728587
6	0x3e7c14e9	0.24617352
7	0xbe4e8c39	-0.20170678
8	0x3e915dfc	0.28392017
9	0x3d164ade	0.036692493
10	0xbc96e3c3	-0.018419152
11	0x3e902a29	0.28157166
12	0xbd2a8329	-0.04162899
13	0xbc89dbf3	-0.016828513
14	0xbceff6b9	-0.029292451
15	0xbe25d741	-0.16195394
16	0x3c2798bf	0.010229289
17	0x3cee3a4f	0.029080538
18	0xbdc21129	-0.09475929
19	0xbd4fd653	-0.050741505
20	0x3b10aef7	0.0022076943
21	0x3e395c7b	0.18101685
22	0x3d8aef03	0.06783869
23	0xbd123214	-0.03569229
24	0xbd0fc47b	-0.035099488
25	0xbde7b257	-0.113133125
26	0xbd300774	-0.042975858
27	0xbd1bad0f	-0.03800684
28	0x3ea2054c	0.31644666
29	0xbdfc6e26	-0.12325697
30	0x3df183d1	0.1179272
31	0x3cc35b3d	0.023847217
32	0xbe36ad6e	-0.17839596
33	0x3e3222e4	0.17396122
34	0xbd13856e	-0.03601592
35	0x3cba07cc	0.022708796
36	0xbe62395a	-0.2209219
37	0xbd246c40	-0.040142298
38	0xbe4efcf7	-0.20213686
39	0xbe889306	-0.2667467
40	0xbce2a4f9	-0.027666556
41	0xbd1e4244	-0.038637415
42	0xbe86f04f	-0.26355216
43	0xbe211ff4	-0.15734845
44	0x3f03e403	0.51519793
45	0x3e0f9860	0.1402297
46	0xbcf6d7c7	-0.030132188
47	0xbd6bef1b	-0.057601076
48	0x3e124a86	0.14286241
49	0x3eb23eaf	0.3481345

7.weight f4 [10, 50]
0	0xbdd3e0cb	-0.1034561
1	0xbe162d82	-0.14665797
2	0x38983997	7.258652e-05
3	0xbdc38d0a	-0.095483854
4	0x37f21b94	2.886149e-05
5	0x3e9c0953	0.30475864
6	0x3e18bafe	0.14915082
7	0x3d8be0a5	0.06829957
8	0x3e5f2383	0.2179089
9	0xbd9a3fdd	-0.07531712
10	0x36d9e730	6.4940177e-06
11	0xbe9977ab	-0.29974112
12	0xb8b8ca1f	-8.811452e-05
13	0xb7d316ab	-2.5163716e-05
14	0xbe20be07	-0.1569749
15	0x3db837da	0.08995028
16	0x3e8ac36e	0.27102226
17	0xbe60fcc7	-0.21971427
18	0xbe930342	-0.28713423
19	0x374296e0	1.1598429e-05
20	0xbdf5c673	-0.12000742
21	0x3d46f552	0.0485738
22	0xbe47a476	-0.1949633
23	0x382ad0ed	4.0725736e-05
24	0x3db967aa	0.090529755
25	0x3db68eb8	0.0891394
26	0xb7eb8d23	-2.8079905e-05
27	0xb7f5630f	-2.9252404e-05
28	0x3e9fce4a	0.31212074
29	0x3e269096	0.16266093
30	0x3d6b729a	0.05748234
31	0xbe647f2b	-0.22314136
32	0x3dd4c1f6	0.103885576
33	0x3dbb400c	0.09143075
34	0xb5b4e6ee	-1.3478254e-06
35	0xbe57e276	-0.21082482
36	0x3e66e6f5	0.2254904
37	0xb908a372	-0.00013030859
38	0x3dde4442	0.10852863
39	0x3c8cd07c	0.017189257
40	0xb81f44c0	-3.7972583e-05
41	0x38da783f	0.000104174476
42	0x3db46818	0.08808917
43	0xbea49a47	-0.32148954
44	0xbecf94e0	-0.4054327
45	0x3da44a65	0.08022002
46	0xb8e666c4	-0.00010986396
47	0x3e4645bf	0.19362544
48	0xbd67ae8a	-0.056562938
49	0xbed574dd	-0.41690722
50	0xbf1a75bd	-0.60335904
51	0xbe811771	-0.25213197
52	0xb762a020	-1.3507932e-05
53	0x3e622436	0.22084126
54	0x38f3f61e	0.00011632986
55	0xbe35f72f	-0.17770074
56	0xbeea9715	-0.4581839
57	0x3e3f0d8d	0.18657513
58	0xbe8246fe	-0.25444788
59	0x3e9fb0dd	0.31189623
60	0x3849bb42	4.8096532e-05
61	0xbc8e66fe	-0.017383095
62	0x3802a0de	3.1144235e-05
63	0x37e470d7	2.7232263e-05
64	0x3dd667fd	0.10469053
65	0x3baf759d	0.005354597
66	0x3e36698c	0.178137
67	0x3d3e894f	0.046517666
68	0x3e467472	0.19380358
69	0xb71a01c9	-9.179531e-06
70	0x3e846d4f	0.25864646
71	0x3df9f397	0.12204664
72	0xbe4e1cf1	-0.20128228
73	0x3824ebaf	3.9320144e-05
74	0x3dd13758	0.10215634
75	0x3e98bb23	0.29830274
76	0x38c11314	9.206511e-05
77	0x386f66b6	5.7077697e-05
78	0xbed0f931	-0.40815118
79	0xbcf5ac25	-0.029989311
80	0x3d7687a0	0.060187936
81	0x3e4862af	0.19568895
82	0x3e7083dd	0.23487802
83	0x3e9d94bb	0.30777535
84	0x3855dbba	5.0987794e-05
85	0xbea31152	-0.31849152
86	0x3bf829ed	0.0075733573
87	0xb7c26b54	-2.317658e-05
88	0x3e6ae86c	0.22940224
89	0xbea31563	-0.31852254
90	0x37f143de	2.8761042e-05
91	0xb8650076	-5.4598284e-05
92	0xbdfebdc4	-0.12438539
93	0x3e627f4c	0.22118872
94	0xbb68cf38	-0.0035523903
95	0x3b8792c8	0.0041373707
96	0x3834650b	4.3009448e-05
97	0x3e325582	0.17415431
98	0xbf087e6c	-0.53317904
99	0xbe39cde4	-0.18144947
100	0x3e7c40b7	0.24634062
101	0x3e40baca	0.18821254
102	0xb95b24e2	-0.00020899207
103	0x3de60fd7	0.1123349
104	0xb96c572b	-0.00022539186
105	0xbd485ce6	-0.04891672
106	0x3e03b37b	0.12861435
107	0xbdf99c30	-0.121879935
108	0x3e839a96	0.25703877
109	0xbe3c0515	-0.18361314
110	0x38b76212	8.744387e-05
111	0x3ca4ada0	0.020102322
112	0x383a2291	4.437805e-05
113	0x39028eea	0.00012451006
114	0x3e5e3510	0.21699929
115	0x3d69ec00	0.057109833
116	0xbe94d261	-0.29066756
117	0xbe758779	-0.2397746
118	0xbeb28b0a	-0.34871703
119	0x378d5028	1.6845835e-05
120	0xbe0ed8fb	-0.13949959
121	0x3e8350b5	0.25647512
122	0xbe2ee0ff	-0.17078017
123	0x36226d4f	2.4203507e-06
124	0xbea6fec3	-0.32616243
125	0xbe499fa3	-0.19689803
126	0xb7f940e2	-2.9713327e-05
127	0x36d9c5d9	6.4901365e-06
128	0x3ded6406	0.115913436
129	0xbe60a7be	-0.21938989
130	0x3cc29634	0.023753263
131	0xbe0ab5b9	-0.13545884
132	0xbe5220ef	-0.20520376
133	0xbcac798c	-0.021054052
134	0xb6805f4e	-3.825792e-06
135	0xbd61dc5a	-0.055141784
136	0x3e29fb48	0.16599762
137	0x38ba00eb	8.869342e-05
138	0x3e18e113	0.14929609
139	0x3e44cfde	0.1921992
140	0x37db9a45	2.6178672e-05
141	0xb8ccdd96	-9.7687516e-05
142	0xbdd4d0d3	-0.103913926
143	0x3e1ad511	0.15120341
144	0x3de138b9	0.10997147
145	0x3e04f974	0.12985784
146	0x387c16d1	6.010273e-05
147	0x3dd67acd	0.10472641
148	0x3e5b0e54	0.21392184
149	0x3d17b641	0.037039045
150	0x3dec3438	0.115333974
151	0x3e6103f4	0.21974164
152	0xb6ee918d	-7.109897e-06
153	0xbe25db7d	-0.1619701
154	0xb629fbd7	-2.5329552e-06
155	0xbd67f4d1	-0.05662996
156	0x3d1ef134	0.038804248
157	0x3d4ea074	0.05044599
158	0xbe270ed4	-0.1631425
159	0xbdc4b383	-0.09604552
160	0xb8016363	-3.0848558e-05
161	0x3e08dab5	0.1336468
162	0x37d8e50d	2.5855867e-05
163	0xb82b73af	-4.0877316e-05
164	0x3e844ea0	0.25841236
165	0x3e86a44f	0.26297233
166	0xbe330f2e	-0.1748626
167	0xbd6d6b3d	-0.0579636
168	0xbd09a867	-0.033607867
169	0x37acc4da	2.0595664e-05
170	0xbe1dde76	-0.15416893
171	0xbe25defe	-0.16198346
172	0x3e5a23a7	0.21302663
173	0xb7224946	-9.673013e-06
174	0x3d04af35	0.032393653
175	0x3c92f530	0.01793918
176	0x397d1092	0.00024134133
177	0x37cce7a7	2.4426567e-05
178	0xbe1b69b0	-0.15177035
179	0x3cb67df7	0.022276862
180	0xbe86f019	-0.26355055
181	0xbe8f3765	-0.2797195
182	0xbdaf3fff	-0.08557128
183	0x3b9c7275	0.0047743865
184	0x37709cbf	1.434161e-05
185	0x3ca7c00c	0.020477317
186	0xbdfd9877	-0.12382596
187	0x377b4dd7	1.4978889e-05
188	0xbe1c4554	-0.15260822
189	0xbc393802	-0.011304857
190	0x37b42810	2.1476328e-05
191	0x388885c8	6.509904e-05
192	0xbc844c3a	-0.016149629
193	0x3e1677a5	0.14694078
194	0x3d408bc6	0.0470083
195	0xbe3d992d	-0.18515463
196	0xb60bf83f	-2.0857112e-06
197	0xbcbda071	-0.023147793
198	0xbd85cea6	-0.06533556
199	0x3dde016c	0.10840115
200	0xbdc554e6	-0.09635334
201	0xbd13a59f	-0.03604662
202	0x3831e3cb	4.2412237e-05
203	0xbe250fd1	-0.16119315
204	0x37b95ce5	2.2096976e-05
205	0x3d49457e	0.04913854
206	0x3d136cc3	0.035992395
207	0xbd4f4144	-0.05059935
208	0x3e880bad	0.26571408
209	0xbe7be71c	-0.2459988
210	0x36d67337	6.3911098e-06
211	0x3e7fdf30	0.24987483
212	0x38ec1ad9	0.00011258358
213	0xb6e00da3	-6.6773077e-06
214	0xbecddc17	-0.40206978
215	0xbed24305	-0.41066757
216	0xbd9cd225	-0.076572694
217	0xbd951309	-0.07279021
218	0x3e7a7a8d	0.24460812
219	0xb5c6b928	-1.4806037e-06
220	0x3ebff062	0.37488085
221	0x3e11fdaf	0.14256929
222	0xbecde4a2	-0.40213495
223	0xb76483ea	-1.3620573e-05
224	0xbd765657	-0.060140934
225	0xbefa2c30	-0.48861837
226	0xb896fd78	-7.1997696e-05
227	0xb84f9d2d	-4.9499027e-05
228	0x3e1c705f	0.15277241
229	0x3dc8750d	0.09787951
230	0x3d02c318	0.031924337
231	0xbe5b054b	-0.21388738
232	0xbe525f83	-0.20544247
233	0x3e653d60	0.22386694
234	0x383c01c4	4.4824337e-05
235	0x3d29f080	0.041489124
236	0xbd175f9a	-0.036956407
237	0xb80ee6b3	-3.4070294e-05
238	0xbe72abb3	-0.2369831
239	0xbd51b0af	-0.05119389
240	0xb77cfd97	-1.5079414e-05
241	0xb7fc1ab0	-3.0053168e-05
242	0xbe2ce02b	-0.16882388
243	0xbe8cfdc6	-0.27537364
244	0x3ed8b7cd	0.4232773
245	0x3e21a9de	0.15787455
246	0x382905a2	4.0297986e-05
247	0xbe329006	-0.17437753
248	0x3e044778	0.12917888
249	0x3e222572	0.15834597
250	0x3d809cf0	0.062799335
251	0x3df317ad	0.1186975
252	0xb7d988dc	-2.5932146e-05
253	0xbdb2a5c2	-0.08723022
254	0xb72460b3	-9.797676e-06
255	0xbe936d46	-0.28794307

7.bias f4 [10]
0	0xbdf8b0a1	-0.12143064
1	0xbdb550b4	-0.088532835
2	0xbd0480e5	-0.032349486
3	0x3d78fc05	0.06078722
4	0x3e485a46	0.19565687
5	0xbdd732ee	-0.10507761
6	0x3e1d4f1c	0.15362209
7	0x3d91b358	0.07114285
8	0xbd910da1	-0.07082678
9	0xbdfa5768	-0.12223703
