models/mnist_skip.pt (torch, 203649 bytes, 12 tensors)

1.weight f4 [50, 784]
000000 ae ee 32 38 8f e4 19 b8 8a c2 81 38 cd 85 18 b9
       4.2660795e-05 -3.6690904e-05 6.187435e-05 -0.00014545694
000010 12 3d 33 b8 22 3a 34 b9 38 a8 46 38 3d 57 61 38
       -4.2733802e-05 -0.00017187794 4.7363545e-05 5.3725427e-05
000020 6c 18 14 b9 a4 fa ac b9 38 0a 89 37 2d 65 57 b7
       -0.00014123478 -0.00032993138 1.6336431e-05 -1.2838555e-05
000030 bf 2d 8e b9 98 8d c6 b9 31 a5 bb 39 b9 c8 4a 39
       -0.00027118434 -0.00037870998 0.00035790497 0.00019338996
000040 ab 09 00 ba 2f a5 52 39 1b 66 78 39 9f 63 1a b9
       -0.0004884253 0.00020088696 0.0002368916 -0.00014723696
000050 e2 5d 8d b9 12 a2 99 b9 20 fd 02 ba 77 8d bd 39
       -0.00026963564 -0.00029303186 -0.0004996825 0.0003615429
000060 ef d6 c5 38 e0 a9 95 39 96 04 96 37 7c 4d 8c b9
       9.4337265e-05 0.0002854606 1.7883529e-05 -0.0002676061
000070 08 41 da 38 10 5c 0e 3a 49 be 80 39 6a 51 c3 b9
       0.00010407163 0.00054305885 0.00024555836 -0.00037253957
000080 a9 c2 8a b9 76 9f 38 b9 d7 50 8e 39 48 27 76 37
       -0.00026466444 -0.00017607011 0.0002714458 1.46718885e-05
000090 26 65 5a 39 95 9a 33 b9 5e 3b 0b ba cf b4 c6 38
       0.00020827781 -0.00017128357 -0.00053112756 9.475054e-05
0000a0 d6 e7 d8 b8 d4 fe 1e b8 a0 a2 9f b9 21 72 26 b9
       -0.000103428654 -3.7907463e-05 -0.00030448008 -0.0001587351
0000b0 f3 16 69 ba 48 8e 8f ba 08 ec 88 39 51 dd 1e 39
       -0.00088916643 -0.0010952437 0.00026115798 0.00015150501
0000c0 ce 33 c8 b9 e3 a5 b1 b9 8d 4b 38 36 ac 98 58 b9
       -0.0003818557 -0.00033883666 2.7462113e-06 -0.0002065624
0000d0 e6 d3 d7 b8 27 ad cf b9 1a b0 b2 b8 af 27 9f 39
       -0.00010291468 -0.00039611125 -8.520503e-05 0.0003035641
0000e0 c6 1c 2c b9 a2 f7 43 b9 2c 24 89 38 bb 1c 96 b7
       -0.00016413917 -0.000186889 6.5394066e-05 -1.7894772e-05
0000f0 36 35 88 37 7a a1 8b b9 f7 5e c3 b9 5e 88 8d b9
       1.6237242e-05 -0.00026632455 -0.00037264053 -0.00026995217
000100 5a 53 97 b9 e4 55 a7 b9 59 47 c6 39 a8 04 72 b9
       -0.00028863066 -0.00031916716 0.0003781866 -0.00023080653
000110 64 e5 96 3a e8 29 74 3a 45 3e 63 39 4d 19 e1 ba
       0.0011512456 0.0009314106 0.00021671604 -0.0017173678
000120 a7 21 1d bb 4e 94 87 ba 75 6f a6 b9 14 98 36 39
       -0.0023976357 -0.0010343881 -0.0003174503 0.00017413526
000130 d7 56 31 39 a0 30 72 b9 99 56 cf b9 d2 0f a3 b9
       0.00016912386 -0.00023097033 -0.00039546637 -0.0003110157
000140 c2 e1 7d b8 97 cd 43 39 31 6b 8b b9 aa d8 93 b9
       -6.0530154e-05 0.00018673237 -0.0002659201 -0.00028199452
000150 cf 39 08 ba ad 6f 30 b9 eb 84 a7 39 84 ed ae b9
       -0.00051966024 -0.0001682627 0.00031951754 -0.0003336483
000160 e3 a4 33 ba 28 a5 29 b9 34 b6 b8 36 01 11 62 39
       -0.0006852878 -0.00016178621 5.5048386e-06 0.00021559374
000170 16 4b 40 39 d4 ee 22 39 90 02 93 3a af 40 32 3b
       0.00018338519 0.00015538494 0.0011215974 0.00271992
000180 bc 06 66 3b 62 3b a2 3a 8f 17 c8 bb a0 d4 38 bc
       0.003509923 0.0012377317 -0.006106324 -0.0112811625
000190 93 66 82 bb f8 0d 39 bb 3d d4 95 3a a1 e4 5a 3b
       -0.003979513 -0.0028237086 0.001143105 0.0033400434
0001a0 55 cc 2b 3b 8c f1 51 b8 0b b5 dd b6 c1 13 7d b9
       0.002621432 -5.005444e-05 -6.6073894e-06 -0.00024135319
0001b0 bf 13 83 b9 9f 14 68 39 f5 66 66 b8 b5 9e f7 b8
       -0.0002500098 0.00022132926 -5.493216e-05 -0.00011807439
0001c0 65 5b 68 b9 86 01 98 b9 32 d8 5c 39 d1 8a 99 b9
       -0.00022159291 -0.00028992834 0.00021061374 -0.0002928586
0001d0 4d 4f b6 b9 08 5f a8 36 b5 1c 28 b8 e2 d6 cb 39
       -0.0003477283 5.0178533e-06 -4.0081057e-05 0.00038879277
0001e0 a8 c2 0c 3a c3 8b 8f 3b 5f dd 10 3c cf 98 71 3c
       0.0005369582 0.0043806746 0.0088418415 0.014745905
0001f0 a4 3b 0e bd 53 78 5f bd 32 5d 99 bd ac d5 ef bd
       -0.034724846 -0.05455811 -0.07488479 -0.117106766
000200 07 25 e5 bd 8b f1 01 bd 86 5d 57 b8 dd eb 9e 3b
       -0.11188703 -0.031724494 -5.1347095e-05 0.0048498944
000210 f2 68 64 3b 20 74 b9 3a d4 fe 5e 39 f1 e6 7a b8
       0.0034852591 0.0014148988 0.000212665 -5.9819726e-05
000220 24 fa 3d ba af a8 b0 ba 0f 78 8e ba 9e 1c 66 b8
       -0.00072470517 -0.0013478006 -0.001086952 -5.4862925e-05
000230 d4 19 29 ba b0 35 1a ba 92 d1 aa 38 a2 07 0c 38
       -0.0006450687 -0.0005882634 8.145267e-05 3.338571e-05
000240 b2 f5 9c b8 69 3e 07 3a 88 98 54 3a 50 1e 11 3b
       -7.484424e-05 0.0005159141 0.0008109887 0.0022143312
000250 6e ae 01 3c 53 1d f7 3c f5 6c 52 3c d4 c2 02 bd
       0.007915122 0.03016535 0.01284336 -0.031924084
000260 08 41 84 bd 11 c7 b7 bd 72 d5 36 be f3 ed b2 be
       -0.06457716 -0.08973516 -0.1785486 -0.34947166
000270 c2 1d bb be 8d 58 4c be 89 f0 80 bc b4 9c a5 3d
       -0.3654614 -0.19955654 -0.015739696 0.080865294
000280 b5 f2 44 3d e2 5d 0a 3c 35 8c 0e 3b 36 81 b3 ba
       0.048083026 0.008445235 0.002175105 -0.0013695124
000290 61 ba d2 ba d4 9e 93 ba 7f db 65 b9 c8 08 fb 37
       -0.0016077274 -0.0011262544 -0.0002192091 2.992562e-05
0002a0 79 68 39 38 48 9b e5 b9 0d 88 dd b9 ff a2 64 b9
       4.4204735e-05 -0.00043793977 -0.0004225377 -0.00021804495
0002b0 c3 e5 5d 3a 40 11 80 3a 9e c1 2b 3b cf 5e bc 3b
       0.0008464718 0.0009770766 0.0026207934 0.0057486068
0002c0 4c 8a 1e 3c a2 b1 00 3d db e2 df 3c 3f b1 32 3d
       0.009676527 0.031419404 0.027329853 0.043626066
0002d0 b5 3a 23 3d af a8 01 3e 2f 2b da 3d 75 91 29 3d
       0.03985091 0.12662004 0.10652768 0.041398484
0002e0 9e 72 81 3b 88 4b eb 3c 47 f0 c7 3d 90 87 32 3e
       0.003950431 0.02872254 0.09762626 0.17434525
0002f0 3f f7 1a 3e 4a 79 14 3d 03 81 eb 3b 12 9a 1b b9
       0.1513338 0.036248483 0.0071870103 -0.00014839348
000300 f3 cd 05 bb 13 07 20 ba 23 e8 27 39 ad 1f 03 b8
       -0.0020416945 -0.000610457 0.00016012839 -3.1262334e-05
000310 6e b9 bb 39 3c 0f 9d b9 bd 79 d3 b9 52 a4 2e 39
       0.00035805575 -0.00029956724 -0.00040335758 0.00016655147
000320 ee 0c 8c 3a 55 1a 55 3a d8 f8 8d 3a 61 14 af 3b
       0.0010685006 0.0008129229 0.0010831608 0.0053430055
000330 2a e7 c9 3c 1d a2 37 3c c6 40 a9 3c 97 b9 a3 3d
       0.02464636 0.011208084 0.02066077 0.07994383
000340 91 c2 12 3e e5 1a 49 3e 9e 04 63 3e 61 2b b3 3d
       0.14332034 0.19639166 0.2216973 0.08748508
000350 51 99 c4 3d 86 5b 79 3d a9 f4 ac 3d 2e f8 e3 3d
       0.09599555 0.0608783 0.08445103 0.11131321
000360 af ef a7 3c 95 66 38 bc 97 29 8e bd dc 66 5d bc
       0.020500032 -0.011254926 -0.069415264 -0.013513293
000370 fb 5b 08 bb 9a ac 66 3a 49 d9 8f 39 d0 6c 33 ba
       -0.0020806778 0.00087995233 0.00027436976 -0.00068445224
000380 5c 87 e1 b9 10 95 c4 b9 ed 5b 9f b9 81 86 82 34
       -0.00043016195 -0.00037495093 -0.00030395333 2.431225e-07
000390 c3 e2 9a b9 b3 ef 71 b9 f5 2f 2b 3b 56 90 d5 3b
       -0.0002954212 -0.00023072846 0.0026121114 0.0065174503
0003a0 5a a2 1e 3d c0 fa a7 bc 5f 51 33 bd 72 d5 3f bc
       0.03872905 -0.02050531 -0.043778773 -0.011708604
0003b0 33 c6 4c 3d 32 67 90 3d 4e 72 7c 3d 6e 50 f1 bd
       0.049993705 0.07050933 0.061632447 -0.11782919
0003c0 97 89 1e be 42 25 c4 bd b8 84 1a be c1 18 9e bd
       -0.15482174 -0.09577419 -0.1508969 -0.07719565
0003d0 1a 0a 96 bd d8 aa 58 bd fc 82 7c bd 52 59 02 bd
       -0.073261455 -0.052897304 -0.061648354 -0.031823464
0003e0 f0 8e 8a bb a6 10 25 bb c2 fd 3f ba 51 61 d2 b9
       -0.0042284653 -0.0025186925 -0.00073238846 -0.00040126828
0003f0 ee 8e aa b9 bb ce d0 b9 f2 b7 cf 39 52 a7 1c 39
       -0.00032531418 -0.00039826878 0.00039619167 0.00014939651

1.bias f4 [50]
000000 b2 e6 a0 3e 82 6e 45 3d 02 fe a3 3e 35 d2 3c be
       0.31426007 0.04820109 0.3202973 -0.18439563
000010 be 13 63 bd 59 72 a4 bd 88 9b 8c be f8 ba 2d bd
       -0.05543875 -0.080296226 -0.2746241 -0.042414635
000020 b9 bb 16 be 4e ea c7 bd f3 55 ce 3d c5 5a 21 bd
       -0.14720048 -0.09761487 0.10074987 -0.039393205
000030 49 c4 81 be b5 c5 de bd b2 de 19 bd 59 f8 98 3e
       -0.25345066 -0.108775534 -0.037565894 0.29876974
000040 db 7a 37 3e 06 08 52 3e f8 b3 8c bd 6e b9 ab bd
       0.1791796 0.20510873 -0.06870264 -0.08384977
000050 e2 3c 6d 3e f0 c4 76 bd 3e 83 e5 3c 93 4d 44 be
       0.23167756 -0.060246408 0.028016683 -0.19170217
000060 6a 91 ea be e6 a4 54 3e 06 dc a0 bd 22 32 9a bc
       -0.45814067 0.20766029 -0.07854466 -0.018822733
000070 c4 3a ba be 51 04 b6 3d a3 51 2c 3e ba c8 ef bc
       -0.3637296 0.08887542 0.16828017 -0.029270519
000080 34 a7 50 3c 3d 6b 52 be 3d e9 e0 3d f2 5e 05 bc
       0.012735177 -0.2054872 0.10981987 -0.0081403125
000090 b0 94 e0 3d 7b 17 b9 3b 36 09 54 3e de 9e 94 be
       0.1096586 0.005648551 0.20706639 -0.29027456
0000a0 9c e2 a9 3c 42 36 c4 bc ff a5 b8 3e c3 df 13 3e
       0.020737939 -0.023951653 0.36064145 0.14440827
0000b0 e7 93 00 ba 60 c2 3e 3d 0d 23 0e bc b7 22 54 3e
       -0.00049048517 0.04657209 -0.008675349 0.20716368
0000c0 ca 8e c0 3d 11 f2 95 3e
       0.09402235 0.29286245

2.path.0.weight f4 [50, 50]
000000 d7 02 a2 3e bc 47 7f 3e ad de c6 3d ed fd 65 3e
       0.31642792 0.24929708 0.09710441 0.22460146
000010 d7 3d 7a 3d 83 1b 7b 3e 7a 0f 65 be b2 ed c8 3d
       0.06109413 0.24522214 -0.22369185 0.09810962
000020 83 25 95 3d 94 de fa 3d 8e 6f 27 3e b1 cc 50 bd
       0.072825454 0.12249485 0.16351148 -0.05097646
000030 44 1a 52 3c 9e 15 85 3d 17 a5 9c be 1c ad 11 3e
       0.012823645 0.06498264 -0.30594704 0.14226192
000040 db ea a3 be 4e cc 4f bd 5e f9 d7 3d 13 c0 bc bc
       -0.32015118 -0.05073195 0.1054561 -0.023040807
000050 8b 15 43 be ee fa c4 3d fd 29 57 3d 43 59 b3 3c
       -0.19051187 0.096181735 0.052530278 0.02189315
000060 a0 a8 ba 3c ef c2 79 be 51 86 0a 3e c1 7c 55 3e
       0.022785485 -0.24390768 0.135278 0.20848371
000070 a1 f8 b4 bd 58 da 27 3c 1d 16 41 3e fa c3 bc 3d
       -0.08836485 0.010244928 0.18856092 0.09217067
000080 83 31 aa 3d 12 30 18 3e 18 86 15 be 60 9b 01 3c
       0.08310225 0.14862087 -0.14601934 0.007910579
000090 de 6e 17 3e dc 7d 70 3e 82 5e 18 3e 16 5b 07 be
       0.14788386 0.23485512 0.14879802 -0.1321834
0000a0 3c 12 4f 3e fb 51 fe bd cd 87 fd 3d 3a 80 82 bd
       0.202218 -0.1241798 0.123794176 -0.063721135
0000b0 12 27 13 be dd 92 6e bd f2 39 83 bc 8e 7d 86 3d
       -0.14370373 -0.05824553 -0.016018841 0.065669164
0000c0 60 8e 5a 3e e9 6f 93 bd 4b fb 75 be db 1e 1c bc
       0.21343374 -0.071990795 -0.24021642 -0.009528841
0000d0 47 c4 0f be 41 0c 91 3e 4f ec 98 3e fe c9 f8 bc
       -0.14039718 0.2832966 0.2986779 -0.030369755
0000e0 57 64 0a be 97 e8 d7 bc 65 de 56 bd 99 6c 7f 3e
       -0.13514839 -0.026356025 -0.052458186 0.2494377
0000f0 32 f1 04 3e 3d 0b c3 3d 8d 5b 3a 3c f4 1f 1e 3d
       0.12982634 0.09523628 0.0113743665 0.03860469
000100 d4 38 82 bc 67 94 d0 3d 04 71 1f be 55 78 07 bc
       -0.015896238 0.101845555 -0.15570456 -0.0082684355
000110 59 67 09 bc a0 4e 7a bd f3 96 92 3e 6e d4 5d bd
       -0.008386456 -0.06111014 0.2863079 -0.054157667
000120 b0 05 7a bd 9a 24 38 bd b0 24 70 bc 8d ff 57 3e
       -0.06104058 -0.04495678 -0.0146571845 0.21093579
000130 98 3a 4f 3d 94 2a 89 bd 68 16 54 bd 12 aa 1c be
       0.05059299 -0.06697574 -0.05177918 -0.15299252
000140 56 22 80 bd 10 5c ab 3d 82 24 f0 3c 1c a7 13 be
       -0.06256549 0.08367169 0.029314283 -0.14419216
000150 b9 04 df bd f8 65 bd be e7 0e b2 3e bf ee 02 be
       -0.10889573 -0.36991858 0.34776995 -0.12786387
000160 18 5c 8a be 90 66 03 bd 07 7c 32 3e c9 75 5a be
       -0.27023387 -0.032080233 0.17430125 -0.21333994
000170 3b 08 64 be f7 01 0a 3e bf 21 b1 bc 06 33 2c 3e
       -0.22268765 0.13477312 -0.021622537 0.16816339
000180 55 ec 44 3d f2 2e c0 3d 17 c5 1b bd f2 2e a8 3d
       0.048076946 0.09383954 -0.038029756 0.08212079
000190 96 39 00 bd 5c 9f 41 bd c8 50 84 3d de cf ee 3d
       -0.03130492 -0.047271118 0.0646072 0.11660741
0001a0 d0 ff 2b be 2f 49 56 3c 33 aa 00 3e c4 83 a8 bd
       -0.16796803 0.013078972 0.12564926 -0.08228257
0001b0 9f 72 48 3d 4f d9 36 be d6 8d 59 be 36 86 5d bd
       0.048937436 -0.17856334 -0.21245512 -0.05408307
0001c0 25 27 a5 3d d6 4d 37 bc 21 f2 8a be 19 08 8d bd
       0.08064107 -0.011187991 -0.27137855 -0.0688631
0001d0 a8 05 f3 bc a4 06 96 3e 8f 31 d7 3b c3 fc 7e be
       -0.029665783 0.2930194 0.006567187 -0.24901108
0001e0 14 f9 5d be 60 d2 91 3d 40 83 90 3e 13 cf d0 3d
       -0.21677047 0.07120204 0.28225136 0.10195746
0001f0 a3 24 a0 bd 7c 2d 5b 3d 01 1c c5 bd 3b c7 69 3d
       -0.07819488 0.053510174 -0.09624482 0.057074767
000200 a9 65 9f be 7d 98 30 be 34 30 41 be 0a ce 71 3d
       -0.31132248 -0.1724567 -0.18866044 0.059034385
000210 ac 4b 21 3c 4d ee a8 be cf 98 20 3e b4 4c 2d be
       0.009844702 -0.3299431 0.15683292 -0.16923791
000220 1d 3c 12 3e d3 f3 8b 3d 10 f9 49 3d 58 7a ef 3d
       0.14280744 0.06833615 0.04930979 0.11693257
000230 99 ca 00 bd 80 d6 70 bd 43 91 83 bd c0 7c 33 bc
       -0.031443212 -0.058798313 -0.06424191 -0.010955036
000240 7a 50 f5 bd 72 08 aa 3d 02 12 65 3c 51 73 0a 3e
       -0.1197824 0.08302392 0.013981344 0.13520552
000250 12 a6 20 3e 38 2d cc bd 07 7f fe bd cb 30 f9 3d
       0.15688351 -0.09969562 -0.12426572 0.1216751
000260 22 c7 0f 3d d9 23 b4 3a 81 22 de bc e9 a5 9b bd
       0.035102017 0.0013743594 -0.027116062 -0.07600004
000270 53 92 96 3d 9f 27 4a 3e 54 f9 6b 3e 3d cb 48 3d
       0.07352128 0.19741677 0.2304433 0.049021948
000280 3f ae f4 3d f2 cf 1c 3e f4 06 d0 3b 35 57 69 bd
       0.11947297 0.153137 0.006348485 -0.056967933
000290 f5 7f a1 3e 76 80 9e 3d 84 a8 92 be b8 20 4a 3c
       0.31542936 0.07739346 -0.28644192 0.012336902
0002a0 53 d4 1d 3e e4 48 89 3e f9 21 fc 3b d3 b6 c1 bc
       0.15413027 0.26813424 0.0076944795 -0.023646748
0002b0 48 99 39 3e b8 45 23 3e 93 66 f7 bc 22 3b 84 3d
       0.18124878 0.15944564 -0.030200278 0.06456591
0002c0 82 fd cc 39 4a 94 03 3e 49 ee de bd 85 1a 89 be
       0.0003909879 0.12849537 -0.10885293 -0.26778045
0002d0 1f 52 6c be 0f 8d 49 bc 28 6e ce bd 21 17 9b 3e
       -0.23078202 -0.012301697 -0.100796044 0.30291083
0002e0 66 e5 05 3e 96 fb bf bb 4b 7f 3c bd ba a5 d0 3b
       0.1307579 -0.005858849 -0.046019834 0.0063674124
0002f0 0b 26 29 3e d0 39 41 3d 53 5c c0 be 18 7c c7 3c
       0.16518418 0.047174275 -0.37570438 0.024351165
000300 21 01 89 be 59 9e b3 bd 91 85 5e be d2 1d 78 3e
       -0.26758674 -0.08770437 -0.21730639 0.24230126
000310 7f fe e7 bd 5a ed e5 bc af 5c d5 3d b6 ed 79 3d
       -0.11327838 -0.02806728 0.104180686 0.061017714
000320 eb bf f0 be 96 0e 53 be 94 c2 0e 3c 95 89 76 3d
       -0.47021422 -0.20611033 0.008713383 0.060189802
000330 27 69 9a bd 82 98 86 3d 03 3a 88 bd 23 a6 02 3c
       -0.075395875 0.06572057 -0.0665169 0.00797418
000340 e9 03 3c bc 7e 98 06 be 0e 4e c8 3e 3e 5d 25 3d
       -0.011475542 -0.13144109 0.3912205 0.040372126
000350 b6 d9 39 be af e8 55 be 15 df 14 be 86 1d 86 bd
       -0.18149456 -0.20889543 -0.14538224 -0.065486
000360 8b 1d 88 3d 51 36 3f be f9 4d 32 3e 66 0e dd 3d
       0.0664626 -0.18673064 0.17412557 0.10793762
000370 57 b3 d7 3c 6f e8 30 3d 33 5b 0f 3e 4f db f6 3c
       0.026330633 0.043190416 0.13999633 0.030133871
000380 76 6e 09 bd e9 45 f2 3d e2 aa 5e 3e 46 7c b9 bd
       -0.03355261 0.118297406 0.21744874 -0.090569064
000390 4b 00 a0 3d 0d 47 82 3e 08 5e 15 be 1a 43 4f bb
       0.07812556 0.25444832 -0.14586651 -0.003162569
0003a0 d1 b9 ed 3c c5 b8 11 be b0 e0 42 ba 2e 46 42 bd
       0.029019268 -0.1423064 -0.0007433994 -0.04743021
0003b0 73 8e ea 3a ca 1c c9 3d 4f a0 21 3e 20 3e 16 bc
       0.0017895236 0.09819944 0.15783809 -0.009170085
0003c0 2a 2c 49 bd d7 1f 84 bc 5d 3c 97 bd 99 69 e5 bd
       -0.049114384 -0.016128464 -0.0738456 -0.11201782
0003d0 0f 56 9c 3e f1 36 19 3e 5e 6d 4d bc cf ad c1 bd
       0.30534407 0.14962365 -0.012538282 -0.094569795
0003e0 8a 47 9e 3c 36 14 5d be 85 73 48 3d bc 94 31 be
       0.019321222 -0.21589741 0.048938293 -0.17341894
0003f0 82 cb ef bd 8f 74 08 3d 50 4a f7 bd 8e f7 b9 3d
       -0.11708738 0.033314284 -0.12074721 0.090804204

2.path.0.bias f4 [50]
000000 6d d3 f7 bd 01 0b a3 3e 8f 6a b3 3c 57 f5 22 be
       -0.12100873 0.31844333 0.021901397 -0.15913902
000010 db bb 5c be 10 d0 23 3d 4f 66 ef 3d b7 57 e9 3d
       -0.21556036 0.039993346 0.11689436 0.113936834
000020 b3 0f ca bd bc d9 5a 3e b6 7a 8b be 0d 09 58 be
       -0.09866276 0.21372122 -0.2724206 -0.21097203
000030 cf d5 7f 3d e0 c2 a8 be 97 02 6f bd d9 06 36 be
       0.062459763 -0.32961178 -0.05835208 -0.1777605
000040 0f 29 f5 3c 58 f1 29 3e cd a0 3f 3d 6e 5b fe 3d
       0.029926805 0.16595972 0.04678421 0.124197826
000050 65 cb f9 bd 08 d9 05 3e bd ed 8a bd 61 e0 b7 bb
       -0.121969976 0.13071072 -0.06783626 -0.005611465
000060 d1 5a 00 3d c7 c1 85 3d 0d 89 bd bb 48 07 bb 3d
       0.03133661 0.06531101 -0.00578416 0.09132248
000070 84 fb c1 3d e2 dc 35 3e 40 e2 7a 3e c9 00 65 3d
       0.09471801 0.17760041 0.2450037 0.055908952
000080 32 4b 50 3e 3e 89 7b be 26 4f 01 be 1f e5 3c bd
       0.20341185 -0.24564072 -0.12627849 -0.046116944
000090 d3 a9 e8 bb f9 c4 0d 3e 96 62 9a be d9 3b e9 bd
       -0.0071003227 0.1384467 -0.3015334 -0.11388368
0000a0 c1 da 9c 3b 58 43 b6 3d 26 c5 21 3c 4d 15 a0 bd
       0.0047868197 0.088995636 0.009873664 -0.07816563
0000b0 c2 4b 6f be b1 eb 57 be a8 2d 0e be 00 70 81 bd
       -0.23368743 -0.21086003 -0.13884604 -0.063201904
0000c0 29 0a e7 bd 08 b8 4d be
       -0.11281235 -0.20089734

2.path.2.weight f4 [50, 50]
000000 33 eb b0 bd 5c b1 dd 3e 93 2b 06 bd d5 e6 40 bd
       -0.08638611 0.43299377 -0.0327564 -0.04709514
000010 46 c4 80 3d 89 23 ff bd 8f bf f6 3b a1 87 89 3d
       0.06287436 -0.1245795 0.00753016 0.06715322
000020 b0 44 26 3e b8 17 99 3e 1f 6c 85 3c 77 ca 74 be
       0.1623714 0.29900908 0.016286908 -0.23905359
000030 2f 89 ae 3e 9f ee 41 3e ba 6f 00 3e fb 1d 8c bd
       0.34089038 0.18938683 0.1254262 -0.06841656
000040 5e c8 64 bc a8 46 43 be 7a f9 99 3d 4a 30 d6 bd
       -0.013963787 -0.19069922 0.07518287 -0.10458429
000050 7d 42 31 be 29 b4 0d 3f 71 19 12 3e 00 ce 82 bd
       -0.1731052 0.5535303 0.14267518 -0.06386948
000060 6a 1c 66 be 23 be 6a bd 55 b6 8a 3d db 61 10 be
       -0.22471777 -0.057310235 0.06773058 -0.14099829
000070 bc 8a b6 3d 5d 51 e3 bc 9a aa 18 3d 2f 19 f0 bc
       0.0891318 -0.027748758 0.037272073 -0.029308883
000080 03 ad bf 3d 7e 7e 31 bd 41 fa 1c be 26 6a 50 3e
       0.09359171 -0.043333523 -0.1532984 0.20352992
000090 87 16 db 3c 57 79 17 3e 5a 55 d7 bd ed f1 29 3d
       0.02674414 0.14792381 -0.105143264 0.041490484
0000a0 09 bb 5e 3e 00 72 34 be d2 e0 2a 3d 10 c6 d3 3e
       0.21751036 -0.17621613 0.04171831 0.41362047
0000b0 de 6b 63 be b0 db f1 bc fa e3 0a 3d 66 38 a8 3d
       -0.22209117 -0.0295237 0.03390882 0.08213882
0000c0 a3 9c da bd a8 83 83 be c8 9e 9d 3d 9f f7 97 bd
       -0.10674407 -0.25686383 0.07696301 -0.07420277
0000d0 cd 76 5a be bd 12 57 be fc f6 f3 3d e2 19 63 be
       -0.21334381 -0.21003242 0.11912343 -0.22177842
0000e0 fc 68 88 bd 22 2b 08 3d 7d 52 8a 3c 35 ae c6 bc
       -0.06660649 0.03324426 0.016885037 -0.02425299
0000f0 b2 ae 2f be ff ab 73 3e 9b 56 a9 bd b2 b0 2a 3d
       -0.17156485 0.2379608 -0.08268472 0.041672416
000100 07 7a 85 be 58 28 71 3d e7 a2 1e 3d e9 89 44 be
       -0.26069662 0.058876365 0.038729575 -0.19193234
000110 b2 66 39 3e 1d fa 84 be 57 9f 22 3d 09 44 ad bc
       0.18105581 -0.2597207 0.03970274 -0.021150606
000120 97 b3 2c 3e 7e 34 1c be 2f a5 cd bc 98 9f e8 3d
       0.16865383 -0.15254399 -0.02510318 0.11358565
000130 7b c1 35 bd 4d 78 81 be 38 5e fd bc 0c a6 cd 3e
       -0.04437397 -0.25287095 -0.030928716 0.40165746
000140 ca e2 97 3b b8 41 27 bd bd ad d8 bd 0a f0 c5 3d
       0.0046351897 -0.04083416 -0.10580013 0.096649244
000150 12 68 72 bd a1 2b 76 3e af 01 05 3e 3a ea 97 3d
       -0.05918128 0.2404008 0.12988923 0.07417722
000160 e4 e1 77 bd 1a 5c 20 be b6 af f4 3d c0 0e ae bd
       -0.06051816 -0.15660134 0.11947577 -0.08498907
000170 c9 79 42 3d 6e a5 e1 bd ad 6f 13 be ef a1 8b bd
       0.047479425 -0.11017881 -0.1439807 -0.06817996
000180 f4 59 53 be 6a ec 80 bd e2 ba 44 bd a2 53 90 bc
       -0.20639783 -0.062950924 -0.048029788 -0.017618004
000190 27 47 3e 3e 30 63 2c be c3 9a f4 bd 60 56 b4 be
       0.1858183 -0.16834712 -0.11943581 -0.3522215
0001a0 f0 5d 03 3e ce 59 d0 be b0 93 31 3e 52 33 dd 3d
       0.12828803 -0.40693516 0.17341495 0.10800804
0001b0 3a ae 3d bc af 37 0b be 45 4c 30 3e 50 b5 43 3e
       -0.011577183 -0.1359546 0.17216595 0.19112134
0001c0 9d 54 1e 3d 30 7d cf bd 5d 8c bd 3d e9 90 d1 3d
       0.038654912 -0.101312995 0.09255288 0.102327175
0001d0 75 15 14 3d 69 b5 2d be 3e 93 22 3e d6 ae 03 be
       0.036153276 -0.16963734 0.15876481 -0.12859663
0001e0 38 4d 8e 3d 2a ab d5 bd a1 1d b5 3c 50 81 2d 3e
       0.06948322 -0.104330376 0.022108855 0.1694386
0001f0 5d d4 69 3d 53 8c 05 3e c3 d5 79 3b 69 ad 28 be
       0.05708729 0.1304181 0.0038121797 -0.164724
000200 4f 2d e4 3d 03 4a 1a be d1 8f ae bd d7 0f c8 bc
       0.111414544 -0.15067296 -0.085235246 -0.024421616
000210 0b 23 db bc 1e 8d 8c 3e 9c ae 2d be cc 39 85 bd
       -0.026750108 0.27451414 -0.1696114 -0.065051645
000220 df b9 49 bc 09 c7 f3 bc 82 89 53 bc a0 2a 0a 3e
       -0.0123123815 -0.029757993 -0.012911202 0.13492823
000230 7b 84 d0 bc a1 d8 ec 3b 1d bb 36 be c9 8d c0 bd
       -0.025453797 0.0072279726 -0.17844816 -0.09402043
000240 4a 9c 27 3e e8 c3 26 be 82 cb f8 bd ac 81 9c bc
       0.16368213 -0.1628567 -0.12148191 -0.019104801
000250 b6 3a 46 bd 55 a6 36 3e 24 a2 3d be ab f0 7c bc
       -0.048395835 0.17836888 -0.18518883 -0.015438239
000260 58 f6 d3 bd 98 7b 42 bd 2d 7b 17 3d d8 0f 08 3d
       -0.10349721 -0.04748115 0.036982704 0.033218235
000270 b1 2a 79 3e 06 c9 c0 3d 72 92 40 3d 96 cd 9d bd
       0.24332692 0.09413342 0.04701466 -0.07705228
000280 48 19 f8 3c 63 9d af 3d b0 2a 1f bd e0 ce c7 3d
       0.030285493 0.08574941 -0.03885907 0.09756255
000290 c7 07 5f 3e 93 97 4a 3d 88 fc 2c bc f7 4f 5a bc
       0.2178031 0.04946096 -0.010558255 -0.013324729
0002a0 eb 3d 10 3d c4 2f c4 bd fb 73 8e 3d 86 4b ac bd
       0.0352153 -0.09579423 0.06955715 -0.084128425
0002b0 ed f2 2a 3e 47 b9 db 3d dd cc 99 3d 84 f4 45 3d
       0.16694231 0.10728698 0.07509778 0.04832889
0002c0 9f 79 40 bd 6c 79 3d 3e 0f 0f 29 3d 93 03 e8 3d
       -0.046990987 0.1850335 0.041274127 0.11328807
0002d0 d9 ec 18 bd 6f 38 f2 3d e7 8c 8c 3e 9e 7a cd 3d
       -0.03733525 0.1182717 0.2745125 0.10033153
0002e0 cd be 1d bd a1 88 c2 bd 5b 69 00 3e 47 3c 99 3c
       -0.03851204 -0.09498716 0.1254019 0.0187055
0002f0 6c 3c 90 bd 82 4e eb bd c2 23 5a bd 21 55 3d be
       -0.070427746 -0.114895836 -0.053256758 -0.18489505
000300 86 54 6d be a5 99 9f bd 6c 61 de bc 68 4b 4b bd
       -0.23176774 -0.07792977 -0.027146064 -0.04963246
000310 47 1f 46 3d e8 8f b8 3e 08 ac a6 3c c3 a8 56 3a
       0.048369672 0.36047292 0.020345703 0.00081885996
000320 ec 7d 9b bc ec aa 9f bd f8 f2 20 3d 12 99 00 bc
       -0.018980943 -0.07796273 0.039294213 -0.007848995
000330 b7 10 6b 3e 62 ef d7 3e 7e b5 08 3d 05 c9 1f 3d
       0.22955595 0.42174822 0.03337621 0.039010067
000340 5b c8 07 be 4d 74 c3 bd d6 4e 8d bd 7a 87 13 be
       -0.13260023 -0.09543667 -0.068998024 -0.14407149
000350 ea d0 0e 3e 4c 01 78 3d df e0 00 be b2 19 d0 bd
       0.13946882 0.06054811 -0.12585782 -0.10161151
000360 e8 77 45 be 79 21 4e 3e d9 e9 22 bd 1b dc 20 be
       -0.19284022 0.20129956 -0.039773796 -0.15708964
000370 74 f9 2d be 57 fe 7a be 45 ae 97 3e f9 ed 0c 3d
       -0.1698969 -0.24511085 0.29625145 0.034406636
000380 91 72 f5 bc d7 b7 3e 3e 63 75 90 bd f5 49 b4 bd
       -0.029961856 0.18624817 -0.0705364 -0.08803169
000390 fc 92 88 bc f1 05 4a be 4d 09 bd be af 11 fb 3d
       -0.01667165 -0.19728829 -0.36921158 0.12259232
0003a0 be 61 7e 3d 5e 76 73 be 64 af fd 3c e4 7d 75 3d
       0.062104933 -0.23775622 0.030967422 0.05993451
0003b0 fa 2d 08 be c5 f5 ad bc ad 35 ad bd a5 5a b5 3c
       -0.13298789 -0.021235356 -0.084575035 0.02213795
0003c0 11 0d 42 3d 54 e7 1b 3e 67 88 ee bc 90 2a 1f 3e
       0.047375742 0.15224963 -0.029117776 0.1554358
0003d0 a2 e0 4f 3d e7 07 29 be 86 a9 0c 3d 36 58 21 3b
       0.050751336 -0.16506921 0.034341358 0.0024619228
0003e0 20 95 09 3e c3 78 62 3e 75 b9 cc bd 06 ee d7 3d
       0.13435793 0.2211638 -0.099963106 0.10543446
0003f0 c5 bb 46 be 8e 82 39 3e 35 19 54 3d b8 dc 93 3d
       -0.19407566 0.18116209 0.05178185 0.07219833

2.path.2.bias f4 [50]
000000 51 9a da 3d 4e e1 a5 3e 5d 79 93 3d 5e 4d 0d bd
       0.10673965 0.32398456 0.072008826 -0.03449761
000010 f8 76 6f 3d 80 24 1f 3d 58 13 d0 bd 65 8a 12 3d
       0.058463067 0.03885317 -0.101599395 0.035776515
000020 e7 12 f9 bd 18 e5 c7 bd 3c 2e 4a 3e 0b fe 39 bd
       -0.121618085 -0.09760493 0.197442 -0.04540829
000030 89 57 14 be c4 de 13 be e5 1d 4c 3e cd 36 32 3d
       -0.14486517 -0.14440447 0.19933279 0.043509293
000040 65 e1 56 3e c3 1a bf 3d b4 fd b7 3c 46 fb 20 be
       0.20984419 0.09331276 0.022459842 -0.15720853
000050 3e 3f 7b 3e 48 e6 b6 3c be e2 56 bd 8c 5b 51 be
       0.24535844 0.022326604 -0.052462332 -0.20445079
000060 25 df 29 be d5 36 17 bd 0c 93 62 3e 9e 01 d3 bd
       -0.16589029 -0.036917526 0.22126406 -0.10303043
000070 e8 ac bd bd ba 8f 03 3d 2d 03 a5 3d fb d7 3c 3e
       -0.09261495 0.03211949 0.08057246 0.18441765
000080 9a 4f 98 bb 82 21 4e be 3a 80 04 3e 65 7e 7d 3e
       -0.004648161 -0.2012997 0.1293954 0.24755247
000090 06 c1 e4 bc 94 51 4b 3e e0 31 27 3e 31 1f c3 be
       -0.027924072 0.19855338 0.1632762 -0.38109735
0000a0 ab f8 a6 bd 73 fa c4 bd 35 a8 61 3e 02 54 90 3d
       -0.081528984 -0.09618082 0.22036822 0.07047273
0000b0 72 0b 29 be 7a f7 f1 bd c9 9f 8a be 0f 3a 1e be
       -0.16508272 -0.118147805 -0.2707503 -0.15451835
0000c0 d5 9c 7d 3d 74 2d 11 3e
       0.061917145 0.14177495

3.path.0.weight f4 [50, 50]
000000 2b b2 96 3d 74 d8 35 bd bc ea 32 3e 5b 9c fc 3c
       0.073582016 -0.04439588 0.17472357 0.030836275
000010 3c 1d 80 3e 56 82 e3 bc 5a f8 03 bd c9 99 04 3e
       0.25022304 -0.02777211 -0.03221927 0.1294929
000020 fc ba a4 3e d5 89 7a 3e 2f 97 84 3d b7 b1 41 3d
       0.32173908 0.24466641 0.064741485 0.047288623
000030 62 89 d2 3d 47 df 2b be f8 a1 09 3e 2f 52 c2 3d
       0.1028011 -0.16784392 0.13440692 0.094883315
000040 7e 9b 64 be 5a 22 3d bd 5b 4b de bd d4 78 84 3d
       -0.2232494 -0.04617534 -0.10854217 0.06468359
000050 6d 00 03 3e 64 f1 6a ba 14 74 51 bc 85 f3 7e bd
       0.12793131 -0.00089623616 -0.012784023 -0.062243957
000060 a7 a9 9a be ea 30 c4 3d 04 67 c9 3e 43 bc 9c bd
       -0.3020756 0.09579642 0.39336407 -0.076530956
000070 24 e8 26 3e 31 91 e1 bd d3 39 0a 3e af 94 49 be
       0.16299492 -0.11014021 0.1349862 -0.19685625
000080 37 d8 2b be aa 11 57 3e b7 55 29 3e c5 f5 24 3e
       -0.16781698 0.21002832 0.16536604 0.16109379
000090 02 8e b9 3d b9 05 a7 3e 42 c9 06 3e e7 04 b2 bc
       0.09060289 0.32621554 0.13162711 -0.021730853
0000a0 64 e1 4d be db 91 1f 3e 39 16 9f bd fb f3 ee bd
       -0.20105511 0.15582983 -0.077679105 -0.11667629
0000b0 48 fb 8e bc a1 a5 b3 38 ca 6f 07 3e e2 b7 81 3d
       -0.017453805 8.566236e-05 0.13226238 0.06333901
0000c0 d5 02 b2 bd 48 dd 0c 3c 46 b1 27 bc f8 93 05 3e
       -0.086919464 0.008597679 -0.010235136 0.13044727
0000d0 de 1c 2e 3e 74 4b 23 3e 08 b9 de 3d bb 9e 2d 3c
       0.170032 0.15946752 0.10875136 0.010596926
0000e0 f4 02 df 3d 7d a7 12 be 12 ce 1d bd 76 00 0b bd
       0.10889235 -0.14321704 -0.038526602 -0.033935986
0000f0 c3 01 05 be df 2e 5a be a4 98 84 3e bf f1 1c be
       -0.12988953 -0.21306942 0.25897706 -0.15326594
000100 8c 87 f9 3d 77 5c 3b be d0 6e fc bc 1d 40 b7 3e
       0.12184057 -0.18296991 -0.030814558 0.35791102
000110 e3 85 03 3e 36 a7 6d bb 93 17 92 bc 28 0b 4b bd
       0.12844042 -0.0036262996 -0.017833507 -0.049571186
000120 b4 99 d3 bd 54 b5 51 3e 65 96 5d bd b2 e1 91 3d
       -0.10332051 0.20479327 -0.054098506 0.07123126
000130 52 a4 8e bb d8 8c ff 3d c2 6d 10 be 2c bf a5 3d
       -0.0043530846 0.12478036 -0.1410437 0.08093104
000140 c0 75 54 be 76 d0 96 3c 41 3b 42 bd 0c eb 98 bd
       -0.20748043 0.018409949 -0.04741979 -0.07466707
000150 7b be db bd 97 17 ce bb fe 5b 4a be 59 15 e8 bc
       -0.10729691 -0.006289433 -0.19761655 -0.028330492
000160 49 3f 27 3e cf 3a 12 3e 24 ef 92 bc 29 d7 17 3e
       0.16332735 0.14280246 -0.017936297 0.14828171
000170 87 a0 79 be d9 29 8b 3d 71 99 d8 3c aa ec 67 3d
       -0.24377643 0.06795091 0.026440354 0.056622185
000180 e3 95 50 3c f6 3c 4f 3d 53 b5 5f 3d bc 52 58 3e
       0.012731048 0.050595246 0.054616284 0.2112531
000190 3a 3c 88 bc 79 36 7d 3e df 04 b0 bd 18 f2 0b be
       -0.01663028 0.24727811 -0.08594679 -0.1366657
0001a0 3a 2f f7 bd 6f 49 c4 3d fb 80 3d 3d e5 a4 55 3e
       -0.120695546 0.09584319 0.046265583 0.20863684
0001b0 e9 36 f2 3d ff c1 ab 3e cf 9c 04 3e 23 66 f0 bc
       0.118268795 0.33546445 0.12950443 -0.029345578
0001c0 7e 07 95 3d b0 85 6b bd fb 31 2b 3e 06 93 52 bc
       0.0727682 -0.05750054 0.16718285 -0.012852436
0001d0 38 b6 b6 be 55 d3 17 bd 0d b9 63 3c 2d 36 d7 bd
       -0.35685897 -0.037066776 0.0138991 -0.1050838
0001e0 7e f2 21 bd c6 91 e3 bc 05 76 5d 3d 61 be 1a be
       -0.0395379 -0.027779471 0.05406763 -0.15111686
0001f0 54 b9 85 3b 27 00 a1 3d c5 6d b0 3e 86 c2 d6 3d
       0.0040809307 0.07861357 0.34458748 0.10486321
000200 2a 47 69 3e b8 4f 8c bd 87 f4 0f 3e 29 8e a3 be
       0.22781053 -0.06851143 0.14058124 -0.31944397
000210 04 4b 95 3c ee a8 1b 3e 09 79 29 3e e3 e9 a5 3d
       0.018224247 0.1520116 0.16550077 0.08101251
000220 e9 82 84 be 98 5a 39 be f4 56 a8 3c 3f a7 63 bd
       -0.25881127 -0.18100965 0.020549275 -0.05557942
000230 b5 69 1f be e7 9d 37 bd 05 f6 8e bc a5 cc 93 be
       -0.15567668 -0.04482832 -0.017451296 -0.2886707
000240 89 36 d1 3b c4 32 07 3e b6 a9 e5 bd 1a b9 e6 bd
       0.006384675 0.1320296 -0.112140104 -0.11265774
000250 87 f1 78 be fa 92 e2 3d 90 bf f9 bd 9e 12 97 3d
       -0.24310885 0.1106319 -0.12194741 0.07376598
000260 ca 2c 12 be 97 a2 55 3e 41 d2 0f 3e 30 dc d4 3d
       -0.14274898 0.20862804 0.14045049 0.1039356
000270 6a ad 92 3d 12 eb c8 3d 79 2e 36 3c ea e9 35 be
       0.07161982 0.09810461 0.011119478 -0.17765012
000280 70 a3 36 3e cc 31 12 bc 27 5e 1d 3e ff 1d 21 bd
       0.17835784 -0.008923005 0.15367948 -0.039335247
000290 1d 38 f0 3c 90 18 78 bd ca 7f ce bd e5 d7 e5 bd
       0.029323632 -0.0605703 -0.100829676 -0.11222819
0002a0 9e c6 af 3d f1 29 90 be 6b 2b b8 bc 73 15 90 be
       0.08582805 -0.28157 -0.02248164 -0.28141364
0002b0 40 58 42 bc dc af 07 bc 50 2b 3d bd ec 74 1c be
       -0.011861861 -0.008281674 -0.046183884 -0.15278977
0002c0 c8 d4 e5 bc 32 9b a9 39 c3 19 bc bd d9 51 8b bc
       -0.028055564 0.0003234982 -0.09184601 -0.017006801
0002d0 7c 53 be bc 0a 58 d8 3c 27 3d 18 3e 8d ed 7e 3e
       -0.023233168 0.026409168 0.14867078 0.24895306
0002e0 2c a2 30 bc 6b 3f 14 3e 4d 74 80 3e d5 e3 59 3e
       -0.010780852 0.14477317 0.2508873 0.21278317
0002f0 8b fc da bd af 98 6b 3e f5 de 8a 3e d9 0e 69 be
       -0.106927 0.23007463 0.27123228 -0.2275957
000300 0f f0 37 3d e6 00 17 be 95 ef 94 be eb 86 28 3c
       0.044906672 -0.14746436 -0.29089037 0.010286073
000310 e7 20 26 be b8 d3 54 3e 86 e0 07 be 78 99 18 be
       -0.16223489 0.2078389 -0.13269243 -0.14902294
000320 c7 7e 9d 3c 7f da a4 3d 9c c7 f8 39 c2 2e 2c 3e
       0.019225491 0.08049487 0.00047450967 0.16814712
000330 89 c1 2b 3e 9c c1 4b bd 0e 8e 81 be 38 2a e4 bd
       0.16773047 -0.049745187 -0.25303692 -0.11140865
000340 1a f7 ad bd dc e2 b5 bd 46 ff 5b 3e 72 50 67 3d
       -0.084943965 -0.088811606 0.21484098 0.056473203
000350 3d b7 00 be 45 ed 8d be 56 bb 6b 3e ec 6c 6b 3c
       -0.125699 -0.27720085 0.23020682 0.014369231
000360 94 4c 11 3e d3 30 e0 3c bb 89 87 3d a9 9f f4 3d
       0.14189368 0.027367031 0.06618067 0.11944515
000370 e9 47 76 3e 46 10 91 bd ff 1e e6 bd 9e 1f 9c 3d
       0.24050869 -0.07083182 -0.11236381 0.07623218
000380 e2 fb ea be b2 48 7b 3e 38 16 de 3d 08 48 64 3e
       -0.45895296 0.2453945 0.10844082 0.22293103
000390 86 9f 62 bd 2f 00 cb bd 1d 94 91 bd b5 2d 0a 3c
       -0.055327915 -0.099121444 -0.071083285 0.008433749
0003a0 63 a4 a9 bd c3 3b 83 3c 56 bd 66 be 60 47 41 3e
       -0.082833074 0.016019708 -0.22533163 0.18874884
0003b0 a4 d2 2f be 35 3f 94 3c 28 50 b8 bc a4 ac 14 be
       -0.17170197 0.018096546 -0.022499159 -0.14518982
0003c0 aa 73 c4 bd 32 93 aa 3b ec 75 82 bc d9 dc 7b bd
       -0.09592374 0.0052055353 -0.01592537 -0.061489914
0003d0 9c bb d7 bc 6a e7 4f be 4a b3 2a 3c 1f c5 63 bd
       -0.026334576 -0.20303121 0.010418722 -0.05560791
0003e0 8e 1f 91 bd d7 60 74 3e 31 f6 ab bd bf 98 46 bd
       -0.07086097 0.23865066 -0.08396567 -0.048485514
0003f0 2c 03 63 3e 07 b6 0f be 25 9d 82 3e 25 ee f8 3d
       0.22169179 -0.14034282 0.25510517 0.121547975

3.path.0.bias f4 [50]
000000 21 15 02 3e 47 88 91 3e 72 85 48 3e ab 54 18 be
       0.12703373 0.28424284 0.19582155 -0.14876048
000010 c1 5e 86 3e 7d 95 82 3e 6a be 4f bc 1d 36 b3 3d
       0.26244166 0.25504676 -0.012679676 0.08750556
000020 2e 11 2c 3d 2f 56 9c 3d 7b f7 d3 3c 87 c9 27 3d
       0.04200857 0.07633626 0.025874844 0.040963676
000030 51 58 04 3e 25 3d 04 3d b6 9d a0 3d b7 52 42 bd
       0.12924315 0.032284874 0.07842581 -0.047442164
000040 b0 e6 f1 bc 84 05 3f 3d 33 17 bd bd a4 d7 88 be
       -0.029528946 0.04663612 -0.092329405 -0.2672702
000050 2e 2c 94 bd d5 5b 8a 3d ff c1 20 3e cd 95 69 3d
       -0.07234989 0.06755797 0.15699004 0.057027627
000060 c3 69 c3 bd fc 65 3d 3d 3f 1c 91 3e 84 b0 b3 3e
       -0.09541657 0.046239838 0.28341863 0.35095608
000070 58 b9 98 3e 77 68 c5 3b dd 6c b8 3d b3 d8 0f 3e
       0.29828906 0.006024416 0.09005139 0.14047508
000080 4c 2d 11 3e 45 bf e2 bd 0b 8d 29 3e 48 c7 9a be
       0.14177436 -0.11071638 0.1655771 -0.30230165
000090 86 f6 11 3e b1 b3 53 be 1a 94 55 3d 48 b9 31 be
       0.14254197 -0.20674016 0.052143194 -0.17355835
0000a0 a2 85 7a 3d 84 94 3c 3d aa 7c 57 bd b9 93 f9 bd
       0.0611626 0.046040073 -0.052609123 -0.12186379
0000b0 c4 7e 90 be 09 ef 1e 3e 13 5d 25 bd 9a 58 87 3e
       -0.28221714 0.15520872 -0.040371966 0.26434785
0000c0 f9 52 88 3c d3 97 b3 3d
       0.016641127 0.087691925

3.path.2.weight f4 [50, 50]
000000 67 fc 69 3d 99 17 7b bd 6c b0 4d bd 9b d8 0c 3e
       0.057125475 -0.0613018 -0.050217077 0.13754503
000010 d4 fe 4a bd d0 e1 0e 3e cd a0 c0 bd fe fd 29 be
       -0.04955943 0.13953328 -0.0940567 -0.16600797
000020 3b 76 91 bd 5f a1 e1 bc b6 9b b5 3b c9 f9 d6 bd
       -0.07102629 -0.027542768 0.005542244 -0.104968615
000030 1f 78 00 3d b6 4b 79 3d 5e be 45 be 7c f0 33 3d
       0.031364556 0.06086322 -0.193109 0.043930516
000040 6f 55 16 3e 6c 4b 56 be cb eb 9e be a1 0f d8 bd
       0.14681028 -0.20927209 -0.3103927 -0.10549856
000050 63 d1 16 3e 34 28 f8 3c 1a cf 3f be 4f 75 4c 3e
       0.14728312 0.030292608 -0.18731347 0.19966625
000060 b8 90 a2 3c f3 55 3c bd 53 30 6a 3d 6c 18 16 3e
       0.019844398 -0.045980405 0.05717499 0.14657754
000070 85 32 60 3d 2d 27 98 bc f1 25 45 be 58 3d e5 bc
       0.05473568 -0.018573368 -0.19252755 -0.027983353
000080 ff fd aa bd d2 c0 2c 3d 61 70 a0 3e 46 08 04 3e
       -0.08349227 0.042176075 0.31335738 0.12893781
000090 5b ad 26 bd 5c 46 90 3b 5c 41 4e bd 39 26 90 3d
       -0.04069267 0.0044029187 -0.0503553 0.070385404
0000a0 dd 3a 15 be 67 87 e3 bd 00 d0 f8 3c 4a 91 83 3e
       -0.14573236 -0.1110981 0.03037262 0.25696784
0000b0 48 da 51 bc 6c a2 43 3e d4 82 c4 3d a9 88 b7 bd
       -0.01280839 0.19104928 0.09595266 -0.08961613
0000c0 99 31 c6 3c 6b f3 61 be 68 5d 09 3d d2 ec 33 3d
       0.024193572 -0.22065513 0.033536345 0.04392702
0000d0 2e a3 1d 3e da 0a b6 3d 21 1f 50 bd 48 f9 4c be
       0.1539428 0.088887885 -0.050810937 -0.20016968
0000e0 11 c2 84 3e 6d 2e 85 bd 30 61 40 bd b5 d5 eb bd
       0.2592931 -0.06502996 -0.046967685 -0.11515371
0000f0 18 8c 07 3e 39 05 63 3d 31 65 ff 3d f1 2c ec 3d
       0.13237035 0.055424903 0.124704726 0.115320094
000100 52 3e 83 3e 94 a1 3d bc 0b a7 3e be f7 56 0a 3e
       0.25633484 -0.011574168 -0.1861841 0.13509737
000110 16 0d 8a bd d1 b9 f2 bb de 9c 83 bd a6 64 63 3e
       -0.06740777 -0.007407405 -0.064264044 0.22206363
000120 ba e5 4b be 4e 71 e0 3b 6a d5 18 3c 13 47 c4 3c
       -0.19911852 0.0068494445 0.009328226 0.023959672
000130 ea cb b5 bc aa 1e e3 bd 57 54 5d be 01 48 ba bc
       -0.02219196 -0.11089833 -0.21614204 -0.022739412
000140 35 b5 9d 3d e4 ee b4 3d 5f 13 71 bc 61 9c 79 be
       0.07700578 0.08834627 -0.014714091 -0.2437606
000150 13 b4 fc bc 1f 16 79 be c4 c0 1f be e2 65 04 3d
       -0.030847585 -0.24324845 -0.15600878 0.032323726
000160 13 28 25 3e 97 88 7c 3e 64 e7 eb 3d 5e 43 2a be
       0.16128568 0.2466148 0.11518744 -0.16627261
000170 cb aa 83 bd f7 1b e2 bd 37 6a 55 bd 18 62 22 39
       -0.064290605 -0.1104049 -0.052103247 0.00015486067
000180 bf 46 04 be 95 bc 54 be 19 e7 4a 3d f0 6b fd bd
       -0.12917612 -0.20775063 0.0495368 -0.12374103
000190 6c 88 33 3e 84 cf bc 3d b5 b7 0e 3e 5c 1a 17 3e
       0.1753251 0.09219268 0.13937266 0.14756149
0001a0 25 f4 82 bd 2b 84 a8 bd 9d f5 d5 3d 3d c0 51 be
       -0.06394223 -0.08228334 0.10447238 -0.2048349
0001b0 ba 0a a0 3c 9e a6 f6 bd 69 0f 01 bd 2b f1 55 be
       0.019536365 -0.120434985 -0.031508837 -0.2089278
0001c0 ff ad 80 bc 62 6d 9f 3d 03 b7 57 3e f4 7f 02 be
       -0.015707968 0.07784535 0.21065907 -0.12744123
0001d0 d0 41 5c bc 52 55 31 3d 51 05 8f be 07 cb 01 be
       -0.013443425 0.04329426 -0.27933744 -0.12675105
0001e0 c6 e1 99 3d f5 34 10 be 22 62 df bd ff 8e cb 3c
       0.07513766 -0.14082702 -0.10907389 0.02484846
0001f0 f8 50 3a bb e1 43 9d 3b c1 2c 01 be 11 a5 1e 3d
       -0.0028429609 0.0047993516 -0.12614729 0.03873164
000200 ce 03 28 bd 86 8a 2c 3e 6d 74 b7 3d 9b 09 30 bb
       -0.041019253 0.16849717 0.08957753 -0.0026861194
000210 4f d0 14 be 19 a2 d6 3d 1e b0 97 3e ab fb fa bd
       -0.14532588 0.104801364 0.29626554 -0.12255033
000220 6b 0b db bd 41 95 22 3c 44 71 2a 3e a3 fd 3c bc
       -0.10695537 0.00992328 0.1664477 -0.011535081
000230 eb df 7a 3c 1f 8b 6a be 02 10 5c bd 89 2d 21 bd
       0.015312175 -0.22904633 -0.053726204 -0.039350066
000240 d6 1d a0 3d 1e 7c 91 bb 6a 02 27 be 92 42 d7 bd
       0.07818191 -0.0044398447 -0.16309515 -0.10510744
000250 0a f7 83 be 56 d4 34 be b2 de 81 3d 1d 9c 8e be
       -0.25774413 -0.17659125 0.06341304 -0.2785348
000260 2c 1a 7f 3d f1 8b 05 be 39 76 58 bd 95 0a ff ba
       0.06228082 -0.13041665 -0.05284712 -0.001945811
000270 76 0c 03 3e b2 db b2 3d 05 8b 59 bb cc 74 0c bd
       0.12797722 0.0873331 -0.0033194434 -0.034291074
000280 d2 56 ab 3d 50 dd 2c bd 07 35 32 3d cf 4e dd 3d
       0.08366169 -0.042203248 0.043507602 0.10806047
000290 64 38 b9 bd ce f9 bc be 14 28 e4 3d e8 3b ce bb
       -0.09043959 -0.36909336 0.11140457 -0.0062937625
0002a0 71 47 e9 bd df 58 81 bb c1 1c 41 be fe c7 c6 3c
       -0.113905795 -0.003947362 -0.18858625 0.024265286
0002b0 cf 2a 70 3d 66 fa 85 3e d0 a6 49 3d 13 9e fa bd
       0.058634575 0.261676 0.04923135 -0.122371815
0002c0 ca a5 a6 3d 47 f2 85 ba bc bd a6 3d c1 d7 d7 3c
       0.081370905 -0.0010219299 0.08141658 0.026347997
0002d0 9f 43 28 3e 0b e0 94 bd 65 0b 0b 3e ea 2c 27 bc
       0.16432045 -0.07269295 0.13578565 -0.010203579
0002e0 14 03 05 be fa 68 99 be 3f 28 19 3e 04 ce c3 3c
       -0.12989455 -0.29962903 0.14956759 0.023901947
0002f0 fb df 3d 3d df d7 ab 3d d0 bb 30 3d 0d 47 58 be
       0.046356183 0.083907835 0.043147862 -0.21120854
000300 ad dc f8 3b 46 e9 85 bd 79 bf 15 bd a1 84 82 3e
       0.007594666 -0.06538634 -0.036559556 0.25491813
000310 24 90 32 3e 79 40 62 3d 8f 21 f4 3b f3 bf f6 3d
       0.17437798 0.055237267 0.0074502896 0.1204833
000320 81 15 25 ba 17 06 54 be d5 7c be bd 8f 19 0c 3e
       -0.0006297455 -0.20705448 -0.093011536 0.13681625
000330 5a b1 05 be 45 b9 24 3e 37 5c 73 3c ad b0 df 3a
       -0.13055936 0.160863 0.014853529 0.0017066203
000340 55 0b 36 be 1b 7d 05 3e c6 ac 4a 3e c3 c8 e7 3c
       -0.1777776 0.13036005 0.1979247 0.028293973
000350 1d d3 47 3d 83 27 8d 3b f3 52 f9 bd 43 71 ee bd
       0.048785318 0.0043076887 -0.121740244 -0.11642697
000360 2f da 88 3d 3d 92 21 bb fd a9 14 be 83 6f 03 be
       0.0668224 -0.0024653815 -0.1451797 -0.12835507
000370 51 c9 9a 3c 47 96 73 3d 3f b5 da bd ca 82 8c 3d
       0.018894823 0.059469488 -0.10679101 0.068608835
000380 24 50 d8 3b 14 48 97 ba e4 43 22 bd 3c f4 c3 bd
       0.0066013504 -0.0011541867 -0.039615527 -0.095680684
000390 94 af 67 bd 12 46 a7 bc f6 99 0d be 08 56 20 3d
       -0.05656393 -0.020419154 -0.13828263 0.039144546
0003a0 26 8c 37 3d ee 5e 38 be f3 c0 19 bc 3c 4f 65 bd
       0.04481139 -0.18004963 -0.009384382 -0.055983767
0003b0 a8 be f2 bd 31 f6 63 3e 31 02 81 bd 31 b5 96 3e
       -0.11852771 0.22261883 -0.06299246 0.29435113
0003c0 62 0b 4b 3e 28 4d 41 bc 4e 61 2d 3c 29 ff 38 be
       0.19828561 -0.011798181 0.010582281 -0.18066086
0003d0 f4 35 f1 bd 60 ed a5 3c 14 f9 df 3d a4 3a 44 be
       -0.11777869 0.02025479 0.1093618 -0.19162995
0003e0 11 b7 ab 3d c0 61 e9 bd 95 18 af be 48 7d 36 bc
       0.083845265 -0.113955975 -0.34198442 -0.011138268
0003f0 9a 11 5a be ca d3 be 3c 35 4c 32 3e 6c 28 97 3e
       -0.21295777 0.023294348 0.17411883 0.29523027

3.path.2.bias f4 [50]
000000 4c 14 ca bc 45 1f e9 bd 79 97 96 bd 2f d0 9a bc
       -0.024667881 -0.11382917 -0.0735311 -0.018898098
000010 12 6f 6f 3c e4 5f ab bd 54 20 19 3d 27 b6 7c 3e
       0.014613884 -0.08367899 0.037384346 0.2467886
000020 9d 3d be bc 46 ba 7e be b6 e0 2e 3d ca c5 37 be
       -0.023222739 -0.24875745 0.04269477 -0.17946544
000030 41 3d 6d be db de 9c 3b 41 77 1c 3e 82 a5 85 bc
       -0.23167898 0.0047873086 0.15279867 -0.016314272
000040 05 a4 b8 bc ef 29 ea bd eb 75 c1 bd 80 bc fe bc
       -0.022539148 -0.114337794 -0.09446319 -0.031095743
000050 15 f1 4a bd 8e eb 99 3d 94 f2 f6 3d 96 b9 97 bd
       -0.04954632 0.075156316 0.12057987 -0.074084446
000060 59 53 1e 3e bf 1b e9 3c d1 59 9f bc 7d c6 54 bd
       0.15461482 0.028455613 -0.019452007 -0.051947106
000070 28 9d 9f 3d 15 5f d3 bc 6f 61 9f 3c 6e 42 19 bd
       0.07793647 -0.025802175 0.01945564 -0.037416868
000080 24 0f 3e 3e e1 bc a0 bb c3 56 3a 3e e5 bd f3 3c
       0.18560463 -0.0049053286 0.1819716 0.029753635
000090 92 cc 1d 3d 21 80 0d bd 96 c3 a5 bc 3d ae 37 be
       0.03852517 -0.03454602 -0.020234864 -0.1793756
0000a0 42 06 c5 bd c8 9d b8 3c 47 2a dd bd b6 7b 2a bc
       -0.09620334 0.022536173 -0.107990794 -0.010405472
0000b0 89 98 c5 3d 0d 2f e7 3d 1c f2 17 be 2b 6a 5d bd
       0.096482344 0.11288271 -0.14838451 -0.054056328
0000c0 6c 77 4e 3b a8 99 ae 3d
       0.0031504286 0.08525401

4.weight f4 [10, 50]
000000 25 b1 22 3e 9c 43 80 bd b8 6c 62 3e 9e ec ed 3c
       0.15887888 -0.062628955 0.22111785 0.029043492
000010 12 52 ff 3d 49 0d 8b be 86 d9 be bd ca da 63 3e
       0.124668255 -0.27158573 -0.09318833 0.2225143
000020 27 7a 60 bd 53 3c c0 bd cf d9 55 be 18 f1 ee bd
       -0.054803994 -0.09386506 -0.20883869 -0.11667079
000030 bf da bc bd 77 5c 17 be 40 e1 de bd 1c a9 3b be
       -0.0922141 -0.14781366 -0.10882807 -0.18326229
000040 cd 4f 20 be b7 96 8d 3d 7a 1e 8c be d6 34 00 be
       -0.15655442 0.06913512 -0.27367002 -0.12520155
000050 1f 1f 87 bd a9 cb 1f be 7a 36 4b be dc 32 79 3e
       -0.06597733 -0.15605034 -0.19845 0.24335808
000060 77 f1 73 3d ea 87 8a 3d 2d 09 cf bc 02 5d bb bb
       0.05955645 0.06764205 -0.02527293 -0.0057178745
000070 09 89 29 bd 44 35 4a 3d dc 06 e3 3b 4e 99 ae bd
       -0.041390453 0.049367204 0.006928308 -0.08525334
000080 cc a9 95 3d be 11 a2 3d 31 90 16 be b5 68 24 3d
       0.07307777 0.0791354 -0.14703442 0.04013892
000090 5f 54 94 3e ed 7a b1 be ea dc 5e bd 39 f9 47 be
       0.2897062 -0.34664097 -0.0544099 -0.19528665
0000a0 b3 a1 d5 3d d7 79 83 be 4a 55 16 be de 62 a6 bd
       0.10431232 -0.25678894 -0.14680973 -0.08124326
0000b0 7d 4d 3e 3e 54 a0 e6 bd e8 e6 f5 3d 60 31 6c 3e
       0.18584247 -0.11261049 0.120069325 0.2306571
0000c0 b0 b0 32 bd 06 81 83 3d 0b f6 78 be c4 58 19 3e
       -0.043625534 0.06421094 -0.24312608 0.14975268
0000d0 1f ec 9d 3d 26 4d a9 3d af 7e ff 3d 1e 7d 2d 3e
       0.07711052 0.08266668 0.12475335 0.1694226
0000e0 6a 4e 9e 3c a5 2a 28 3e a4 f9 75 3d 25 c5 32 3b
       0.0193245 0.16422518 0.06005253 0.0027278152
0000f0 97 e0 d2 3d da 4c 0b 3e 7e f1 9b 3e ba 63 2a be
       0.10296743 0.13603535 0.3045768 -0.16639605
000100 7b 60 f9 bd c7 43 2e 3e 51 e1 72 be e0 01 bd 3d
       -0.12176605 0.17018043 -0.23718764 0.09228873
000110 74 5d 8c 3e 6a da 87 be a7 b3 15 be cb 02 46 3d
       0.2741505 -0.26533824 -0.14619313 0.048342507
000120 c9 8d b5 be 43 56 a2 bd 6b fa 9b be 41 af 0f be
       -0.35459736 -0.07926609 -0.3046449 -0.14031698
000130 f7 4c 74 3d 97 26 fa bc 19 1b fa bd f9 b9 ce bd
       0.059643712 -0.03053598 -0.122122 -0.10094065
000140 a8 35 5e 3d 06 58 2c 3e 71 d3 22 be 37 1d 5b be
       0.05425039 0.16830453 -0.15900971 -0.21397863
000150 83 81 71 bd a7 09 49 3e 3b b3 73 bd f7 b8 a8 3d
       -0.058961403 0.19632588 -0.0594971 0.08238404
000160 bc a2 56 be 7f e9 a0 3e 73 bd 06 3d 8b 33 67 be
       -0.20960516 0.31428143 0.032895517 -0.22578256
000170 58 a9 59 3e 32 e7 ba 3c 59 39 1f 3c 9b af 09 bc
       0.21256006 0.02281532 0.009718263 -0.008403684
000180 f7 b9 65 3d c0 05 97 3e 25 d7 0b bd b2 35 40 be
       0.056085553 0.29496574 -0.034140725 -0.18770483
000190 b4 6b 0d bd 5f ac 32 be b9 01 bc bd 9f 04 50 3d
       -0.03452654 -0.17448567 -0.09180016 0.050785657
0001a0 51 ff 6f 3d d6 65 b7 bd d2 ab 51 3d e5 1a 9a 3d
       0.058593098 -0.089549705 0.05118925 0.07524661
0001b0 70 de 91 3d 29 d2 81 3e 95 74 eb 3d f0 0a 0d be
       0.07122505 0.25355652 0.11496846 -0.13773704
0001c0 35 a4 21 be 69 e9 f0 3c 0f a2 51 be e8 21 66 3d
       -0.15785296 0.029408174 -0.20471977 0.05618468
0001d0 a4 51 da 3c 82 ff 20 3d fd 9f f0 3d ea 7a 76 be
       0.026650257 0.03930617 0.11749265 -0.24070325
0001e0 ac b6 32 be 58 f3 0f be f6 48 81 3e cf 94 e7 bd
       -0.17452496 -0.14057672 0.25250977 -0.1130768
0001f0 e8 86 48 3c 78 c4 4f 3e 42 51 c3 bc 85 45 a8 bd
       0.012239195 0.2028979 -0.023842458 -0.08216385
000200 5c c7 53 bd 58 02 9a 3d fa ca ab 3d 11 39 21 be
       -0.051703796 0.07519978 0.08388324 -0.15744425
000210 90 28 66 bd e7 55 72 be 8b 0d c3 3d 61 da d2 3b
       -0.056191027 -0.23665582 0.095240675 0.006434724
000220 ac dd 08 3e 17 7d f9 bc 20 49 43 bd 0f ff a9 3d
       0.13365811 -0.030455155 -0.04767716 0.08300602
000230 a5 24 ca bd ea 26 46 3e 74 f5 1d 3d ae c9 2a bd
       -0.09870271 0.19350782 0.03856416 -0.041696243
000240 f1 9a c1 3c 2b e9 a0 3e 5f 1c 50 3d bf 3e 42 3e
       0.023633452 0.31427893 0.050808307 0.18969248
000250 13 55 d2 bd d3 68 8f bd c4 c3 8c 3d e4 fc 74 bd
       -0.10270133 -0.070024155 0.06873277 -0.059811488
000260 8a c2 9e 3c 67 c3 35 3e 96 c9 23 3d dd 67 cc bc
       0.019379873 0.17750321 0.03998717 -0.02495187
000270 13 4d 41 3e 58 54 02 be ef aa 93 3d 0a 45 fe 3d
       0.18877058 -0.12727487 0.07210337 0.12415512
000280 38 74 2b 3e bf fb db bd 22 69 21 bd 81 05 b9 bb
       0.16743553 -0.10741376 -0.039406903 -0.005646408
000290 3a f6 43 bd 97 ee 9d bd bc 2d 8b bd 8e 84 57 3e
       -0.04784224 -0.07711523 -0.067958325 0.2104666
0002a0 d1 67 a5 3d b2 bc 2d 3e 8f de f1 bd ac 6e 24 be
       0.08076442 0.16966513 -0.11810028 -0.16057843
0002b0 ad 9e 56 be 54 63 36 bd 27 16 26 3e f3 fc d0 3d
       -0.20958968 -0.04452832 0.16219388 0.10204496
0002c0 11 7f d2 3d 67 9c 0e 3d 75 dd 04 3e e0 a4 03 be
       0.10278142 0.034817126 0.12975104 -0.12855864
0002d0 e9 43 b9 3d 78 b2 96 bd af 4c 39 bb bb a4 92 3c
       0.09046156 -0.07358259 -0.0028274467 0.017900815
0002e0 cf bb 1a be 83 8c c0 bd f2 3e 14 3d 08 13 28 3e
       -0.15110706 -0.094018005 0.03619284 0.1641351
0002f0 01 da b3 bc a3 46 cd 3d a0 28 3a 3e 9c b5 c9 bc
       -0.021954538 0.100232385 0.1817956 -0.02462273
000300 f2 ca 29 be b9 df 3a 3e 91 7a 59 bd a6 9a b3 bc
       -0.16581324 0.18249406 -0.053095404 -0.021924328
000310 f5 7c 0f 3e 4c 1b 58 be 49 d0 0f be f5 60 3b be
       0.14012511 -0.21104163 -0.14044298 -0.18298705
000320 b0 1b 0f be 04 dc cd 3d 5d ff 42 3e 61 80 0c bc
       -0.13975406 0.1005173 0.19042726 -0.00857553
000330 8a 38 0f be 60 63 a9 bd 75 b8 4d be cf 02 59 bd
       -0.13986412 -0.082709074 -0.20089896 -0.052981194
000340 9b a6 da bd ea fc 28 3d 4d 7c 00 3d cb 5c 78 3e
       -0.10676309 0.041256823 0.031368542 0.24254148
000350 36 f3 cd 3d 8c ac 3f 3e 63 c7 25 3e 6d 91 b0 bd
       0.100561544 0.18718165 0.16189341 -0.08621488
000360 b7 87 8b bd a5 6b 4a 3e 06 6d ad bd 02 3c 27 3e
       -0.06812995 0.19767626 -0.0846806 0.16331485
000370 7f 4e 20 3e a6 99 c4 3c a6 dd b0 bc 61 89 07 3e
       0.15654944 0.023999047 -0.021590065 0.13236
000380 39 06 75 be eb 19 24 3d 2c 2c d3 bd d4 18 13 be
       -0.23928155 0.04006378 -0.103111595 -0.1436494
000390 0f c6 88 bb 03 45 4d bd 58 d1 3c 3d 69 88 68 3e
       -0.004174001 -0.050114643 0.046098083 0.22708286
0003a0 7f c5 ab bd 42 bf 3d bd b3 c4 1f 3e c3 79 b8 bd
       -0.08387279 -0.046324976 0.15602379 -0.09007599
0003b0 a8 6e 14 be 4f 51 b8 bd 89 79 31 3d bd 5a cc 3d
       -0.14495337 -0.089998834 0.043328796 0.099782445
0003c0 3b a2 be 3d 74 4e 14 3e 75 cc f5 3c e3 05 1c 3c
       0.09308287 0.14483052 0.03000472 0.009522888
0003d0 ae 32 d1 bd 62 28 b5 3d 52 12 1b bd ae 9a 1c 3e
       -0.102147445 0.08845593 -0.03785927 0.1529338
0003e0 b4 a0 32 3e 19 89 ba 3c ef d9 16 3e de bb c9 bd
       0.17444116 0.022770451 0.14731573 -0.09850286
0003f0 8d 06 29 bd 6d 04 bd 3d f1 94 90 3d b1 98 c8 3d
       -0.041266013 0.0922936 0.07059658 0.097947486

4.bias f4 [10]
000000 9e 55 33 be fe a4 11 be aa c3 79 3d 83 1b 59 be
       -0.17513129 -0.14223096 0.060977615 -0.21201901
000010 66 08 30 be dc b5 cc 3d 43 a3 1c be b9 2b 93 3d
       -0.17190704 0.099956244 -0.15296654 0.07186074
000020 d5 27 68 3e 05 c6 d1 3d
       0.22671445 0.10242847
