models/mnist_fc_w.pt (torch, 401359 bytes, 8 tensors)

1.weight f4 [100, 784]
0	0x3a1583b1	0.00057035225
1	0x3a941135	0.0011296632
2	0x3a8fccb9	0.0010971046
3	0x3a4cd904	0.000781432
4	0x3a69dad6	0.0008920854
5	0x3a68a1bc	0.0008874198
6	0x3a316cbf	0.00067682186
7	0x3a3fc375	0.0007315197
8	0x3a98c6c1	0.0011655913
9	0x3a912174	0.0011072592
10	0x3a910d42	0.0011066573
11	0x3a175371	0.00057726266
12	0x3a6e2f98	0.00090860715
13	0x3a996da8	0.0011705654
14	0x3a79079d	0.00094997307
15	0x3a770b6f	0.0009424006
16	0x3a3026af	0.00067196315
17	0x3a924606	0.0011159785
18	0x3a664fef	0.0008785715
19	0x3a34cb0b	0.0006896711
20	0x3a6b9647	0.00089869316
21	0x3a2383da	0.0006237604
22	0x3a746488	0.00093228417
23	0x3a585c0f	0.0008253464
24	0x39e5dc91	0.00043842618
25	0x3a433e2b	0.00074479234
26	0x3a85d475	0.0010210412
27	0x3a84da78	0.001013591
28	0x3a5d1b26	0.00084345264
29	0x3a905f0d	0.0011014655
30	0x3a4c0a6d	0.0007783536
31	0x38ca7cfa	9.655389e-05
32	0x3adc9433	0.0016828835
33	0x3a889d83	0.0010422919
34	0x3a42a7c8	0.0007425514
35	0x3a121a31	0.0005573361
36	0x39fa253c	0.00047711458
37	0x3a018626	0.0004940949
38	0x3a7a201a	0.00095415267
39	0x39e6aae7	0.0004399635
40	0x3a2a7a4c	0.0006503209
41	0x3a8663d0	0.0010253135
42	0x3ad14f25	0.0015969021
43	0x3a569d09	0.0008186852
44	0x3a9380af	0.0011253561
45	0x3a60277f	0.0008550807
46	0x3abd6455	0.0014449457
47	0x3ac23189	0.0014815788
48	0x3a8b0812	0.0010607264
49	0x3a19858a	0.00058563857
50	0x3a758999	0.0009366512
51	0x3a34572c	0.00068794447
52	0x3a5d7666	0.00084481237
53	0x394c5e31	0.00019490045
54	0x3a82e22e	0.000998562
55	0x3a985737	0.0011622672
56	0x3a3121bc	0.0006757041
57	0x3a93160b	0.0011221779
58	0x3a581c82	0.0008243994
59	0x3a824cc7	0.0009941094
60	0x398cec4e	0.00026878942
61	0x3a7beb76	0.00096099766
62	0x39bee39b	0.00036409203
63	0x39c0b1d5	0.0003675359
64	0x3a749819	0.00093305256
65	0x3a257ad0	0.0006312551
66	0x3a5b3af4	0.0008362972
67	0x3a9185c9	0.0011102493
68	0x3aafed24	0.0013422114
69	0xba18dcad	-0.0005831223
70	0x3aa91a08	0.0012901435
71	0x399d4a02	0.00030000514
72	0x3a4d68ae	0.0007835728
73	0x3a264081	0.00063420093
74	0x3a0398fd	0.00050200504
75	0x389c99d9	7.467316e-05
76	0x3a905a60	0.0011013262
77	0x3a0e82e0	0.0005436372
78	0x3a0d5b33	0.0005392313
79	0x3a3d4fa7	0.0007221647
80	0x3a185c1e	0.00058120664
81	0x3a8cde4e	0.0010747404
82	0x3a84fb7e	0.0010145751
83	0x3a46eb9c	0.0007588209
84	0x3a648709	0.00087176316
85	0x3a5f5d5f	0.0008520688
86	0x3a6f1f26	0.0009121768
87	0x3a926e2b	0.0011171749
88	0x3a8859b0	0.0010402706
89	0x3a7ebdaf	0.0009717596
90	0x3ab7bcb7	0.0014018033
91	0x3a78c2eb	0.0009489494
92	0x3a49c921	0.0007697512
93	0x3b28d5e3	0.0025762252
94	0x3b023f81	0.0019874277
95	0x3b1bed4a	0.0023792558
96	0x3b1597d7	0.00228261
97	0xb99ebcea	-0.0003027686
98	0xba9f9e75	-0.0012177961
99	0xbac88a1a	-0.0015299947
100	0x3b166f23	0.0022954426
101	0x3b41e477	0.0029585639
102	0x3b927369	0.0044693244
103	0x3b5525cb	0.0032523747
104	0x3b4818ab	0.0030532281
105	0x3b673aa4	0.0035282755
106	0x3b204a01	0.0024458172
107	0x3a9f1cd6	0.0012139331
108	0x3a88129f	0.0010381526
109	0x3a76243c	0.00093895546
110	0x3a4f18ef	0.0007900139
111	0x3a5c9223	0.000841411
112	0x39b0506f	0.00033629264
113	0x3a8efe20	0.0010909475
114	0x3a8d21af	0.0010767485
115	0x3a76d85b	0.0009416395
116	0x3a18a59d	0.0005823018
117	0x3a37a073	0.0007004805
118	0x3a30cf10	0.0006744722
119	0x3a30d2c9	0.00067452766
120	0x3a9deeb9	0.0012049294
121	0x3b158234	0.0022813203
122	0x3b023337	0.0019866952
123	0x3b52830a	0.0032121562
124	0xbcc162f5	-0.023606757
125	0xbc863805	-0.016384134
126	0xbcfd9234	-0.030953504
127	0xbbe5772a	-0.007002731
128	0x3c5f3b14	0.013624925
129	0x3c72d496	0.014821192
130	0x3c1f97e9	0.009740808
131	0x3c0612b7	0.008183173
132	0x3b98d04d	0.0046635033
133	0x3ac7869f	0.0015222615
134	0x3b69d9a6	0.0035682707
135	0x3b23a2ba	0.0024968819
136	0x3ad394de	0.0016142388
137	0x3a6c2b77	0.00090091623
138	0x3a1c6f8a	0.00059675483
139	0x3a2bde19	0.00065562275
140	0x3a86f49e	0.001029629
141	0x3aba7808	0.0014226446
142	0x3ac2dfe5	0.0014867751
143	0x3a5b59f8	0.00083675934
144	0x3a97cb8b	0.0011581046
145	0x3a3d6223	0.00072244013
146	0x3a119343	0.0005553255
147	0xba94cb69	-0.0011352125
148	0xbada4b94	-0.0016654604
149	0x3abaf915	0.0014264906
150	0x3c0b467d	0.008500692
151	0x3c7bf445	0.015378063
152	0x3a58cdc6	0.0008270409
153	0xbc8762f8	-0.016526684
154	0x3a84c0b3	0.001012823
155	0x3d28060e	0.0410214
156	0x3dccf8a4	0.10008362
157	0x3de4b629	0.11167557
158	0x3d8cd34c	0.06876239
159	0x3d622c85	0.05521824
160	0x3bc6e99b	0.0060703284
161	0x3b91267d	0.004429637
162	0x3c0153a3	0.007893476
163	0x3c00faad	0.007872266
164	0x3b8dbeff	0.004325747
165	0x3a8d9c6d	0.0010804065
166	0x3a761e50	0.0009388672
167	0x3a155226	0.000569614
168	0x3a6a010b	0.0008926547
169	0x3a80491e	0.0009787416
170	0x3a2d14ec	0.0006602544
171	0x3a9f2e05	0.0012144452
172	0x385945aa	5.180171e-05
173	0x39cdde8b	0.00039266454
174	0xb8c53176	-9.402905e-05
175	0x3c09beeb	0.008407335
176	0x3d0944e2	0.033512957
177	0x3d1d9686	0.03847363
178	0x3c70e9a5	0.014704143
179	0xbc84ccfb	-0.016211024
180	0xbc3e5ecf	-0.011619284
181	0xbbf5cf34	-0.007501507
182	0x3d1f1023	0.03883375
183	0x3d3284de	0.043583743
184	0x3d220fe7	0.039565947
185	0x3d20db82	0.03927184
186	0x3d4c9c2b	0.04995362
187	0x3c8057e8	0.015666917
188	0x3d150b7d	0.03638791
189	0x3c9f153f	0.01941931
190	0x3c9adb61	0.018903436
191	0x3b7c110a	0.0038462305
192	0x3b3ac1ff	0.0028496978
193	0xbb387cc9	-0.002815055
194	0xb99522fe	-0.00028445566
195	0x3a82a61f	0.0009967721
196	0x3a3bdb2d	0.00071661436
197	0x3a10cf17	0.0005524023
198	0x3a1dfff0	0.00060272124
199	0x3a8ddca4	0.0010823202
200	0xb99a3ff1	-0.0002942081
201	0xb9b61a8d	-0.00034733527
202	0xbb8ae82d	-0.0042391033
203	0x3c46d87d	0.012136576
204	0x3d1544bd	0.036442507
205	0x3ca6a5e8	0.020342782
206	0x3c3edf47	0.011649913
207	0x3b340528	0.0027468894
208	0x3aa36dbc	0.0012468616
209	0x3b897b69	0.00419562
210	0x3d0d9b8d	0.034572173
211	0x3db36e38	0.08761257
212	0x3cbe06f4	0.023196675
213	0xbaef3da9	-0.0018252629
214	0x3d08b747	0.033377912
215	0x3c5f573a	0.013631636
216	0x3ba97cc3	0.0051723435
217	0x3d0ef2dd	0.03489958
218	0x3d6236a3	0.055227887
219	0x3c425014	0.011859912
220	0xba806cd5	-0.000979806
221	0xbadcbf6d	-0.0016841717
222	0x3a879eeb	0.0010347044
223	0x3a70a8a1	0.0009180401
224	0x3a27f6f1	0.00064073416
225	0x3a1d4e11	0.00060007075
226	0x3aa1dda2	0.0012349377
227	0xb9f7fbe6	-0.0004729919
228	0x390cd06b	0.00013429082
229	0xb9f42f0d	-0.00046574362
230	0xbaaa3019	-0.0012984305
231	0x3b7dce7f	0.0038727818
232	0x3c7a611d	0.015281943
233	0x3c2d3219	0.010571026
234	0xbb4eff4e	-0.003158528
235	0x3d19919d	0.037492383
236	0x3d302b22	0.043009885
237	0x3c888e8b	0.016669532
238	0x3db52847	0.08845573
239	0x3da79b2d	0.08183894
240	0x3b95b1b9	0.0045683053
241	0x3d242b41	0.040080313
242	0x3d0281e6	0.031862162
243	0x3c271bcd	0.010199499
244	0x3c8444c0	0.016146064
245	0xbaea230d	-0.0017863229
246	0x3d122558	0.035680145
247	0x3b530862	0.0032201041
248	0xbb0257c4	-0.0019888738
249	0xbafdec1a	-0.0019372732
250	0x3a3832ff	0.0007026642
251	0x3a9d2c76	0.00119914
252	0x3a47a40e	0.00076156936
253	0x3a53465b	0.0008059495
254	0x3ab06d81	0.0013460369
255	0xb9892b37	-0.00026162874

1.bias f4 [100]
0	0x3d8dca9e	0.06923412
1	0x3e106f8b	0.1410505
2	0xbbb0eeb5	-0.00539955
3	0x3e218cd3	0.15776376
4	0x3e640ec9	0.22271265
5	0x3e2fe734	0.1717804
6	0xbd9df555	-0.07712809
7	0x3d7dae9d	0.061934102
8	0xbcd7fea8	-0.026366547
9	0xbd035aff	-0.032069203
10	0xbd5a0c87	-0.053234603
11	0x3cd1c0e3	0.02560467
12	0xbdb9dda2	-0.09075476
13	0xbe4d3fc5	-0.20043857
14	0x3ed166c9	0.4089873
15	0x3d395ddf	0.045255538
16	0x3e83e50e	0.25760692
17	0xbcd8710a	-0.026421089
18	0x3eeda3f2	0.46414143
19	0x3cc23d69	0.023710923
20	0x3e8a69b4	0.2703377
21	0x3db0d2a8	0.086339295
22	0x3d46364c	0.048391625
23	0x3dda5d27	0.10662299
24	0x3daa210f	0.08307087
25	0x3e629c0e	0.22129843
26	0xbd7d9a6f	-0.061914857
27	0xbe4b398f	-0.19846176
28	0xbd7c7a24	-0.06163992
29	0xbdb75c95	-0.089532055
30	0xbe70ed70	-0.23528075
31	0x3c739407	0.014866835
32	0x3e2e30c5	0.17010792
33	0x3d6cb163	0.057786357
34	0xbe77113e	-0.24127671
35	0xbe27c7f5	-0.16384871
36	0x3efaaef0	0.48961592
37	0x3d983c2a	0.074333504
38	0x3eb92892	0.36163765
39	0x3e1fd360	0.15607977
40	0x3eeabb1e	0.45845884
41	0xbe4d3236	-0.20038685
42	0xba62955a	-0.0008643471
43	0x3e85ce99	0.26134184
44	0xbd8a5288	-0.06754023
45	0x3dcb50b8	0.09927505
46	0xbe46153a	-0.19344035
47	0x3e0e5f69	0.13903584
48	0x3e58a75e	0.21157596
49	0x3cbf2cef	0.023336856
50	0x3d7ac011	0.061218325
51	0x3f074299	0.52835995
52	0xbda587e8	-0.08082563
53	0xbe325b26	-0.17417583
54	0xbcac51ea	-0.021035153
55	0xbcc02d87	-0.02345921
56	0xbc0eef6c	-0.008724075
57	0x3d57aa48	0.052652627
58	0xbe7a9d2b	-0.24474017
59	0x3e7070de	0.23480555
60	0x3cafa57b	0.021441212
61	0x3d0574e3	0.032582175
62	0xbda45f77	-0.08026021
63	0x3c95d12d	0.01828822
64	0x3e00ba5d	0.12571092
65	0x3d158a6d	0.036508966
66	0x3cfc8df1	0.030829402
67	0x3dfa4c04	0.1222153
68	0x3ea28f78	0.31750083
69	0x3ec638f5	0.3871533
70	0xbeb0656e	-0.34452385
71	0x3ebe2a45	0.37141624
72	0x3e5007ee	0.20315525
73	0xbe6dfc8f	-0.23240875
74	0x3e56ccfb	0.20976631
75	0xbd2e9ec2	-0.042631872
76	0x3d988029	0.074463196
77	0x3de418bc	0.1113753
78	0xbe87cbc8	-0.2652266
79	0xbe9f246b	-0.31082472
80	0x3e4ecfdb	0.20196478
81	0xbdc7b27f	-0.09750842
82	0xbe18916e	-0.14899227
83	0xbdaf2f89	-0.085539885
84	0x3e3947fe	0.18093869
85	0x3c98cc27	0.018652035
86	0xbe02153c	-0.12703413
87	0x3d1e3b38	0.038630694
88	0xbe2a418e	-0.1662657
89	0xbe32a642	-0.17446235
90	0xbcffd93f	-0.03123152
91	0x3d0a15bf	0.033712145
92	0xbc37d7bb	-0.011220868
93	0x3c5a6f95	0.013332267
94	0x3e7dd9ff	0.2479019
95	0xbe4bf32d	-0.19916983
96	0x3dce2b53	0.10066857
97	0x3c7182cc	0.014740657
98	0x3e87350e	0.26407665
99	0xbb8d7bf1	-0.0043177535

3.weight f4 [100, 100]
0	0x3e3da0f6	0.18518433
1	0xbe99503d	-0.2994403
2	0xb637fad8	-2.7415135e-06
3	0x3e99a45b	0.30008206
4	0xbc085961	-0.008322091
5	0x3cb33378	0.021875128
6	0x3cfe5a32	0.031048868
7	0xbd6fce80	-0.058546543
8	0xbe630dbc	-0.22173208
9	0x354c6d80	7.6155266e-07
10	0xbd6367b1	-0.05551881
11	0x3e34acbd	0.1764402
12	0xbd000e1a	-0.03126345
13	0xbe0138a3	-0.12619261
14	0x3d94e8d3	0.0727097
15	0xbcc9985a	-0.02460878
16	0x3e37dad4	0.1795457
17	0xb7f408c3	-2.9091147e-05
18	0x3e3691f5	0.17829116
19	0xbe8db860	-0.2767973
20	0xbccba75a	-0.024860073
21	0x3d41ccac	0.04731433
22	0x3e8f2282	0.27956015
23	0x3ca2d4f4	0.019876935
24	0xbe1cc760	-0.1531043
25	0x3dd9e298	0.106389225
26	0xbcc43339	-0.023950206
27	0x3d52fd67	0.051511195
28	0xbb40b3ae	-0.0029403972
29	0xbe4c571f	-0.19955109
30	0xbe286222	-0.16443685
31	0xbe8e02e8	-0.27736592
32	0x3dedd885	0.116135634
33	0x3e695dde	0.22789714
34	0x3e4e9d4a	0.20177189
35	0x3d6cdabe	0.057825796
36	0xbd147a70	-0.036249578
37	0x3e84dee4	0.25951302
38	0xbe45c0f1	-0.19311883
39	0x3cba7aef	0.022763697
40	0x3cbd50c3	0.0231098
41	0xbe249c54	-0.1607526
42	0xbcb63319	-0.022241162
43	0x3de2744d	0.11057339
44	0x3bb22690	0.005436726
45	0xbd00a357	-0.031405773
46	0x3e4614fa	0.1934394
47	0xbeef6d61	-0.46763137
48	0x3bdf7640	0.0068195164
49	0x3d626a50	0.05527717
50	0xbd86c0b0	-0.06579721
51	0xbd0c64d0	-0.03427583
52	0xbbb2b87c	-0.005454121
53	0x3e47a21d	0.19495435
54	0x38ffb54f	0.00012193119
55	0x3e7d531e	0.24738738
56	0x3d595bff	0.05306625
57	0xbe19a930	-0.15005946
58	0x3e83ca69	0.25740364
59	0x3d978e81	0.07400227
60	0x3d457918	0.048211187
61	0xbdca187d	-0.09867952
62	0x3e547a62	0.2074981
63	0x3c84b556	0.016199749
64	0xbd549aea	-0.05190555
65	0xbda2238d	-0.07916937
66	0xbd716f53	-0.058944058
67	0xbccd5f4e	-0.025069859
68	0xbd6b172d	-0.05739515
69	0x3e9367d3	0.2879015
70	0xbd7fa286	-0.062410854
71	0xbde3c328	-0.111212075
72	0xbb5d5919	-0.003377503
73	0xbdae8d68	-0.08523065
74	0x3cfad552	0.030619297
75	0xb74b1fa1	-1.2107107e-05
76	0xbe74d2db	-0.2390856
77	0xbcf9bc2a	-0.030485231
78	0xbdc44584	-0.095835716
79	0x3d50cc0f	0.050975855
80	0x3e253b14	0.16135818
81	0xbe9c9273	-0.30580482
82	0x3ddc0c6c	0.10744557
83	0x3d107a4c	0.03527288
84	0x3dc28d41	0.09499598
85	0xbd7925df	-0.060827132
86	0xbe8920c1	-0.26782802
87	0xbdeda444	-0.11603597
88	0xbdcdf8f8	-0.10057253
89	0x3d840a06	0.06447224
90	0xbded1609	-0.115764685
91	0xbe8fd2c5	-0.28090492
92	0x3883c5f2	6.283437e-05
93	0x3c26ea3e	0.010187684
94	0x3dca7831	0.09886206
95	0xbcd357b8	-0.025798663
96	0x3defbed5	0.1170632
97	0x3debfd59	0.115229316
98	0x3e2f21f6	0.17102799
99	0x3e0a6cf0	0.13518119
100	0x3d09bc87	0.03362706
101	0x3d34405d	0.044006694
102	0x3806fcb7	3.218345e-05
103	0xbd2d4721	-0.042304162
104	0x3d9153ee	0.070960864
105	0xbd50d8aa	-0.050987877
106	0xbdfd6f3c	-0.12374732
107	0xbd66fecc	-0.056395337
108	0x3ccc144e	0.024912026
109	0x37ff1f7b	3.0413028e-05
110	0x3d230f03	0.03980924
111	0xbbbf9bc9	-0.0058474285
112	0x3e9c531c	0.30532157
113	0xbdd8ba87	-0.10582452
114	0x3c33fa01	0.010984899
115	0xbd90a9f6	-0.070636675
116	0xbdfb137a	-0.12259574
117	0xb96ab72b	-0.00022384214
118	0x3d514517	0.05109128
119	0xbc87558f	-0.01652029
120	0x3d9db755	0.077009834
121	0x3dc05bf8	0.09392542
122	0x3e048ccf	0.12944339
123	0x3d71b28e	0.059008174
124	0xbe35ae55	-0.17742284
125	0x3d659426	0.05604949
126	0xbe07f145	-0.13275631
127	0xbddb6927	-0.107134156
128	0xbc818720	-0.015811503
129	0x3e124ef9	0.14287938
130	0xbd84e2e5	-0.06488589
131	0x3d7251a2	0.059159882
132	0x3ceae3d9	0.0286731
133	0x3bc60031	0.0060425033
134	0x3c97f7d8	0.018550798
135	0x3dcb8678	0.09937757
136	0x3e313523	0.17305426
137	0xbe8bafd0	-0.27282572
138	0x3e9f253e	0.310831
139	0xbd978858	-0.073990524
140	0x399d0daa	0.00029955554
141	0x3d4cb584	0.049977794
142	0x3d599b2a	0.05312649
143	0x3e161be1	0.14659072
144	0x3d7e6633	0.062109184
145	0xbcb00c0a	-0.021490116
146	0xbe191ea2	-0.14953092
147	0x3d185ff6	0.03720089
148	0xbc53b916	-0.012922546
149	0xbdcbf331	-0.099584945
150	0x3e078785	0.1323529
151	0x3a59577d	0.000829093
152	0x3d2efa41	0.04271913
153	0x3e6bc01b	0.23022501
154	0xb8fb9def	-0.0001199803
155	0xbe81d732	-0.25359493
156	0x3e881db4	0.26585162
157	0x3c977142	0.018486623
158	0x3b075a36	0.0020653135
159	0x3e05cb2d	0.13065787
160	0xbc132c13	-0.008982676
161	0xbca0f102	-0.019646171
162	0xbc4aea84	-0.012385014
163	0x3e252a67	0.16129456
164	0x3db59d70	0.088679194
165	0x3dcb92b6	0.09940092
166	0xbc9453ac	-0.018106304
167	0x3e1024e1	0.14076568
168	0x3e29815d	0.16553254
169	0x3d3dada2	0.046308167
170	0xbca51872	-0.020153258
171	0xbda44b35	-0.08022157
172	0x3d82a94b	0.06379946
173	0x3cdb4e90	0.02677086
174	0xbe1adbba	-0.15122882
175	0x390fb14d	0.00013703592
176	0xbe5011cd	-0.2031929
177	0xbc39bf27	-0.011337078
178	0xbce13fc7	-0.027496232
179	0xbd9ad3ab	-0.07559904
180	0x3e22e5a4	0.15907913
181	0x3d84428f	0.064580075
182	0x3db3df82	0.08782865
183	0x3d874abc	0.06606051
184	0x3ce328e4	0.02772946
185	0x3dbf417e	0.093386635
186	0xbcb96628	-0.02263172
187	0xbeab1eb9	-0.33421877
188	0xbd102ac2	-0.035197027
189	0x3e6898fe	0.22714612
190	0x3e1e2dfc	0.15447229
191	0x3d7dfff1	0.062011663
192	0xb8c83eb3	-9.548422e-05
193	0x3dc36f90	0.09542763
194	0xbceac70f	-0.028659372
195	0x3db5a0b0	0.08868539
196	0xbd8c85c8	-0.06861454
197	0x3cd7bdb3	0.026335573
198	0xbdba313a	-0.090914205
199	0x3da93b00	0.082632065
200	0xbcd07803	-0.025447851
201	0xbe2a5be4	-0.16636616
202	0xb8ca9934	-9.660647e-05
203	0xbdf8112a	-0.12112649
204	0x3d83954e	0.06424962
205	0x3e2fd2d5	0.1717027
206	0xbf322b95	-0.6959775
207	0x3e21909d	0.15777822
208	0xbeac9406	-0.33706683
209	0xb8ade12d	-8.291225e-05
210	0xbe88a7c1	-0.26690486
211	0x3e2b9aa4	0.1675821
212	0x3d6d7a7f	0.05797815
213	0xbe00a781	-0.12563898
214	0x3df83d47	0.12121063
215	0x3c83e10f	0.016098527
216	0x3e50217d	0.20325275
217	0xb70a6835	-8.249704e-06
218	0x3dc4113f	0.09573602
219	0xbd2765da	-0.040868618
220	0x3d3d1e0e	0.04617124
221	0x3a61b609	0.0008610194
222	0x3e6c94e3	0.23103671
223	0xbeae2149	-0.3400977
224	0x3dd17113	0.10226645
225	0xbd270ec4	-0.040785566
226	0x3dc53a47	0.09630256
227	0x3c5809b4	0.013185907
228	0x3dcbf165	0.09958152
229	0xbc88e9a6	-0.016712975
230	0xbd044b93	-0.032298636
231	0x3dcc6696	0.09980504
232	0x3eb341e1	0.350112
233	0x3cc15461	0.023599805
234	0xbd54a7bb	-0.051917773
235	0xbe45f18a	-0.19330421
236	0x3e83b2fc	0.25722492
237	0x3cfc032a	0.030763227
238	0xbe2d0dea	-0.16899839
239	0xbc68d353	-0.01421054
240	0xbe0371df	-0.12836407
241	0xbd89518a	-0.067050055
242	0x3cd535fd	0.02602672
243	0x3dbdd8f5	0.09269897
244	0x3d9bde85	0.076108016
245	0xbe0ff8b2	-0.14059713
246	0xbc69c3bc	-0.014267858
247	0x3d85d897	0.06535452
248	0xbd96d268	-0.073643506
249	0xbdaf4145	-0.08557371
250	0xbe052eb7	-0.13006102
251	0xbda161d0	-0.078799844
252	0x3e1a4347	0.15064727
253	0xbddaeee4	-0.10690096
254	0x388f0b3a	6.8208625e-05
255	0x3da33106	0.07968335

3.bias f4 [100]
0	0x3e347890	0.17624116
1	0x3e95eefb	0.2928389
2	0x3eba4a77	0.36384937
3	0x3ea1cac4	0.3160001
4	0x3ea59250	0.3233819
5	0xbd9e6517	-0.07734125
6	0x3ea8def1	0.3298259
7	0x3e102b7c	0.14079088
8	0x3e6ecd91	0.23320605
9	0x3ea60749	0.32427433
10	0x3e8e9530	0.27848196
11	0x3e1a7801	0.1508484
12	0x3d911341	0.070837505
13	0x3e3e8fce	0.18609545
14	0x3d44fadb	0.048090797
15	0xbd5a7913	-0.05333812
16	0x3e44fbe7	0.19236718
17	0xbc96085c	-0.018314533
18	0x3ce8d4d0	0.02842179
19	0x3e18426d	0.1486909
20	0x3e2bd566	0.16780624
21	0x3e201e75	0.15636618
22	0x3e7f854a	0.2495319
23	0x3e252d2a	0.1613051
24	0xbdb26cc0	-0.08712149
25	0x3e2f8003	0.17138676
26	0x3eb5d3bf	0.35513112
27	0x3d2022f4	0.039095834
28	0x3e0b1e52	0.13585785
29	0x3eb6d612	0.35710198
30	0x3e1c15dc	0.15242714
31	0x3e43b532	0.1911209
32	0xbd049753	-0.032370877
33	0x3eddd356	0.433253
34	0x3e0e50c6	0.13898
35	0x3e6a31fd	0.22870632
36	0xbe827086	-0.25476474
37	0x3ea44987	0.32087347
38	0xbe4dab0c	-0.2008478
39	0x3d0ed1ac	0.034867927
40	0x3eb1d371	0.3473163
41	0x3ed70938	0.4199922
42	0xbe3af42f	-0.18257211
43	0xbc674316	-0.014115116
44	0x3cb41d8e	0.021986749
45	0xbbf3eb72	-0.0074438388
46	0x3d91b3a9	0.071143456
47	0xbdeaed44	-0.11471036
48	0x3dc89fca	0.09796102
49	0xbc825c15	-0.015913049
50	0x3d630cd7	0.055432167
51	0xbd07aaca	-0.03312186
52	0x3dd0a008	0.101867735
53	0xbdd54faf	-0.10415589
54	0x3b2e19a6	0.002656558
55	0x3dcc7f81	0.09985257
56	0xbda2460f	-0.07923519
57	0x3e1f4d58	0.15556848
58	0x3def5a85	0.11687187
59	0x3ebf41c2	0.37354857
60	0x3e6d63ba	0.23182574
61	0x3ce49bd2	0.027906332
62	0x3d803491	0.06260026
63	0x3c376342	0.0111930985
64	0xbdd9de42	-0.106380954
65	0xbd4fc3f9	-0.050724003
66	0x3e96d7fc	0.29461658
67	0x3ea3cb0a	0.31990844
68	0xbd50fadf	-0.0510205
69	0xbc0d1e34	-0.008613158
70	0x3e82afdb	0.25524792
71	0x3eaa2ed4	0.33238852
72	0x3cf42ddc	0.029807024
73	0x3e189323	0.14899878
74	0xbe183f02	-0.14867786
75	0xbeceece6	-0.40415114
76	0xbdae3df2	-0.08507909
77	0x3e0a4761	0.13503791
78	0xbdc97ca0	-0.098382235
79	0xbd009833	-0.03139515
80	0x3d333639	0.043752883
81	0x3ea780d7	0.32715484
82	0xbbd78c20	-0.0065779835
83	0x3dbb2101	0.09137154
84	0xbde328ba	-0.11091752
85	0x3e33ea1d	0.17569776
86	0x3db02a44	0.086018115
87	0x3e196a5f	0.14981984
88	0xbd65f2b9	-0.05613968
89	0x3e1e56cc	0.15462798
90	0x3b2933f6	0.0025818325
91	0xbda2d880	-0.0795145
92	0xbe9294fb	-0.28629288
93	0x3d641c22	0.055690892
94	0x3e9a1edf	0.30101678
95	0x3cb4739a	0.02202778
96	0xbab18129	-0.0013542521
97	0x3e5f3a55	0.21799596
98	0x3d28a1b9	0.041169856
99	0x3e2c053b	0.1679887

5.weight f4 [100, 100]
0	0x3e23c4f0	0.15993094
1	0x3d4f408a	0.05059866
2	0xbe52d094	-0.20587379
3	0x3e01d05b	0.12677138
4	0x3e96aff5	0.2943112
5	0xbcf3a8d8	-0.029743597
6	0x3d46e835	0.048561294
7	0xbc96088f	-0.018314628
8	0x3e05f8cd	0.13083191
9	0xbe46553d	-0.19368453
10	0x3e0203b6	0.12696728
11	0xbdb0a768	-0.0862568
12	0xbe47a9ee	-0.19498417
13	0x3d551371	0.052020494
14	0xbe18ee9e	-0.14934775
15	0xb7cb9962	-2.427091e-05
16	0x3dafaaed	0.085775234
17	0x3d8705b0	0.06592882
18	0xbecf831b	-0.40529713
19	0xbe15fa51	-0.1464627
20	0x3d8158c7	0.06315761
21	0x3e5b1296	0.21393809
22	0x3d9a4333	0.075323485
23	0x3e05633d	0.13026138
24	0x3ba688c4	0.0050822217
25	0x3e1753e2	0.14778093
26	0x3d1ce7f8	0.03830716
27	0x3dab42b9	0.08362336
28	0x3de3b498	0.1111843
29	0xbdae6fcc	-0.08517417
30	0x3dea42d5	0.114385284
31	0x3d698d70	0.05701965
32	0xbcc6aa9d	-0.024251277
33	0x3d51a005	0.051177997
34	0x3d865c2f	0.065605514
35	0x3ea499f0	0.32148695
36	0x3e47d223	0.19513755
37	0x3d88d504	0.066812545
38	0x3cffef2c	0.031241976
39	0xbaaba139	-0.0013094313
40	0xbea9c6b4	-0.3315941
41	0x3e975ad3	0.2956148
42	0xbea8b009	-0.32946804
43	0x3b83e86c	0.0040255096
44	0x3e32b4f1	0.17451836
45	0xbcae871e	-0.021304663
46	0xbda2ac36	-0.07943003
47	0xbd9e1aa1	-0.07719923
48	0xbdf42564	-0.11921194
49	0x3e2c1f77	0.16808878
50	0x3d805cc7	0.06267696
51	0x373305f4	1.06706175e-05
52	0x3c075ee8	0.0082623735
53	0x37efc712	2.858372e-05
54	0x3cb3bf06	0.021941673
55	0xbe2060c1	-0.15661909
56	0x38005126	3.0593153e-05
57	0x3de18145	0.11010984
58	0xbc5b2de7	-0.013377643
59	0x3ccb9a3e	0.024853822
60	0xbdf6afa3	-0.12045219
61	0xbe060213	-0.13086729
62	0xbbb099a4	-0.005389409
63	0xbdce7ab4	-0.100819975
64	0xba363c1d	-0.00069517066
65	0xbda495d3	-0.08036389
66	0x3cfc942a	0.030832369
67	0x3daa234b	0.08307513
68	0x38cc40a4	9.739518e-05
69	0x3e539de4	0.20665699
70	0xbd212516	-0.03934201
71	0x3c5d7585	0.013516788
72	0x3e0f2518	0.13978994
73	0x3deda5c1	0.11603881
74	0x3e84af41	0.25914958
75	0xbdc0e5a4	-0.094188005
76	0xbd70724a	-0.058702745
77	0xbdc2fae9	-0.095205136
78	0x38822cdd	6.2072395e-05
79	0x3d2088b7	0.03919288
80	0xbd95af8c	-0.073088735
81	0x39912e4c	0.0002769105
82	0x3d436f0f	0.047713336
83	0xbdfa1d4b	-0.122126184
84	0xbe02a831	-0.12759472
85	0xbd7f4815	-0.062324602
86	0xbdf64d0a	-0.12026413
87	0x3b5f09a0	0.0034032837
88	0xbe0963bc	-0.13416952
89	0xbdcbe633	-0.099560164
90	0x3e83c53d	0.25736418
91	0xb8a03139	-7.638563e-05
92	0xb982b7c4	-0.00024932448
93	0x3de4a732	0.111647025
94	0x3dfe4b16	0.12416665
95	0x3d70b8ab	0.058769863
96	0xbd3044b6	-0.043034278
97	0x3e188018	0.14892614
98	0x3ca9360e	0.020655658
99	0xbddee23f	-0.10882997
100	0x3b7fd54d	0.003903705
101	0xbd54f7b5	-0.051994044
102	0x3cc16857	0.023609323
103	0xbbaffa29	-0.0053703976
104	0x3edcf8b9	0.4315851
105	0xbd9f267f	-0.077710144
106	0x3e71883e	0.23587129
107	0x3dc2ba0c	0.09508142
108	0x3d387403	0.045032512
109	0x3d0ceedb	0.034407478
110	0xbe01caea	-0.12675062
111	0xbd22e8c0	-0.03977275
112	0x3d36ccd1	0.044628922
113	0x3e7da1ff	0.24768828
114	0x3cee0b9b	0.029058268
115	0x3824e599	3.9314476e-05
116	0x3c1653da	0.009175265
117	0xbd03ecca	-0.03220824
118	0x3e1866a8	0.1488291
119	0x3d828dfa	0.06374736
120	0xbdbd2805	-0.09236149
121	0x3d0132a6	0.031542443
122	0xbba77b99	-0.0051111695
123	0xbddedd1b	-0.10882016
124	0x3d76834a	0.0601838
125	0x3d2c30e1	0.042038802
126	0x3dbd7c37	0.09252208
127	0xbd820d75	-0.06350223
128	0x3d721775	0.0591044
129	0xbd8ca07a	-0.06866546
130	0xbe121943	-0.14267449
131	0x3cecde69	0.028914647
132	0x3c4b8914	0.012422819
133	0xbd2a98d6	-0.041649662
134	0xbd0d7c4a	-0.03454236
135	0xbea26c70	-0.31723356
136	0xbcfbbe95	-0.030730525
137	0x3d314cc8	0.043286115
138	0xbd1be773	-0.038062524
139	0x3cf22716	0.029559653
140	0xbcbe2c49	-0.023214476
141	0xbd4a7685	-0.049429435
142	0xbccba540	-0.02485907
143	0xbdc7deb3	-0.097592734
144	0xbe151ca2	-0.14561704
145	0x3d8f69d3	0.07002606
146	0x3c318d6d	0.010836941
147	0x3d797fcd	0.060912896
148	0x3e0f6f4b	0.14007299
149	0x3cef57f2	0.02921674
150	0xbcc1d05d	-0.023658926
151	0x370e5769	8.484211e-06
152	0x3d8cabcd	0.06868706
153	0xb8168492	-3.5886253e-05
154	0x3d84cd1d	0.06484435
155	0xbd1ae554	-0.03781636
156	0x379cc176	1.8686736e-05
157	0xbc566ec7	-0.013087935
158	0xbd9ad4dc	-0.07560131
159	0x3e4ef5f3	0.2021101
160	0x3d44e5d5	0.048070747
161	0x3d6f1573	0.058370065
162	0xbdd832b0	-0.10556543
163	0x3ca3205e	0.019912895
164	0x3c97b798	0.018520162
165	0xbdfe236d	-0.12409101
166	0x3d2b2f58	0.041793197
167	0xbd396c27	-0.045269158
168	0xb6e25109	-6.7447586e-06
169	0x3de44707	0.1114636
170	0x3dd02d4c	0.1016489
171	0xbe0457f3	-0.12924175
172	0x3d25c600	0.04047203
173	0xbd9a31d3	-0.075290345
174	0x3e810638	0.25200057
175	0xbe872d19	-0.26401594
176	0xbcfd8191	-0.030945571
177	0x3e3d3626	0.18477687
178	0x384786d5	4.757087e-05
179	0xbd868255	-0.065678276
180	0x3de40650	0.111340165
181	0x3e817494	0.25284255
182	0x3df56f2b	0.11984094
183	0x3e059615	0.13045533
184	0xbe17afd9	-0.14813174
185	0xbd18d146	-0.037308954
186	0xbdca547e	-0.09879397
187	0xbcae2d12	-0.021261726
188	0x3c958d17	0.018255753
189	0x3e0d5094	0.1380027
190	0x3e443ff5	0.19165023
191	0x384395f7	4.663129e-05
192	0xbd6fce8a	-0.05854658
193	0x3d2961af	0.041352924
194	0xbc462b37	-0.012095264
195	0xbd3d0d53	-0.046155285
196	0xbd309c0d	-0.04311757
197	0xbdfc8c0d	-0.123314
198	0xbd30b91a	-0.043145277
199	0x3c615cb4	0.013755012
200	0x3d2f41e7	0.04278746
201	0xbda5da46	-0.08098273
202	0x3d1f957d	0.038960923
203	0x3ddb58e2	0.107103124
204	0x3e485c70	0.19566512
205	0xbda9ba30	-0.082874656
206	0xbd141fcf	-0.036163148
207	0x3bb7c901	0.0056086783
208	0x3d7d4d63	0.06184138
209	0x3dac3dbe	0.08410214
210	0x3c7aeacf	0.015314772
211	0x3ebf21b0	0.3733039
212	0x3e19192f	0.14951013
213	0x3da74873	0.081681155
214	0xbbda0151	-0.006652989
215	0x38214a8f	3.845483e-05
216	0xbdf597dc	-0.119918555
217	0xbe0a7480	-0.13521004
218	0xbe2d5bb2	-0.1692951
219	0x3d98fda8	0.07470256
220	0x3e8df9c2	0.27729613
221	0x3de6102a	0.11233552
222	0x3b814fc5	0.003946277
223	0xbdec154d	-0.115275
224	0xbdb620c8	-0.08892971
225	0x3d48f514	0.04906185
226	0x3e2b85f3	0.16750316
227	0xbd2d2b2c	-0.0422775
228	0x3dbee4f5	0.09321014
229	0x3c54c10e	0.012985481
230	0x3c739dc5	0.014869158
231	0x3c6ab39e	0.014325051
232	0x3cd4f7cc	0.025997065
233	0xbbecd1d1	-0.0072271605
234	0xbe43ecd2	-0.19133309
235	0xbdca37ff	-0.09873962
236	0x3bae7aba	0.0053246887
237	0xbe082330	-0.13294673
238	0xbdc689f2	-0.0969428
239	0xbc437448	-0.011929579
240	0xbe06f0f1	-0.1317785
241	0x3e72eb5b	0.23722593
242	0xbd88a501	-0.06672097
243	0x3dd4497f	0.10365581
244	0x3df7db70	0.12102401
245	0xbd30b710	-0.043143332
246	0x3d8952c5	0.0670524
247	0x3dc8fe9e	0.098141894
248	0x3dc71d3c	0.09722373
249	0x3d7fd5d8	0.062459797
250	0xbd7cc42c	-0.06171052
251	0xb8580ab5	-5.1508385e-05
252	0xbc977038	-0.018486127
253	0xb85c57dc	-5.2533913e-05
254	0x3d7426f3	0.059607457
255	0x3c995b0f	0.018720178

5.bias f4 [100]
0	0x3ea1e263	0.31618032
1	0x3d1c1f5c	0.038115844
2	0x3c0e274d	0.008676362
3	0xbe19aaa9	-0.15006508
4	0xbe3a8024	-0.18212944
5	0x3e3964de	0.18104884
6	0x3df596f2	0.11991681
7	0xbe297104	-0.16547018
8	0xbdd1fced	-0.1025332
9	0x3db80881	0.08985997
10	0x3d85fb26	0.065420434
11	0x3e16b51f	0.1471753
12	0xbd984c79	-0.07436461
13	0x3d93d790	0.0721885
14	0x3a5f7d14	0.0008525413
15	0xbda780af	-0.08178841
16	0x3dd9b71d	0.10630629
17	0xbca8140b	-0.02051737
18	0xbd131fa4	-0.035918847
19	0x3de6f528	0.112772286
20	0x3e310c59	0.17289867
21	0xbdcb16c3	-0.09916451
22	0xbde72a01	-0.112873085
23	0x3dd106f6	0.10206406
24	0x3e2b1860	0.16708517
25	0x3e86276c	0.26201952
26	0xbda36bd2	-0.079795495
27	0x3e31a2a4	0.17347199
28	0xbdc88bc0	-0.0979228
29	0x3e82ca15	0.255448
30	0x3e400184	0.18750578
31	0xbd3eaa5f	-0.046549197
32	0x3e60bae7	0.21946298
33	0x3e713fd9	0.23559512
34	0x3d18e3b6	0.037326537
35	0x3ee49f81	0.44652942
36	0x3d727a7f	0.059198853
37	0x3b8ce462	0.0042996863
38	0x3e7408a1	0.23831417
39	0x3e50d2be	0.20392892
40	0x3e0b5ab4	0.13608819
41	0x3e305388	0.17219365
42	0x3ac20eab	0.0014805397
43	0x3d85dba9	0.065360375
44	0xbb98eeb0	-0.0046671256
45	0x3e4f3c5a	0.20237866
46	0x3dba0d9c	0.09084627
47	0x3ea0ddc7	0.31419203
48	0x3e3f317a	0.18671218
49	0x3dd20d69	0.10256464
50	0x3e4eba20	0.20188189
51	0x3d3cad02	0.04606343
52	0x3da2bc3b	0.07946058
53	0x3e279959	0.16367091
54	0x3e8bdb0a	0.2731555
55	0xbd485303	-0.04890729
56	0x3e492caa	0.19645944
57	0x3e1cf976	0.15329537
58	0x3e809d11	0.25119832
59	0x3e9e85fd	0.309616
60	0x3e52483c	0.20535368
61	0x3dcc604f	0.09979307
62	0xbcf8f871	-0.030391904
63	0x3e19de04	0.15026098
64	0xbd252a62	-0.040323623
65	0xbcd42cff	-0.025900362
66	0xbd9eda1a	-0.07756443
67	0xbd6817b3	-0.056663226
68	0xbd26aebf	-0.040693995
69	0x3e461284	0.19343
70	0x3e8c7795	0.27434984
71	0x3db7153e	0.089395985
72	0xbda49db3	-0.08037891
73	0x3e415fc7	0.18884192
74	0xbd9fc05b	-0.07800361
75	0x3e06366a	0.13106695
76	0x3d974feb	0.0738829
77	0x3e0746cc	0.132106
78	0x3c655742	0.013997855
79	0x3c11e8ed	0.0089056315
80	0x3ddf3c0e	0.109001264
81	0x3d47a10b	0.048737567
82	0x3b4cbc79	0.0031240268
83	0x3e8004fb	0.250038
84	0x3d049fa9	0.032378826
85	0xbdb8e6c7	-0.09028392
86	0x3ebf0725	0.37310138
87	0x3e019219	0.12653388
88	0xbcd51409	-0.02601053
89	0x3e516a47	0.20450698
90	0x3e36d911	0.17856242
91	0x3dc23b35	0.09483949
92	0x3dfe41fe	0.12414931
93	0x3e0371d3	0.12836389
94	0x3d394f70	0.045241773
95	0x3cc18f2c	0.02362784
96	0x3d899cb8	0.06719345
97	0x3c1cc0d9	0.009567463
98	0x3dbb59a4	0.09147957
99	0x3d0971b9	0.03355572

7.weight f4 [10, 100]
0	0xbec14d76	-0.3775441
1	0x3cc3d369	0.02390452
2	0x3e390947	0.18069945
3	0x3d084c97	0.033276167
4	0x3e4f2bc7	0.20231543
5	0xbc177275	-0.009243597
6	0x3af570ba	0.0018725612
7	0x3e394389	0.18092169
8	0x3e3461a5	0.17615373
9	0x3da0f9b6	0.078601286
10	0x3c4773ab	0.0121735735
11	0x3dee77c3	0.116439365
12	0x3887043c	6.43809e-05
13	0xbbdf0fa5	-0.006807285
14	0xbd359540	-0.04433179
15	0xb9029bf7	-0.00012455868
16	0xbeb2ec01	-0.34945682
17	0xbbbad832	-0.005702042
18	0x38225769	3.8705217e-05
19	0x3d566d02	0.05235005
20	0xbe6d5031	-0.23175122
21	0xbe40951f	-0.18806885
22	0x38ad2173	8.255513e-05
23	0x3e14aa83	0.1451817
24	0x3d9791ef	0.074008815
25	0x3e22a40b	0.1588289
26	0x37d1bb5e	2.5001991e-05
27	0x3dc423b7	0.095771246
28	0x3db98197	0.090579204
29	0xbe0c4ade	-0.13700435
30	0x3d9e6d7e	0.07735728
31	0x3d6383d8	0.055545658
32	0xbe032e37	-0.12810598
33	0xbe4d1e34	-0.20031053
34	0xbd782899	-0.060585592
35	0x3e448bb5	0.19193919
36	0xbe0b4860	-0.13601828
37	0x3e14a34a	0.14515415
38	0x3e5b16e0	0.21395445
39	0xbddf2309	-0.10895354
40	0xbe9196ce	-0.28435367
41	0xbe3c756a	-0.18404165
42	0xbd9f5138	-0.07779163
43	0x3b82a2d5	0.0039866962
44	0x3dd1805b	0.1022956
45	0xbe1583ef	-0.1460111
46	0x3e0e9ab3	0.139262
47	0xbd8d6390	-0.06903756
48	0xbf181591	-0.5940791
49	0x3de3ac08	0.11116797
50	0x3d528531	0.051396552
51	0x3d6344ce	0.05548554
52	0xbdfe2f5a	-0.12411375
53	0xbe6d51b0	-0.23175693
54	0xbe0f0be9	-0.13969387
55	0x3e0a0b8a	0.13480964
56	0xbece3862	-0.40277392
57	0x3e02719c	0.12738651
58	0x3ddb2c32	0.10701789
59	0xbef75a1b	-0.48310933
60	0xbe2a87a4	-0.16653305
61	0x3e0ed6b8	0.13949096
62	0x3877edd1	5.9110873e-05
63	0xbe81fae4	-0.25386727
64	0xbdca077a	-0.09864707
65	0x3db3a998	0.08772582
66	0x36f67252	7.34468e-06
67	0x3e0c40de	0.1369662
68	0xbe2888d3	-0.16458444
69	0xbe19c18f	-0.15015243
70	0xbda990b4	-0.08279553
71	0xbda455f3	-0.08024206
72	0xb7504881	-1.2414647e-05
73	0xbeca6dc7	-0.39536878
74	0x37577851	1.2843012e-05
75	0x3c4acea3	0.012378368
76	0xbeb4b18b	-0.35291705
77	0xbebb6cbf	-0.36606404
78	0xbe6747ef	-0.22586034
79	0x3dffbb52	0.124869004
80	0x3df87188	0.12131029
81	0xbcb54152	-0.022125874
82	0xbde5299d	-0.11189578
83	0x3d647608	0.055776626
84	0xbeba6095	-0.3640181
85	0x38070cc6	3.2198404e-05
86	0xbd6293ef	-0.05531686
87	0x3d137690	0.036001742
88	0xb85f40ff	-5.3227875e-05
89	0xbd9646c4	-0.07337716
90	0xbdb9ef57	-0.090788536
91	0xbca19d47	-0.019728316
92	0x3e25a7b5	0.16177256
93	0x3bafa3f8	0.005360123
94	0x3de1519f	0.11001896
95	0x3e65dee0	0.22448301
96	0x3e2905ae	0.16506073
97	0x3d102974	0.035195783
98	0x3e69c378	0.22828472
99	0xbf0fd3da	-0.56182635
100	0x3dfba3e6	0.122871205
101	0xbe4554c9	-0.19270624
102	0xbe73b541	-0.23799612
103	0x3b09bacd	0.0021015883
104	0x3e82868e	0.25493282
105	0xbea80bfd	-0.32821646
106	0xbe39c561	-0.181417
107	0x3e08ab6b	0.13346641
108	0x39983d36	0.00029037305
109	0xbd1f29b5	-0.038858134
110	0xbea7b4ed	-0.32755223
111	0xbd9aef59	-0.07565183
112	0x390396d7	0.00012549326
113	0xbd87f3b2	-0.06638278
114	0x3df303b0	0.11865938
115	0x35752e3a	9.133688e-07
116	0x3e038b82	0.12846187
117	0xbd77545c	-0.060383186
118	0xb805e1e9	-3.1920066e-05
119	0x3de7f1d4	0.11325422
120	0x3ec32a70	0.38118315
121	0x3e00ab1a	0.1256527
122	0xb8a46d8f	-7.840536e-05
123	0xbe2e0f09	-0.16997923
124	0xbdce206d	-0.100647785
125	0xbc872dbf	-0.016501306
126	0xb839b496	-4.427562e-05
127	0xbe81288e	-0.25226253
128	0xbce7a225	-0.028275559
129	0xbc9f5b32	-0.019452665
130	0xbe7d8902	-0.24759296
131	0xbf036dad	-0.51339227
132	0xbc7e76c2	-0.015531244
133	0xbe8344ef	-0.2563853
134	0x3ddded33	0.10836258
135	0x3ed5de7e	0.4177131
136	0xbcbc9252	-0.02301899
137	0x3e77945c	0.24177688
138	0x3e0f3884	0.13986403
139	0xbddc2e4c	-0.10751018
140	0x3e2a7402	0.16645816
141	0xbe115a03	-0.14194493
142	0x3bc67157	0.0060559916
143	0xbe42f503	-0.19038777
144	0x3d8a5dfe	0.06756209
145	0xbe8ef810	-0.27923632
146	0xbdf55d1b	-0.11980649
147	0x3efcc476	0.49368638
148	0x3dc1d1a5	0.09463815
149	0x3da87b07	0.082265906
150	0xbecab258	-0.3958919
151	0x3dba0bf9	0.09084315
152	0xbe7ed701	-0.24886705
153	0xbec37340	-0.38173866
154	0x3d48cdf4	0.049024537
155	0x3e185f01	0.14879991
156	0x3dbfdd3f	0.09368371
157	0xbe894c89	-0.26816204
158	0x3d5f384a	0.05449704
159	0x3d8fd898	0.07023734
160	0xbe03c439	-0.12867822
161	0x3c45d706	0.012075191
162	0x38c02cc9	9.163615e-05
163	0xbd9a7068	-0.07540971
164	0xbc10ad86	-0.008830434
165	0x3d9b0eb5	0.075711645
166	0x391c8269	0.00014925901
167	0x3d98996d	0.07451139
168	0xbdecc9a5	-0.11561898
169	0xbd28ff9c	-0.041259393
170	0xbe25ca58	-0.1619047
171	0x3e9460ca	0.28980094
172	0x39063a94	0.00012801058
173	0xbe130ceb	-0.14360397
174	0xb857ddec	-5.1466675e-05
175	0xbe0214c7	-0.12703238
176	0x3dd691fd	0.10477064
177	0x3e23ef67	0.16009293
178	0xbdd0c89e	-0.10194515
179	0x3df0dec3	0.117612384
180	0x3db24cf0	0.08706081
181	0xbe12788f	-0.14303802
182	0x3d997698	0.07493323
183	0x3e8eabe7	0.27865526
184	0x3d94a503	0.07258036
185	0x37bbc84a	2.2385404e-05
186	0x3e082597	0.1329559
187	0xbe8bd552	-0.27311188
188	0x37225634	9.676023e-06
189	0xbe8d2bec	-0.27572572
190	0x3da8e23f	0.08246278
191	0x3ded04ff	0.115732186
192	0xbdfbca1a	-0.12294407
193	0x3d75ee92	0.06004197
194	0x3de9f727	0.11424094
195	0x3e23a30d	0.15980168
196	0x3d98387e	0.0743265
197	0x3d56d4e5	0.052449126
198	0x3e839774	0.25701487
199	0x3cf65ba2	0.03007299
200	0x3dde1ecf	0.1084572
201	0x3e056a7a	0.13028899
202	0x3de64f57	0.112456016
203	0x3d70754b	0.05870561
204	0x3d69ad8b	0.05705027
205	0xbe4f5418	-0.20246923
206	0x3da0e6ed	0.078565456
207	0x3dc67732	0.096907035
208	0x3d606e7e	0.054792874
209	0xbddf95f1	-0.10917271
210	0x3deb06f4	0.114759356
211	0xbcac24ae	-0.021013584
212	0xb827577d	-3.9897383e-05
213	0xb70d147c	-8.409024e-06
214	0x3d4a1465	0.049335856
215	0x373626c8	1.0857075e-05
216	0x3dab1a8b	0.08354672
217	0xbebc76c4	-0.3680936
218	0x38212742	3.8421953e-05
219	0xbdc5a0a4	-0.096497804
220	0xbeb0398d	-0.34418908
221	0x3cdffe67	0.027342988
222	0xb967ab53	-0.000220937
223	0xbcf31c29	-0.029676514
224	0x3e022db0	0.12712741
225	0x3e51fa76	0.205057
226	0x38896968	6.5523025e-05
227	0x3d952a4a	0.072834566
228	0x3cb4d0dc	0.022072248
229	0xbec65576	-0.38737077
230	0xbbc8a6fc	-0.0061234217
231	0xbe0f33b8	-0.13984573
232	0xbdb5907b	-0.08865448
233	0x3d9d432c	0.07678828
234	0x3d91b1d0	0.07113993
235	0x3ddf6a01	0.109088905
236	0x3d8b2634	0.06794396
237	0x3e187691	0.1488898
238	0x3daa8630	0.083263755
239	0x3d41fcd6	0.047360264
240	0xbe1fe006	-0.15612802
241	0x3d6503f2	0.055911966
242	0x3db15581	0.08658887
243	0x3d93ebf6	0.0722274
244	0x3dde27d8	0.10847443
245	0x3d50383c	0.05083488
246	0x3c944bee	0.018102612
247	0xbe191407	-0.14949046
248	0x3daf51ad	0.085605
249	0xbdc90da9	-0.098170586
250	0xbd87e18c	-0.066348165
251	0xbd87f912	-0.06639303
252	0x3e0d2748	0.13784516
253	0xbd80338a	-0.0625983
254	0xbdaa78b8	-0.083238065
255	0x3db55277	0.088536195

7.bias f4 [10]
0	0xbe3fc658	-0.18728006
1	0xbe242d9a	-0.1603302
2	0xbd786c6d	-0.060650278
3	0xbdb33cb7	-0.08751815
4	0xbd4e4d3d	-0.05036663
5	0x3dcdb526	0.10044317
6	0x3cf2bd32	0.029631231
7	0xbbff9ce0	-0.0078006834
8	0xb995971d	-0.00028532083
9	0x3d4b8dc8	0.04969576
