models/mnist_conv_linear.pt (torch, 88335 bytes, 8 tensors)

0.weight f4 [16, 1, 3, 3]
000000 e2 7e 72 be e8 c2 32 3e f2 2e e3 bd 77 33 aa 3d
       -0.23681214 0.17457163 -0.110929385 0.083105974
000010 87 c9 4a 3e 58 05 28 3e c3 58 90 bd 1b 78 6d be
       0.19803439 0.16408288 -0.0704818 -0.23190348
000020 10 d6 15 be 50 d1 92 be e6 c9 56 be 56 2e 20 3e
       -0.1463244 -0.28675318 -0.20975456 0.15642676
000030 f4 d1 e7 3d c7 2f 74 3e 39 15 87 bd 87 49 82 3e
       0.11319342 0.2384635 -0.06595845 0.25446722
000040 77 b4 a6 3e 5a 07 fd 3d 13 79 66 be 81 7a 14 be
       0.3255956 0.12354918 -0.22507124 -0.14499857
000050 31 eb 69 be 02 6e 5c 3e e3 e8 aa 3d a1 0a 73 3e
       -0.22843625 0.2152634 0.08345201 0.23734523
000060 02 ff 0c bd 34 8c 8b 3e 3d 7d d9 3d c0 12 14 3d
       -0.034422882 0.27255404 0.106195904 0.036150694
000070 c0 3d 2d be 66 ac 1c 3e a7 cd 0f 3e 3e ef 2a be
       -0.16918087 0.1530014 0.14043294 -0.16692826
000080 ef 22 88 3e 23 aa dd 3d db af 94 be cd 9b 0e be
       0.26589152 0.10823467 -0.29040417 -0.13926621
000090 3c 3e 83 3e d3 e8 3f 3e 9b 8c 0f be 6b 2e 5a 3e
       0.2563342 0.18741159 -0.1401848 0.2130677
0000a0 c2 02 f7 3a c1 27 a0 be 3b 3b 08 3c a1 50 1d be
       0.0018845426 -0.3128033 0.008314903 -0.15362789
0000b0 59 63 12 bd 19 95 ff 3c 79 7b 52 be f1 e5 6d 3d
       -0.035739277 0.031199025 -0.20554914 0.058080617
0000c0 be 71 8d 3e e9 89 70 3d d6 da 32 3d 8a 79 33 3e
       0.2762584 0.05872527 0.04366573 0.17526832
0000d0 f9 11 84 bc fe 01 0d bc 79 b5 79 3d 1b 64 45 3d
       -0.016121851 -0.008606432 0.06096408 0.04819117
0000e0 c2 1e 07 3e 5d 64 6a 3c c9 19 92 3e de f1 5a 3e
       0.13195327 0.014306155 0.28535298 0.21381328
0000f0 90 b7 9e bd eb 65 01 3e 17 e7 18 3c 0c a1 79 3e
       -0.077498555 0.12636535 0.00933244 0.24377841
000100 24 54 86 3e e1 2c 31 3e 21 af 3b 3e d2 2c fb 3d
       0.2623607 0.17302276 0.18328525 0.12264408
000110 b0 53 f2 bd 6b dd 6b be 74 01 90 3e e3 76 ea 3d
       -0.118323684 -0.23033683 0.2812611 0.11448457
000120 1b c1 6e be 72 94 cd 3d b5 59 7f bd e3 6e 4f be
       -0.23315851 0.10038079 -0.06234141 -0.20257144
000130 89 84 ab 3e f2 14 ae 3c c7 96 00 3e 31 c3 04 3c
       0.33499554 0.021250222 0.12557517 0.008103178
000140 2a c8 6f be db 7e 73 3e 83 e0 05 bd 62 7f 3c be
       -0.234162 0.2377886 -0.032684814 -0.18407968
000150 0b f9 4d 3e dc 08 1c be 4c f6 48 be b4 74 61 3e
       0.20114534 -0.15237755 -0.19625205 0.22017175
000160 19 8e 1d 3e 72 f6 fb bd 0e cf 99 3d a8 b7 d5 bd
       0.15386237 -0.12302865 0.07510196 -0.1043542
000170 ad 74 4e 3e 2b 40 63 be df 63 89 be 7e c9 7d bd
       0.20161696 -0.22192447 -0.26834008 -0.061959736
000180 80 76 a7 bd 9b dd 9a 3e f4 07 a8 bd ea 44 e1 bc
       -0.08176899 0.30247197 -0.08204642 -0.027498681
000190 86 f3 d8 3d bf 11 1c 3d 68 86 c8 bb bd c6 2a be
       0.105933234 0.03810286 -0.006119538 -0.16677375
0001a0 c7 aa 84 be b0 fb ad 3e b5 50 e5 bd 63 58 18 3e
       -0.25911543 0.33981085 -0.11197034 0.14877467
0001b0 8e da 39 3e 2a 4c f1 3d 45 23 72 be 76 74 b9 bc
       0.18149778 0.11782105 -0.23646267 -0.02263854
0001c0 a8 8a b3 3d 0a 95 c7 3d e9 a2 42 3e cc c3 85 3e
       0.08766681 0.09745224 0.19007458 0.26125944
0001d0 00 68 93 bc a7 63 66 3e c6 fc cc bd e6 31 19 be
       -0.017993927 0.22498952 -0.1000915 -0.14960441
0001e0 34 41 5c bd 2d 80 cd 3e 71 d6 2a 3e 64 51 6b 3c
       -0.05377312 0.40136853 0.16683365 0.014362667
0001f0 5c ce 24 be 77 2d 19 be e6 7e 07 3d a8 ef 52 3d
       -0.16094345 -0.1495875 0.033080004 0.051498085
000200 d8 44 32 be cb 16 5c 3e 8f 31 a0 bd 30 c4 fa 3b
       -0.17409074 0.2149307 -0.078219526 0.007652782
000210 30 5f 62 be 83 dd 2b 3d 46 65 a4 bc 00 9d 28 3e
       -0.22106624 0.041959297 -0.020067822 0.16466141
000220 f9 aa 63 3e fc f3 be 3c 60 ee 10 be 1c 96 9f 3e
       0.2223319 0.0233097 -0.14153433 0.31169212
000230 c5 f0 12 3e b0 94 57 3e c0 39 8b be 19 a8 77 bd
       0.14349659 0.21052814 -0.27192497 -0.060463045

0.bias f4 [16]
000000 bc 56 b4 3c 91 c0 c7 bd 8e 20 71 bd 37 b0 cc 3c
       0.022014014 -0.09753526 -0.058868937 0.02498637
000010 b6 ca cc 3c f0 28 46 be 23 31 50 be c6 88 a5 bd
       0.024999004 -0.19351554 -0.20331244 -0.08082728
000020 c2 bd 32 3c ae 3d 90 bc 1f c5 ff bc 19 98 aa bd
       0.0109095 -0.017607536 -0.031221924 -0.083297916
000030 92 cc 39 bd 11 3d 35 bd 33 ec 1e 3d 42 02 49 b7
       -0.04536111 -0.04424769 0.038799476 -1.1981059e-05

1.weight f4 [8, 16, 3, 3]
000000 4a ae d8 3c 07 e0 e7 3d 49 ef 45 3d 73 f8 8e 3d
       0.026450295 0.11322027 0.048323903 0.06980982
000010 13 7b 48 3d 91 01 59 bd 17 20 92 bd ed 3f cf bd
       0.048945498 -0.05298001 -0.07135027 -0.10119615
000020 6c f6 5c bd 7c 20 23 be 3c ff 7d bd e0 36 1c bc
       -0.053945944 -0.1593036 -0.06201099 -0.009534568
000030 3a 35 ba bd 26 3e cd 3d 85 32 00 be 01 30 8a bd
       -0.090921834 0.100216195 -0.12519272 -0.06747437
000040 e2 b1 24 be a3 60 ad bc c8 a7 3d be 0f f4 03 be
       -0.16083482 -0.021164244 -0.18521035 -0.1288607
000050 e9 4d e7 bc d0 77 a8 bc 86 16 ba 3d 3f c6 0c be
       -0.028235393 -0.020564944 0.09086327 -0.137475
000060 9d 1e c6 bd 1e 84 bb bd d1 c6 ae 3b c1 fc 16 3e
       -0.09673808 -0.09156059 0.0053337594 0.14744855
000070 1f d5 d1 3d f4 c3 e8 bc 93 fc 0f 3c a7 17 06 bd
       0.10245728 -0.02841375 0.008788246 -0.0327374
000080 ae d5 95 3d 25 b1 9f bd 45 63 06 ba 8d f8 4d bd
       0.07316147 -0.077974595 -0.00051264866 -0.050285865
000090 8c 91 6a bb 65 6f 24 bc 06 7c 5f 3d 0d d8 6c 3d
       -0.003579232 -0.010036324 0.054561637 0.05782323
0000a0 0e d0 e1 bd c1 1f 1a 3d 8d c5 93 3c 69 46 ad bc
       -0.110260114 0.03762794 0.018038535 -0.021151738
0000b0 c4 51 97 bd 95 f6 ab bc 05 a5 3d be db 47 ed 3c
       -0.073886424 -0.020991603 -0.18519981 0.028964927
0000c0 fa 88 0f 3d 3a a8 82 bd 5d e8 a8 bd 99 d9 ba bc
       0.03504274 -0.06379743 -0.08247445 -0.022808837
0000d0 ae 5d 0b be 3d f3 f8 bc ff d5 22 be df bf 7a bd
       -0.13609955 -0.030389423 -0.15901946 -0.06121814
0000e0 6e d9 f4 3d 57 e1 22 bd da bf 50 bd c2 4c cb bd
       0.11955534 -0.039765682 -0.050964214 -0.0992675
0000f0 4e 28 8b bd 2f da 2f be 50 99 e4 bd 15 c5 c1 bd
       -0.06794797 -0.17173074 -0.111620545 -0.094614185
000100 71 b8 3a 3c 4d 74 a6 3d 33 85 0f be e4 a4 d2 bd
       0.011396513 0.08127651 -0.14015655 -0.10285357
000110 1f ac 1b be 69 bf d4 bd 49 92 15 be 3f 8a 15 be
       -0.15202378 -0.10388071 -0.14606585 -0.14603518
000120 10 17 a3 3d 78 fd d5 bc 34 c6 b6 bc d9 25 d7 bc
       0.07963383 -0.02612184 -0.022311307 -0.026263164
000130 c0 74 32 3e 1f dd 78 bd d5 6a 83 bd 1a 7a 62 3b
       0.17427349 -0.060757753 -0.06416861 0.0034557641
000140 45 e6 84 bd 68 dc cc bb 61 75 73 be 8e 5d 0c bc
       -0.06489233 -0.0062518604 -0.23775245 -0.008567227
000150 a5 33 c5 3d 3c 07 2f bd be c4 02 3d f1 0d 6f 3d
       0.09628991 -0.04273151 0.03192591 0.058362905
000160 78 fb d2 bb 28 f0 c6 bd be a3 0e 3e 4a 2f 59 bd
       -0.006438669 -0.09713775 0.1392965 -0.053023614
000170 a8 20 21 be 79 c6 b1 bc e3 49 48 3d d2 09 16 3e
       -0.15735114 -0.021701084 0.04889859 0.14652184
000180 43 4f 3a 3d 7e be a9 3d b7 23 ce 3d 10 83 bf bc
       0.045485746 0.082882866 0.10065406 -0.023377925
000190 37 db 44 be 8e 15 e1 bd c0 71 8c bd 82 66 c0 bc
       -0.19224249 -0.10990439 -0.068576336 -0.02348638
0001a0 1b 23 a1 3c 0b 13 ae 3d 9d 78 a6 3d 21 32 81 bd
       0.01967006 0.08499726 0.08128474 -0.063083895
0001b0 1d 43 21 be 24 fb 00 be b1 71 7a 3c 9a 82 51 bd
       -0.15748258 -0.12595803 0.015285895 -0.051149942
0001c0 99 12 19 be 63 2a 77 bd b3 f9 70 bd 76 ee d8 bd
       -0.149485 -0.060343158 -0.05883188 -0.10592358
0001d0 f0 2f 9d bd bf e1 0c be 0e 0d 2d 3c b9 1b f3 3d
       -0.07675159 -0.1375799 0.0105621945 0.11870522
0001e0 e0 d4 03 3e 64 6a 1f bb 3e 48 e9 bd e4 69 e0 bd
       0.12874174 -0.0024324888 -0.11390732 -0.10957697
0001f0 64 e0 b9 bd 9e 50 3e bd f8 e4 28 bc 66 31 3f bb
       -0.09076002 -0.0464636 -0.010308497 -0.002917373
000200 f8 b9 9b bd 13 28 e5 3d 58 06 be ba 9f 9b 7e 3d
       -0.0760383 0.11189284 -0.001449774 0.06216013
000210 49 83 ff 3b 7a 7a c1 3c 50 55 2d ba 0f cc ab bd
       0.007797633 0.023617972 -0.0006612139 -0.083885305
000220 4e 56 df 3d c0 7e f7 3c f5 85 cf bd db c7 16 3c
       0.10905133 0.030211806 -0.10132972 0.009202923
000230 00 4f 60 bd 48 62 9b bd 58 b7 03 be 4f 92 b3 bd
       -0.05476284 -0.07587105 -0.12862909 -0.087681405
000240 00 49 d2 bc 42 7e b3 bd 77 65 c1 bc b0 b1 0b bd
       -0.025669575 -0.08764316 -0.023607953 -0.034105003
000250 d8 3c ed bc 38 f8 b0 bc 3b 64 57 3d 70 1c f0 3d
       -0.028959677 -0.021602735 0.05258582 0.11724174
000260 80 69 d3 3c 00 4d eb bd 12 63 81 bc 1d ce a5 3c
       0.025807142 -0.11489296 -0.01579431 0.020239884
000270 49 10 15 bd cb a4 9c be cb 25 9c bd c0 31 a5 bd
       -0.036392484 -0.30594477 -0.07624396 -0.0806613
000280 d5 0e b2 3d 8b c1 90 3b e1 26 bf 3b d8 e1 86 3c
       0.08694235 0.0044176034 0.005833492 0.016465113
000290 d7 65 82 3d 51 ae bc bc 88 48 13 be 1a 2f a3 bd
       0.06367081 -0.02303234 -0.14383137 -0.07967968
0002a0 bb 64 c6 3d 08 f0 0b 3e bb 80 80 bd 2d ab f4 39
       0.096871816 0.13665783 -0.062745534 0.00046666843
0002b0 e7 28 9c bd b2 06 64 bb 46 56 64 3c e2 ae d1 bd
       -0.07624989 -0.003479403 0.013936585 -0.102384344
0002c0 35 aa 03 3e d0 55 23 bd 5e 2e 97 bd e3 fe 93 bc
       0.12857898 -0.03987676 -0.07381891 -0.018065875
0002d0 97 21 74 bd 34 e7 94 bc 92 64 48 bc 20 41 a7 3c
       -0.059602346 -0.018176652 -0.012231009 0.020416796
0002e0 51 61 73 3d ba 0a b0 3c c2 26 ce 3d f1 fc 2f be
       0.05941898 0.02148949 0.10065986 -0.17186333
0002f0 f2 6c 03 3c 58 63 b3 bd 96 e9 98 3b b1 33 34 3c
       0.00802158 -0.08759183 0.0046665175 0.010998652
000300 1b 28 44 bd 8e ef 8c bd 7b 1d 2c 3d ab 1a f4 bc
       -0.04788981 -0.06881629 0.042020302 -0.029797873
000310 b1 00 f2 3c 3a fa 8a bc 50 45 de bc b9 eb 7a 3d
       0.029541345 -0.01696502 -0.02713266 0.06125996
000320 56 3c 84 bd 81 7b 81 bb 40 38 f4 bd ec 23 ec bd
       -0.06456821 -0.0039514904 -0.11924791 -0.11530289
000330 51 f2 d0 bd 9c 3c 8f 3c 02 4f 19 bd b4 e9 81 bd
       -0.10202468 0.017484955 -0.037428863 -0.063434035
000340 78 37 f9 3c 9b 63 fb 3b d2 39 13 bd c4 dc 8d 3c
       0.030421957 0.007671786 -0.035943814 0.017317183
000350 28 f5 5d be 34 44 d0 bd 3a be 39 bc 10 05 83 3d
       -0.21675551 -0.10169259 -0.011336857 0.0639745
000360 66 2e d5 bd cb 64 53 bc e9 76 0e bc 6c f7 3b 3e
       -0.104092404 -0.012902449 -0.008695343 0.18356103
000370 5d a2 f0 bd 15 c4 bb bd 53 cb 42 3d e3 35 f2 3d
       -0.11749718 -0.09168259 0.047557186 0.11826684
000380 c7 e6 92 bd da de 02 bd fd 69 31 3c 17 01 94 bd
       -0.071729235 -0.03195081 0.010828492 -0.0722677
000390 c3 de 02 3e 41 a0 e4 bd 70 e2 6f 3d 5f 50 1b 3d
       0.1278029 -0.111633785 0.058565557 0.037918445
0003a0 b2 84 ed bd e3 e5 fc 3d 53 87 d7 bd 2e 3b 6e bc
       -0.11597575 0.12348535 -0.10523858 -0.014540477
0003b0 89 4a b3 bb 8f 25 13 3d 46 10 45 3e 4f f9 cf 3c
       -0.005471532 0.03592449 0.19244489 0.025387434
0003c0 44 72 86 bc 90 8e 41 bb de dc 3f bd e6 c1 bb bd
       -0.016411908 -0.0029534437 -0.046841495 -0.091678426
0003d0 19 9f e1 bc 5e eb b0 bd f8 77 cd 3b d9 1e ac 3d
       -0.027541684 -0.08638643 0.006270405 0.08404321
0003e0 ab 33 2a 3e aa 10 18 39 f1 9d 85 3d 20 7a c0 bb
       0.16621272 0.00014502057 0.065242656 -0.0058739334
0003f0 27 7e a4 bd 33 67 01 3d 67 57 88 bc 9e ba ec bd
       -0.08031874 0.03159256 -0.01664324 -0.11559032

1.bias f4 [8]
000000 07 5b c3 3d 34 86 88 bc 2d 85 7d bc de 37 5c bd
       0.095388465 -0.016665556 -0.015473646 -0.053764217
000010 c7 de 06 bd 20 e4 b2 bc f9 ef 75 3c 77 b1 a5 3d
       -0.0329273 -0.021837294 0.015010827 0.08090489

3.weight f4 [50, 392]
000000 10 d7 13 3d 93 cc d9 3c b7 c7 97 3b 64 49 15 3d
       0.03609377 0.026586806 0.004631962 0.036446944
000010 fc 45 12 ba 3f a4 c0 3b 40 07 84 3b f7 67 a8 3c
       -0.00055798865 0.0058789547 0.0040291846 0.020557387
000020 fe e4 f8 3c 26 c2 98 3d 2f 60 4a bd 38 68 3c bb
       0.03038263 0.07458906 -0.049408134 -0.0028748643
000030 67 41 1d bc bf c5 8b bd ef 8d 3a 3d ad 90 a5 3c
       -0.009598113 -0.068248264 0.045545515 0.020210588
000040 b2 bc 25 be 52 2b 13 be f9 79 51 bd cf a7 f2 bd
       -0.16185263 -0.14371994 -0.051141713 -0.11848413
000050 83 c3 15 be 09 80 b6 3c 0e ba 37 bb cc aa ef bd
       -0.14625363 0.022277849 -0.0028034481 -0.11702499
000060 3e 80 01 be a6 38 6a 3e 6a 4b ef 3d ff b2 c6 3b
       -0.12646577 0.22873172 0.11684306 0.0060638185
000070 62 ec 8b 3c 63 74 c3 bb d4 e4 36 bd 2c 2f b5 3d
       0.01708049 -0.005964802 -0.04465182 0.08846888
000080 31 eb 0d 3e 55 0e 18 3d 97 a2 3b 3c ea 35 82 3c
       0.1385925 0.037123043 0.011452339 0.015894849
000090 75 52 5f bb 72 6d b5 bd 92 e0 c9 bb ab 54 08 3d
       -0.0034076248 -0.08858766 -0.006160804 0.03328387
0000a0 f6 dc 7b bb 66 81 a6 bb 9e 6a a9 3b ad 0f 97 3a
       -0.0038431264 -0.0050813435 0.0051701805 0.0011525057
0000b0 d4 9e 60 3d a7 51 ce bd cb f0 6b 3c 88 a9 0b 3c
       0.05483897 -0.10074168 0.014400671 0.008524306
0000c0 2a 61 57 39 e4 86 b0 ba 41 f7 6a ba 29 fb 88 bb
       0.00020540194 -0.0013467935 -0.00089632353 -0.0041803312
0000d0 9a 78 ee b9 73 a4 19 3b 44 38 0c 3d eb 1f 7d 3b
       -0.00045484753 0.0023443967 0.034233347 0.003862376
0000e0 9f 73 aa ba bd 18 58 b9 96 fd 9c 3c 98 1e a8 3c
       -0.0013004428 -0.00020608581 0.019163888 0.0205224
0000f0 39 3e d2 bc 76 da da 3b d2 ab bf bd 1b 6f 46 ba
       -0.025664436 0.0066788746 -0.09358944 -0.00075696566
000100 89 de f0 ba d6 72 8f bc 65 ef 38 be 15 83 5e bd
       -0.0018376868 -0.017510813 -0.18060072 -0.05432423
000110 27 78 5d be d7 ba cc be 2d 96 4a ba a5 f8 86 ba
       -0.21627866 -0.39986297 -0.00077280664 -0.001029749
000120 5a fc e0 bc b5 77 d6 3c 82 15 75 3e 11 7b 01 3d
       -0.02746408 0.026180128 0.23933986 0.031611506
000130 bb c9 7e 3c 6a da 0f 3b 0a 87 af bc b1 19 8c 3d
       0.015551026 0.0021950253 -0.021426696 0.06840838
000140 f2 c5 e4 3d 63 ce 23 3d c0 ac 61 3d 5b f8 d8 bc
       0.111705676 0.039991748 0.055096388 -0.026485613
000150 e6 80 ef 3b df 0c 47 bd 56 da 94 bd ae 71 45 3c
       0.007309067 -0.04859626 -0.07268207 0.012051029
000160 7a 74 d1 3d d1 98 fd bb 18 6b 31 b9 47 cb 45 3a
       0.10227294 -0.0077391644 -0.00016919931 0.00075452443
000170 fa 82 c7 3a f7 ea 9d 3c 37 79 7d 3c c6 cf c9 bc
       0.0015221529 0.019277079 0.015470794 -0.024635207
000180 59 13 03 ba d6 83 85 3a fa d4 dc 3a 55 67 95 ba
       -0.00050001364 0.0010186385 0.001684814 -0.0011398593
000190 eb 86 82 ba bb 5e 1c 38 d2 f1 04 3b bf 9e 11 3d
       -0.0009958422 3.7281523e-05 0.0020285738 0.035551783
0001a0 81 6f 86 ba bc 7a 93 3a c0 19 0a bc bf b6 bf ba
       -0.001025662 0.0011251788 -0.008428991 -0.0014626606
0001b0 b8 12 c9 bb a2 1a a1 ba d2 0a e1 3c 3d f7 2f bc
       -0.0061362647 -0.0012291262 0.02747098 -0.010740099
0001c0 48 fb 58 3a f7 ee af 3b 6b 5f cf 3d 0a 61 78 3c
       0.000827719 0.005369063 0.101256214 0.015159855
0001d0 e6 27 bc 3d 4e ee c2 bd 3e fd cc be 15 31 e3 3a
       0.091872975 -0.09518109 -0.40036958 0.0017333353
0001e0 ae 8b d9 3a 2c 2f 10 bd 07 ce 4b be 8c 8d 75 3e
       0.0016597414 -0.035201237 -0.19902812 0.23979777
0001f0 ce 19 20 bb 13 3b 94 3a ab 94 45 3a 5d a1 87 3d
       -0.0024429443 0.0011309109 0.0007537107 0.066225745
000200 00 51 09 3d 1b a2 8b bd 27 00 9c 3d de 51 72 3d
       0.033524513 -0.068180285 0.076172166 0.059160106
000210 5e b2 05 b9 26 b3 4f 3b 7e 06 e5 3d 18 39 38 bd
       -0.00012750315 0.0031692474 0.11182879 -0.044976324
000220 9a 1f dd bd e9 da 37 bd 17 a5 a3 3d df 40 a7 bb
       -0.10797043 -0.044886503 0.07990473 -0.005104169
000230 80 a2 9c 3a 70 d3 a6 3b 96 71 5c 3a 90 39 3e bd
       0.0011950284 0.0050911233 0.00084092596 -0.046441615
000240 db da 24 ba 02 47 a7 3a 4a c1 16 39 2b 56 05 b9
       -0.00062887155 0.0012762251 0.0001437712 -0.00012715968
000250 6a 93 11 ba 42 7a 9b 39 2d 91 f5 b9 46 ce df bc
       -0.00055532774 0.00029654993 -0.00046838206 -0.027320039
000260 74 02 2d bd 92 ff 51 ba 16 f3 10 ba 68 5f 26 bb
       -0.042238668 -0.00080108 -0.00055293867 -0.0025386456
000270 4b 84 03 bb 87 98 01 3c 5a 28 08 bc 60 65 32 bd
       -0.0020067866 0.0079099005 -0.008310402 -0.04355371
000280 65 50 11 bd e1 df 08 ba 50 53 b0 ba a8 27 ba bd
       -0.03547706 -0.0005221349 -0.0013452563 -0.09089595
000290 9b 32 19 be 48 50 ff 3d 60 45 1f bd 23 45 96 bd
       -0.1496071 0.12466484 -0.03888452 -0.073374055
0002a0 39 f8 95 ba ac 55 de ba 96 bd 16 be 78 f5 0a 3d
       -0.0011441774 -0.0016962788 -0.14720759 0.033925503
0002b0 f1 f5 31 3e 44 f2 91 3b 6a 89 90 3b 46 b4 e3 b9
       0.17378975 0.004453929 0.0044109123 -0.00043431128
0002c0 08 97 84 3a 1b 64 b2 3b 63 e0 94 bd 3a 14 a8 bd
       0.0010115812 0.0054440624 -0.07269361 -0.08206983
0002d0 af 60 48 3d 4f 9b ff bc 55 fc b1 ba a3 b3 0e 3c
       0.04892033 -0.031201987 -0.0013579229 0.008709821
0002e0 c5 45 57 3c 27 2d e4 bd 79 97 89 3d 34 ba 8d 3b
       0.013139193 -0.111414246 0.06718344 0.0043251757
0002f0 e7 b9 95 ba 90 74 d3 b9 e9 d7 74 ba 8f 53 24 bd
       -0.0011423201 -0.00040331902 -0.00093400344 -0.04011875
000300 ab e9 f0 3b 97 01 a2 3c 15 20 b7 b9 a4 c1 a0 b9
       0.007352074 0.019776149 -0.00034928383 -0.00030661852
000310 5d 74 95 bb 8a 23 f7 bb 12 38 1c bb eb c8 03 ba
       -0.0045609907 -0.0075420784 -0.0023837131 -0.00050271925
000320 23 03 ac 38 cc 44 dc bc 4b e0 c0 bc be 40 19 bc
       8.2021834e-05 -0.026888274 -0.023544451 -0.009353815
000330 24 bc 58 bc 1e 62 69 3b 6b c2 81 39 f0 17 19 3c
       -0.01322845 0.003561146 0.0002474965 0.009344086
000340 34 5b 58 bc aa 4b c9 bc a6 9c 26 bd 51 6f f0 bc
       -0.013205338 -0.024572212 -0.040676735 -0.029349955
000350 80 07 98 bc 31 29 36 be df e7 b0 bd 0d 14 2c be
       -0.018558264 -0.17789151 -0.08637976 -0.16804524
000360 e9 06 c5 bd cf 5f f2 ba f6 10 56 bb 2a 99 65 be
       -0.09620459 -0.0018491688 -0.0032663918 -0.22421709
000370 be 7f 2a 3e 4f 5d 01 3e 83 c7 72 3d ed 95 72 3c
       0.16650292 0.1263325 0.0592723 0.014806253
000380 06 3e 2a ba 0b b9 54 bc 1c 74 4e bd 2b ae c4 3d
       -0.00064942276 -0.012983571 -0.0504037 0.096035324
000390 72 9a 80 3d bb e8 b4 3d 94 4b 58 bd 5e 8f 88 ba
       0.06279458 0.08833452 -0.052806452 -0.0010418703
0003a0 85 ed 27 bc a0 13 88 bd 4a 69 bf 3d df a1 9f 3d
       -0.0102495 -0.06644368 0.09346254 0.07794546
0003b0 37 14 92 3c 95 eb 24 bc 36 f2 96 bc e3 5a 73 bb
       0.017831905 -0.010065933 -0.018426042 -0.003713303
0003c0 71 a0 4a ba 70 cf 56 be ba e3 00 be 1f c8 08 bb
       -0.0007729596 -0.20977569 -0.12586871 -0.0020871235
0003d0 6c 16 a1 ba 28 ad da ba cb 8a 87 ba 4d 16 b7 bc
       -0.0012290007 -0.0016683685 -0.0010341046 -0.022349501
0003e0 28 ab 64 ba fe 70 d5 b8 a8 9c 24 ba 7e 3c 0c bb
       -0.0008723014 -0.00010177678 -0.0006279447 -0.002139836
0003f0 b8 db 13 bc e6 9f cc b9 ef 18 5c bd ea bb 91 3a
       -0.009024553 -0.00039029046 -0.053734716 0.0011118625

3.bias f4 [50]
000000 11 a9 76 3e 2d 8b e9 bc 32 0b 77 3d 52 89 ca 3e
       0.24087931 -0.028508747 0.06031341 0.39557892
000010 5d 1d 9a be dd 7f 80 3d 8d 58 62 be 5a 01 13 3c
       -0.30100527 0.06274388 -0.22104092 0.00897249
000020 46 52 93 3e 8a fe 39 3c aa b5 91 bd e8 c8 04 3e
       0.28773707 0.011352191 -0.07114728 0.12967265
000030 9b 79 f4 3c 77 3c 33 bd 6f a3 73 bd 87 3b 0c 3c
       0.029843142 -0.043758836 -0.059482034 0.008559114
000040 31 8f 8a 3e 15 02 02 bd cf aa 03 3e 28 e1 75 be
       0.2706237 -0.031740267 0.12858127 -0.24011672
000050 79 ee bd bd 1a fe b2 3d ab 72 68 3e 9d 3a a4 3d
       -0.09274001 0.08739872 0.22699992 0.08018992
000060 fd 89 4b 3c f3 81 52 be d6 15 df 3d d8 59 23 3e
       0.012423036 -0.20557384 0.10892837 0.15952241
000070 97 c7 88 3e 6a dd 34 3d 2a b8 69 bb 78 d9 16 be
       0.26714775 0.04415647 -0.003566275 -0.14731395
000080 50 30 f0 bd 40 54 96 3e 2c fc 42 bd df 50 5c 3e
       -0.11727965 0.29361153 -0.04760377 0.21515225
000090 d5 95 51 be ac 64 17 be f7 17 fd bd 1e a5 b5 3d
       -0.20467313 -0.14784497 -0.123580866 0.08869384
0000a0 62 31 a8 3c 7f f4 58 3e ae d1 49 3e 55 39 a7 3e
       0.02053136 0.21187018 0.19708893 0.32660928
0000b0 33 26 21 3e d4 55 18 3e f8 37 45 3d 9a 50 4f be
       0.15737228 0.14876491 0.04814908 -0.20245591
0000c0 aa 3d 86 3d ff c4 c2 3c
       0.0655473 0.023775576

4.weight f4 [10, 50]
000000 f8 0a 83 3e 84 11 86 3e e9 e6 07 3d 26 b3 fc 3c
       0.25594306 0.26185238 0.033179197 0.030847143
000010 6f 59 6a 3a 7e 68 83 3e 0b 37 04 3d 4f d9 7a be
       0.0008939718 0.2566566 0.032279056 -0.24496959
000020 10 9f 65 bd be 14 a3 3d eb 9a cd bd 7f e2 6d be
       -0.056059897 0.07962941 -0.10039314 -0.23230933
000030 97 56 75 3e 30 9b 06 3d 34 b6 33 3e bc 93 38 be
       0.23958813 0.032862842 0.17549974 -0.18025106
000040 f2 f0 20 3e 4e 50 d1 3d 41 81 9b bd 1c 93 8a bd
       0.15716913 0.10220395 -0.075930126 -0.0676634
000050 6b a0 3a 3b 14 7f be 3d a0 4d 32 3e c6 d5 7b 3d
       0.0028476964 0.09301582 0.17412424 0.061483167
000060 04 be e8 bd ae 87 d0 bc e7 1e 38 be 5a 77 ef bd
       -0.113643676 -0.025455322 -0.17980538 -0.116926864
000070 a3 2f 47 be 48 7d 36 3e d9 36 97 bb 23 37 59 3e
       -0.19451766 0.17821229 -0.0046146926 0.21212439
000080 2a 49 01 3e 96 d5 d5 bb d8 d2 84 bd 02 0a ec bd
       0.12625566 -0.0065257056 -0.06485528 -0.11525346
000090 ac 9d 2c 3e 11 17 88 3e 0c 8e c7 3b c5 a0 8b 3e
       0.16857022 0.26580098 0.0060899314 0.27271095
0000a0 81 3f cc bd c9 56 40 be 10 c5 0e be 74 dc 54 3e
       -0.0997305 -0.18783106 -0.13942361 0.20787221
0000b0 10 f1 a1 be 03 1e 9c be 4f 69 ba bd 0e 52 41 3c
       -0.3162923 -0.30491647 -0.09102117 0.0117993485
0000c0 05 b9 37 bd af 4c 77 3e 96 d3 d9 bd a5 06 26 be
       -0.044854183 0.24150346 -0.1063606 -0.16213472
0000d0 9a 73 75 be 4f 30 9e 3d d1 d6 99 3e 73 9e 92 bd
       -0.2396988 0.07724058 0.30046704 -0.07159128
0000e0 93 61 6f be 34 f5 07 3d 03 a5 92 be e6 d4 cc bd
       -0.23377065 0.03319283 -0.2864152 -0.10001545
0000f0 6c 12 ee 3c 43 15 48 3c 82 f6 99 3d 42 98 1a be
       0.029061519 0.0122121 0.07517721 -0.15097144
000100 73 18 9e bd 86 72 0d 3e 8c 38 af be 87 ce 49 3e
       -0.07719507 0.13813218 -0.3422283 0.1970769
000110 c9 21 b0 3d 5d 69 07 3a d5 7e ad bd 8c 78 8f 3c
       0.08600194 0.00051655417 -0.08471457 0.017513536
000120 4b f2 77 be 48 bb 3f be 8a 0e 2f 3e b5 5e 16 3e
       -0.24213521 -0.18723786 0.1709539 0.14684565
000130 a6 bb e6 3d 93 69 e9 3d cf fd f0 3c 15 a4 6b be
       0.1126626 0.1139709 0.0294179 -0.23011811
000140 c5 8e c4 3c 8d cc 51 3e 21 92 5a bc 47 7f 47 be
       0.023993859 0.20488186 -0.013340504 -0.19482146
000150 f5 cd 53 3d 2f 9a 2e be bc 0d 45 be ac 28 11 be
       0.051710088 -0.17051004 -0.1924352 -0.14175671
000160 fe 80 7f 3e 15 ea 2b 3d 24 f3 cb bc 1f 13 11 be
       0.2495155 0.041971285 -0.024896212 -0.1416745
000170 43 5a 5d 3e 00 cf df bd 43 f2 2e 3e 14 68 35 3e
       0.21616463 -0.10928154 0.17084603 0.17715484
000180 73 bc 6e be c0 23 90 bd fb 94 6d 3b 77 f8 41 3e
       -0.23314075 -0.07038069 0.003625213 0.18942438
000190 ca aa 06 3b 49 49 0d bc 69 01 bd 3d 9a 04 17 3d
       0.0020548576 -0.00862343 0.092287846 0.036869623
0001a0 bd f8 ac 3d b7 15 14 be 0a 07 ac 3d df 1b a4 bb
       0.084458806 -0.14461409 0.0839978 -0.0050082053
0001b0 e1 e1 ab bc 29 7e 04 3e 62 b2 19 be 25 a6 95 3d
       -0.02098173 0.12938751 -0.15009454 0.0730708
0001c0 6c 1a f6 bd ae 3b 81 bd b6 30 e4 3d 75 db db bd
       -0.12016758 -0.06310211 0.111421034 -0.107352175
0001d0 e2 b7 98 3d 53 e5 2c 3e 08 02 44 3d e0 36 24 be
       0.07456948 0.16884355 0.0478535 -0.16036558
0001e0 04 fd b8 3c d3 77 06 3e 32 9d 54 3d f6 28 1a 3e
       0.022581585 0.13131647 0.051907726 0.15054688
0001f0 e9 e1 0e 3e 74 fe fa 3d 78 79 f9 bd 75 2c 95 bd
       0.13953365 0.12255564 -0.121813715 -0.0728387
000200 57 4e dd 3c 3c 0a fa bd da fc 29 be 6b 6a d8 bd
       0.027014894 -0.12208983 -0.16600361 -0.105671726
000210 f6 a6 03 3e b0 05 1a 3e 48 50 d6 bd 82 18 d7 3d
       0.1285666 0.15041232 -0.10464531 0.10502721
000220 53 8e bb 3c 8c b3 0e bd af 0f 46 3e ad 89 92 bb
       0.022895014 -0.034839198 0.1934192 -0.0044719786
000230 13 07 0f be 3a 9f 30 3e c8 d9 8b bb e1 4d f0 3d
       -0.13967542 0.1724824 -0.004267905 0.11733604
000240 07 69 1d 3e 3d b5 cf 3c 1d 18 c1 3d d3 45 9f 3d
       0.15372096 0.025354976 0.09428427 0.0777699
000250 76 99 42 bd 18 3a ff bd 38 5b bc bd 66 ad cc 3b
       -0.047509633 -0.124622524 -0.09197086 0.0062462566
000260 02 a3 28 bd 66 2f 26 3b 7f 52 19 be 20 6c 20 3c
       -0.04117108 0.0025357842 -0.14972876 0.009791404
000270 2a d6 05 be 16 ae c4 3d ff 86 1d 3e d0 ae 55 be
       -0.13069978 0.09603517 0.15383528 -0.20867467
000280 0b 6a 02 3d cb 32 99 3c 42 c0 85 3b 58 55 c8 3c
       0.03183941 0.018700978 0.004081757 0.024454758
000290 89 6f 99 3d ce 3d 6e 3d a6 36 4c be b3 2e c0 bc
       0.07491977 0.05816441 -0.19942722 -0.023459768
0002a0 a6 90 2b bd a8 c3 96 3d 75 27 75 bc 81 f8 43 3e
       -0.041885994 0.07361537 -0.014963021 0.19137765
0002b0 71 31 1b 3e da 2d 70 bd 90 da 0d bd 5c 91 42 3c
       0.15155579 -0.058637477 -0.034632266 0.011875477
0002c0 a9 dd af bd 27 29 3e bd 8a ec 0d be aa d5 ee 3d
       -0.085872 -0.046425965 -0.13859764 0.11661847
0002d0 8d 94 24 3e fc ba 9c 3c 09 95 62 3e 92 ad 69 be
       0.16072293 0.01913213 0.22127165 -0.22820118
0002e0 eb d9 91 3d 2c 7d 2f 3e 6c 23 20 3d 8b b2 71 bd
       0.07121643 0.17137593 0.03909628 -0.059008162
0002f0 f4 1b 16 3e c6 a5 1b bd ee da 43 be 76 0b 0a 3e
       0.14659101 -0.03799989 -0.19126484 0.13480935
000300 64 9e bf bc e0 b9 28 3e 8c 5f 3e 3d 32 8b 32 3e
       -0.023390956 0.16477156 0.04647784 0.17435911
000310 a9 22 4d 3d 9b 22 b1 bd a6 8d 14 3d 19 74 41 bb
       0.050081883 -0.086491786 0.0362679 -0.0029518662
000320 5d 7d 90 bc 8a 53 00 3e 20 61 34 be f0 82 1c be
       -0.017637903 0.12531868 -0.17615175 -0.15284324
000330 c6 c5 55 3e 00 26 c1 3c a0 ee 20 3c 82 45 bd 3d
       0.20876226 0.02357769 0.009822518 0.09241773
000340 20 27 8f 3d 10 30 32 be f2 3d 2c 3e be fe 2b 3e
       0.069898844 -0.17401147 0.16820505 0.16796395
000350 c8 76 88 bd 12 10 cb 3d a3 6d 32 3e c1 21 5d 3e
       -0.06663281 0.099151745 0.17424636 0.21594907
000360 e8 10 1b 3e d8 c2 31 be 21 1b 88 be 25 67 60 3e
       0.15143168 -0.17359483 -0.26583198 0.21914347
000370 fc 6a d4 bd 0d 5e d2 bd 98 e6 cc 3b f8 5c d2 bc
       -0.10371968 -0.10271845 0.006253075 -0.025679097
000380 74 e0 d4 bc 0b d4 93 3b 06 7c 94 3d af 8b 60 bd
       -0.025985934 0.0045113615 0.07250218 -0.054820713
000390 ad 39 30 3e 4f 6d d6 bb 51 c8 ec bd a1 bd b2 bb
       0.17209502 -0.0065437923 -0.11561645 -0.0054547344
0003a0 52 e0 ff bd ac 46 cd 3d 0a da 00 be 13 56 57 3d
       -0.124939576 0.10023245 -0.12583175 0.05257232
0003b0 73 0c 50 bc 99 57 1f 3e d2 f4 63 be c4 10 0b be
       -0.012698281 0.1556076 -0.2226136 -0.13580614
0003c0 3a a5 41 3e 37 ef 3a be 04 9b e6 3d 6d ae 37 3d
       0.18910685 -0.18255316 0.11260036 0.04484408
0003d0 6f b3 57 bc 73 5d fc bd 7a fb 18 3e f8 2e b6 3d
       -0.013165339 -0.123225115 0.1493968 0.08895677
0003e0 3b 48 bb 3d db 2c 01 be 12 3b 33 3e c9 82 24 bd
       0.09144636 -0.12614767 0.17503002 -0.04016379
0003f0 c3 06 07 bd 6d 59 5b 3e 32 1c 5d be f8 df 0c 3e
       -0.032965433 0.21420832 -0.21592787 0.13757312

4.bias f4 [10]
000000 6d f6 29 be 23 7f 70 be ca 54 b6 3d dd f5 29 3d
       -0.1659791 -0.23485999 0.08902891 0.04149424
000010 39 60 05 be 56 a4 ed 3e 80 b8 37 bc ff b8 b7 3b
       -0.13024987 0.4641444 -0.011213422 0.00560677
000020 a0 11 38 be 89 f8 4c 3d
       -0.17975473 0.05004171
