models/mnist_fc_dw.pt (torch, 564981 bytes, 16 tensors)

1.weight f4 [100, 784]
000000 28 a2 07 bb 35 23 03 bb 38 4e 40 bb 1a 36 1e bb
       -0.0020696018 -0.0020009999 -0.0029343497 -0.0024141134
000010 b3 e9 2d bb 9d ee 3b bb 30 da 14 bb 5a a4 21 bb
       -0.0026537 -0.002867616 -0.0022713058 -0.0024664612
000020 35 25 22 bb 80 13 f2 ba 52 b6 15 bb 2b 2b 37 bb
       -0.0024741415 -0.0018468946 -0.0022844267 -0.0027949314
000030 31 54 03 bb c7 47 1f bb eb 91 14 bb b8 9b 21 bb
       -0.0020039196 -0.0024304257 -0.0022669982 -0.0024659466
000040 d8 28 16 bb b2 8b 17 bb 72 f0 2a bb ab 48 18 bb
       -0.0022912528 -0.0023124036 -0.0026083258 -0.0023236673
000050 64 ea 06 bb bb 9a 2f bb 90 de 38 bb e4 14 32 bb
       -0.0020586485 -0.0026795107 -0.002820883 -0.0027173096
000060 4f 16 20 bb c2 01 13 bb 93 96 3e bb bc bb 0b bb
       -0.002442736 -0.0022431468 -0.0029081448 -0.0021321615
000070 a4 a4 16 bb 90 3a 3f bb d6 a0 c6 ba df 60 35 bb
       -0.0022986317 -0.0029179193 -0.0015154134 -0.0027676148
000080 58 5e 20 bb a4 8f 1d bb ee 67 0a bb 0f 2a 1a bb
       -0.0024470296 -0.0024041915 -0.0021119076 -0.0023523604
000090 85 d6 12 bb 9b ec 21 bb a7 bd 1e bb 6f ec f3 ba
       -0.0022405696 -0.0024707678 -0.0024221928 -0.0018609891
0000a0 b3 4a cf ba f9 78 fb ba a3 92 f4 ba 68 d2 15 bb
       -0.0015815109 -0.0019185833 -0.0018659424 -0.0022861008
0000b0 69 ec f2 ba 93 9e 1b bb 7e a0 24 bb 9b 2d 12 bb
       -0.001853359 -0.002374564 -0.0025120075 -0.0022305015
0000c0 e9 69 26 bb fb d5 06 bb b0 04 14 bb 08 b9 1f bb
       -0.0025392717 -0.002057432 -0.0022585802 -0.0024371762
0000d0 04 d5 31 bb e6 63 07 bb 01 94 1b bb 1c 5d 1a bb
       -0.0027135024 -0.002065891 -0.002373934 -0.0023554033
0000e0 e0 4c 16 bb 1a 49 1c bb 80 73 26 bb 3c 79 2b bb
       -0.0022934005 -0.0023847283 -0.0025398433 -0.002616479
0000f0 8b a4 22 bb 77 57 27 bb 6c 19 31 bb c1 61 19 bb
       -0.0024817314 -0.002553431 -0.002702321 -0.0023404213
000100 92 98 4e bb 2a 9d 10 bb 2b af e7 ba 6c 57 16 bb
       -0.0031524044 -0.0022066333 -0.0017676105 -0.002294029
000110 c8 88 ee ba ee 0d cd ba 61 0b 56 bb 95 1b 01 bb
       -0.0018198723 -0.001564441 -0.003266059 -0.0019700278
000120 5d 9e e1 ba cd 7b b0 ba 64 45 c8 ba 9c 01 13 bb
       -0.0017213334 -0.001346463 -0.0015279469 -0.002243138
000130 96 63 4c bb 42 9e 18 bb 25 95 07 bb 2a 7b 20 bb
       -0.0031187288 -0.0023287688 -0.0020688262 -0.0024487474
000140 9b fd 38 bb ea 7c 1e bb 4e 22 05 bb 78 b3 ff ba
       -0.0028227333 -0.0024183341 -0.0020314637 -0.0019508442
000150 71 fe 16 bb c4 3a 10 bb 76 c7 2d bb 49 13 28 bb
       -0.0023039842 -0.0022007683 -0.0026516593 -0.002564626
000160 e1 e8 15 bb 09 b4 18 bb 35 85 00 bb 1b c2 29 bb
       -0.0022874402 -0.0023300669 -0.0019610648 -0.002590305
000170 d4 35 30 bb 99 59 00 bb 10 66 70 ba 2a 80 00 bb
       -0.0026887553 -0.0019584654 -0.0009170482 -0.0019607642
000180 1e 73 c6 ba 0c b6 3c bb fc 92 b3 bb 23 23 5b 3b
       -0.0015140509 -0.0028795032 -0.0054801684 0.003343769
000190 50 d0 8d 3b a8 99 a2 3a 1a 3f 80 3a c8 1d 61 bb
       0.0043278113 0.0012405412 0.0009784431 -0.0034350026
0001a0 27 fb 07 ba f4 b5 e9 ba 50 a8 0f bb fc fe da ba
       -0.0005187266 -0.0017830716 -0.002192039 -0.0016708071
0001b0 4e a6 d7 ba 8e d5 1a bb 1d cd 2a bb 49 75 1d bb
       -0.0016452761 -0.0023625824 -0.0026062198 -0.0024026206
0001c0 87 ef 1e bb a4 37 1b bb 16 42 10 bb 19 e5 15 bb
       -0.0024251656 -0.0023684287 -0.0022012047 -0.0022872149
0001d0 9c 1d dc ba 51 fa 92 ba 66 21 12 bb 4a fa 23 bb
       -0.0016793492 -0.0011213516 -0.002229774 -0.002502101
0001e0 0c ec 45 bb 5d df 9d bb b7 60 eb bb e4 cf 02 3b
       -0.003020051 -0.0048178867 -0.00718316 0.0019960338
0001f0 41 2e 29 3b 56 0e 90 bb 44 cb f8 ba 2e e1 44 3b
       0.0025814923 -0.00439624 -0.0018981476 0.0030041444
000200 e9 35 c9 3a e0 de 69 3c 48 ff 19 3b 22 05 e4 b9
       0.001535115 0.014274329 0.0023498107 -0.00043491373
000210 51 8b 03 3b a0 85 42 3a 95 eb 8d ba d7 27 40 ba
       0.0020072053 0.00074204244 -0.0010827655 -0.00073301553
000220 b0 0a 05 bb 7b 12 25 bb 90 0d 15 bb e9 2c 59 bb
       -0.002030056 -0.0025188017 -0.002274368 -0.003313834
000230 d1 fb 39 bb 7a 3b 18 bb 93 74 2e bb 16 0b 31 bb
       -0.0028378854 -0.002322881 -0.0026619777 -0.0027014664
000240 e0 29 b7 ba a3 fd ed b8 41 df af ba fa bf d2 ba
       -0.0013974272 -0.00011348284 -0.0013417975 -0.0016078942
000250 9a 12 05 bb ab 26 82 bc 4e dc a8 bc 1d 28 eb bb
       -0.0020305277 -0.015887579 -0.020612862 -0.0071764127
000260 f9 16 be ba d6 63 34 ba f6 ff ec 3c 0e a0 c6 bc
       -0.0014502696 -0.0006881332 0.028930645 -0.024246242
000270 26 03 0a bd 2f ad 95 3c 2c 5c ce bc 9d 79 87 bd
       -0.03369441 0.018271057 -0.025190435 -0.06614993
000280 af 65 60 bc 2b b6 6e bb 51 bd ef 39 d3 6b ba 3a
       -0.013696118 -0.0036424499 0.00045726684 0.0014222808
000290 69 2d 3f ba 39 e5 26 bb b8 0a 20 bb 42 a3 ee ba
       -0.00072928384 -0.0025466217 -0.0024420451 -0.0018206614
0002a0 f5 38 16 bb 54 67 1f bb 97 3c 37 bb 42 ab 64 bb
       -0.0022922133 -0.0024323063 -0.0027959698 -0.0034892117
0002b0 08 42 76 bb bd c4 2f ba 16 3e 2b bb 88 6d a5 ba
       -0.0037575979 -0.00067050365 -0.0026129535 -0.0012621144
0002c0 da 82 ce bb ec b2 06 ba e0 98 cb bb f1 15 83 bc
       -0.00630222 -0.0005138356 -0.0062132925 -0.016001673
0002d0 38 43 10 bc ea b5 10 3c 8f 67 1f 3d c5 5c 8d 3c
       -0.008805089 0.008832434 0.03891712 0.01725615
0002e0 af b5 3d 3d f9 63 d1 3a b1 bc 89 bc 7a e3 fc ba
       0.046315845 0.0015975229 -0.016813608 -0.0019293868
0002f0 ff 95 d2 3c 8f b6 82 bc 5a f2 01 bc b9 e5 97 38
       0.02570629 -0.015956191 -0.007931316 7.24303e-05
000300 a0 3d 92 ba c2 f0 32 bb b0 29 7e bb cd 61 24 bb
       -0.0011157282 -0.0027304147 -0.0038782172 -0.0025082708
000310 a5 47 20 bb 18 d2 19 bb 4e 6e 3a bb 15 85 4a bb
       -0.0024456766 -0.0023471173 -0.0028447094 -0.0030902077
000320 93 4f 4a bb b3 29 a4 ba 7a 0c 75 ba a6 f5 1a ba
       -0.0030870184 -0.0012524634 -0.00093478675 -0.0005911238
000330 16 ee 94 3a bf 7a 6e 3c f9 65 d5 3a 26 ad f2 3c
       0.0011362459 0.014555632 0.0016281 0.02962358
000340 8b 75 a3 3c f9 43 92 3c 42 bd 19 3d 27 17 4c bd
       0.01995351 0.017854678 0.037534006 -0.049826767
000350 cf 14 b3 3c d9 1c 2f 3d 71 d1 99 bc 6b 28 d5 bc
       0.021860508 0.04275212 -0.018776627 -0.02602025
000360 a9 f2 d9 3c d3 05 15 3c 93 71 6f bc 9b a7 2c bb
       0.026604967 0.009095627 -0.014614481 -0.0026345018
000370 bc 04 97 bb 05 15 87 bb 5f a2 4d bb 20 db 26 bb
       -0.0046087187 -0.004122379 -0.0031377298 -0.0025460199
000380 c7 eb 2a bb 33 93 25 bb 8c 0b 47 bb 77 41 66 bb
       -0.0026080476 -0.002526474 -0.0030371873 -0.0035134235
000390 3c c6 a3 bb e1 62 11 bb 8c db 29 3a f1 d5 1c 3b
       -0.0049979966 -0.002218418 0.00064795534 0.002393123
0003a0 7a dd 4d 3b d0 66 f9 ba 46 c6 fa bb 92 e5 de 3c
       0.0031412528 -0.0019027833 -0.0076530306 0.027209077
0003b0 01 77 91 3d cb 83 5b 3d 39 76 04 bd 8e 51 37 bd
       0.07102776 0.053592484 -0.03233931 -0.04475551
0003c0 1b be f4 3c ce fd a9 3c 73 c4 e3 bc 65 7d 4a bd
       0.029875806 0.020750906 -0.027803635 -0.04943599
0003d0 f4 3e 81 bb 09 52 b6 bc 08 d8 52 bb c1 16 c0 bb
       -0.003944272 -0.022255914 -0.0032172222 -0.0058620875
0003e0 79 39 56 bb 0d d0 0f bb 42 18 1a bb ea 1a fc ba
       -0.0032688065 -0.0021944076 -0.0023512994 -0.0019234095
0003f0 42 6e 39 bb e9 e0 df ba 6e e5 1e bb f5 5a 94 bb
       -0.0028294479 -0.0017080578 -0.0024245637 -0.0045274445

1.bias f4 [100]
000000 0f 86 64 bd 28 45 70 3e 07 84 75 3d fd 07 86 bd
       -0.05579191 0.23463881 0.059940364 -0.065444924
000010 7f 75 df 3d bb 20 11 be dc bc 20 bd 75 60 c0 3d
       0.109110825 -0.14172642 -0.03924261 0.09393398
000020 b2 f8 54 3e 3c 35 18 bd 16 f3 f6 bd 98 fb 39 be
       0.20797995 -0.037160143 -0.12058084 -0.18162382
000030 78 c3 9b bd 5a 98 1e be b7 e3 cf bc da 57 ab 3d
       -0.07605642 -0.15487805 -0.025377138 0.08366366
000040 c2 42 71 3d bd 5b 13 3e d5 23 da 3d 18 b2 90 3d
       0.058901556 0.14390464 0.10651366 0.07065219
000050 c6 55 49 3c 53 ec 4e 3c 65 8d e0 3d 93 9f 90 bd
       0.012288516 0.012629586 0.10964469 -0.07061686
000060 fa 94 0e be f5 58 c2 3d 12 7a 3b 3e 77 2f 85 bc
       -0.13924018 0.094896235 0.18308285 -0.016257985
000070 ff 1e b8 3d a6 a5 ec 3d 8f e1 db bd d9 f8 95 3c
       0.08990287 0.115550324 -0.10736381 0.018307136
000080 b9 3c ac bd d2 51 7d 3d bf 06 14 3e bf 69 c6 3d
       -0.084100194 0.061845608 0.14455698 0.09688138
000090 03 0a 43 3e 48 73 14 3d fd 57 ae bd aa 85 7a 3e
       0.19046788 0.036242753 -0.08512876 0.24465051
0000a0 7d 99 8f bc 50 cf f0 bd 4a 34 10 3f 3c 89 fe 3d
       -0.017529244 -0.11758292 0.56329787 0.12428519
0000b0 07 39 78 bd 14 41 6e be a2 07 23 3c 24 d4 8b 3e
       -0.06060126 -0.23267013 0.00995055 0.27310288
0000c0 74 f7 28 3e 29 a4 36 bd 85 40 07 3e a2 2e 7e bd
       0.16500646 -0.04459015 0.13208206 -0.06205619
0000d0 bf 96 06 bd f0 3b 0a 3e f0 33 21 be 27 12 ef bd
       -0.032858606 0.13499427 -0.15742469 -0.11673384
0000e0 24 68 40 be 0b 03 4e bd a6 6d 46 be 5f 86 55 3d
       -0.18789726 -0.05029587 -0.19377765 0.0521301
0000f0 f0 9b 36 bd 64 34 81 3e 60 5a cb bd 4a 46 48 bd
       -0.044582307 0.25235283 -0.09929347 -0.048895158
000100 33 ab 10 3e 17 be 92 3e 8f 24 a6 3b 58 8d 2c 3d
       0.14127807 0.28660652 0.005070276 0.042126983
000110 15 97 2c 3d d5 c9 c5 bb c8 62 85 bd 8c 2a ee 3e
       0.04213627 -0.006036023 -0.06512982 0.46516836
000120 e5 3a ff bc 44 e5 19 bc 93 dc d8 3d 45 bb a2 3d
       -0.031156013 -0.00939304 0.10588946 0.07945875
000130 26 8b 5e bd bb 99 08 be 45 be 07 3d 59 cb c9 bc
       -0.05433192 -0.13339894 0.03314044 -0.024633097
000140 47 da f3 bd e4 77 ec bd 5c 3c 4a 3c 11 b7 44 3d
       -0.119068675 -0.11546305 0.012343492 0.04802615
000150 c5 f9 d3 bb 61 f1 d7 3d 64 a4 55 3d d0 c1 b1 bc
       -0.006468984 0.10544086 0.05215873 -0.021698862
000160 02 ff 99 3d 1c 51 23 bb ef b0 d9 3d ca 76 48 be
       0.07519342 -0.002492017 0.106294505 -0.19576564
000170 5a b9 33 bd f5 8e 9c bd 69 c1 a2 3d 60 af 9d 3d
       -0.043877937 -0.076444544 0.07947046 0.07699466
000180 73 db fd bd e5 da 39 be 73 8a da 3d 61 63 0a be
       -0.12395372 -0.18149908 0.10670938 -0.13514473

3.weight f4 [100, 100]
000000 b6 33 b0 bb db 09 df be 2c f5 60 bd 60 3b 2e be
       -0.005377258 -0.43562207 -0.054921314 -0.17014837
000010 58 32 da bd 7e 8f c3 3d 70 6e 0d 3e e6 bc 98 3b
       -0.106541336 0.09548853 0.1381166 0.0046611903
000020 f9 a7 6e 3d 62 09 30 38 45 54 37 3e c8 c2 02 3d
       0.05826566 4.197041e-05 0.1790324 0.03192404
000030 85 e0 8c bd 49 34 83 bc 13 10 71 bd a4 65 07 3e
       -0.06878761 -0.016016142 -0.05885322 0.13222367
000040 e3 50 39 be 86 83 b8 3c a2 2b 0e be b2 25 f0 bc
       -0.18097262 0.022523653 -0.13883832 -0.02931485
000050 58 6e af 3d 6b 40 07 3d 49 32 5d 3c 00 08 86 3b
       0.08565968 0.033020418 0.013500758 0.004090309
000060 1d db 01 be 52 90 e1 bd a1 7b 22 bd 13 b0 94 b7
       -0.12681241 -0.11013855 -0.039668683 -1.7724966e-05
000070 66 99 ad bd 6e 26 0e 3d 50 8e 91 bd 5c ce d5 bc
       -0.08476524 0.03470462 -0.07107222 -0.026099376
000080 ad 0a 2d 3b 51 0b 5d 3d b9 cc b2 3c 6d 58 20 bd
       0.0026404068 0.05396587 0.021826135 -0.03914683
000090 b5 49 b2 bd 56 6c bd 3d 18 6f 14 3e 78 2e 6e bd
       -0.08705465 0.09249179 0.14495504 -0.058149785
0000a0 4f e2 d3 3d b2 7e 0b bd c4 02 44 3e 34 59 46 bd
       0.10345899 -0.034056373 0.1914168 -0.048424914
0000b0 69 90 d8 3d cd a6 89 3d 79 86 38 be 84 ba 70 bd
       0.10574419 0.06721268 -0.18020047 -0.058771625
0000c0 21 f4 e3 3b 68 28 af 38 0e c1 aa 3d 4a af bd 3d
       0.0069565927 8.3521765e-05 0.083376035 0.09261949
0000d0 e7 10 38 be d1 c8 82 3d 60 03 9b 3d 42 64 89 3c
       -0.17975198 0.06385959 0.07569003 0.01677144
0000e0 a9 1a 99 bd b6 58 be b7 20 4d 50 3e 6d 54 e1 bc
       -0.07475788 -2.2691074e-05 0.20341921 -0.027506078
0000f0 2d a4 a3 bb 4a 30 25 be 6f 2d 21 3e 1f bf 05 be
       -0.0049939365 -0.16131702 0.15739988 -0.13061188
000100 03 56 0c 3e c4 05 d4 3c df 9e 6c bd 6f 92 54 3d
       0.13704686 0.025881656 -0.0577687 0.051897462
000110 81 a3 52 3e 9f 34 ca 37 4e 0a 0b bd 4a 4e 86 3d
       0.20570184 2.410478e-05 -0.033945374 0.06557901
000120 f5 ee ee 3d 05 9c 6e 3d eb 21 07 3e 32 4c 8a bd
       0.11666671 0.05825426 0.13196532 -0.06752814
000130 02 17 18 3d fe 25 cb 3c d6 65 b0 3d fe a3 25 bc
       0.037131317 0.02479839 0.08613174 -0.0101099
000140 ad 90 4d 3e 1b e0 2f 3d 55 15 78 3d b6 47 4a be
       0.2007472 0.042938333 0.06056722 -0.19753918
000150 3a 02 b5 3c 8f b6 b0 3d fb 24 a1 bd 6a 06 50 bd
       0.022095788 0.0862857 -0.078683816 -0.050787367
000160 35 5f 14 3d fe e4 c4 3d d7 af a0 3c 54 3a 97 3d
       0.03622361 0.09613989 0.019615097 0.07384172
000170 2a 5a 54 3d c8 6c e1 3b 80 a3 39 bd fb 97 a9 bd
       0.0518438 0.006879423 -0.04532194 -0.08280941
000180 b3 b2 42 bd d4 95 64 3c 36 cf c7 3d 11 6f b0 3d
       -0.047533702 0.013951737 0.09756319 0.08614934
000190 cd a9 e9 3c 0e e6 db 3d ba 89 1a 3e b6 28 14 bc
       0.02852335 0.10737239 0.15091601 -0.009042909
0001a0 10 1b 2f be 85 d9 99 3d cf f0 8b bd f5 c0 10 bd
       -0.17100167 0.07512192 -0.0683304 -0.03534027
0001b0 b1 be f9 bd db 57 d6 37 67 54 2f 3c 65 13 12 be
       -0.121945746 2.5551699e-05 0.010701275 -0.14265211
0001c0 e4 24 80 3d 18 f6 a5 bc 8d 0b 38 bd a6 60 9b be
       0.06257036 -0.020258948 -0.04493289 -0.30347174
0001d0 ea f7 2d 3e 93 c5 be bd c3 6c fb 3d 44 94 95 bd
       0.16989103 -0.09315028 0.12276604 -0.0730367
0001e0 91 09 ce bb 0e 7a fd bc 6c 89 ac 3d ab 8e 3e bc
       -0.0062877615 -0.03094199 0.08424649 -0.011630694
0001f0 ef e9 b0 bd 5f 72 66 3e cc 91 c4 bc d9 60 60 b5
       -0.08638369 0.22504567 -0.023995303 -8.3587435e-07
000200 7a 86 38 3b 3b 7a 75 bc 33 f1 61 3d 49 d6 46 3b
       0.0028156326 -0.014982755 0.055161666 0.0030340126
000210 3b 46 2b 3e da 61 48 be e9 a2 3b 3d bd 13 09 3e
       0.1672601 -0.19568577 0.04580966 0.13386436
000220 e8 40 3f bd e1 f2 98 bd 43 14 41 3d 89 e7 18 3c
       -0.04669276 -0.074682005 0.047138464 0.009332546
000230 2d 17 c0 bd 3c fc 4c bd 71 d6 fb 3d 8a 89 97 3d
       -0.093794204 -0.050045237 0.12296761 0.0739928
000240 3a e5 bb 3d db 80 dc 3c 04 33 77 3d c8 ba 38 3d
       0.09174581 0.026916912 0.060351387 0.045100003
000250 76 f0 5f 3d 0b 4f 88 38 63 c5 22 3e 47 d1 47 be
       0.05467268 6.499708e-05 0.1589561 -0.19513427
000260 4f fe ff 3d a1 48 b6 bd cd 3a 38 3d 26 9c 78 3c
       0.124996774 -0.089005716 0.04497795 0.015173947
000270 9d a3 04 3e bb e1 b2 37 96 d8 36 3e 02 a9 eb 3d
       0.12953039 2.1324367e-05 0.17856058 0.11506845
000280 fb 95 c7 bd 47 ca 9f bd ce 11 21 3c 24 80 1c 3d
       -0.097454034 -0.07802253 0.009830905 0.038208142
000290 d0 41 06 3e 19 35 2a bd ff 07 72 bc 25 3c 89 3d
       0.13111043 -0.041554544 -0.014772414 0.06700925
0002a0 dc 20 50 3d 18 b6 8a b8 70 3b 48 3d cb 20 f7 bd
       0.050812587 -6.6142704e-05 0.04888481 -0.12066802
0002b0 c9 30 a8 bc 95 af 1c 3d a1 8a 44 3c 67 5d 2e 3e
       -0.020531075 0.038253386 0.011995942 0.17027818
0002c0 df fc df bc 64 97 63 bd ad 0c cb bd b5 7a b8 3d
       -0.027342258 -0.0555643 -0.09914527 0.090077795
0002d0 52 79 a9 3d 23 81 29 3e fd f1 a5 bd 48 b5 c1 bd
       0.08275093 0.16553168 -0.08102796 -0.09458405
0002e0 04 c9 fd bc 5a e5 11 3e 14 ee 41 3e 23 32 13 bd
       -0.03097964 0.14247647 0.18938476 -0.035936486
0002f0 b5 61 e9 bd 9c 2c 6c 3d ff f4 ff bc bc ef 02 3d
       -0.11395589 0.05765973 -0.031244753 0.03196691
000300 fe 4d 47 3b 0a 48 c1 bd 12 8a b4 3b f0 20 05 3e
       0.0030411477 -0.094375685 0.0055096233 0.13000846
000310 32 f5 81 3d 79 01 8f 3d bc 4a 09 3e 8a 13 30 3e
       0.063455954 0.06982703 0.13407415 0.17194954
000320 1a 95 53 3e 6e ce e2 3d 16 c9 8a bd 2c 3e fb bc
       0.20662346 0.110745296 -0.06776635 -0.030669294
000330 20 a7 a8 3e e2 0a de 3d 8a 93 38 be 50 bf be 3d
       0.32940006 0.108419195 -0.18025032 0.09313834
000340 01 8b 38 bc 7d 4b e1 38 d5 52 1d be 04 c9 90 3c
       -0.01126361 0.00010742897 -0.15363629 0.017673977
000350 48 03 26 be 50 9f ff bd 49 bc 6b be 93 e8 11 bd
       -0.16212189 -0.12481558 -0.23021044 -0.03562219
000360 c5 e8 0c 3d d5 77 d0 3d 19 1f bc 3b 2e 56 2f 3c
       0.034401674 0.10179106 0.005741012 0.010701699
000370 0c 92 1f bd ff 3b ba bd 02 bd 60 3d 45 31 ba bd
       -0.03895764 -0.090934746 0.054867752 -0.09091429
000380 d8 0c 83 bd ca bd a9 bd b9 da 0f be 30 b6 96 b5
       -0.06398934 -0.082881525 -0.1404828 -1.1228894e-06
000390 c6 77 0e be 43 0a 7e 3d 80 36 82 3d 72 6b 0c bd
       -0.13912877 0.062021505 0.06358051 -0.034282155
0003a0 bf d2 00 be e6 ab 5e 3e 4c 0b 87 3d 5a d4 da bd
       -0.12580393 0.21745262 0.065939516 -0.10685034
0003b0 2d cb a6 bc ea 3b 97 bd bf 9f 8f 3d 33 38 69 bd
       -0.020360554 -0.073844746 0.07012891 -0.05693836
0003c0 67 d6 7a 3b 85 1e 67 bc 5b b5 76 3e 02 92 77 3e
       0.0038274766 -0.0141063975 0.24092619 0.24176791
0003d0 8f d2 db bd 60 07 ea bc 73 1b 4a 3d 45 df 8c bd
       -0.1073352 -0.02856797 0.049342584 -0.06878523
0003e0 98 1d 83 bc 49 65 69 38 5e b6 2b 3e f1 b7 8c 3d
       -0.016005322 5.5645858e-05 0.16768786 0.068710215
0003f0 0f e9 72 3d b0 96 3a be 94 9b f3 bd 89 73 b1 3d
       0.059304293 -0.18221545 -0.118949085 0.08664615

3.bias f4 [100]
000000 b7 cc 0c bd 66 24 db 3c 29 51 1e 3c 23 19 7e 3e
       -0.03437492 0.026750755 0.009662905 0.24814276
000010 2b 8f 90 bd 8b f5 bc bd 0a 00 65 3c 86 52 8e 3e
       -0.07058557 -0.09226521 0.01397706 0.27797335
000020 4e bd 4b 3e 29 cc b2 bd 50 4d cb 3e cd af 02 bd
       0.19896433 -0.08730347 0.39707422 -0.031905938
000030 ee 6e 9f 3d d8 15 c7 bd a3 b7 aa 3d 37 71 b2 ba
       0.0778483 -0.09720963 0.08335807 -0.0013614063
000040 50 41 0b 3e fb 85 15 be 98 1b 30 3c cb ac 16 bd
       0.13599133 -0.1460189 0.010748766 -0.036785882
000050 64 54 9f 3e fb e1 a3 3e c6 b8 d0 3e 36 9e cd bb
       0.31119072 0.32008347 0.4076597 -0.0062749637
000060 bd cb 3d 3e de 9c 8f 3e 46 16 2a 3e dd 9f 92 3e
       0.18534751 0.28049368 0.16610059 0.2863759
000070 8a fe 93 3d f1 86 20 bd 99 82 87 3e f7 da 43 3e
       0.07226284 -0.03919119 0.26466826 0.19126497
000080 16 c6 93 3e 9e 1b 93 3e 1a 97 46 3e 91 c1 00 3e
       0.28862065 0.28732008 0.19393578 0.1257384
000090 fb a3 68 3d 1f f7 26 be 6f 07 9d 3c 5d f4 57 3e
       0.05679701 -0.16305207 0.019168584 0.21089311
0000a0 e5 ad 16 3e 10 f4 f3 3d 99 5d f0 bd 45 93 72 3d
       0.14714773 0.119117856 -0.11736602 0.05922248
0000b0 6d 36 e1 3d 74 6b 18 b9 53 1a 81 3d c1 ae bf 3d
       0.10996709 -0.00014535879 0.06303849 0.093595035
0000c0 ff 9e 40 bd 13 88 a1 bd 44 f2 c2 bd f9 b4 8d bc
       -0.04702663 -0.07887282 -0.09518865 -0.017298209
0000d0 b2 7d 5e bd c7 a1 bb bd 5f 55 e8 3d f2 29 8a bd
       -0.05431909 -0.09161716 0.11344408 -0.06746282
0000e0 a8 24 9c bd 8c c4 85 3e 52 c3 99 3d b6 a2 82 3e
       -0.07624179 0.26126516 0.075079575 0.25514764
0000f0 5e 9a bb 3d d6 89 b6 bc 8e 40 59 be a3 48 77 3d
       0.091603026 -0.022282522 -0.21216032 0.060372006
000100 ff ce 33 3e 43 56 c3 3d ca ef a9 3d fc b2 06 bd
       0.17559431 0.095379375 0.08297689 -0.032885537
000110 eb 64 24 bd f2 fb c9 3d 4b b3 a5 3d be d5 b1 bd
       -0.040135305 0.09862508 0.08090838 -0.08683346
000120 92 f2 bd bc 88 0c 10 3e 9c f5 c6 3c fc ac 85 3d
       -0.023186956 0.1406728 0.024287038 0.06527135
000130 3a e8 43 bc ba 9d 78 3c 8d 41 cb bd d5 f3 0d 3e
       -0.011957223 0.015174324 -0.09924612 0.13862546
000140 33 c8 87 bd d0 14 06 3e 59 04 33 bd 64 64 89 3d
       -0.06629982 0.13093877 -0.043705318 0.06708601
000150 ac f2 64 bd 0e 6a 96 bb c3 a2 90 3c 62 89 bd bc
       -0.055895492 -0.0045902794 0.017655736 -0.023136798
000160 fa 87 c7 3c cc 06 8a 3d 78 a9 d1 3d 7c e9 10 3e
       0.02435683 0.06739578 0.10237402 0.14151567
000170 d4 a3 e9 bd f1 35 0f 3d 47 78 b5 bd a3 7a e6 bc
       -0.11408201 0.034963552 -0.08860832 -0.02813465
000180 60 01 9e 3e 56 6a 7a 3d 44 0c a3 bc f4 63 5e 3d
       0.30860424 0.061136566 -0.01990331 0.05429454

5.weight f4 [100, 100]
000000 74 34 64 bd ca 95 83 3c 7c d4 0d be 3c b3 57 bd
       -0.055714086 0.016062636 -0.13850588 -0.052661166
000010 0c d1 19 be a4 03 70 3d 4b 34 3c 3d 3f 90 07 3e
       -0.15021151 0.058597222 0.045948308 0.1323862
000020 68 82 5e bd c8 b3 29 b7 e6 d7 d7 3d d7 dd 3b be
       -0.054323584 -1.0115044e-05 0.10539226 -0.18346344
000030 7b 58 94 bd da 89 4f be d6 ec 34 be 21 2c 2c 3e
       -0.07243439 -0.2026743 -0.1766847 0.16813709
000040 16 76 05 bd be d4 6f 3e 26 f1 64 be c6 83 8f be
       -0.03258332 0.23420998 -0.22357616 -0.28030223
000050 29 d8 8d 3d b6 85 5e 3d e7 6f ab 3d ac e4 d8 37
       0.06925995 0.054326735 0.08370953 2.585569e-05
000060 5b 51 b4 3c 9a 70 c3 3c 72 f4 0e 3e 96 67 9c bc
       0.02201145 0.023857404 0.13960436 -0.019092362
000070 a6 b7 dc bd 3b 85 ac bd 15 98 c4 3e d5 7a fd bb
       -0.10777216 -0.08423849 0.3839728 -0.00773559
000080 95 b2 5f be 07 3b 63 3d fe 65 37 3e 22 ed aa 3a
       -0.21845467 0.055476215 0.1791 0.0013040642
000090 b1 31 37 3d 0b ff b0 3d be 84 1e be a8 c9 e1 3c
       0.044725124 0.086423956 -0.15480325 0.027561978
0000a0 96 53 82 be f9 48 03 3c b1 eb c1 39 a6 86 33 3d
       -0.25454396 0.0080130035 0.00036987432 0.043829583
0000b0 60 e1 92 bc 6d 52 ec bc ce 5d 8c 3d 37 9d 07 3d
       -0.017929733 -0.028847897 0.06853829 0.033108916
0000c0 46 91 c2 3d 02 e3 4d 38 0e 2f 3c 38 4d 18 0f 38
       0.09500365 4.9087226e-05 4.4866516e-05 3.411649e-05
0000d0 05 7d cb b5 d4 b6 27 b9 01 c6 19 3c 93 56 c3 38
       -1.5161064e-06 -0.0001599447 0.009385587 9.31445e-05
0000e0 c1 18 8c b8 f7 8f 79 bd 66 c4 a4 bd a1 d1 f6 bd
       -6.680331e-05 -0.06092831 -0.080452725 -0.12051702
0000f0 7f 66 68 3e 9e 93 64 3d 03 31 b7 3d 32 a1 8f 3b
       0.22695349 0.05580484 0.08944895 0.0043832297
000100 4a 52 a3 bb a5 cc 96 3d 23 48 41 3d 0c 6d 46 3c
       -0.004984175 0.073632516 0.047187936 0.01211096
000110 a1 49 59 39 33 0a ae be 28 b5 12 3d 86 b8 e7 b7
       0.00020722162 -0.33992156 0.035817295 -2.7623271e-05
000120 6f ed 2f bd 31 01 33 bd db d2 d5 bb 39 4a b1 bc
       -0.042951044 -0.043702308 -0.00652538 -0.021641837
000130 ce 8a 8d b8 82 85 70 3d 99 58 30 b8 3e 3d 0f be
       -6.749258e-05 0.058721073 -4.2044183e-05 -0.13988206
000140 2b 94 8a 3d a1 0c a5 3d 21 ae 61 bd c7 dc e5 3b
       0.06766542 0.080590494 -0.055097703 0.007014844
000150 5e 67 45 bd 33 f8 24 bd 21 fb a7 3d c0 33 42 3c
       -0.04819428 -0.040275764 0.08202196 0.0118531585
000160 b5 33 49 be 07 fa f3 bc 67 0a fd 3d 22 68 28 3e
       -0.19648631 -0.029782308 0.123555 0.16445974
000170 6b 9e a1 bb 75 75 24 3e 32 0e 4a 3d 16 4e 32 3d
       -0.004932215 0.16060431 0.049329944 0.0435315
000180 16 3c 78 3b a6 a0 25 bc cf 85 24 39 5a 42 2a 3d
       0.003787761 -0.010109102 0.00015690106 0.041567184
000190 b3 04 05 b7 1b 34 98 38 75 b2 26 b7 af 89 ab 38
       -7.928512e-06 7.25763e-05 -9.935921e-06 8.179561e-05
0001a0 a2 70 52 b6 9b 84 a0 b7 4e 89 29 37 fc 46 90 38
       -3.1358e-06 -1.9135236e-05 1.0105154e-05 6.879677e-05
0001b0 ba 0c b8 37 d7 f9 39 b8 e1 50 e8 37 0b 74 e5 35
       2.1940436e-05 -4.434012e-05 2.7694217e-05 1.7095603e-06
0001c0 3b 1c 50 36 cd f7 e6 b8 ad 40 83 b7 cf c3 b9 38
       3.1010848e-06 -0.00011013411 -1.5646534e-05 8.8579596e-05
0001d0 ea b7 b7 b8 90 c3 42 b8 90 28 a5 b8 8c df 8f 37
       -8.760377e-05 -4.6435336e-05 -7.8753685e-05 1.7151026e-05
0001e0 9e 89 bc b8 46 28 36 36 6e a2 c4 37 9f 64 53 b8
       -8.990172e-05 2.7143556e-06 2.3440658e-05 -5.040003e-05
0001f0 63 95 dd 38 1d dd 6f 38 9d 44 00 39 24 49 87 38
       0.00010565927 5.718797e-05 0.00012232592 6.450925e-05
000200 04 4f 82 38 85 a3 72 38 58 a0 8d 38 e0 e4 38 b6
       6.213601e-05 5.7849586e-05 6.75327e-05 -2.755136e-06
000210 88 03 63 39 08 22 03 b7 4a 7e 6f 36 f2 0e 5f 38
       0.00021649722 -7.816132e-06 3.5687285e-06 5.3181262e-05
000220 67 91 fd b8 df a0 06 b8 13 5b 11 39 32 34 ae b5
       -0.000120910634 -3.2097912e-05 0.00013862205 -1.2979201e-06
000230 25 b7 5f 36 f8 3a 27 37 ff 4c ed 36 f8 3a d5 b8
       3.3336194e-06 9.967705e-06 7.072114e-06 -0.00010167615
000240 25 fe 8a 37 23 14 71 b8 02 fa ec b7 4e 14 26 b8
       1.6569227e-05 -5.747763e-05 -2.8249811e-05 -3.9596394e-05
000250 ec ac 98 34 22 87 8d b8 63 64 86 39 77 46 6a 39
       2.8438023e-07 -6.7485744e-05 0.00025633266 0.00022342229
000260 76 22 e9 b8 6c 60 8d b8 5c 5b 88 b8 f5 01 6e 38
       -0.000111167246 -6.741364e-05 -6.502002e-05 5.6745444e-05
000270 4e 14 25 38 1b 5c 09 39 42 39 41 38 d6 9d 8f 37
       3.9357976e-05 0.0001309965 4.606811e-05 1.7120426e-05
000280 41 4c 6a b8 5a f8 b5 b8 ca 49 21 b8 53 2b e6 37
       -5.5860964e-05 -8.677012e-05 -3.8454113e-05 2.7438311e-05
000290 47 5a a4 38 89 f1 04 b7 23 98 86 36 de de 32 38
       7.836945e-05 -7.92405e-06 4.0112222e-06 4.264607e-05
0002a0 54 ab a3 b7 42 27 a8 b7 37 88 b2 37 90 91 06 39
       -1.9510895e-05 -2.0045441e-05 2.1282684e-05 0.00012833462
0002b0 cb d8 7f b7 88 62 79 37 71 5b 24 b7 1e 26 0f b8
       -1.52496605e-05 1.4864498e-05 -9.796452e-06 -3.4129356e-05
0002c0 be 6d 36 b8 7b ec 75 38 26 93 f4 b7 81 db 2c 38
       -4.3494387e-05 5.863279e-05 -2.9155588e-05 4.1212425e-05
0002d0 d1 19 74 b5 08 02 fb b7 ce 77 66 38 c3 dc 75 b8
       -9.093465e-07 -2.9922478e-05 5.494785e-05 -5.8618152e-05
0002e0 b2 69 a7 38 d8 c1 d4 37 eb 66 20 38 f3 a0 46 38
       7.982868e-05 2.5362635e-05 3.8242822e-05 4.7356774e-05
0002f0 d3 4e 9c b8 18 a6 c8 b8 c5 ba 42 36 11 7a 11 39
       -7.453342e-05 -9.5676805e-05 2.9016967e-06 0.00013873751
000300 88 54 ba b8 7a fb 40 38 7b 19 96 38 54 0d 2c b6
       -8.884916e-05 4.6010573e-05 7.1573035e-05 -2.5637755e-06
000310 c9 b0 68 38 ed 2e 5b b8 39 e1 39 b8 83 87 7a 37
       5.5477754e-05 -5.2257372e-05 -4.4317192e-05 1.49327125e-05
000320 fb 4e 9c 3c b4 a9 c2 bd db ab 4e bd ea f0 37 bd
       0.01908063 -0.095050246 -0.050456863 -0.044907488
000330 fb df f0 3d f7 06 21 be 35 bb a2 bc a4 fb ab 3b
       0.11761471 -0.15725313 -0.019864658 0.0052485038
000340 33 66 15 3e 5f f3 c7 b7 d3 03 1d 3e 9a 72 33 3e
       0.14589767 -2.3835977e-05 0.1533349 0.17524186
000350 db 26 88 bb fe f2 d8 bd a1 99 6b bc dd ed 1c 3e
       -0.0041550226 -0.10593222 -0.01437989 0.15325113
000360 c0 5f d5 bd ef 9a ce 3d 1d a9 79 3d c3 74 24 3d
       -0.104186535 0.10088145 0.060952295 0.040150415
000370 cd 8f d9 3d df 46 c3 bc 24 01 80 3d e6 6b a8 b8
       0.10623131 -0.023837505 0.062502176 -8.030962e-05
000380 93 03 7b be 4f 24 f8 bc 2c b9 24 bd 37 9d 08 3d
       -0.24513082 -0.03029075 -0.040215656 0.033353057
000390 7f 32 99 3d be bc 60 3c ce c4 35 3d ea 68 c7 3d
       0.074803345 0.013716875 0.04437714 0.09736808
0003a0 27 5d 7e 3d aa da 2e be d5 b4 16 bd fe 6b 0e 3e
       0.062100556 -0.17075601 -0.03679355 0.13908383
0003b0 de 9b 50 3c 64 47 77 bd bf 01 0f be 16 9b 8f bd
       0.012732474 -0.060370818 -0.1396551 -0.07012002
0003c0 99 f4 fc bd 98 05 97 3d 78 4b 6f 3c e6 11 4a 3e
       -0.12351341 0.07374114 0.0146053955 0.1973339
0003d0 f3 2d 00 3d 7e 71 18 3c fd 87 6b 3d c8 24 22 3d
       0.03129382 0.009304402 0.057502735 0.03958586
0003e0 1e c1 56 bd 58 15 a8 38 a4 45 a6 38 1e 5d c9 36
       -0.052430265 8.01484e-05 7.9284684e-05 6.001107e-06
0003f0 29 99 2d b7 73 1c a2 36 bf 10 ab 3c f6 de b3 b5
       -1.0347264e-05 4.831288e-06 0.020882009 -1.340143e-06

5.bias f4 [100]
000000 d4 7f 01 3d 22 9b 35 bd 65 1b 37 3d 6c 95 cb bd
       0.031616047 -0.0443374 0.04470386 -0.09940609
000010 f1 73 3f 3d 63 cc a5 3d ee e2 71 3c 5d 54 82 bc
       0.04674143 0.08095624 0.014763577 -0.015909368
000020 37 87 ec 3d 8d 23 80 bc 26 98 77 3e dc 83 ae 3e
       0.11549228 -0.015641952 0.24179134 0.34084976
000030 49 d9 ef 3d 45 82 be bd 0c fd 0a 3e 60 22 af bd
       0.11711366 -0.09302191 0.13573092 -0.085514784
000040 05 dd 38 bc 5e c4 34 3e 1e 69 0b bd 2c 64 45 3e
       -0.011283164 0.17653033 -0.034035794 0.19276494
000050 be e4 41 3e 9c e0 88 3b 7e d1 76 bd 22 f5 51 3e
       0.18934914 0.004177166 -0.06025838 0.20503667
000060 72 c2 04 3e 30 d6 ef 3b 2f 38 8f bd ad e3 06 3e
       0.129648 0.0073192343 -0.06993138 0.13172789
000070 44 56 0a bd e9 c6 08 3e d3 24 77 3e 92 4d ab bd
       -0.033773676 0.13357128 0.24135141 -0.08364405
000080 e8 6a 0f 3b 1c 5f e5 3d cf b1 02 3e f8 16 88 3d
       0.002188379 0.11199781 0.12763141 0.06645006
000090 21 7d b6 3d a6 82 af bd 05 de 7c 3d 16 43 0d 3d
       0.08910585 -0.08569841 0.06173517 0.034487806
0000a0 45 c0 a6 3d 4c 5c 9b 3c 3c 17 78 3b bf 46 11 bd
       0.08142141 0.018964909 0.0037855646 -0.03546786
0000b0 7c 4f 8d bc b8 35 9a 3e 2f c7 1b 3e 46 1c 10 3e
       -0.017249815 0.3011911 0.15212701 0.14073285
0000c0 84 c9 d2 3d 80 09 22 3e fd 26 d6 3d ca c6 59 3e
       0.10292342 0.15823936 0.10456655 0.21267238
0000d0 4b ea d6 3d 6a 36 52 3d 10 0c cc 3d 73 fb 45 3d
       0.104939066 0.051321425 0.09963238 0.048335504
0000e0 e3 d1 93 3d 2b 52 ea 3d e1 54 84 3e ba c1 02 3e
       0.07217767 0.114414535 0.25846007 0.12769213
0000f0 1e 6c 44 3e 29 b7 33 3d 28 7a f9 bb 7c 0d bc bd
       0.19181868 0.043875847 -0.007613439 -0.091822594
000100 bc 76 6c 3d 7b ac 6b 3b 67 e2 fa bd 90 59 cc 3d
       0.05773042 0.003596096 -0.12250214 0.0997802
000110 12 a2 af 3c a5 ed f0 3d ac 8d c3 bc e3 2e 2e bd
       0.021439586 0.11764077 -0.023871265 -0.042525183
000120 f4 77 b2 bd 47 47 58 3e 51 02 a0 bd 29 35 fd 3d
       -0.087142855 0.2112094 -0.07812942 0.12363655
000130 3a 29 4d bc bb 9e 6b 3e 7d 82 b6 3d 73 5c 5e 3e
       -0.012522036 0.2300977 0.089116074 0.21714954
000140 e9 54 26 3e b9 42 c9 bc df 94 cf 3d 51 d8 76 3d
       0.16243328 -0.024567949 0.10135817 0.06026489
000150 be 15 98 bd 7c 0e ae bd cf ea 03 be 34 50 47 3e
       -0.07426022 -0.084988564 -0.12882541 0.19464189
000160 7a 4b 01 bd 58 e9 1b bc 81 46 1f 3e aa 17 25 3e
       -0.03156612 -0.009516083 0.15554239 0.16122308
000170 b2 12 c1 3d d9 2f 61 bc 01 46 15 be e6 ff 18 be
       0.09427394 -0.013744318 -0.14577486 -0.14941368
000180 da 57 51 3d 24 67 3c 3d aa 1d 3d 3e 31 92 b4 3d
       0.051109172 0.0459968 0.18468347 0.08816946

7.weight f4 [100, 100]
000000 d1 18 dc 37 f6 ca 25 38 79 7a d7 b6 74 bd ce 38
       2.62376e-05 3.9528088e-05 -6.421757e-06 9.858134e-05
000010 24 87 08 b9 f7 79 1a b8 3c 48 56 38 ca 17 09 38
       -0.00013020315 -3.683005e-05 5.108885e-05 3.26855e-05
000020 cb cf b3 38 d9 6d 94 b8 e9 4f 71 35 a2 6a 0c b7
       8.5740896e-05 -7.077651e-05 8.989578e-07 -8.369478e-06
000030 9d 39 ac 38 94 e6 b4 38 28 33 5e b8 81 bb 91 b7
       8.2123304e-05 8.6260174e-05 -5.2976568e-05 -1.737266e-05
000040 2a 67 fb b7 74 49 7e 38 8c f8 fe b8 84 da 77 38
       -2.9969571e-05 6.0626728e-05 -0.00012157959 5.9092898e-05
000050 1b 77 22 b9 b9 98 16 b7 fe 4f bf b8 6d ba 97 38
       -0.00015493894 -8.976255e-06 -9.1224894e-05 7.2349656e-05
000060 2f 3a 4f 37 be 7a a8 37 15 0f 39 b8 29 62 97 38
       1.2351708e-05 2.0084317e-05 -4.4121483e-05 7.218525e-05
000070 2d 9d 9e b7 bd c7 42 37 66 0c ba b6 c8 ff df b8
       -1.8908258e-05 1.1609806e-05 -5.5446753e-06 -0.000106811116
000080 c6 14 0b b7 b9 58 72 37 a9 ac d5 37 65 c9 96 b8
       -8.289882e-06 1.4444981e-05 2.547198e-05 -7.19007e-05
000090 9a 4e 82 b7 7e 55 37 38 b8 2f 69 38 4e 20 b5 b8
       -1.553381e-05 4.371022e-05 5.559597e-05 -8.63677e-05
0000a0 4f f3 0a 38 8c 65 96 37 44 95 9c b8 0f d8 21 38
       3.3128363e-05 1.792868e-05 -7.4664626e-05 3.858661e-05
0000b0 e8 0d 7b b8 21 89 96 b7 c5 da c3 37 55 05 0a b5
       -5.9856015e-05 -1.7945249e-05 2.3347684e-05 -5.1416765e-07
0000c0 e4 90 2d b8 2e 38 e5 b8 7d 54 bf b8 ab 50 95 b5
       -4.1381354e-05 -0.00010930035 -9.123327e-05 -1.1124843e-06
0000d0 31 9a 82 b7 ec a6 35 b5 b6 5a 1b b8 c3 32 85 b8
       -1.5569009e-05 -6.767066e-07 -3.703936e-05 -6.351389e-05
0000e0 33 67 f5 b7 07 5e 8a 36 ce 12 48 36 d4 29 85 38
       -2.9254332e-05 4.1236667e-06 2.9813268e-06 6.349725e-05
0000f0 0e d9 27 b5 66 a8 c3 b8 92 19 8e 38 d9 fd 9c b8
       -6.2528204e-07 -9.329691e-05 6.7758505e-05 -7.4859425e-05
000100 52 f2 c9 b7 f8 11 4f b8 ec d9 8b 37 65 3c 1b b9
       -2.4073906e-05 -4.936938e-05 1.6671569e-05 -0.0001480445
000110 9b 16 83 b8 37 1e 99 38 cb d7 99 b8 e3 c1 3f b6
       -6.2507774e-05 7.3012365e-05 -7.335803e-05 -2.8574075e-06
000120 81 48 50 b7 83 8a 0e b7 10 49 3c b8 a7 ab 38 b8
       -1.2414647e-05 -8.496109e-06 -4.4890738e-05 -4.4028882e-05
000130 1a 7e c2 38 57 17 ef b6 b7 94 64 b9 04 72 18 38
       9.274129e-05 -7.125472e-06 -0.00021799175 3.634581e-05
000140 07 b9 1e 38 96 6b f6 b8 32 76 b3 38 7e 1d 39 b8
       3.7842456e-05 -0.000117502335 8.557401e-05 -4.4134904e-05
000150 35 5c be 37 c6 0c 07 38 47 a4 00 37 7b d4 1f 38
       2.2692702e-05 3.2198404e-05 7.667643e-06 3.8106442e-05
000160 f1 15 29 37 b9 40 c3 37 d0 28 d4 b8 d1 df 36 37
       1.0078294e-05 2.327595e-05 -0.0001011655 1.0900157e-05
000170 37 64 9d b8 a8 50 b0 b7 3b 1b 8a 38 3e 42 11 38
       -7.50501e-05 -2.1018393e-05 6.585425e-05 3.4632387e-05
000180 e8 88 8b b7 16 9e 3a 36 ee ad 3f 35 7e 0e 6e b8
       -1.6633843e-05 2.7808178e-06 7.1406146e-07 -5.675712e-05
000190 4a 8b df b8 e8 56 12 39 a2 e0 0e b7 65 71 66 b8
       -0.00010659413 0.0001395602 -8.516161e-06 -5.494188e-05
0001a0 fe b6 c3 b8 e2 8f 11 38 a1 c5 1f b8 89 92 d3 37
       -9.3324095e-05 3.4704695e-05 -3.809261e-05 2.5221396e-05
0001b0 c8 ec 12 39 80 ca 3e b8 07 f9 a9 b8 fe 64 85 36
       0.00014011853 -4.5488123e-05 -8.104933e-05 3.975466e-06
0001c0 f3 68 a8 36 83 62 c5 36 4d 67 45 b7 2c de 8b b7
       5.019008e-06 5.882526e-06 -1.1766167e-05 -1.6673548e-05
0001d0 d4 23 35 39 e5 62 27 b7 e5 13 bb 37 80 d8 06 b8
       0.00017274852 -9.977001e-06 2.2301401e-05 -3.214972e-05
0001e0 d2 59 0e 38 f8 08 35 b8 e8 b5 58 37 41 09 53 37
       3.393909e-05 -4.3162116e-05 1.2916957e-05 1.2578735e-05
0001f0 b4 eb 0b b6 77 16 64 39 e4 77 2d 38 bb 83 9a b8
       -2.0849811e-06 0.00021752143 4.135807e-05 -7.367829e-05
000200 83 3f b7 b6 e9 cc b1 38 5a 3e 9c 38 c0 8c 28 38
       -5.4612187e-06 8.478185e-05 7.4502736e-05 4.0185405e-05
000210 b3 1d d3 37 65 be 42 b8 06 e1 16 38 0a e8 d2 b6
       2.516699e-05 -4.6430523e-05 3.5972356e-05 -6.2855006e-06
000220 a6 d5 26 b9 53 1d f6 b6 e3 d7 62 b8 2c 7e fc 37
       -0.00015910584 -7.334785e-06 -5.408366e-05 3.0099494e-05
000230 e4 19 a7 37 1d 9f ac b8 d0 0a 76 b7 9b c2 48 38
       1.9920008e-05 -8.231236e-05 -1.466526e-05 4.7864956e-05
000240 42 ed 0b 37 98 b0 db 38 d3 b4 34 36 1e 67 f7 b7
       8.3402865e-06 0.00010475627 2.6927344e-06 -2.9492712e-05
000250 56 34 1b b9 62 4d bd 37 df 9c 41 38 e6 03 24 38
       -0.00014801449 2.256659e-05 4.6160883e-05 3.9104278e-05
000260 fd 1a c0 38 45 e0 a7 38 21 ae 67 b7 d1 0d c2 37
       9.1603004e-05 8.004954e-05 -1.38092155e-05 2.3133036e-05
000270 d3 86 4a 37 6e 50 be b8 99 2b 70 b8 dc 35 05 39
       1.2071529e-05 -9.074887e-05 -5.7261062e-05 0.00012703933
000280 5f cc 30 b8 12 33 d9 38 ac c4 6a b8 1d d9 36 b8
       -4.2152005e-05 0.00010356879 -5.5973112e-05 -4.3594384e-05
000290 d6 27 35 b9 8d 9a c3 b8 ce f1 a5 b7 52 99 8e 37
       -0.00017276345 -9.327112e-05 -1.9782132e-05 1.6999114e-05
0002a0 2e d3 c7 38 ed 38 63 b4 e4 c7 a0 38 d6 1b 2a 39
       9.528395e-05 -2.1161732e-07 7.666627e-05 0.00016222833
0002b0 94 3a 06 39 80 ff 66 b5 a5 a5 ac 35 2e 89 8d b8
       0.00012801058 -8.605348e-07 1.2863208e-06 -6.748956e-05
0002c0 7c c6 9b b8 a0 1f de 35 e6 67 8d b8 92 65 b9 b7
       -7.4279465e-05 1.6549493e-06 -6.7427565e-05 -2.2101016e-05
0002d0 07 4a ad 38 7d 92 a0 38 ff ad 31 b8 84 3d 90 b7
       8.2630715e-05 7.65668e-05 -4.2362135e-05 -1.7194783e-05
0002e0 a1 57 90 b8 4a c8 bb 37 89 e6 f3 b8 a6 d6 fb b8
       -6.882777e-05 2.2385404e-05 -0.000116300835 -0.00012008594
0002f0 b4 b4 80 37 98 02 3c b7 da 56 4b 38 ed 51 77 b8
       1.5342936e-05 -1.1206277e-05 4.847986e-05 -5.896569e-05
000300 b3 7f 58 38 9a a2 8c b8 08 3a 48 b8 93 57 46 37
       5.1617342e-05 -6.706007e-05 -4.773776e-05 1.182211e-05
000310 36 ed e1 38 8c 3b f6 b7 0d 8d ae b8 90 04 68 38
       0.0001077302 -2.9353214e-05 -8.323239e-05 5.531736e-05
000320 66 d5 3c bd d8 70 0e 39 4a c4 4d 3d 88 f4 ae b8
       -0.04610195 0.00013584213 0.050236024 -8.342514e-05
000330 9a 61 a5 3d 3d 41 21 be df 47 28 3e e9 cf f1 3d
       0.08075257 -0.15747543 0.16433667 0.11807234
000340 f8 56 91 3d 3d 3b 2e be e7 47 25 3d a3 b5 b9 3d
       0.07096666 -0.17014785 0.040351775 0.090678476
000350 87 81 10 3e c1 41 1a 38 4f 7a 4d 3d 8c 0a 26 b8
       0.14111911 3.67777e-05 0.05016547 -3.9587307e-05
000360 23 3d 72 b8 38 eb 54 be 3c 85 82 b8 c7 d8 8c bc
       -5.7754234e-05 -0.20792854 -6.2237e-05 -0.017193211
000370 7a 8f 2b be cd 85 ac 3c 40 e5 5a 3d 5f c1 ef 3d
       -0.1675395 0.021059895 0.053441286 0.117068045
000380 73 1e a6 3c d0 c6 24 3e b4 2c ac 37 87 98 14 3e
       0.020278191 0.16091466 2.0524814e-05 0.1451131
000390 ab 81 bd b4 0d 42 c9 bd 9e a7 e6 bd 84 ba cc 36
       -3.529834e-07 -0.09827051 -0.11262439 6.101387e-06
0003a0 dd 65 b4 b9 00 cd f5 bb 8b 2d 11 3e d1 9c 04 3d
       -0.0003440817 -0.0075012445 0.1417753 0.032376114
0003b0 ef 60 e3 3b 0e 80 fb 35 b2 f7 bd bd dd 71 f1 bb
       0.0069390456 1.8738226e-06 -0.0927576 -0.00736831
0003c0 d4 7d c4 bd 02 87 72 bd ce 98 b8 bb a9 a4 77 bd
       -0.09594312 -0.059210785 -0.00563345 -0.060459767
0003d0 7c 2d 5c 3e f5 6b 26 3e b0 81 cc 3c c9 ab 0f bd
       0.21501726 0.1625212 0.024964184 -0.035075936
0003e0 37 67 b3 3d 8a 30 63 bc 2b df 5f 3d 20 b9 43 3c
       0.08759921 -0.013866553 0.05465619 0.011945993
0003f0 57 dc 10 3d c6 24 f6 3c 47 ec 35 3c 9f 82 4f 3d
       0.035366382 0.030046832 0.011103696 0.05066168

7.bias f4 [100]
000000 99 e6 e6 bd c0 bf 5a bd dd 84 76 3d f8 37 0d bd
       -0.11274452 -0.053405523 0.060185302 -0.034477204
000010 10 69 07 3e 5d ec 53 bc dc b5 e2 3d 3b 16 fd 3c
       0.13223672 -0.012934771 0.11069843 0.03089439
000020 07 71 98 bd 5d bd 2f bd fd 03 2a 3e 56 91 0a 3d
       -0.07443433 -0.0429052 0.16603084 0.03383001
000030 6b 1c e0 3c 5f 9c 93 bc 3d 4b cd 3b 44 cb 0e be
       0.0273573 -0.0180189 0.0062650726 -0.13944727
000040 66 a0 8d 3d 48 52 fd 3d 2d 7b 54 bd 69 9d 2a 3e
       0.06915359 0.123692095 -0.051875282 0.1666161
000050 fb d3 14 be b1 f7 56 bd ad 99 bc bd 66 ce 04 3e
       -0.14533989 -0.05248231 -0.09208999 0.1296936
000060 01 54 54 3e e7 00 d2 3d 5a 61 a8 3d ce 0b 3f bd
       0.2073517 0.10254078 0.08221693 -0.046642117
000070 e7 f3 7a 3e 31 1b 46 3e 43 cc 32 3e 2d b4 b6 3d
       0.24507104 0.1934631 0.17460732 0.089210846
000080 94 f6 3d 3e ba 52 77 bd 68 19 9a 3d 63 25 86 bd
       0.18551093 -0.06038163 0.07524377 -0.065501
000090 1d 30 38 3e 5d 0f 3f ba c0 82 6d bd 41 a8 65 3d
       0.17987104 -0.0007288361 -0.05798602 0.056068663
0000a0 68 52 73 bd e5 b0 a6 bc 31 e0 10 3e 34 d9 d7 3d
       -0.05940476 -0.020348022 0.14148022 0.10539475
0000b0 b7 d4 62 3c 9c f2 8a bd 0a 00 9e bd 0f 9e fa 3b
       0.0138446605 -0.06784555 -0.07714851 0.0076482366
0000c0 f2 e3 e2 3d 36 bc a2 3d e7 5c 91 bd 4d 2f 8b 3d
       0.11078633 0.07946055 -0.07097798 0.06796131
0000d0 0a b9 d6 bd a0 0b ec 3d f3 39 f3 3d 73 b1 04 3e
       -0.10484512 0.11525655 0.11876287 0.12958317
0000e0 de 97 ec 3c 6c 68 cf bd 44 4d 26 3e 27 8a 50 bd
       0.02888101 -0.10127339 0.16240412 -0.050913002
0000f0 be 3c 0a 3e 04 77 78 3d bc a5 d8 3e 2f dd 58 3e
       0.13499734 0.060660377 0.42313945 0.21178125
000100 0e fb 20 3e a9 d8 48 3e 34 c9 a3 3d 22 67 31 3e
       0.1572077 0.196139 0.07997361 0.17324498
000110 a1 5a 48 3e 79 43 05 3e bc 42 0d 3d 15 e7 07 bd
       0.19565822 0.1301402 0.03448747 -0.03317936
000120 1b e1 54 bd 4d 2e 3e 3c a1 49 88 bc b0 b5 81 bd
       -0.05197249 0.011607719 -0.016636671 -0.06333482
000130 9b 92 72 bd e1 c3 d8 bd 53 08 88 3d 94 1a 9b 3d
       -0.059221845 -0.10584236 0.06642213 0.07573429
000140 04 07 a0 bd c6 c2 d8 3d 59 78 b3 3d bb 18 03 bd
       -0.07813838 0.10584025 0.08763189 -0.032006007
000150 b6 42 c6 bd 88 21 4d bc ef 72 1d 3e f3 2c b3 3d
       -0.09680693 -0.0125202015 0.15375875 0.08748808
000160 d2 80 28 bd fe 1a 60 bd 17 cc 82 3d f4 0d 42 3d
       -0.041138478 -0.05471324 0.06386583 0.047376588
000170 0d 8a 88 bd 15 54 1d 3e 5d 02 73 bd d0 50 d6 bd
       -0.06666956 0.15364106 -0.059328426 -0.104646325
000180 f7 2c c5 3d 96 fd ba bd 54 c9 ce bc e6 f6 be 3d
       0.09627717 -0.09130399 -0.025242485 0.09324436

9.weight f4 [100, 100]
000000 65 96 1e 38 cc 4f d4 36 31 e4 5a 3d 2a e8 22 b8
       3.78102e-05 6.327382e-06 0.053440277 -3.884003e-05
000010 e7 65 6e ba f3 36 38 bd 32 33 0a be c3 10 95 3d
       -0.0009094164 -0.04497428 -0.13496092 0.07278588
000020 b1 66 a5 b7 d6 40 0d 36 f4 a1 52 bd 8e f4 80 3d
       -1.9717352e-05 2.1048377e-06 -0.05142398 0.06296645
000030 6e 4b 39 3d 2f 39 30 3d 3e 37 cb bd 1c d9 c3 b6
       0.04523795 0.043023285 -0.09922646 -5.8367277e-06
000040 96 ee 3d be 78 d4 01 be 8a 6b c6 38 d7 ba 76 3d
       -0.18548045 -0.12678707 9.4614064e-05 0.060236778
000050 03 c6 c0 3a f4 a6 7b b8 18 49 aa bd b8 e9 45 bd
       0.001470745 -5.999855e-05 -0.08314723 -0.048318595
000060 39 b5 a3 bd 3a 31 af bd a1 8c de bb ff 07 d9 37
       -0.0799355 -0.08554311 -0.0067916666 2.587214e-05
000070 c2 e5 24 3e f5 60 e6 3d fa 8c 18 3d 84 a8 52 bd
       0.1610327 0.11248962 0.03724382 -0.05143024
000080 03 cf b5 bc 96 af 1b bc 04 6e 7b 3e 5f f6 b3 b8
       -0.022193437 -0.009502312 0.24553686 -8.581275e-05
000090 9f f6 47 3c 93 2f b0 bd 1c 78 ca b7 ca bb f8 3d
       0.012204795 -0.08602824 -2.4136207e-05 0.12145193
0000a0 70 3e ad 3b 34 c9 04 b9 9b ea d3 3d d3 60 62 3d
       0.005286984 -0.00012663455 0.10347482 0.05526812
0000b0 43 b9 1e 3e 24 e5 1b 3d 5f 96 21 37 e3 ed 1e 3c
       0.15500359 0.038060322 9.631359e-06 0.009700271
0000c0 81 d6 9a bd 60 a2 19 3e 1b b3 11 b9 10 0d 1e 3d
       -0.075604446 0.15003347 -0.00013895 0.038586676
0000d0 47 75 93 b8 3f 2a 07 bd bb 3d c4 bd 5f 4c 20 3e
       -7.031351e-05 -0.032999273 -0.09582087 0.15654133
0000e0 94 d0 cc 3d 1b a5 8e b8 08 a4 85 bb d3 51 47 38
       0.100007206 -6.801841e-05 -0.004078392 4.7521502e-05
0000f0 60 8a af 3d 90 8a e7 bd fb e7 6b 3e 6e b4 38 3d
       0.08571315 -0.113057256 0.23037712 0.045093946
000100 4e 9e 87 3d cf f8 92 bc 67 32 87 3d c7 1c aa bc
       0.06621991 -0.017940907 0.0660141 -0.020765675
000110 64 36 31 bd e0 24 13 3e fe 76 58 3b 81 4e a7 b8
       -0.04326476 0.14369535 0.003302991 -7.977803e-05
000120 a9 14 62 bd 03 eb ee 3c a3 1b 02 39 eb c1 46 3d
       -0.055195484 0.029164797 0.00012408062 0.04852478
000130 10 cb a8 3c 6d 72 a6 37 61 5c 21 3e 4c 1a 0b be
       0.02060464 1.9842026e-05 0.15757896 -0.1358425
000140 6a 14 a1 38 3a da 3f be b2 d1 3d 3d e3 02 ef 39
       7.680881e-05 -0.1873559 0.04634256 0.00045587783
000150 b0 54 a2 b8 3c da c5 38 f2 c3 4d bd 65 7e 92 bc
       -7.740536e-05 9.434341e-05 -0.050235696 -0.017882535
000160 25 e0 ef 37 2b 4f 46 b8 a9 66 83 bc 26 da e8 3c
       2.8595396e-05 -4.728061e-05 -0.016040163 0.028424334
000170 bb 03 01 36 ae e9 54 bd 90 14 8b 38 e7 01 67 38
       1.922467e-06 -0.051980667 6.6318666e-05 5.5076463e-05
000180 5d 0a d1 3d ea ad b8 38 9f 55 ef 3a f5 02 a1 bc
       0.10207055 8.806198e-05 0.001825977 -0.01965473
000190 26 ac 01 38 95 c0 8b 39 ca c6 82 3c b4 91 0c b9
       3.0916322e-05 0.0002665563 0.01596393 -0.00013405719
0001a0 5b 99 7f 38 70 d6 29 3c 35 94 c7 bc 26 07 6f 3c
       6.093956e-05 0.010366067 -0.024362663 0.014589107
0001b0 6f d4 8e 38 9e da 13 39 67 ea 71 bc 3d 17 9f 3c
       6.8106565e-05 0.00014100454 -0.0147653585 0.01942026
0001c0 cb 47 a0 3d 89 32 1c 39 e6 71 75 bb eb 9e 86 38
       0.078261934 0.00014896145 -0.0037451922 6.419219e-05
0001d0 9c 56 58 be a7 e1 85 bb 86 da 7c b7 df eb 9a bd
       -0.21126789 -0.0040857377 -1.5071249e-05 -0.0756452
0001e0 13 63 90 b7 7f 73 52 38 2a 62 9b b9 a6 ed de bb
       -1.7212273e-05 5.0175466e-05 -0.00029637042 -0.0068032322
0001f0 1a a7 61 bb e3 ea 37 39 26 0d e8 38 78 bd 1a 37
       -0.0034431876 0.00017539742 0.00011065071 9.223229e-06
000200 e8 bb 21 bc 3d cc 78 3c 97 ec 56 bd 94 ab d6 3a
       -0.0098714605 0.015185413 -0.052471723 0.0016378039
000210 10 ab 6e 3d 3b df 10 bb 66 53 f7 ba bd 66 89 37
       0.058268607 -0.0022105712 -0.0018869459 1.6379514e-05
000220 e7 fd 91 bb 85 82 8a ba eb 7c 37 38 72 22 5b 3d
       -0.0044553163 -0.0010567462 4.374694e-05 0.053499646
000230 27 2a 1d 3c 18 8d 29 37 24 bc f0 3c f2 de 31 ba
       0.009592569 1.0106036e-05 0.029386587 -0.00067852356
000240 22 24 3a 3c d8 2a c5 bb 7f 20 e1 37 de 31 fa b7
       0.011361154 -0.0060170703 2.6837222e-05 -2.9825544e-05
000250 b0 88 02 bd ee 46 59 ba 64 f0 8a 38 87 b9 e8 bc
       -0.031868637 -0.00082884624 6.625129e-05 -0.028408779
000260 93 3d 99 b7 2c 91 a6 3d 03 8c a6 bb 7a ea 5c 39
       -1.8267694e-05 0.08133158 -0.0050826087 0.00021068184
000270 3c ce 1a 3c d3 c3 0f 38 04 bb 4e 3d ba ab e1 38
       0.009448584 3.4276232e-05 0.05047132 0.000107608226
000280 30 de 4a 3d 4e 9a cd bb 93 93 ac bd 0f 61 85 b9
       0.0495283 -0.006274498 -0.08426585 -0.0002544005
000290 f6 d1 85 bd b0 07 a3 bb 8e 54 8a b9 3b e1 79 bb
       -0.065341875 -0.0049752817 -0.0002638441 -0.0038128633
0002a0 af 59 bf bc 58 c1 8e bb e6 06 ef bb 5c 8a 98 b8
       -0.023358194 -0.0043565445 -0.0072945235 -7.273696e-05
0002b0 34 da 3b bb 9a 59 53 bb c4 2b 96 38 c3 2a 16 3c
       -0.0028663995 -0.0032249452 7.160709e-05 0.009165469
0002c0 f5 7d 6d bb f7 a1 4a 38 ee e4 72 ba 76 08 76 be
       -0.0036238406 4.8311394e-05 -0.00092656806 -0.24026665
0002d0 83 56 f3 35 94 6d 7a 3d 72 a4 61 3c 28 09 d1 bb
       1.8130089e-06 0.061139658 0.013772117 -0.0063792653
0002e0 bc 36 60 b8 41 4a 12 38 40 19 5e 3b d7 26 a1 38
       -5.3456737e-05 3.4878267e-05 0.0033889562 7.684313e-05
0002f0 f8 ee db b8 76 18 bc b7 0f cb ee b9 3c 2c 11 3a
       -0.00010487245 -2.2422737e-05 -0.00045546188 0.00055379025
000300 61 8a 19 39 69 7c 3e bd 07 3e be 37 d9 bd b0 34
       0.00014642767 -0.046505366 2.2678649e-05 3.2920687e-07
000310 1f a4 5c 3c a7 b5 df b8 98 52 19 bc 25 fe c9 3b
       0.013466864 -0.00010667304 -0.009358071 0.0061643296
000320 77 e9 e7 38 01 43 50 35 1c 06 88 b8 af 00 59 b8
       0.000110584246 7.758354e-07 -6.486123e-05 -5.173747e-05
000330 41 fd 09 38 82 49 04 b8 c9 ae 59 37 53 ce 36 37
       3.2899206e-05 -3.1539712e-05 1.2974903e-05 1.0896084e-05
000340 63 2c 9d b7 5b 8a a7 38 8f 31 8d b8 34 cb 16 b8
       -1.8736528e-05 7.988951e-05 -6.732635e-05 -3.5952035e-05
000350 be 84 eb 38 9a 5c 99 38 49 64 68 38 9a f7 2f b8
       0.000112303984 7.312857e-05 5.540651e-05 -4.195385e-05
000360 db 65 17 b8 53 59 31 38 3c f8 a6 b6 b4 85 b7 b8
       -3.6096066e-05 4.2283278e-05 -4.976084e-06 -8.751024e-05
000370 04 8b 23 38 ec 79 da 37 5d 5c da 38 55 48 ab b7
       3.8991697e-05 2.60444e-05 0.00010412254 -2.041847e-05
000380 ef eb 8a 36 74 41 d1 37 ee d7 15 b8 0b 3f ce b7
       4.140187e-06 2.494522e-05 -3.572547e-05 -2.458647e-05
000390 40 b0 a2 b7 d4 6c 17 36 a3 cf 61 b7 ae af 79 b7
       -1.9393978e-05 2.25641e-06 -1.3459389e-05 -1.488246e-05
0003a0 1e 63 62 39 c2 c9 d5 b7 a0 aa 87 b8 56 4a 98 b8
       0.00021589964 -2.548553e-05 -6.469083e-05 -7.261771e-05
0003b0 c9 39 c7 b6 ee 11 94 35 4f 44 9a b8 59 6e 7e b8
       -5.9373892e-06 1.1032078e-06 -7.356016e-05 -6.066109e-05
0003c0 89 75 48 38 be 49 b6 b8 a2 fb 35 38 39 17 b9 38
       4.779318e-05 -8.692172e-05 4.3388114e-05 8.825813e-05
0003d0 fc ec 62 38 2c a1 b3 37 39 a3 81 b7 fb 44 72 b8
       5.4103308e-05 2.1413514e-05 -1.5454005e-05 -5.776154e-05
0003e0 b7 5a c2 b8 5b 96 23 38 6a 84 b1 34 0e 2b 13 38
       -9.267538e-05 3.9002258e-05 3.3065163e-07 3.508763e-05
0003f0 09 86 30 37 9d 7f 22 37 a3 6a 54 b7 99 2f 03 38
       1.0521625e-05 9.685665e-06 -1.2661013e-05 3.1277163e-05
