models/mnist_skip6_large.pt (torch, 290129 bytes, 28 tensors)

1.weight f4 [50, 784]
000000 43 5b 4d ba 02 01 65 ba e9 32 3d ba 05 fd 99 ba
       -0.00078337285 -0.0008735807 -0.0007217364 -0.0011748379
000010 97 a0 d8 b9 d1 b6 36 ba 27 97 59 ba 21 c2 7f ba
       -0.0004131838 -0.0006969991 -0.00083004165 -0.00097564055
000020 e4 64 72 ba 27 4c 83 ba a5 bc 27 ba d6 2a 08 ba
       -0.0009246601 -0.0010017202 -0.00063986547 -0.00051943713
000030 b8 95 89 ba ae b0 3e ba 36 c1 1d ba 12 66 65 ba
       -0.001049689 -0.0007274252 -0.00060178654 -0.00087508664
000040 43 2e 65 ba 08 cb 61 ba 1f d8 47 ba ef 4d 83 ba
       -0.000874255 -0.0008613323 -0.0007623452 -0.0010017733
000050 62 1e 5f ba fc 90 45 ba b4 17 86 ba c0 3b 79 ba
       -0.00085113023 -0.0007536558 -0.0010230453 -0.00095074996
000060 30 85 88 ba 12 4e 98 ba 02 15 a0 b9 10 d7 70 ba
       -0.001041567 -0.0011619946 -0.0003053323 -0.000918732
000070 7c 79 8d ba ec 25 61 ba bf 54 b6 ba 75 b9 9b ba
       -0.0010793651 -0.00085887196 -0.0013910754 -0.0011880832
000080 c3 dc cb b9 73 5e 8b ba 1b 57 95 b9 bb 8c a5 ba
       -0.00038883658 -0.0010633006 -0.00028484393 -0.0012630442
000090 18 dc 92 b9 ed 44 49 ba b1 33 cc ba d8 be 85 ba
       -0.00028011273 -0.0007677812 -0.001557937 -0.0010203971
0000a0 7b 49 51 ba ce 8c dc b9 0f 0f 96 ba 16 50 d5 b9
       -0.0007983667 -0.00042066578 -0.001144858 -0.00040686195
0000b0 28 ba a9 b9 9e 9f 25 ba d8 f6 8e ba f5 2c 3b ba
       -0.0003237289 -0.00063180353 -0.0010907305 -0.0007140183
0000c0 5e 2a 82 ba 71 94 40 ba 18 8b 68 ba c8 c2 6b ba
       -0.0009930839 -0.0007346338 -0.0008870824 -0.0008993563
0000d0 32 36 77 ba 65 2e 8e ba bf 53 f9 b9 63 68 34 ba
       -0.0009430378 -0.0010847567 -0.00047555377 -0.000688201
0000e0 0b c6 78 ba ec 5d a5 ba 2b 4a 3e ba 32 d7 8e ba
       -0.000948996 -0.0012616492 -0.00072589767 -0.0010897873
0000f0 51 71 60 ba a0 52 a4 ba f6 1c a1 ba d3 61 11 ba
       -0.00085618073 -0.0012536831 -0.0012291956 -0.0005545888
000100 69 34 33 ba d7 b3 8f ba 7d bd bf ba 4d d0 c0 ba
       -0.0006836118 -0.0010963631 -0.0014628615 -0.0014710516
000110 4a 9e 15 ba a8 3e 1d ba cf 0e 3c ba aa 4c 05 ba
       -0.0005707486 -0.0005998411 -0.00071738375 -0.0005084971
000120 33 22 90 38 63 76 aa 39 4d 4c 48 ba 85 bd 30 ba
       6.872825e-05 0.00032513132 -0.0007640764 -0.0006742108
000130 76 71 ca ba 70 69 c9 ba 88 cd 4e ba 79 d7 77 ba
       -0.0015445191 -0.0015366506 -0.0007888903 -0.000945441
000140 2a 35 65 ba 36 2d 33 ba ba 0b 6c ba ca f4 58 ba
       -0.0008743579 -0.0006835045 -0.0009004433 -0.00082762225
000150 53 eb 21 ba eb e7 41 ba 41 86 98 ba a7 10 79 ba
       -0.00061767286 -0.0007396924 -0.001163669 -0.00095010776
000160 d7 03 8b ba 5f 69 84 ba 5b 7f 4a ba 7d 47 60 ba
       -0.0010606003 -0.0010102204 -0.0007724666 -0.00085555745
000170 3f 82 a8 ba 27 49 01 bb 5a 94 d9 ba 5f cd d0 ba
       -0.0012856199 -0.001972744 -0.0016599998 -0.0015930346
000180 a9 c8 d9 3a 0d be 30 38 3c 8b 5d bb ff 8d 38 bb
       0.0016615588 4.213867e-05 -0.0033804914 -0.0028160808
000190 b9 81 05 39 b1 52 94 b9 46 65 53 b9 72 ce f8 b9
       0.00012732194 -0.0002829037 -0.00020160255 -0.0004745606
0001a0 93 50 87 ba 63 9b 5e ba b8 27 47 39 e4 2e cf b9
       -0.0010323696 -0.00084917824 0.00018992915 -0.00039517053
0001b0 ca dd 3d ba 59 c3 75 ba 39 3a f3 b9 eb c5 42 ba
       -0.0007242827 -0.00093751174 -0.0004639195 -0.0007430005
0001c0 7d 3c 24 ba 09 06 60 ba 93 ee a0 ba d2 ce 32 ba
       -0.0006265117 -0.0008545821 -0.0012278132 -0.000682098
0001d0 f6 16 c1 b9 76 d6 7b ba 01 ee cc ba 18 ea e3 ba
       -0.00036828936 -0.00096068473 -0.0015634896 -0.0017388491
0001e0 bf 31 19 bb 00 5b b9 ba 29 65 3f bb 0f b6 ea 3b
       -0.0023375598 -0.00141415 -0.0029204583 0.0071628164
0001f0 f7 f5 f3 ba 40 0c ee bc 1b 62 6b bd 05 07 1a be
       -0.0018612732 -0.029058576 -0.057466608 -0.1504174
000200 06 fd bf bd aa 37 bb bc 0f aa 3b bc 3c 75 82 bb
       -0.09374432 -0.022853691 -0.011454119 -0.0039812606
000210 a4 a8 2b bb c6 c3 c4 ba 20 be 93 ba 01 38 18 ba
       -0.0026193047 -0.0015011958 -0.0011271872 -0.0005806685
000220 7c 74 92 ba 53 c4 0d bb ba 7a a0 b9 03 ac 30 ba
       -0.0011173631 -0.002163191 -0.00030609017 -0.0006739499
000230 e7 8b 75 ba a8 e2 7d ba 04 dd 20 ba cc e3 aa ba
       -0.00093668554 -0.00096849585 -0.00061364495 -0.001303786
000240 1d 23 59 ba 1d da cb ba d8 a7 85 ba 06 33 aa ba
       -0.00082831254 -0.0015552674 -0.0010197116 -0.0012985177
000250 35 40 96 3a 36 50 7e bb 05 5a 1b bb 3a 98 7b bb
       0.0011463227 -0.0038805134 -0.002370478 -0.0038390295
000260 79 f2 95 3d 40 b1 e5 3c 88 e2 af bd 66 be 7b be
       0.073216386 0.028038621 -0.08588129 -0.2458435
000270 57 32 5c be 8b 25 60 bc 6f 34 2a 3d d6 85 00 bd
       -0.21503578 -0.013680826 0.04155391 -0.031377636
000280 58 83 24 bd 39 6c e3 3a b4 fb 87 3a d8 42 49 ba
       -0.04016432 0.0017350978 0.0010374696 -0.0007677502
000290 b2 fe 1d ba 1a 85 7f b9 f9 98 1c ba c2 77 80 ba
       -0.0006027027 -0.00024368279 -0.00059737224 -0.0009801316
0002a0 a8 c4 aa ba d7 e1 76 ba 17 47 ab ba 09 85 73 ba
       -0.0013028579 -0.0009417808 -0.0013067451 -0.0009289538
0002b0 13 eb 7c ba f7 96 09 bb 71 e3 dd ba 53 60 3b ba
       -0.0009648066 -0.0020994523 -0.0016928745 -0.00071478373
0002c0 44 dc eb bb 8d f1 c8 bc 49 5c 2f ba dd 22 27 3d
       -0.0071978886 -0.024529243 -0.0006689472 0.040804733
0002d0 c1 ab 25 3e a0 78 48 3e 5c 21 90 3d fa 2b b9 bd
       0.161788 0.19577265 0.07037613 -0.09041591
0002e0 f4 d7 d4 bc a5 45 fb 3d 47 ec 27 3e b5 4d e4 3c
       -0.02598188 0.12269143 0.16398726 0.027869085
0002f0 0e 77 a4 bd b0 ea 77 bd 96 1c ea bc d8 de 03 bb
       -0.080305204 -0.06052655 -0.028578084 -0.002012184
000300 0b 45 a2 b8 29 e6 15 b9 46 c4 34 ba c7 f2 43 ba
       -7.737622e-05 -0.00014295489 -0.0006895702 -0.00074748363
000310 31 6f 56 ba 7b 6e 93 ba f5 cf 2a ba be 2c b2 ba
       -0.0008180021 -0.0011248136 -0.00065159734 -0.0013593656
000320 21 34 8f ba a8 fd 01 bb 05 45 3b bb 3e e3 b9 bb
       -0.001092557 -0.0019835029 -0.0028575074 -0.0056728413
000330 18 d7 29 bc 58 46 2d 3b 47 19 92 3d cb ca 2a 3e
       -0.010366224 0.0026439633 0.071337275 0.16678922
000340 86 72 84 3e 26 88 5e 3e 44 ec cd bc 0f e1 28 be
       0.25868624 0.21731624 -0.025137074 -0.16492103
000350 13 85 fe 3c 3b 97 27 3e 1c 9d 50 3e 13 44 cc 3c
       0.031069314 0.16366284 0.20372432 0.024934804
000360 41 e6 df bd 35 ba 1d be a5 aa 4e be 64 d7 38 bd
       -0.10932589 -0.15403064 -0.20182283 -0.045127288
000370 b2 70 ba 39 d6 35 55 ba db fa 38 ba a5 a5 a3 ba
       0.0003556065 -0.00081333274 -0.00070564233 -0.0012485279
000380 44 33 62 ba 0c 56 91 ba dc 7a 81 ba 78 b1 ee ba
       -0.0008628855 -0.0011088266 -0.0009878534 -0.0018210849
000390 51 26 18 bb 34 a2 10 bb cd 36 8b bb d2 bc 9a bc
       -0.0023216198 -0.0022069337 -0.004248476 -0.018888865
0003a0 ce a3 10 bd ea 5b d3 bc 9c 45 f2 3c 98 2a 4d 3e
       -0.035312466 -0.025800664 0.029574208 0.2003578
0003b0 8d 28 81 3e 17 9d 30 3d 8d ad 47 be 26 f4 89 be
       0.2522625 0.043118563 -0.19499798 -0.26944083
0003c0 88 ff c5 3c 9e ce 42 3e 0e ed 4a 3e ae e1 5f 3c
       0.024169698 0.1902413 0.19816992 0.013664646
0003d0 ce 48 d0 bd 80 da fc bd 3a e4 de bd 79 59 ff bc
       -0.101701364 -0.12346363 -0.108833745 -0.031170594
0003e0 dd e9 24 3b f2 00 14 3a 6c e6 ae b9 1e 4a 12 ba
       0.0025163807 0.0005645893 -0.00033359544 -0.00055805023
0003f0 a5 99 80 ba f5 f3 47 ba 47 23 6c ba 7f eb 3c ba
       -0.0009811415 -0.00076276 -0.0009007942 -0.00072067225

1.bias f4 [50]
000000 6e 58 94 3b 15 80 48 3d d6 20 ea bd 76 3c 8c be
       0.004527143 0.048950274 -0.11432044 -0.27389878
000010 4f 6d 37 be 0c 79 4e bd b3 85 db bd 96 ed c6 3d
       -0.17912792 -0.050408408 -0.107188605 0.09713285
000020 32 e2 87 3d 9a 78 fd bc 27 14 29 3d 1a 6a 91 bc
       0.0663494 -0.030941296 0.041278984 -0.017750788
000030 f0 9f 47 3d 47 c8 ad bd d1 00 86 be 59 99 c9 bd
       0.048736513 -0.084854655 -0.26172498 -0.09843702
000040 9e 13 a4 3d 77 35 b5 be d3 26 19 be c6 3d 5f be
       0.08011554 -0.35392353 -0.14956217 -0.21800908
000050 8d fc e2 bd f0 51 15 3d c2 16 90 bb 60 85 29 3e
       -0.110833265 0.036455095 -0.004397244 0.16554785
000060 9c e5 cf 3d 2b 53 69 3e fd 25 08 3d 6b ae 5b be
       0.101512164 0.22785632 0.033239353 -0.21453254
000070 8a bd 82 3e ae 24 57 3e be de 81 bd 90 2c 37 bd
       0.25535232 0.21010086 -0.06341313 -0.044720232
000080 be 54 30 bd 66 49 01 3d 52 91 05 bb d4 93 ee bd
       -0.043049566 0.03156414 -0.0020380807 -0.1164929
000090 53 d9 01 bd 73 50 0d be e3 a1 ea bd d6 3d 80 be
       -0.031701397 -0.1380022 -0.11456659 -0.25047177
0000a0 ba e6 7c be 24 02 b6 bd 71 ce 30 be 9b 79 7d bd
       -0.2469739 -0.08887127 -0.17266251 -0.06188355
0000b0 63 c3 d9 bd 5a f4 0c be d4 c0 93 3d b7 fb 8a 3d
       -0.1063297 -0.13765088 0.072145134 0.06786292
0000c0 04 1c c0 bd 36 12 06 3e
       -0.093803436 0.13092884

2.path.0.weight f4 [50, 50]
000000 de 30 bd bd 98 ad d6 bd bc 73 de bd 29 fc 28 3e
       -0.09237836 -0.10482329 -0.10861918 0.16502441
000010 4d fb b2 3d 79 94 9a 3c 51 65 67 be 05 c8 5c 3e
       0.08739338 0.018869625 -0.22597243 0.21560676
000020 9c 7a 52 3e 7e b1 cf 3d 74 e3 63 bd bb 67 8b 3c
       0.20554584 0.10141276 -0.055636838 0.017017236
000030 8c 5b 21 bd 74 a0 e1 bd 73 02 20 be d6 22 44 bd
       -0.039393947 -0.11016932 -0.15625934 -0.047884785
000040 ef f7 81 be 99 a9 ab be fc dd 0e bd 52 42 70 3d
       -0.2538447 -0.3352783 -0.03487967 0.058656998
000050 18 e7 f5 bd ee 4a 0b 3d 85 1b df 3c 79 71 61 3b
       -0.12006968 0.034007005 0.027234802 0.003439991
000060 56 58 32 3d c5 15 df 3c 27 4f 42 3d 48 44 96 bc
       0.043541275 0.02723206 0.047438767 -0.018343106
000070 fc b4 f9 bd 4f 67 47 3e 11 c7 dd bc 05 c0 22 3e
       -0.12192723 0.19473003 -0.027072461 0.15893562
000080 22 b4 d2 bd ae 2a 0f 3d 01 06 1e bc 10 01 d9 bd
       -0.10288264 0.034952812 -0.009644986 -0.10595906
000090 26 f7 23 be 38 54 a8 3c ba 10 28 3d 7c f3 2d 3d
       -0.16012248 0.020547971 0.041031577 0.042468533
0000a0 36 38 11 3e c7 71 4d be 5f ee 80 3e 93 ef 20 be
       0.14181599 -0.20062934 0.25181863 -0.1571639
0000b0 ef fe 77 bb b3 ff d4 3c ca 3f b4 3d 54 44 02 3d
       -0.0037841161 0.026000833 0.08801229 0.031803444
0000c0 49 6c 6a 3e 84 b7 10 be 73 6e 49 be 3f e6 67 bd
       0.2289287 -0.14132506 -0.1967104 -0.056616064
0000d0 84 06 f5 bc 47 30 3e bd 4a a9 41 3e 9e 08 36 3e
       -0.029910333 -0.04643276 0.18912235 0.17776725
0000e0 83 9a 35 be 84 3f 49 bd ba 13 55 be 67 1e 3f bd
       -0.17734723 -0.04913284 -0.20808306 -0.046659853
0000f0 32 61 fa bd ca 7e 7f 3e 33 69 68 bd 20 54 bc 3d
       -0.1222557 0.2495071 -0.05674095 0.09195733
000100 d5 dd 81 3c 51 0e 07 be 89 ca f9 bc 97 9b d8 bc
       0.015852848 -0.13189055 -0.030492084 -0.026441379
000110 1c d9 ff 3b a5 56 61 bd 17 3e 9b 3d ef a6 e1 3d
       0.007807864 -0.05501427 0.07580202 0.11018168
000120 a5 7d 14 3e 42 59 c9 3d ab 76 2d 3d 80 37 f6 3c
       0.14501055 0.09831478 0.0423495 0.030055761
000130 ec fe a4 3d 33 e9 8f be 5a c2 7c 3c f7 27 07 be
       0.08056435 -0.28107604 0.015427196 -0.13198839
000140 a3 a4 6b be 75 d1 35 be 17 08 5b bd ed bc 7c 3c
       -0.23012023 -0.17755683 -0.053474512 0.015425903
000150 b6 47 b7 bd 6a 01 1a be 5b 2f 0a 3e 52 ec 7e be
       -0.08949225 -0.15039602 0.13494627 -0.24894837
000160 5d da e8 bd 86 4b 3c 3d 42 b2 07 3e 3f d5 2a bd
       -0.113697745 0.045970462 0.13251594 -0.041707274
000170 5a c7 b3 be 5d aa b2 3d 67 61 8d bb 8e c2 7f bc
       -0.3511303 0.087239005 -0.00431459 -0.01561035
000180 44 6e 91 3d d4 95 96 3c 03 5e 38 be 9a 9b 04 be
       0.071011096 0.01838199 -0.18004613 -0.12949982
000190 f6 e2 ed bd fe e2 4c 3e e5 23 e8 3d ea 1a 86 3d
       -0.11615555 0.20008466 0.11334971 0.06548102
0001a0 4c f6 72 3d 1d 69 85 3e a5 1b 22 be 53 7d 2a be
       0.05931692 0.26056758 -0.15830858 -0.1664937
0001b0 43 cb 8b bd 2c 53 11 bd fa 36 8f 3d fd e9 0f be
       -0.068258785 -0.03547971 0.06992908 -0.14054103
0001c0 bb 62 58 bb 31 8c 95 bd 65 64 16 be fb a6 88 3d
       -0.0033017832 -0.0730213 -0.14686735 0.06672474
0001d0 e4 d0 0b bd 7e 7d d7 3d 7c 31 72 be 0c 65 04 bd
       -0.03413476 0.105219826 -0.2365169 -0.03232293
0001e0 96 c0 c9 be b2 fc 44 3e 3d 11 2d 3e 33 9d b3 3d
       -0.39404744 0.1923702 0.16901107 0.08770218
0001f0 7d 57 0b 3d a4 5b 58 bc 42 cb c0 bd 06 92 83 bd
       0.034018982 -0.013205443 -0.09413768 -0.06424336
000200 6c 57 28 bc d1 e9 8f bd 55 75 90 bd 89 84 84 3d
       -0.010274749 -0.07027019 -0.07053629 0.064705916
000210 0e 14 db 3c bb 48 86 bd 09 f7 21 3e c8 27 1c 3e
       0.026742961 -0.06556841 0.15816893 0.1524955
000220 39 71 d8 3d 47 6c a8 3d 55 5c 33 3e db 2f 9d 3d
       0.105684705 0.08223777 0.1751569 0.07675143
000230 81 5b bd bd 6d d8 87 3b a7 13 f0 bb e3 1e 1a be
       -0.092459686 0.004145673 -0.0073265615 -0.15050845
000240 2c 37 47 bd fb 06 31 be 56 cc 0e be 71 8e 9d 3c
       -0.0486366 -0.17287819 -0.13945135 0.01923296
000250 02 e9 1c be 67 25 5d bd e5 43 84 3d 93 46 d8 3c
       -0.1532326 -0.053990748 0.06458262 0.02640084
000260 be 46 00 bd ab 97 32 3d 6e ee ec 3d e7 dc 0d bd
       -0.031317465 0.043601673 0.11568914 -0.034634497
000270 d9 33 2c 3e 5a b8 0e 3e 7b b5 5e 3c 4a e9 b9 bd
       0.16816653 0.13937512 0.013593073 -0.090776995
000280 39 93 0a 3c 4d 44 28 3e 89 87 e8 3d 8c 43 02 3d
       0.008457952 0.16432305 0.11353976 0.0318027
000290 71 ea 09 3e 28 af eb 3c ba cf 0f be e2 c9 0a 3e
       0.13468339 0.028770044 -0.14044085 0.13553575
0002a0 57 af 89 3c ae aa b0 3d 9b c3 d6 3b 33 48 12 be
       0.016807241 0.086263046 0.0065540797 -0.14285354
0002b0 58 88 51 3e bc 3a 99 3e 05 c4 99 3b 38 17 36 3d
       0.20462167 0.29927623 0.004692557 0.044455737
0002c0 c3 86 40 bd 1f 78 5f 3e 95 14 51 be 40 f0 01 bd
       -0.04700352 0.21823166 -0.20418008 -0.03172326
0002d0 ff 0a 84 bd b7 5b a1 bc d9 a0 b1 be 82 65 fa bc
       -0.0644741 -0.019697053 -0.3469303 -0.03056598
0002e0 ef 54 a3 3d 3d cb aa bc 91 f7 66 bc b0 89 39 3d
       0.07975184 -0.020848865 -0.01409711 0.045297325
0002f0 c8 1e c2 3d e0 9b e7 3c da 2a de bd ee dd 1e 3d
       0.09478527 0.02827257 -0.10848017 0.038785867
000300 6f c0 c4 bd c6 29 9b 3b 0e 8a a4 be 44 41 6a 3d
       -0.09607016 0.0047352044 -0.32136577 0.05719115
000310 41 cf 81 bc 2b 9f 73 bd 49 79 ff bd 3b 71 18 be
       -0.015845897 -0.059477966 -0.12474305 -0.14886944
000320 db fc f1 3c c8 54 ac 3d ed 8b 40 be de 21 de 3d
       0.029539516 0.08414608 -0.18803377 0.108463034
000330 b1 00 1e 3d 1f a7 3f 3e 59 04 6d bc 19 8a 1a 3d
       0.038574878 0.18716095 -0.014466369 0.037729356
000340 14 93 d2 3d 23 39 5d be 37 ba f8 3a 1f c3 92 3d
       0.10281959 -0.21603827 0.0018976395 0.07166123
000350 f1 b9 a7 3d 79 7d 0f bd 0e 6d 89 3b c3 d6 51 be
       0.081897624 -0.03503177 0.0041939085 -0.20492081
000360 a3 15 06 3c 7f f3 b0 3b 13 93 19 3d 50 8d ff 3d
       0.0081838695 0.0054001207 0.037493777 0.12478125
000370 f9 a6 5e 3e b7 27 bd 3d a4 0a 04 3d 3c 82 30 3e
       0.21743383 0.09236091 0.03223671 0.1723718
000380 82 45 16 bd a8 cf a4 3e ee 7a 8b 3d 2e d5 bb bd
       -0.03668738 0.3218968 0.06810556 -0.0917152
000390 96 0b 01 bc 5d 8b 6a 3d 6e 64 f9 3d 6e e6 9b 3e
       -0.007876297 0.057261813 0.121773586 0.3044924
0003a0 1a 5a 42 3e 55 bb 2f bd 71 ca ef 3d 1e 59 7e be
       0.18979684 -0.042903263 0.117085345 -0.24838683
0003b0 aa 39 94 be 3e 2d c8 bd f9 34 81 3c 48 76 58 3e
       -0.28950244 -0.09774254 0.01577233 0.2113887
0003c0 e9 fc d6 bd b5 36 3b be 22 6f d7 bc 97 49 6c bc
       -0.104974575 -0.18282588 -0.02629811 -0.014421842
0003d0 8b ff 85 3e 05 2f 28 be a7 00 3c be 74 67 3f bd
       0.26171526 -0.16424187 -0.18359624 -0.04672952
0003e0 4e c5 db 3c ef c2 24 be 68 a7 47 3e a4 4a ca 3d
       0.02682748 -0.16089986 0.19497454 0.09877518
0003f0 04 53 2e be 0b 04 c5 3d e1 9b 45 be 15 8e ab 3d
       -0.17023855 0.09619912 -0.19297744 0.08376709

2.path.0.bias f4 [50]
000000 d8 69 30 3d 98 96 aa 3e db a5 d1 bc ac 05 a6 bd
       0.04306969 0.3331802 -0.025591781 -0.081065506
000010 86 9f 0b 3e 98 94 5d bd 2b 10 27 be 43 51 a1 3d
       0.13635072 -0.05409679 -0.16314761 0.078768276
000020 a0 b0 2a 3d 44 4f c0 3e 7b e5 82 be d6 be 54 3e
       0.04167235 0.37560475 -0.25565705 0.20775923
000030 f7 7f 72 3e 8f a4 85 3e b1 ce 45 3e cc 4d 61 be
       0.23681627 0.2610211 0.19317128 -0.22002333
000040 a9 5e 42 3e b9 41 0b be ac 7d 50 bd ab d0 50 3d
       0.18981422 -0.1359929 -0.0509011 0.05098025
000050 1a 98 2b 3b be 5d 72 bd b0 1b e4 3d af 74 fc 3d
       0.002618319 -0.05917143 0.111380935 0.12326943
000060 38 42 ca bd 5c 47 21 3c bc ef d5 bd fe eb d4 bd
       -0.098759115 0.009843674 -0.10446116 -0.103965744
000070 73 2a b0 bc 82 ce 30 3e b0 bc 2d 3e bf 99 85 3e
       -0.021504616 0.17266276 0.1696651 0.2609386
000080 60 13 d5 3b 03 bf a8 3d 5d 9d 30 bc f0 c2 aa bd
       0.006502554 0.082395576 -0.010779706 -0.083379626
000090 83 6b 85 3e a1 48 17 bd 6d 49 c2 bd 4f b6 0b be
       0.26058587 -0.0369345 -0.09486661 -0.13643764
0000a0 0b b0 aa 3d 39 4b e8 bd 0f 5c 87 3d 6d 1d 2e bd
       0.08334359 -0.113424726 0.06609356 -0.04250853
0000b0 39 18 93 bd 27 02 c4 bc ea d9 40 be 20 ec 17 be
       -0.071823545 -0.023926808 -0.18833128 -0.14836168
0000c0 78 15 bf 3d 0b f5 cb bd
       0.09330267 -0.099588476

2.path.2.weight f4 [50, 50]
000000 b3 fe ba bd c2 3e 02 3e 58 e8 7b 3e ee 87 dc bd
       -0.09130611 0.12719253 0.24600351 -0.10768114
000010 a6 66 0d 3e 59 3d 8c bd 44 bd 72 3e 22 73 00 be
       0.13808689 -0.06847639 0.23705012 -0.1254392
000020 c8 0c 06 bd 1d 45 4b bd ef ac 14 be f5 37 c8 bd
       -0.032727033 -0.04962646 -0.14519094 -0.09776298
000030 b7 37 60 3d b6 16 59 3e e1 59 23 3e 31 54 da 3d
       0.054740634 0.2120007 0.15952255 0.106605895
000040 83 1d ec bd c7 b6 69 be 7b 25 98 3c cd 0e 58 be
       -0.115290664 -0.2282363 0.01857256 -0.21099396
000050 93 63 fc bb e0 3b d2 bd 8e aa 5d 3e c1 eb 21 bc
       -0.0077023 -0.102653265 0.21647093 -0.009882868
000060 85 52 5c be 7f c6 8f be a6 bb f4 bd 12 6d 57 3e
       -0.21515854 -0.28081128 -0.119498536 0.21037701
000070 5f 1c 96 3c 73 a1 2f bd 22 73 8d 39 51 77 18 3e
       0.018324075 -0.04287858 0.00026979396 0.14889266
000080 c6 3f 9e bc 7c 39 88 3c 48 cc 79 3d bf ba af 3b
       -0.019317519 0.016628973 0.060985833 0.005362838
000090 60 4c a7 3d 82 fc 18 3e 35 92 6c 3c 22 9d c2 b7
       0.08168864 0.14940074 0.014439155 -2.3199773e-05
0000a0 8a 9d c5 3c 14 6b b5 3c 5a 8d fb bc ca d1 3b 3e
       0.024122972 0.022145785 -0.03070705 0.18341747
0000b0 42 36 42 bd 41 fb 34 be 01 00 88 3c 0c 6c 95 bd
       -0.047415026 -0.17673971 0.016601564 -0.07295999
0000c0 4d 8e 43 3c a0 77 df bd 61 ac 9a bd 95 3b 51 3e
       0.011935783 -0.109114885 -0.0755241 0.20432885
0000d0 18 e8 2b 3d 8a 8d 40 bc 8c a2 44 bd e8 e8 5f 3c
       0.04196939 -0.011752496 -0.04800658 0.013666369
0000e0 3d 1f 02 bc 11 11 1e bc bf db 5a bb 26 31 8e bb
       -0.007942018 -0.009647624 -0.003339514 -0.004339355
0000f0 73 f2 71 be 6d 74 85 3d cd 2e 71 3e d5 4f a2 bc
       -0.23627643 0.06516347 0.2355301 -0.019813458
000100 14 94 51 be 5b cd 2a 3e ce d1 9a bd 09 5d bd 3d
       -0.20466644 0.166799 -0.07559548 0.09246261
000110 30 c2 5c 3e 69 f1 f8 bd cf 53 51 3d 6d 48 b5 3d
       0.21558452 -0.1215542 0.051105317 0.08851705
000120 f7 16 09 3e 58 80 1e be 6c 82 4b bc 9a b2 70 3d
       0.13387667 -0.15478647 -0.012421232 0.058764078
000130 af 7d dd bd 5b 72 87 3d bd d9 0c be b1 a1 75 3e
       -0.10814988 0.066136084 -0.13754936 0.23987462
000140 93 d9 66 3e 6a 64 08 3d 36 0e fe bd 3e 56 c1 3d
       0.22543935 0.033298887 -0.12405054 0.094402775
000150 f4 b6 b0 3c 9c cb e0 3d d5 66 2a bd d1 f6 02 3d
       0.021571614 0.109763354 -0.041601975 0.031973664
000160 fc 4e ba bb b9 7c 36 b8 a6 8d 06 3d 4d c9 00 3c
       -0.005685685 -4.350834e-05 0.03284993 0.007860494
000170 ef df 16 be 6a 10 9c bc 85 dd 87 3d 35 32 37 bc
       -0.14733861 -0.019050796 0.06634048 -0.011181404
000180 da bb 0f 3d 59 1b cf 3d a0 50 be bd 45 c1 6b 3d
       0.03509126 0.10112638 -0.09292722 0.057557363
000190 d0 27 41 3d f8 a7 73 bd 78 4b 38 be 93 3c 26 be
       0.04715711 -0.05948636 -0.17997539 -0.16234045
0001a0 b9 5f 8d 3e d5 a1 c7 bd c3 6e dc 3d 2a 37 7a 3d
       0.27612093 -0.09747664 0.107633136 0.061087765
0001b0 0d 04 d6 be 98 c5 00 be ab 26 45 bd 03 dd a0 3c
       -0.41799966 -0.12575376 -0.04813258 0.019636637
0001c0 8b a4 91 3e be d7 b9 bd 5d ea 08 3e 32 f2 27 bd
       0.2844585 -0.09074353 0.13370652 -0.04100246
0001d0 80 72 0f be 80 fa f3 bb f4 04 b6 3c cb 5c eb 3c
       -0.14008522 -0.0074456334 0.022219159 0.02873077
0001e0 85 a1 3a be da 97 01 3e e6 3e a6 3d 1a 2d 18 3e
       -0.18225677 0.12655583 0.08117466 0.14860955
0001f0 2f fc 72 3d 69 32 dc bc ed 23 81 3c 2f d3 9d 3d
       0.059322532 -0.026879506 0.015764201 0.07706296
000200 ab 07 c2 3d 38 33 17 3d 8b db de bd f4 97 92 bb
       0.09474119 0.03691408 -0.10881718 -0.0044736806
000210 24 b1 ef 3c 95 ca 53 3c a9 a4 43 3d 80 8b ed bd
       0.029259272 0.012926717 0.047764454 -0.11598873
000220 72 ba 24 3d 44 43 07 3e 33 90 10 3e e7 f8 44 b7
       0.04021687 0.13209254 0.14117508 -1.17404625e-05
000230 3e ba a3 bc c5 05 e0 bd 0c 31 de bd 7e c2 87 bd
       -0.019986268 -0.109386005 -0.10849199 -0.06628893
000240 35 85 28 3c 3c 41 36 be 23 72 d1 3d c4 f8 ca 3d
       0.010285665 -0.17798322 0.10226848 0.099107295
000250 24 9e 39 3e 78 f1 a9 3e 56 df b0 3b 8b c3 fe bd
       0.18126732 0.3319204 0.0053977175 -0.124396406
000260 ce bc 46 3e 71 86 e9 bd fd cf 22 bc d6 20 f0 3d
       0.19407961 -0.11402596 -0.009937284 0.11725013
000270 eb 27 1e 3e 57 4f b3 bd cb d3 77 3e 38 b2 fb 3c
       0.15444915 -0.08755367 0.24201886 0.03072463
000280 f4 72 68 3d 35 10 ff bd a2 76 ab bd 82 72 ba 3d
       0.056750253 -0.12454263 -0.08372237 0.09103872
000290 e4 6e a8 bd 92 95 89 3c a2 d1 2a be 28 63 ac 3d
       -0.08224276 0.016794953 -0.16681531 0.0841735
0002a0 83 a3 e6 bd 5e 14 53 3e 8d 87 fd 3e d0 a4 97 3d
       -0.11261656 0.20613238 0.4951748 0.07404482
0002b0 4a 47 92 3d 25 24 4d 3c 33 c5 f4 bd e3 0c 45 be
       0.071425036 0.012520825 -0.11951675 -0.19243197
0002c0 85 d4 ed 3d 30 9b 8e bd 70 66 67 3e 94 fc 21 3d
       0.116128005 -0.069631934 0.2259767 0.039547518
0002d0 c4 b9 9c bd 98 cd aa bd 34 e0 e2 3d f9 37 83 bd
       -0.076526195 -0.08339995 0.110779196 -0.0640716
0002e0 68 09 67 be 74 ac 3b 3e d4 24 bb 3c 5e 46 70 be
       -0.22562182 0.18327504 0.02284471 -0.23464343
0002f0 d7 dc d5 3d 33 3c b9 b8 ea 09 20 be 8e 10 bb 3b
       0.104425125 -8.8327004e-05 -0.15628782 0.0057087606
000300 76 f0 b9 bd fd 47 bf 3d 87 c4 80 bc 20 25 5b 3e
       -0.090790674 0.093399025 -0.015718712 0.21400881
000310 8c 8d ba 3d f4 6a f6 3d bb 6e 86 bd d6 9a 82 3d
       0.09109029 0.120321184 -0.06564089 0.06377189
000320 ba 4b ed 3d 89 db 0d be 7a 7e 8d bd bf 87 9f bd
       0.11586709 -0.13853277 -0.06908889 -0.077895634
000330 68 e0 f8 3d a4 ae 5c bd 52 18 2f be 1c c1 fd bc
       0.12152177 -0.053877488 -0.17099121 -0.03097587
000340 69 1c ff 3d 51 10 d4 3d 22 44 43 3d 65 00 21 be
       0.12456591 0.103546746 0.0476724 -0.15722807
000350 3e d5 31 3e 5e fb 5b 3d a7 c0 62 be 16 86 b0 3d
       0.17366502 0.05370652 -0.22143804 0.08619325
000360 31 52 09 bd 6b 0f 9b 3d bf f7 6f bd ad a3 49 3c
       -0.03352565 0.075713 -0.05858588 0.01230709
000370 4a fc 3d bd 0b ca 4f be 56 1f 8a 3e 51 6d 03 3e
       -0.04638318 -0.20291917 0.26977032 0.1283467
000380 1c 6f 05 3d 32 71 46 3d 68 47 3b be cf f0 ff bc
       0.032576665 0.048447795 -0.18288958 -0.031242756
000390 96 d0 68 bd b0 e7 07 3e f9 5b d8 bd 8b 01 ac ba
       -0.056839548 0.13271976 -0.105644174 -0.0013123018
0003a0 fd 26 c6 3d d7 10 21 be 73 5c 22 3e 2b a4 5a bc
       0.09675405 -0.1572908 0.15855579 -0.013344805
0003b0 9a f8 16 3e 3c 48 25 3e 98 30 33 bc 15 61 47 b8
       0.14743271 0.16140836 -0.010936879 -4.7535712e-05
0003c0 f1 0d d1 bc d6 4d 33 3e 83 8c d8 bc 6b 83 9c be
       -0.025519343 0.17510161 -0.026434189 -0.30569014
0003d0 4b 3e 7c 3e c5 d8 c6 3d 00 0c af bc 08 0a 45 3d
       0.24633138 0.09709314 -0.021368027 0.04810527
0003e0 72 20 05 bd a5 90 bd bd 64 01 f4 3d c1 0f 00 3d
       -0.032501645 -0.092561044 0.11914328 0.031265024
0003f0 f1 bf a8 bc 9c 78 b0 3e 9f a7 5f be ce 6f 9a 3d
       -0.020599337 0.34467018 -0.21841286 0.07540856

2.path.2.bias f4 [50]
000000 ca ca ae 3d 13 4a 55 3e b7 7e 17 3d bb 5d 82 bc
       0.08534773 0.20829038 0.03698608 -0.015913835
000010 10 15 24 3d 4a ce e4 3d 23 7d cf 3d af f8 2f 3e
       0.04005915 0.11172159 0.1013129 0.17184709
000020 28 fd c9 3d a2 6c d0 3d 5b c1 fa bd 16 05 ed 3d
       0.09862739 0.1017697 -0.12243911 0.11573236
000030 29 cd 2b 3e 6d c9 86 3d 6f 10 0b 3e 10 3e 8b 3d
       0.16777481 0.06581388 0.13580488 0.06798947
000040 24 f5 b3 3c 2e 5a 1c 3d 20 65 1b 3e 09 1d 09 be
       0.021967478 0.03817194 0.15175295 -0.13389982
000050 02 02 29 3e c1 50 05 3e 23 93 d8 bd 01 36 84 3c
       0.16504672 0.13019086 -0.10574939 0.016139032
000060 8d 19 23 3e cd 67 8b bc 9e 97 6c 3e ce ef 3f be
       0.15927716 -0.01701727 0.23104712 -0.18743822
000070 0f 83 9d 3d 2a 2a 98 3d 31 d8 b1 3e 1f f5 a6 3e
       0.07691013 0.07429917 0.34735253 0.32608888
000080 7c 23 47 3e dd c2 b2 bd 32 2b 15 3e de 64 7e 3e
       0.1944713 -0.087285735 0.14567259 0.24843165
000090 8c 5a 08 be ab d0 5c 3d 6b c0 b6 3e dc fc 47 be
       -0.13315791 0.05390994 0.35693678 -0.19530052
0000a0 7d 8e a3 bd 36 99 44 be 24 42 3b 3e 3e 59 52 3e
       -0.07986162 -0.1919907 0.1828695 0.20541856
0000b0 91 c9 ba bc c9 b3 b2 bd 39 f4 11 be 53 9b d0 3c
       -0.022801192 -0.087256975 -0.1425332 0.02546469
0000c0 5d a9 7b 3e 9c ed 8c bd
       0.24576326 -0.06881258

2.path.4.weight f4 [50, 50]
000000 51 29 2b 3c 25 55 26 be 25 1d d0 bc 41 3a 11 be
       0.010446862 -0.16243418 -0.025404522 -0.14182378
000010 5a 65 25 be a4 1b 69 bd 5f 54 84 bd e4 41 2c bc
       -0.16151944 -0.056911126 -0.06461405 -0.010513756
000020 d5 5f d4 3d 61 4b 13 be ea bb bc bd 77 43 02 be
       0.10369841 -0.14384224 -0.09215529 -0.12721048
000030 eb ba 21 3e 26 d1 2f be 63 2b a5 3d df 7f db 3d
       0.1579396 -0.17169628 0.08064916 0.10717749
000040 d6 9c 0d bc 06 4b 10 3c 8f 45 0e 3c f3 33 39 b8
       -0.00864335 0.0088069495 0.008683576 -4.415582e-05
000050 53 f5 19 3e 53 ff 1b 3e 60 8d a1 37 25 17 05 3e
       0.1503499 0.15234117 1.9258528e-05 0.1299711
000060 07 01 96 3d 3f 61 54 3d 4d be ef 3d d5 53 ae 3d
       0.07324415 0.051850554 0.11706219 0.085120834
000070 d0 0d 46 bd 3c b2 63 3e 50 8d 2b 3e 40 c2 98 be
       -0.048353016 0.2223596 0.16753125 -0.298357
000080 f0 82 4d 3c 6b 26 bf 3c 59 81 14 3e c0 20 00 3d
       0.012543425 0.023333749 0.14502467 0.031281233
000090 71 3d 78 38 7e b3 95 3d ec 55 e8 bd 7d 85 d9 3c
       5.918503e-05 0.07309626 -0.11344513 0.02655291
0000a0 19 e1 20 be 74 eb 2b be 7b f7 64 3d bd 40 2f 3e
       -0.15710868 -0.16789037 0.05590008 0.1711454
0000b0 41 84 85 bc 4c 60 02 be 23 01 2b ba 61 66 21 3e
       -0.016298415 -0.12732047 -0.00065233017 0.1576171
0000c0 59 01 10 bd 28 00 f0 bd f6 e9 21 bd b4 96 f1 bd
       -0.035157535 -0.1171878 -0.039529763 -0.117963225
0000d0 22 70 a1 3d b9 5f ad bd d8 40 35 be b9 87 2b 3b
       0.07882716 -0.08465523 -0.17700517 0.0026173426
0000e0 de 1c 12 bc cf 9c fc 3c 73 35 1c be 0f f5 9e 3a
       -0.008918015 0.03083649 -0.15254764 0.0012127477
0000f0 55 92 03 be a9 2c 39 be d1 7d d1 3d 09 a1 d9 bd
       -0.1284879 -0.18083443 0.10229076 -0.10626418
000100 c1 ac 2b be f2 6f 34 bc b8 35 a0 3d 7c 10 31 3e
       -0.16765119 -0.011013018 0.07822746 0.17291445
000110 38 00 2b bc bf fe c9 37 a1 6e b6 3d 50 41 48 be
       -0.010437064 2.4079693e-05 0.089078195 -0.19556165
000120 e5 39 b9 38 f6 05 ff 3d f2 c6 94 3d 8e 22 74 3e
       8.832271e-05 0.12452309 0.07264508 0.23841307
000130 e7 51 01 3e 3e e1 8d bc 2f bc 91 bd ec b3 86 3d
       0.126289 -0.017319318 -0.07115971 0.06577286
000140 de aa 02 3e f3 1b 5f bd 17 3c f6 bd 85 33 c8 3d
       0.12760493 -0.054470014 -0.1202318 0.097754516
000150 6f 7b ec bc 64 63 09 3e 6f 23 9a 37 5e e9 86 be
       -0.028867451 0.13416821 1.837473e-05 -0.2634992
000160 e1 c5 a2 3d ba 97 b8 bb af f8 b8 bd 57 ac 1e 3d
       0.07947899 -0.0056333216 -0.09031808 0.038738575
000170 fb 3b 2d bc dd 42 13 3d ac 9d a4 3d 19 a4 01 3e
       -0.0105733825 0.035952438 0.08037886 0.12660255
000180 9c 5d 2a 3d d1 fe fa 3c 9e 6e 85 bb 3e b9 ba 3c
       0.04159318 0.030639084 -0.0040720245 0.022793408
000190 a1 7f 29 bc d5 ae 90 3d 36 6a ae 3d b6 26 e0 bd
       -0.0103453705 0.070645966 0.08516352 -0.109448835
0001a0 7e 3c 71 3d cb aa 0e bd ae 5c 08 bd 47 70 22 bd
       0.05889558 -0.03483085 -0.03329151 -0.039657857
0001b0 9e 19 16 3d 8c 57 2b 3e 53 3f 70 3b d8 30 d3 bd
       0.036645524 0.16732615 0.0036658838 -0.103120506
0001c0 b8 83 0b 39 85 f0 0d 3c df 80 ad 3d 96 36 a8 3c
       0.00013305142 0.008663301 0.08471846 0.020533841
0001d0 24 fa ca bd 07 a5 aa bc b6 6f a3 bd c1 5a de b7
       -0.09910992 -0.020830644 -0.079802915 -2.6506723e-05
0001e0 d2 ee 7c bd 06 94 50 bd eb 29 42 36 4a 0a 08 3e
       -0.061751194 -0.050922416 2.8932652e-06 0.13285175
0001f0 c2 db 96 3c dd 2b 3e 3e 6b fb 3d 3e e3 60 95 bd
       0.018415336 0.1857142 0.1855294 -0.0729387
000200 3d 8d 88 3e 87 7c fb 3c 5d a3 65 3d 5a 3e 18 be
       0.26670256 0.030699028 0.056064 -0.14867535
000210 d9 12 27 bd 2a 9e 70 3c 61 33 13 3d 51 b8 ff 3d
       -0.04078946 0.014686147 0.03593767 0.124863274
000220 0b c8 d9 37 8c cb 81 be 99 c9 cb bd de b5 38 be
       2.5961568e-05 -0.25350606 -0.09950561 -0.18038127
000230 a5 14 e9 bb 72 16 28 be 6e 6c 7e 3b 93 36 58 3e
       -0.0071130567 -0.16414812 0.0038821953 0.21114568
000240 d7 7d d1 bd d5 c9 8b 3d 7d 30 f8 bc 75 ab 5e be
       -0.1022908 0.06825606 -0.030296559 -0.21745093
000250 ff 8c 20 bd 7e 70 00 3c 54 b2 c4 bc f9 f6 90 bc
       -0.039196964 0.00783932 -0.024010815 -0.01769589
000260 19 5d 38 3d 96 2e 93 3e e3 b9 4b bc d8 81 e0 3d
       0.04501066 0.2874648 -0.012434456 0.10962266
000270 b8 02 28 bd e1 d8 ea 3d 2a c2 4a be 84 99 26 be
       -0.041018218 0.114671476 -0.1980063 -0.16269499
000280 3f 5f 1a bc 75 ab 9a bd ce 9c 78 bc 39 b0 c5 bc
       -0.0094221225 -0.07552234 -0.015174104 -0.024131881
000290 39 40 0f be 19 c9 24 3e 50 f2 a5 bd 6e 7d 68 be
       -0.13989343 0.16092338 -0.08102858 -0.22704098
0002a0 1c c6 5b 3e 59 72 30 b8 97 8d 86 bd d6 e8 93 bd
       0.21462291 -4.2068164e-05 -0.06569975 -0.07222144
0002b0 15 02 13 39 d0 3f 58 3d 54 cd 17 3d c6 ec 7a be
       0.00014019788 0.05279523 0.03706105 -0.24504384
0002c0 27 31 9f 3c a5 d5 d2 3d 60 4b 36 be be b2 da 3d
       0.019432617 0.10294656 -0.17802191 0.106786236
0002d0 e1 52 cd 3d 4a ce 18 bd 42 5c 80 3c 26 b8 66 bc
       0.100255735 -0.037306108 0.015668992 -0.01408199
0002e0 86 2c 5f 3d f6 16 de bd 9f 58 16 b9 bb df 8e 3e
       0.05448582 -0.10844223 -0.00014338129 0.27905068
0002f0 c8 46 d8 be 1f fb 0b 3e da 89 84 3e 62 98 81 3c
       -0.42241502 0.13670014 0.25886422 0.015819732
000300 64 d2 0c bd 26 20 83 3c f2 42 ad bd 40 9a ec bd
       -0.03438033 0.01600654 -0.084600344 -0.11552858
000310 f1 34 fc bd 03 76 80 3b 55 dc ef bc c6 1a 9b be
       -0.12314785 0.003920318 -0.029279867 -0.30293864
000320 35 23 2b be d2 15 75 be 0d 3e fe b9 fb 1f 66 3e
       -0.16712649 -0.23934105 -0.00048492887 0.22473137
000330 34 70 0f be f5 0d 85 bb 9a e3 16 be 15 4c 17 bd
       -0.14007646 -0.0040605017 -0.1473526 -0.03693779
000340 12 86 a6 bd 5a c3 a4 3b 9e 45 be bd fa 69 15 be
       -0.08131041 0.0050281705 -0.09290622 -0.14591208
000350 1a 28 0c 3e 88 37 40 3c cc 31 d7 3d 75 50 1c bd
       0.13687173 0.01173199 0.10507545 -0.038162667
000360 14 de 38 be 4a ef ca bd 67 01 85 bd a9 ab 98 38
       -0.18053466 -0.09908922 -0.06494408 7.279899e-05
000370 d1 df bf 3e 99 6e 0d be aa 7d 11 b8 50 7b 07 3c
       0.37475446 -0.13811721 -3.4687728e-05 0.008269146
000380 3e 0c 41 3c 17 4b 8c 3e 87 f9 40 3c d1 4f 57 3e
       0.011782704 0.2740104 0.011778242 0.21026541
000390 98 70 b7 bd 8a f5 f1 3d 3b d8 2a 3e 5a 01 51 be
       -0.089570224 0.11814411 0.16684048 -0.20410672
0003a0 74 a1 e4 bd f6 3c 8b 3e a5 bd 54 be be 45 29 bd
       -0.11163607 0.27194947 -0.20775469 -0.041326277
0003b0 b9 b6 bc 38 bd 6c 8b 3e a0 34 15 be 4b bc 35 3e
       8.998573e-05 0.27231398 -0.14570856 0.1774761
0003c0 d3 f8 9d bd 0c 69 bc 3d ce 60 14 be c1 43 a8 be
       -0.07713475 0.091997236 -0.14490053 -0.32864192
0003d0 33 a8 df 3a 05 51 70 3d 78 d4 70 3d 31 9f c9 bd
       0.0017063677 0.058671016 0.058796376 -0.098448165
0003e0 4e 46 32 be 90 be 3a be 13 50 6c be ec f0 3f bd
       -0.17409632 -0.18236756 -0.23077421 -0.04686062
0003f0 22 6d ca 3c 71 df af bd 40 1c b3 3d 3a ae 3b 3a
       0.024710242 -0.0858754 0.08745623 0.00071594457

2.path.4.bias f4 [50]
000000 64 04 34 3e 32 35 1a 3e e8 80 d7 bc 5b c0 f6 bd
       0.175798 0.15059355 -0.026306584 -0.12048408
000010 23 3c 1e be 90 cf 56 3d 06 ab 51 be 25 1d 0f 3e
       -0.15452628 0.05244404 -0.20475397 0.13975962
000020 2a 0e 41 3c 13 55 10 be 12 db f5 bc 77 07 3c be
       0.011783162 -0.14094953 -0.030011687 -0.18362223
000030 56 22 fa 3d 49 a4 ac bc 93 27 46 be 29 a3 1e be
       0.1221358 -0.021074431 -0.19351034 -0.15491928
000040 23 c7 48 3d eb b1 a5 be 3d 9b ae 3c f3 61 1d be
       0.049018037 -0.32362303 0.021314258 -0.15369396
000050 f2 19 3f be a8 c8 57 3d d6 3b 82 bd fe e9 31 3d
       -0.18662241 0.052681595 -0.06359069 0.043436043
000060 f4 51 19 3e 41 86 e1 3d 3a 94 46 3e fe 6c b7 bd
       0.14972669 0.11011935 0.19392481 -0.089563355
000070 24 ed 94 3e e1 be 43 3e 61 18 39 3e 38 88 86 bd
       0.29087174 0.19115783 0.18075706 -0.065689504
000080 69 fc b4 3c 3a b2 9a 3d aa 8e 8a bd 64 4f d2 3d
       0.022093015 0.07553525 -0.06765492 0.10269049
000090 8a e6 ca ba d2 72 ed 3d cc 71 fd bd 4f ab e0 bd
       -0.0015480083 0.11594166 -0.12375221 -0.109701745
0000a0 4f 03 57 be f4 a9 22 be 84 8f 2d be 0a 17 45 bd
       -0.20997356 -0.15885144 -0.16949278 -0.048117675
0000b0 30 1c 4b be c4 31 fc 3d 60 29 2c bd e1 e1 2f 3e
       -0.19834971 0.123141795 -0.042031646 0.1717601
0000c0 55 95 ff bd 79 82 82 3e
       -0.12479655 0.25490168

3.path.0.weight f4 [50, 50]
000000 9e 01 83 3d 4a ac 3a be 71 14 d5 3d 14 ff 20 be
       0.06396793 -0.18229786 0.104042895 -0.15722305
000010 f7 a3 9a 3e 29 ab a3 bd e4 75 3e bd 98 42 7b be
       0.3020322 -0.079916306 -0.046499148 -0.24537122
000020 78 f6 2a be e3 c6 f8 bd 16 e0 99 3e d8 bd b6 bd
       -0.16695583 -0.1214731 0.30053777 -0.089229286
000030 c9 23 d0 ba 9c 44 a0 3d 6d 61 42 be 9d 17 25 bb
       -0.0015879805 0.07825586 -0.18982477 -0.0025191077
000040 97 ef 47 bd e2 c1 62 bd e0 1c 80 be b1 0d a4 bd
       -0.048812475 -0.055360682 -0.2502203 -0.08010424
000050 20 81 73 3d da 04 b2 bd 88 52 06 bd ea 8b 44 3d
       0.059449315 -0.086923316 -0.03279355 0.047984995
000060 b2 78 14 3d 0b 47 d7 3c e8 38 0a bd 3e 95 f8 3d
       0.036247917 0.026278993 -0.033745676 0.12137841
000070 51 85 d1 ba 5a de 16 bd bb 94 04 bd 7f 24 55 3d
       -0.0015985166 -0.036833145 -0.032368403 0.05203676
000080 36 66 97 3d 92 80 06 3c a2 86 15 3e 13 5c 94 bd
       0.07392542 0.0082093645 0.1460214 -0.07244124
000090 a4 75 90 3e 3f a2 16 bc 7d 56 2c 3e 45 13 87 bd
       0.28214753 -0.009193956 0.16829868 -0.06595472
0000a0 07 31 5e be b5 19 b9 bd 75 22 05 3e 6d 4d ca bd
       -0.2169839 -0.09038106 0.13001426 -0.09878049
0000b0 b2 9f 0a be 97 83 68 3d d8 63 04 be 86 5a 55 bd
       -0.13537481 0.05676612 -0.12928712 -0.052088283
0000c0 e0 86 27 3e 07 51 8e 3d ad f0 63 3e cb 84 94 3d
       0.16360044 0.069490485 0.2225978 0.07251891
0000d0 88 1d 13 bd 01 20 47 3e d2 b9 74 bd 83 26 1f bd
       -0.035916835 0.19445802 -0.059747525 -0.038855087
0000e0 d6 0c 06 bd 8e 04 e3 3d fb 9a 7c bd b6 01 28 3c
       -0.032727085 0.11084853 -0.06167124 0.010254314
0000f0 be 9a 28 bc ca 04 6d 3e dc 02 2e 3e 35 fb e0 3d
       -0.0102908 0.23146358 0.16993278 0.10985414
000100 85 5b e4 3d 32 6a c5 bd c2 05 54 be 6f 01 7d bd
       0.111502685 -0.09639396 -0.20705321 -0.061768945
000110 7b 74 93 3d d8 4b 19 3d 2e 4a 2a be 5f 5b 82 3c
       0.07199951 0.037425846 -0.1662986 0.01591271
000120 e9 43 05 be 39 3e 9c bd a0 86 65 3b eb ee c8 3c
       -0.13014187 -0.076290555 0.003502287 0.024527987
000130 e2 70 1e 3d 97 dc 16 3e 72 48 cd bd 08 fd 75 bd
       0.038681872 0.14732586 -0.100235835 -0.060055763
000140 49 7c 16 3d 0a e9 c2 3d ce 20 07 3e 20 63 28 be
       0.03673962 0.09517105 0.13196108 -0.16444063
000150 05 30 27 be 1e 60 a2 bd ec 1a be bc c7 e7 4a bd
       -0.16326912 -0.07928489 -0.023206197 -0.049537446
000160 d2 19 32 3e 6c 03 8b 3d 13 8c 96 3d 9a 74 84 3d
       0.17392662 0.06787762 0.07350936 0.064675525
000170 41 ec f3 3c 7d 07 90 3c 1b f6 a1 3c 87 8c 3a bd
       0.02977574 0.017581696 0.019770673 -0.045544174
000180 2e ab d1 3d 28 6c 0a be be c3 07 3e d8 7e 2f be
       0.10237728 -0.13517821 0.13258263 -0.17138231
000190 d2 22 0d be c3 bb 8c 3e 93 ab bf 3d ea ed 0d 3c
       -0.13782814 0.27487 0.09358897 0.00866268
0001a0 32 1f 55 3e 69 10 83 be a8 71 4d 3d ce 2c 5d 3d
       0.20812681 -0.25598457 0.05015722 0.053997807
0001b0 90 f4 61 be ff 1a 55 be f1 50 04 be 10 81 3c 3c
       -0.2206595 -0.2081108 -0.12921502 0.01150538
0001c0 49 94 98 be 0e 81 80 bd 5d 3e f5 3c c4 2d 82 bd
       -0.29800633 -0.06274615 0.029936964 -0.06356385
0001d0 c2 0c 38 3e 1f 63 de 3d e2 2e 11 3e 0f 39 c5 bd
       0.17973617 0.108587496 0.1417804 -0.09630024
0001e0 bd 7a 8c bc 4e c6 cf bc 77 b1 b5 bd aa 95 9e 3a
       -0.01714837 -0.025363114 -0.08871739 0.0012099047
0001f0 b5 b4 9e bd e1 60 58 3e 8f 81 05 be a7 4e 2d 3e
       -0.07749311 0.21130706 -0.13037704 0.16924535
000200 44 65 18 bd 9b 4e f8 3d 52 18 85 bd 53 4d 13 be
       -0.03720595 0.12124368 -0.06498779 -0.14384966
000210 6f 1d 24 bd ed 51 5f 3d 94 7e 0c 3e 69 66 c4 3c
       -0.040067133 0.05452149 0.1372016 0.023974614
000220 34 39 04 bf f9 5d 39 bd 7a f3 e8 3c 9e 88 98 be
       -0.51649785 -0.045255635 0.028436411 -0.2979173
000230 85 69 bb bd 5e 97 c6 3c 5b d2 94 3e 91 81 a8 bd
       -0.09150986 0.0242421 0.29066738 -0.08227838
000240 9a e7 34 3d 02 b3 00 bd b0 3c 06 be 37 98 fc bd
       0.044166185 -0.031420715 -0.13109088 -0.1233372
000250 49 0c e9 be f9 5c 0e bd 43 18 0c be 64 65 12 be
       -0.45517185 -0.034756634 -0.1368113 -0.1429649
000260 d4 51 06 be 1f 93 76 bd f7 10 92 3d 71 34 92 3d
       -0.13117152 -0.0601989 0.07132142 0.07138909
000270 d5 e5 19 be e3 16 4c 3e 97 ac b3 bb bd a0 7c be
       -0.1502908 0.19930606 -0.005483221 -0.24670692
000280 c9 34 25 3d 60 83 5d bd b4 39 cd 3d 8d a4 40 3e
       0.040333543 -0.054080367 0.100207716 0.18812771
000290 2b 31 d4 be ea 3e c4 be 4f 5c a9 3d e8 7c b6 bc
       -0.41443762 -0.3832925 0.082695596 -0.022276357
0002a0 2a 2f 41 be d2 03 26 3e c2 c6 82 3d 2f a3 8d 3e
       -0.18865648 0.16212395 0.06385566 0.27663562
0002b0 42 68 e7 bd 59 84 81 3e 11 0d c8 3c 82 26 f9 3d
       -0.112991825 0.25296286 0.024420293 0.12165548
0002c0 2a ea 58 3e 56 17 9a 3d 15 b7 02 be c5 dd 96 bd
       0.21183077 0.07523982 -0.12765153 -0.07366518
0002d0 6b e4 23 bd 2e f0 68 be bd 08 51 3e 8d 36 57 3e
       -0.04001276 -0.22747871 0.2041349 0.21016903
0002e0 88 4b 85 be e2 ec 63 bd d5 cf 8d 3c c3 54 8d 3d
       -0.26034188 -0.05564583 0.017311016 0.06900933
0002f0 6b df e9 3b 9a 74 f8 bc 78 ed 20 be ba 27 bc 3d
       0.007137229 -0.030329037 -0.15715587 0.09187265
000300 94 dd 27 3d 38 dc 2a be 73 96 7b 3d 34 4d 13 bd
       0.040982798 -0.1668557 0.061422776 -0.0359623
000310 e2 2e 8b 3e c1 1c 7d 3d 28 ef 56 bd d8 99 f2 3d
       0.27184206 0.061795 -0.05247417 0.118457496
000320 aa 4c 60 bd 65 6d 01 be 9c 0c 12 bc c9 ce 55 bc
       -0.054760613 -0.12639387 -0.008914139 -0.01304979
000330 f2 2c 9b bc f2 bd 7a 3e 87 7e ea bd 3d 05 1f be
       -0.01894233 0.24486521 -0.114499144 -0.15529342
000340 73 d9 8c be 9e 73 2d 3e d4 f0 9e bd 38 31 32 3b
       -0.2750965 0.16938636 -0.07760778 0.0027189981
000350 df 15 91 3e 5c 54 d9 bd c6 f0 8d bc bf 63 0e be
       0.28337 -0.106117934 -0.017326724 -0.13905238
000360 1c 27 86 bd c3 d1 64 bd f7 b9 66 be 42 ff 91 be
       -0.06550428 -0.055864107 -0.22531877 -0.2851506
000370 52 a2 4b 3e bb ac 51 3d db 6b 6d be a6 76 ab bd
       0.19886139 0.05119012 -0.23185675 -0.0837224
000380 66 69 b6 3d c1 bb 42 3b 83 36 54 be ce ec 2b 3d
       0.08906822 0.002971396 -0.2072392 0.04197388
000390 97 61 8f be fa bf 00 be bb 68 ec bd 0d 0f 6e 3d
       -0.28004143 -0.12573233 -0.11543413 0.058119822
0003a0 4b 02 b7 3d e0 a2 2c be 3c 04 58 bd 8c 65 51 bd
       0.08935984 -0.16859007 -0.052738413 -0.051122233
0003b0 80 f6 c0 bd 94 82 5d 3d f4 cf 3e 3e 2e ac c3 3c
       -0.09422016 0.054079607 0.18634015 0.023885813
0003c0 29 75 ea 3c d0 03 d2 3d f0 83 83 3c b4 d4 dd bd
       0.02862032 0.102546334 0.016054124 -0.108315855
0003d0 fd ef 6d be 4e d5 6a be 49 5b 2c be 9a 2b 33 be
       -0.2323608 -0.22932932 -0.16831698 -0.17497101
0003e0 79 4b 53 bd 31 ac 8e bd 8d 6a 62 be 2d 04 28 bc
       -0.05158565 -0.06966437 -0.22110958 -0.010254902
0003f0 77 34 69 be cc ac 1b bc 5f fe 32 3e e8 85 1f 3e
       -0.2277392 -0.009501647 0.17479847 0.15578425

3.path.0.bias f4 [50]
000000 50 6f aa bd 9d 28 a9 be d7 b3 8a be 69 7a 20 3e
       -0.083220124 -0.33038798 -0.27090332 0.15671696
000010 a9 4a 86 be ae b1 95 3d ed 01 1a 3e f8 35 a4 3d
       -0.26228836 0.0730928 0.15039797 0.08018106
000020 b5 56 f6 3b 91 94 ec bd 12 50 3e 3e 3a 30 76 bd
       0.0075176605 -0.11551774 0.18585232 -0.060104586
000030 8a 9a 23 be 4f 71 02 bc 8b 17 39 3e 8f 02 27 3d
       -0.1597692 -0.007961585 0.18075387 0.040773924
000040 2b 70 13 be 22 2f 16 3e 3b 74 ca bd e4 81 13 be
       -0.14398257 0.14666417 -0.098854505 -0.14405018
000050 a9 6d ee 3d 22 e6 23 3e 0c 0a b6 be a8 84 e1 3e
       0.1164201 0.16005757 -0.3555454 0.4404652
000060 3f 8d 5d 3e b4 3c 20 3e 91 1a 49 be b6 cd c4 be
       0.21635912 0.15648156 -0.1963904 -0.38438195
000070 ad 88 78 3e 6f c2 35 be 33 e5 fd 3d 38 84 a2 3d
       0.24270888 -0.17749952 0.12397232 0.07935375
000080 4f 5f 81 3d 3c 90 ff bd fd 1e c7 3d 69 ad c5 bb
       0.06317007 -0.124786824 0.097227074 -0.006032635
000090 a7 b0 9c 3e 50 20 f6 3d 6b ef 3a be b5 80 ef bc
       0.30603525 0.12017882 -0.18255393 -0.029236177
0000a0 d7 9a e4 3c 51 f4 e3 bd f1 bb 80 ba 60 ce 4e 3d
       0.027905865 -0.11130584 -0.0009821636 0.050489783
0000b0 51 03 8d 3d 34 5c c3 3e c4 e4 1f bd 2a cf a9 bd
       0.06885398 0.38156283 -0.039036527 -0.082914665
0000c0 9a d0 43 3d 7b b7 99 3d
       0.04780636 0.07505699

3.path.2.weight f4 [50, 50]
000000 6a dd 86 3e 07 40 3a be e4 b9 5a be 56 81 19 be
       0.263408 -0.18188487 -0.21359974 -0.14990744
000010 e1 29 71 3e ca 24 5d be 2b ab 0d 3c b7 11 51 3e
       0.23551132 -0.21596065 0.008646767 0.20416914
000020 15 a1 bc bc db e9 20 bd 27 b3 6b bc f0 a3 ca bd
       -0.023026029 -0.039285522 -0.014385975 -0.0989455
000030 40 79 2b 3d 70 d3 d4 3d 1e 74 41 be 58 08 8c bd
       0.04186368 0.10391891 -0.18891951 -0.06837529
000040 05 00 a7 bc 91 c4 1c 3e 6d c7 67 bc 01 09 63 bd
       -0.020385752 0.15309359 -0.014146668 -0.05542851
000050 96 d9 2b be 3d d8 06 be 06 de 26 bd 2e 17 f1 3d
       -0.16782221 -0.13168426 -0.04073908 0.11771999
000060 14 32 7b 3d 93 d8 03 3e d8 82 a0 3e 1e 1f d3 bd
       0.061327055 0.12875585 0.31349826 -0.103086695
000070 3f d0 c0 3d 87 78 cb bc 24 a4 e4 3d 74 ff cd 3d
       0.0941472 -0.024837745 0.1116412 0.100584894
000080 35 d6 3a be 70 f9 03 be 4a a1 08 be b0 c7 cd bc
       -0.18245776 -0.12888122 -0.13342777 -0.025119632
000090 3d 0c c9 bc 36 1e 82 be f0 80 3f 3b 6b e5 89 bd
       -0.024541968 -0.25413674 0.002922114 -0.06733211
0000a0 53 b1 a7 3d 97 6a 8b 3d 4f bc ad bd 38 86 3a be
       0.08188119 0.0680744 -0.08483183 -0.18215263
0000b0 6f 7d d4 bb ea 59 e8 bc 02 97 6b 3d 5b d0 45 3e
       -0.0064846794 -0.028363187 0.05751706 0.19317763
0000c0 a6 c3 12 be 51 f3 0f 3d 76 11 b8 bd 72 90 bd 3d
       -0.14332446 0.035144154 -0.089877054 0.092560664
0000d0 f0 c9 b6 3d 8d 73 db 3d 42 1c ad 3d d9 b4 d7 3d
       0.08925235 0.10715399 0.084526554 0.10532541
0000e0 01 e0 a9 bc b4 a9 69 3d 28 e2 e5 3d 4b f2 3e 3e
       -0.020736696 0.057046607 0.112247765 0.18647115
0000f0 78 e9 31 3e fd b3 59 bd 4e 13 7a 3e aa 91 70 be
       0.17374218 -0.053150166 0.24421427 -0.23493066
000100 2d c8 bc 3d dd a5 09 bd 22 f9 9d bd b1 e8 99 bb
       0.09217868 -0.033605445 -0.07713534 -0.0046969284
000110 26 70 e5 3d 79 56 a3 bd a1 c4 63 be 9f f3 20 3e
       0.11203031 -0.07975478 -0.22242977 0.15717934
000120 d6 56 e1 bd 34 4d f3 bd e8 90 ec bd 7f 6c 0d 3d
       -0.11002891 -0.1187996 -0.11551076 0.034527298
000130 e7 10 f4 3e 2d ac 2f be 34 fe 47 3d b0 a3 91 3d
       0.47669145 -0.17155524 0.04882641 0.07111299
000140 fc a1 42 3e a3 9e 8e 3d 73 1d 3c be e2 e3 44 be
       0.19007105 0.06963851 -0.18370609 -0.19227555
000150 ed 9d 58 3d b3 8d b1 3d dd 97 fd 3d 83 e7 2b 3e
       0.052884985 0.08669605 0.12382481 0.16787533
000160 47 eb 37 be c4 44 f3 bc fd 82 47 bc ec 75 51 bd
       -0.17960845 -0.029695876 -0.012177226 -0.05113785
000170 96 c5 04 3e 1e e1 01 3e 33 57 ea bc 7a 4b 30 bd
       0.12965998 0.12683532 -0.028606033 -0.04304073
000180 08 43 aa bd 27 de 86 3c d0 83 0f 3d 8d 79 35 be
       -0.083135664 0.016463352 0.035037816 -0.17722149
000190 77 b7 4a be 37 66 db bd 54 42 02 bf 18 7e 51 bd
       -0.19796549 -0.10712855 -0.5088246 -0.051145643
0001a0 2f b0 7c 3d 21 e2 9a 3c 43 c0 ad 3d 12 47 20 3e
       0.06169146 0.018906655 0.08483937 0.15652111
0001b0 2c 29 67 3e 5b de c3 3d 1d 9f 49 b9 0c 61 0f 3b
       0.225743 0.09563895 -0.00019228128 0.0021877913
0001c0 d0 dd 98 3d 99 ed b3 bd 89 6f e0 bb 2e 2f 71 bd
       0.074641824 -0.087855525 -0.0068492335 -0.058882885
0001d0 44 73 69 3e 86 f4 13 3e 77 05 00 3e 8b 51 92 bd
       0.22797877 0.14448747 0.12502085 -0.07144459
0001e0 49 50 96 bc 9e 18 6c be ce 0e 88 3e 81 a3 8f bd
       -0.01834883 -0.23056266 0.26573795 -0.07013608
0001f0 57 d0 2d 3c aa 25 f5 bd 1d cc fd 3d 0f cf c7 bd
       0.010608754 -0.119700745 0.12392447 -0.0975629
000200 53 a2 eb bd 28 1e c8 3d 32 f2 d2 3d 99 79 cd be
       -0.1150557 0.09771377 0.10300101 -0.40131834
000210 c7 ce f2 bd b0 24 0f bd cc a0 72 3d f2 68 38 bc
       -0.11855846 -0.034947097 0.05923538 -0.01125549
000220 74 67 d0 3d 00 f8 80 3c 87 15 00 be a6 20 76 3d
       0.10175982 0.015743256 -0.12508212 0.06008973
000230 ff 5b 97 3c 03 48 bb 3d ff ce 24 bb 74 96 c7 3c
       0.018476484 0.091445945 -0.0025147793 0.024363734
000240 51 3c 94 3e 57 d7 4c 3e c4 97 07 3e d1 b4 34 3e
       0.28952268 0.2000402 0.13241488 0.17647101
000250 ac 84 a3 be 91 2b 11 be bc 33 c3 bd 23 a1 4d bc
       -0.31937158 -0.14176776 -0.09531352 -0.012550625
000260 75 bf a2 bd 35 56 df 3d 36 4f 7d 3e b9 38 8a 3d
       -0.07946674 0.109051146 0.24737248 0.067491
000270 bc bd a6 3c 55 f1 e4 bd 51 0c 05 3e 94 9f ed 3d
       0.020354144 -0.11178843 0.1299298 0.11602703
000280 ec c7 93 3d d2 d7 00 3e b8 95 db 3d aa 0f 30 be
       0.072158664 0.12582329 0.10721916 -0.17193475
000290 d5 ef 5c bc 7e 1c 82 bd fa cc 0c 3e de b0 34 3e
       -0.013484915 -0.06353091 0.13750067 0.17645594
0002a0 f6 17 83 3d 60 a2 27 be 41 ba 97 bd 95 85 0b be
       0.064010546 -0.16370535 -0.07408572 -0.13625176
0002b0 0d b9 27 be 52 2d db be f2 16 da 3d f5 03 89 bd
       -0.16379185 -0.42808014 0.10648908 -0.06690208
0002c0 80 c4 a6 3d 75 90 50 be 57 4a 7a 3d 37 a4 13 bc
       0.08142948 -0.20367606 0.061106052 -0.00901132
0002d0 9c 0d 92 3e 59 83 3b bd 36 e4 a6 3d b1 45 ad bd
       0.28526008 -0.04577956 0.081489965 -0.08460558
0002e0 a7 d5 8d 3c 3d f1 96 bd 87 71 1f be 45 6c 46 3e
       0.017313791 -0.07370231 -0.15570651 0.19377239
0002f0 82 1f 0c 3c 59 9d 37 3e aa 7c 43 3e 26 d1 b7 bd
       0.008552434 0.17931117 0.19090524 -0.08975439
000300 4d 92 0c 3d b2 29 11 3e 58 fb 8c 3d 43 15 11 be
       0.03431921 0.14176062 0.068838775 -0.14168267
000310 b3 e8 e0 3c f3 ea b7 bd 47 7e 3f 3d 0b b0 35 be
       0.02745471 -0.0898036 0.046751287 -0.17742936
000320 42 0a 98 bd f7 f6 28 3d 8d 36 7e be 3c 1e 28 3e
       -0.074238315 0.04125115 -0.24825497 0.16417783
000330 6b 1c 54 be 6d 19 0c 3c 9b cc bb bd c2 a6 07 3d
       -0.20713966 0.008550984 -0.09169885 0.033118017
000340 7b 52 9e bd 27 7e c0 3c a1 6e 53 3d 21 aa 16 bc
       -0.07730576 0.023497654 0.051619176 -0.009195835
000350 5e ae 68 3d e1 14 68 be 6e 45 19 3e 6b 49 d7 bd
       0.056806915 -0.22664215 0.14967892 -0.1051205
000360 a3 e7 b8 3d f0 c5 2c 3e 55 4d c8 bd 8b 46 ea bc
       0.09028556 0.16872382 -0.09780375 -0.02859809
000370 10 0e 7f 3e 72 02 2b be d3 3d e0 3d 9c ad 0f 3e
       0.24907708 -0.16700152 0.10949292 0.1403107
000380 dc 09 9a bd c7 1c 01 bd 3f 01 03 be c9 ef 36 3c
       -0.07521412 -0.031521585 -0.12793444 0.011165568
000390 0e 76 36 3e a1 a6 42 be ff 78 42 3d 4b b7 09 3e
       0.17818472 -0.19008876 0.047478672 0.13448827
0003a0 2f 8f e3 3d d3 a6 c8 3d 7f 76 a5 bd a9 83 05 be
       0.111112945 0.09797444 -0.08079242 -0.13038506
0003b0 67 d0 f5 bd bd 66 ba bd 61 f0 d8 bc 02 bb 15 bc
       -0.1200264 -0.09101627 -0.02648181 -0.009138824
0003c0 1c a2 7c 3d ce ac b3 3e 8f 25 92 bd 82 88 fd bd
       0.061678037 0.35092777 -0.0713607 -0.123795524
0003d0 a6 ac 85 3e 76 1e 2e 3e 95 4f a5 bc 9d e8 dd bc
       0.26108283 0.17003807 -0.02017955 -0.027088458
0003e0 4c 57 c7 3d 99 10 a1 3c 1b 06 b9 bd 99 df d0 bd
       0.097334474 0.019661235 -0.09034368 -0.10198898
0003f0 02 06 9b be f3 55 14 bc 21 63 12 3d 63 da 1c 3d
       -0.3027802 -0.009053695 0.035739068 0.038294207
