models/mnist_fc_d.pt (torch, 225013 bytes, 16 tensors)

1.weight f4 [50, 784]
0	0x3a6481f0	0.0008716872
1	0x3a2760f4	0.00063849916
2	0x3a64a24f	0.00087216956
3	0x3a1c0381	0.000595145
4	0x3a4182aa	0.0007381836
5	0x3a651087	0.00087381195
6	0x39ed7057	0.00045287862
7	0x39e230c0	0.000431424
8	0x3a0a802d	0.0005283382
9	0x3a28a876	0.0006433794
10	0x3a1756d0	0.0005773129
11	0x3a284796	0.00064193585
12	0x3a19e0a6	0.0005869962
13	0x3a400e54	0.0007326354
14	0x3a4444e3	0.00074870716
15	0x3a3bff3e	0.0007171518
16	0x3a2fffc6	0.00067138334
17	0x3a32e396	0.0006824074
18	0x3a463ccf	0.0007562162
19	0x3a8b268d	0.0010616347
20	0x3a307d45	0.0006732534
21	0x3a446f7c	0.0007493419
22	0x39d73909	0.0004105049
23	0x3a27fee4	0.0006408526
24	0x3a6a3867	0.0008934796
25	0x3a63a214	0.00086835143
26	0x3a3d5ab3	0.0007223293
27	0x3a2458b7	0.0006269323
28	0x3a40c99d	0.00073542615
29	0x3a278272	0.00063899823
30	0x3a637b7a	0.0008677762
31	0x3a41d3ab	0.00073939067
32	0x3a689625	0.0008872471
33	0x3a016917	0.0004936619
34	0x39eaf207	0.00044812282
35	0x3a1ab64f	0.00059018
36	0x3a4aafe7	0.00077319
37	0x3a18986e	0.00058210536
38	0x3a7caa84	0.0009638446
39	0x3a43bff5	0.00074672635
40	0x3a60b89a	0.00085724297
41	0x3a5363e3	0.00080638955
42	0x3a5be4e9	0.0008388297
43	0x3a339ba0	0.0006851498
44	0x3a17620e	0.0005774804
45	0x3a4057b2	0.00073372864
46	0x39c7c474	0.00038102607
47	0x39d7eae0	0.0004118299
48	0x3a856d11	0.0010179599
49	0x3a42ed96	0.0007435916
50	0x3a380ecf	0.00070212496
51	0x3a2f7a96	0.0006693987
52	0x3a5ce25b	0.00084260636
53	0x3a1cf52a	0.000598746
54	0x3a5a39b8	0.0008324641
55	0x3a46ee27	0.0007588588
56	0x3a4d363d	0.00078282115
57	0x3a59ac47	0.00083035644
58	0x3a84a5fb	0.0010120267
59	0x3a86e8b0	0.0010292735
60	0x39fb395b	0.00047917184
61	0x3a43ac7b	0.0007464361
62	0x3a2ddab5	0.0006632016
63	0x3a82b4e7	0.0009972126
64	0x3a5b23d2	0.00083595247
65	0xb9156a78	-0.0001424941
66	0xb9f07a64	-0.00045867555
67	0x398091d0	0.000245227
68	0x3a45a570	0.0007539606
69	0x3a69d359	0.0008919738
70	0x3a3eeeac	0.00072834897
71	0x39f2833f	0.00046255623
72	0x399e54e6	0.00030199363
73	0x3a237ced	0.0006236572
74	0x3a55f073	0.0008161135
75	0x39baa992	0.00035603024
76	0xb7e88d15	-2.7722252e-05
77	0xb805e5df	-3.1923755e-05
78	0x3a37e4ff	0.0007015019
79	0x3a804313	0.0009785615
80	0x3a310419	0.0006752625
81	0x3a60b978	0.0008572559
82	0x3a82567a	0.0009943985
83	0x3a319aae	0.0006775063
84	0x3a32f2a6	0.00068263186
85	0x3a6bc62c	0.00089940685
86	0x3a82c047	0.0009975516
87	0x3a25346a	0.0006302061
88	0x3a2a541d	0.0006497519
89	0x3a3ba9f2	0.0007158808
90	0x3a121f15	0.00055740896
91	0x3a619f0e	0.000860677
92	0x3992f226	0.00028027705
93	0xba609f3e	-0.0008568651
94	0xbb0c85b1	-0.002144199
95	0xbab33ae8	-0.0013674172
96	0xbad7be1c	-0.0016459855
97	0xbb29f886	-0.0025935485
98	0xb7108ff9	-8.61659e-06
99	0x3b0ab8c6	0.0021167262
100	0x3b283231	0.0025664682
101	0xba445497	-0.00074894115
102	0xbb39e8af	-0.002836745
103	0xbb1c1ac6	-0.002381967
104	0xbb16a85f	-0.002298854
105	0xba807ced	-0.0009802856
106	0x3a3e4c2a	0.0007259274
107	0x3a0dccf6	0.00054092647
108	0x3a4a7929	0.0007723743
109	0x3a371e16	0.0006985379
110	0x3a167282	0.0005739109
111	0x3a476c36	0.0007607372
112	0x3a51ecb9	0.0008007992
113	0x3a42d576	0.0007432321
114	0x3a17d003	0.0005791189
115	0x3a0d4399	0.0005388796
116	0x3a6ba02c	0.0008988406
117	0x39d0c55c	0.00039819896
118	0xb6c80d73	-5.96203e-06
119	0xb9e7d87f	-0.00044221056
120	0xba80ee09	-0.0009836565
121	0xbaa805c5	-0.0012819102
122	0xbb975333	-0.0046180724
123	0xbc8197a0	-0.01581937
124	0xbd7f64dc	-0.062352046
125	0xbd1202a0	-0.035647035
126	0x3d52e19b	0.051484685
127	0x3d8b00f9	0.06787295
128	0x3ce4a93f	0.027912734
129	0xbbdf76f3	-0.0068196
130	0xbbaa383e	-0.005194693
131	0xbaed56ec	-0.001810757
132	0xbaf2d558	-0.0018526716
133	0xbaa82834	-0.0012829364
134	0x3a3da5c8	0.0007234481
135	0x39499cc1	0.00019227249
136	0x3943d949	0.00018677594
137	0x3a4b871b	0.0007763968
138	0x3a277892	0.0006388511
139	0x3a0c55fc	0.0005353389
140	0x3a221adc	0.0006183812
141	0x3a2ddcce	0.0006632329
142	0x3a27d8c1	0.0006402843
143	0x3a199521	0.0005858709
144	0x3a77280e	0.0009428271
145	0x3a3d7524	0.0007227233
146	0xb8b2c7d6	-8.524924e-05
147	0xbaab24d1	-0.0013057237
148	0xbb72e66e	-0.0037063616
149	0xbcb6d81c	-0.022319846
150	0xbd637f80	-0.055541515
151	0xbcfba23c	-0.030717008
152	0xbd5be2c2	-0.05368305
153	0xbd79b5dd	-0.060964454
154	0x3cb418c0	0.021984458
155	0x3d96935a	0.07352324
156	0x3d9b7191	0.075900204
157	0xbbc606ad	-0.0060432763
158	0xbd288cf5	-0.041150052
159	0xbcb6fd94	-0.022337712
160	0xbc9146cb	-0.017733952
161	0x3a5bc4a3	0.0008383488
162	0x3ad9214d	0.001656571
163	0x3ad663e3	0.0016356673
164	0x3aa4384d	0.0012528986
165	0x3a4f7d96	0.0007915137
166	0x3a20ed92	0.00061389164
167	0x39f7c717	0.00047259845
168	0x3a0ee2b4	0.00054506515
169	0x3a180e75	0.0005800494
170	0x3a5c8103	0.0008411558
171	0x3a4a1060	0.00077081285
172	0x3af95ddc	0.0019025165
173	0xb9e460ee	-0.00043559767
174	0xba5fe510	-0.0008540908
175	0xbb60948d	-0.003426823
176	0xbcdb73e0	-0.026788652
177	0xbd529c14	-0.05141838
178	0xbd068f57	-0.032851543
179	0xbd3b4001	-0.045715336
180	0xbd27f68c	-0.04100661
181	0xbdaad657	-0.08341663
182	0xbbebc007	-0.0071945223
183	0x3caffdbc	0.021483295
184	0x3d5f0e51	0.054457013
185	0x3d4394c3	0.047749292
186	0x3b91e4bc	0.004452316
187	0xbc5cbfb7	-0.013473443
188	0xbc57be28	-0.013167895
189	0x3b42895f	0.002968393
190	0x3bbb7480	0.005720675
191	0x3b0c75bc	0.002143248
192	0x3ac9cca2	0.0015396068
193	0x3abddd75	0.0014485555
194	0x3a4b5846	0.0007756989
195	0x3a42cdb3	0.0007431164
196	0x3a63381d	0.00086677243
197	0x3a811e59	0.0009850963
198	0x39f63ba4	0.00046965212
199	0x3a73dc76	0.00093025656
200	0x3a19aa03	0.00058618205
201	0xbaaa6e6b	-0.0013002878
202	0xbad982f9	-0.0016594819
203	0xbb9b38c4	-0.0047369916
204	0xbcbac8eb	-0.022800883
205	0xbca27924	-0.019833155
206	0xbd59ab21	-0.053141717
207	0xbd5ac18b	-0.053407233
208	0xbd11c1ea	-0.03558532
209	0xbc2255e5	-0.009908174
210	0x3d84d5ce	0.064860925
211	0x3dd7d601	0.10538865
212	0x3dbf761d	0.093487
213	0x3dd22923	0.102617525
214	0x3d0f8a5a	0.03504405
215	0x3d1392e2	0.03602875
216	0xbab4fea8	-0.0013808804
217	0x3b8366ef	0.0040100734
218	0x3c6bc278	0.014389627
219	0x3c047374	0.008084167
220	0x3b0c8b86	0.0021445467
221	0x3a456424	0.0007529876
222	0x3a37c293	0.000700989
223	0x3a5d7400	0.00084477663
224	0x3a4b54c9	0.00077564694
225	0x3a4aec03	0.0007740857
226	0x3a09c753	0.0005255837
227	0x375bf8cb	1.3111344e-05
228	0xba313edd	-0.00067613815
229	0xbb4ae91e	-0.0030961703
230	0xbaecd130	-0.0018067714
231	0xbba25ffe	-0.004955291
232	0x3b095dc2	0.0020960425
233	0xbc410d14	-0.011782903
234	0xbcf75fbe	-0.03019702
235	0xbd273f08	-0.040831596
236	0xbd5fbbfc	-0.054622635
237	0xbcf5636e	-0.029954638
238	0x3dc3dcba	0.095635846
239	0x3e100a5c	0.14066452
240	0x3db94ea1	0.090482004
241	0x3dae0db5	0.08498708
242	0x3d4609ee	0.048349313
243	0x3bf93e98	0.0076063387
244	0xbb7020d7	-0.0036640668
245	0x3bc2c1b6	0.0059435023
246	0x3caa9175	0.020821312
247	0x3c8f77b0	0.017513126
248	0x3985ebfa	0.00025543553
249	0x3a824862	0.0009939785
250	0x3a0bd1ad	0.00053336733
251	0x3a0e21c5	0.0005421902
252	0x3a198715	0.00058566156
253	0x3a5ebc03	0.0008496644
254	0x3a1dd585	0.00060208916
255	0x3aa746e8	0.001276222

1.bias f4 [50]
0	0xbdf5d1fe	-0.120029435
1	0x3e42ae62	0.19011834
2	0xbe3327cc	-0.1749565
3	0xbac21bd7	-0.0014809322
4	0xbe375969	-0.17905201
5	0x3d6e8d06	0.05823996
6	0xbe145029	-0.14483704
7	0x3d16f3ea	0.03685371
8	0xbe43b14f	-0.19110607
9	0xbd75ba9f	-0.05999243
10	0x3d6b44bc	0.057438597
11	0xbf0c6134	-0.5483582
12	0x3dd804fc	0.10547826
13	0x3de930e1	0.11386276
14	0x3d92518e	0.071444616
15	0x3ea5f15f	0.32410714
16	0x3d9eeb83	0.07759764
17	0xbbd9c576	-0.0066458536
18	0x3d887d11	0.066644795
19	0xbd8661a8	-0.06561595
20	0x3e5d1ca4	0.21592957
21	0xbd02e5c3	-0.0319574
22	0x3e9969f3	0.29963645
23	0x3ccaafea	0.024742085
24	0x3d6925e9	0.05692092
25	0x3d26be74	0.040708974
26	0x3ed7fe62	0.42186266
27	0x3e54348a	0.20723167
28	0x3e59b7a3	0.21261458
29	0xbcd6793c	-0.026180856
30	0x3d340f60	0.043959975
31	0xbda8dfa5	-0.08245782
32	0x3dd257c0	0.10270643
33	0xbde13e12	-0.10998167
34	0x3ee60de7	0.44932482
35	0x3e668c08	0.22514355
36	0x3d906778	0.07050985
37	0x3cac35c0	0.021021724
38	0x3e763002	0.24041751
39	0x3e81d369	0.25356606
40	0x3d90d256	0.070713684
41	0xbe857a06	-0.2606966
42	0x3e84a3aa	0.25906116
43	0x3e1c60b2	0.15271261
44	0x3c6f2567	0.01459632
45	0xbce02660	-0.027362049
46	0xbce154f1	-0.027506324
47	0x3ea5d5be	0.32389635
48	0x3d3b96ac	0.04579799
49	0x3da29518	0.079385936

3.weight f4 [50, 50]
0	0xbe08c043	-0.13354592
1	0xbd29f684	-0.04149486
2	0xbe1138df	-0.14181851
3	0x3da43a20	0.08018899
4	0x3e5382ef	0.20655416
5	0xbe3f5753	-0.18685655
6	0xbe18ebaa	-0.14933649
7	0x3d1deaed	0.03855412
8	0x3cd55e52	0.026045952
9	0x3e9a1c64	0.30099785
10	0x3e5b5a14	0.21421081
11	0x3e07f598	0.1327728
12	0x3d2b2f1c	0.041792974
13	0xbc246b0f	-0.01003529
14	0x3ccce62a	0.025012095
15	0x3db9434a	0.090460375
16	0xbe4eb687	-0.20186816
17	0xbe67c2e8	-0.22632945
18	0xbd10cc29	-0.035350952
19	0xbda42c07	-0.0801621
20	0x3da35ab8	0.079762876
21	0xbc36fd00	-0.011168718
22	0x3d94c77f	0.07264613
23	0x3e1aa95d	0.1510367
24	0x3d2e7e3e	0.042600863
25	0xbe0a3e3d	-0.13500305
26	0xbda48ac3	-0.08034279
27	0x3e3a0fe1	0.1817012
28	0x3cca878e	0.02472284
29	0x3da4ce83	0.080472015
30	0x3c531081	0.012882353
31	0xbd9a42de	-0.07532285
32	0x3d7d8f7b	0.06190441
33	0xbaa31543	-0.001244225
34	0xbc81839d	-0.015809828
35	0x3bea6469	0.007153083
36	0x3c7ead12	0.015544193
37	0x3d696a1c	0.05698596
38	0x3d705253	0.05867226
39	0xbd32adfe	-0.043622963
40	0xbd5daae2	-0.054118045
41	0xbd514ae6	-0.05109682
42	0x3d769dcc	0.06020908
43	0xbd7e69b7	-0.062112536
44	0xbdb36609	-0.08759696
45	0x3e8ba190	0.272717
46	0xbed0c2fa	-0.40773755
47	0x3e35f857	0.17770515
48	0x3da75d64	0.0817211
49	0x3d621d1c	0.055203542
50	0xbdcb9441	-0.099403866
51	0xbd17dd94	-0.037076548
52	0xbde89a9c	-0.113576144
53	0xbd103235	-0.03520413
54	0x3ecfe6bc	0.40605724
55	0x3df81bfa	0.12114711
56	0x3e1f471f	0.15554474
57	0x3c6d8bd8	0.014498673
58	0xbe277504	-0.16353232
59	0xbdfd7035	-0.123749174
60	0x3da48624	0.08033398
61	0xbc07c182	-0.008285882
62	0xbdd6c792	-0.10487284
63	0x3dfcb98b	0.12340077
64	0x3e035d7a	0.12828627
65	0x3c96d237	0.018410785
66	0x3da67c37	0.08129161
67	0xbe61d579	-0.2205409
68	0xbd7717c8	-0.060325414
69	0xbe44bc37	-0.19212423
70	0x3eaa34a5	0.3324329
71	0xbe2816e3	-0.1641498
72	0x3d6934cf	0.056935128
73	0x3dcc981d	0.09989951
74	0x3d7d9257	0.06190714
75	0xbaaab7b9	-0.0013024724
76	0xbbbdc70d	-0.005791551
77	0x3c5567e0	0.013025254
78	0x3dae2271	0.08502663
79	0x3e1687f7	0.14700304
80	0xbf1c2b6d	-0.6100376
81	0x3d12cf72	0.035842367
82	0xbe1c270a	-0.15249267
83	0x3d57c0de	0.052674167
84	0xb9726ac9	-0.00023118699
85	0xbe09d958	-0.13461816
86	0x3c916f90	0.017753392
87	0x3c905ff3	0.017623877
88	0xbe82bd3d	-0.25535002
89	0x3f12fd83	0.5741808
90	0x3de341d5	0.11096541
91	0x3d857e2b	0.06518205
92	0xbd5930a0	-0.053024888
93	0xbe1f3085	-0.15545852
94	0xbdb4ac4c	-0.088219255
95	0x3d3fc735	0.046820838
96	0x3e113eaa	0.1418406
97	0x3e877b5f	0.26461312
98	0xbe02b2a1	-0.12763454
99	0x3e5f727d	0.21821018
100	0xb8548526	-5.0668743e-05
101	0x374a37ca	1.2053128e-05
102	0x381bb4f0	3.712339e-05
103	0xb7be85b7	-2.271203e-05
104	0xb7ba9375	-2.2241593e-05
105	0x38cdb250	9.808375e-05
106	0x383834e3	4.3918273e-05
107	0xb8bed06e	-9.098729e-05
108	0x37a52b78	1.9689774e-05
109	0x381adf91	3.6924674e-05
110	0x3613943d	2.1990993e-06
111	0xb7839db2	-1.568985e-05
112	0x386277c9	5.3994157e-05
113	0xb8192243	-3.650995e-05
114	0x33c3876e	9.1050296e-08
115	0xb901cd1d	-0.0001237881
116	0xb71e9f60	-9.454641e-06
117	0x36c5d1b9	5.8954724e-06
118	0xb91201f9	-0.0001392438
119	0x370fa5cb	8.562066e-06
120	0x38e8c0a9	0.00011098508
121	0xb75d23ce	-1.3180963e-05
122	0xb90a2fa7	-0.00013178457
123	0xb72e33a3	-1.0383231e-05
124	0xb72100d8	-9.596544e-06
125	0x38be7049	9.080821e-05
126	0x38aa52ef	8.121679e-05
127	0x3785bd41	1.5942964e-05
128	0x38285bc8	4.01398e-05
129	0x38b8d7a2	8.8139685e-05
130	0x38d15074	9.980882e-05
131	0x387a05d4	5.9610073e-05
132	0xb8954fcb	-7.119736e-05
133	0x3857a14b	5.141021e-05
134	0x39158ba3	0.00014261766
135	0x3783a965	1.5695297e-05
136	0x387fd989	6.0999333e-05
137	0xb903d58e	-0.00012572689
138	0x360eb0be	2.1262526e-06
139	0xb8832eef	-6.255309e-05
140	0x36f70627	7.36189e-06
141	0xb7ac4f5c	-2.0540952e-05
142	0x386aeac1	5.600858e-05
143	0x38984563	7.260849e-05
144	0x387dcda0	6.0511404e-05
145	0x389a14a2	7.3471354e-05
146	0xb91a8405	-0.00014735766
147	0xb81b8abf	-3.7084097e-05
148	0x384f08be	4.9360788e-05
149	0xb89e4028	-7.545977e-05
150	0x3e4d1f31	0.2003143
151	0xbd6f7815	-0.05846413
152	0x3d7625d9	0.060094688
153	0x3b42c476	0.002971915
154	0xbcac44e6	-0.021028947
155	0xbddb8cd4	-0.1072022
156	0xbea90774	-0.330135
157	0x3d77a37c	0.060458645
158	0xbd6ea59a	-0.0582634
159	0xbd771a17	-0.060327616
160	0x3d0c1a61	0.034204844
161	0xbc45e6d6	-0.012078961
162	0xbcd0d442	-0.025491837
163	0xbc08163d	-0.008306083
164	0xbd5439fb	-0.051813107
165	0x3d90546b	0.070473514
166	0xbd1f770a	-0.038931884
167	0x3db3186d	0.08744893
168	0x3df9a7c3	0.12190201
169	0x3e0e24e4	0.1388126
170	0x3d7a5868	0.061119467
171	0xbd7be420	-0.061496854
172	0x3d1a3e54	0.037657097
173	0x3e7c5373	0.24641208
174	0x3d0540d3	0.032532524
175	0xbe099680	-0.13436317
176	0xbd98f8a4	-0.074692994
177	0x3e029636	0.12752613
178	0xbe4727a2	-0.19448712
179	0xbe1a8c16	-0.15092501
180	0x3cd62d76	0.026144724
181	0x3da73ce2	0.08165909
182	0xbd83e5f4	-0.064403445
183	0x3ee31344	0.44350636
184	0x3e6b8753	0.23000841
185	0xbc49d56d	-0.012318951
186	0xbe189dc6	-0.14903936
187	0x3d2fa7a3	0.04288448
188	0xbcd8a2e1	-0.026444854
189	0x3c100e6b	0.0087925
190	0x3da7e364	0.08197668
191	0x3e21ee00	0.15813446
192	0xbd963a38	-0.07335323
193	0xbd7c6e7a	-0.061628796
194	0xbe9b8cb4	-0.30380785
195	0x3e5b0ed4	0.21392375
196	0xbdd36f8c	-0.1032401
197	0x3dc81f7f	0.097716324
198	0xbdfcad88	-0.12337786
199	0xbdf1b651	-0.11802352
200	0xbc26cd49	-0.01018078
201	0x3d6d980c	0.05800633
202	0x3b2d8f5d	0.0026483156
203	0x3e32b658	0.17452371
204	0xbc9baf20	-0.019004405
205	0x3d1710a6	0.03688111
206	0xbcc79675	-0.024363736
207	0x3e85bdb2	0.2612129
208	0x3cadd292	0.021218572
209	0xbe1ee167	-0.15515672
210	0xbc277fbf	-0.010223328
211	0xbd391312	-0.045184202
212	0x3dee0938	0.11622852
213	0xbd6cfb57	-0.057856884
214	0x3d5cb83a	0.05388663
215	0xbd61690f	-0.055031832
216	0x3e683370	0.22675872
217	0x3d0a8a23	0.033823144
218	0x3e838707	0.25688955
219	0x3e273e48	0.16332352
220	0xba752aeb	-0.00093524036
221	0xbdebb828	-0.115097344
222	0xbd6509e7	-0.055917647
223	0x3e28f665	0.16500242
224	0xbd2af0ec	-0.041733667
225	0x3e02983b	0.12753384
226	0x3e8c155e	0.27360052
227	0xbd802efc	-0.062589616
228	0x3dfcc904	0.12343028
229	0xbc64fb76	-0.013975969
230	0x3dfabe14	0.12243286
231	0x3e8f4267	0.27980348
232	0x3dc54ee8	0.09634191
233	0xbd9ec7b2	-0.077529326
234	0x3e4cfb0e	0.20017645
235	0xbdd92928	-0.10603553
236	0xbde53814	-0.11192337
237	0x3c7bb987	0.015364057
238	0x3d8f7e72	0.070065394
239	0x3d3752e6	0.044756792
240	0xbe9a65ac	-0.30155694
241	0xbe7a7210	-0.24457574
242	0xbd9d7450	-0.076882005
243	0xbdb87b2c	-0.09007868
244	0x3e8f8014	0.28027403
245	0xbd471fa3	-0.048614156
246	0xbd3129c2	-0.043252714
247	0xbe1a86b5	-0.15090449
248	0xbca26633	-0.019824123
249	0xbe434886	-0.19070634
250	0xbdf71e57	-0.12066334
251	0xbcb18e72	-0.021674369
252	0xbdde7c60	-0.108635664
253	0xbc195c2f	-0.009360357
254	0xbe61c35d	-0.22047181
255	0x3e2f4bb9	0.1711873

3.bias f4 [50]
0	0x3e3d716d	0.185003
1	0x3eac2aaa	0.336263
2	0xbda7d335	-0.081945814
3	0x3cae96d5	0.021312157
4	0x3e11723b	0.14203732
5	0x3ded998b	0.116015516
6	0x3e6fa9f6	0.23404679
7	0x3e9eac6f	0.3099093
8	0x3d604ed0	0.05476266
9	0x3c0c00b8	0.008545093
10	0x3cb3d6ed	0.02195307
11	0x3e24e1ef	0.16101812
12	0x3e2247f8	0.15847766
13	0x3d1d0154	0.038331345
14	0x3e95a0db	0.29224285
15	0xbdf8ad65	-0.121424474
16	0x3d8f2622	0.06989695
17	0x3d78f921	0.060784463
18	0x3d608dbf	0.05482268
19	0x3e82fbec	0.25582826
20	0x3d359f11	0.04434115
21	0x3e5a79a2	0.21335462
22	0x3e9c3e2d	0.30516186
23	0x3e217e03	0.15770726
24	0x3cc99261	0.024605932
25	0x3e436e35	0.1908501
26	0x3d2e0025	0.042480607
27	0xbe078290	-0.132334
28	0xbd9a9339	-0.07547612
29	0x3ecca35b	0.3996838
30	0x3da7bc04	0.08190158
31	0x3d9d0300	0.07666588
32	0x3e4f59fc	0.2024917
33	0xbd687b21	-0.05675805
34	0xbcff11c2	-0.031136397
35	0x3da5b987	0.08092027
36	0x3e9318bc	0.28729808
37	0xbdd3886f	-0.10328757
38	0x3dfe7047	0.12423759
39	0xbe18d454	-0.14924747
40	0xbd98c444	-0.0745931
41	0x3d9dc302	0.077032104
42	0x3e0320b2	0.12805441
43	0x3c40811d	0.011749533
44	0x3d7bcac9	0.061472688
45	0x3d0bb56a	0.034108557
46	0x3d7e7300	0.06212139
47	0x3e40c072	0.18823412
48	0x3d22727e	0.03965997
49	0xbe090468	-0.13380587

5.weight f4 [50, 50]
0	0x3e91619e	0.28394789
1	0x3f0b4db9	0.5441547
2	0xb6c29710	-5.7992365e-06
3	0xbca9ba27	-0.020718647
4	0x3d62da64	0.055384055
5	0xbe9d4ff0	-0.3072505
6	0xbc968384	-0.018373258
7	0x3d646124	0.055756703
8	0x3e4790b1	0.19488789
9	0xbd5f60dc	-0.05453573
10	0xbde65edf	-0.11248564
11	0xbcbec3b2	-0.023286674
12	0x3e524861	0.20535423
13	0xbe2e224c	-0.1700527
14	0xbebfdc47	-0.37472746
15	0xb58617bb	-9.990684e-07
16	0xbe276c7a	-0.16349974
17	0x3d753916	0.059868895
18	0x3d47208c	0.048615023
19	0x3e3fe634	0.1874016
20	0xbc5bdf6d	-0.013419968
21	0xbdbaf6d6	-0.091291115
22	0x3b9875e5	0.004652726
23	0xbd03bf25	-0.03216471
24	0xbe670196	-0.22559199
25	0xbe0dfad3	-0.13865213
26	0xbdf592e7	-0.1199091
27	0x38087a97	3.2539097e-05
28	0x3e870d5b	0.26377377
29	0xbd5ff8ea	-0.054680742
30	0xbe4630e3	-0.19354586
31	0x3e1cd3eb	0.15315215
32	0x3cf348de	0.029697832
33	0xbe3e71d6	-0.18598112
34	0xb7a8124f	-2.0035686e-05
35	0xbdc4abdb	-0.09603091
36	0x3e3ab4cb	0.1823303
37	0x3598c780	1.1382945e-06
38	0x3d425364	0.04744281
39	0xbe81f3cb	-0.25381312
40	0x39551586	0.00020321281
41	0xbc7dd726	-0.01549319
42	0x3d633b91	0.05547673
43	0x3e78961f	0.24276017
44	0x3cde93ba	0.02717005
45	0xbe8910cf	-0.26770636
46	0x3d3ac60b	0.045599025
47	0xbced4760	-0.028964698
48	0x3de34d24	0.11098698
49	0xbe0fb87c	-0.14035219
50	0xbcfa2a98	-0.030537888
51	0xbdf4a75f	-0.11945986
52	0xb8b78e21	-8.7525936e-05
53	0xbda0bcb2	-0.07848491
54	0x3d84ffba	0.064940885
55	0x3e83b0b2	0.25720745
56	0x3c67edff	0.014155864
57	0x3e40d751	0.18832137
58	0xbdb21a85	-0.086964644
59	0x3cb35a44	0.021893628
60	0x3d33a54a	0.043858804
61	0x3d46ceeb	0.048537176
62	0x3ebae3b7	0.36501858
63	0xbdf63a92	-0.1202289
64	0xbe7eda9c	-0.2488808
65	0xb891fd75	-6.961349e-05
66	0x3d5e350e	0.054249816
67	0xbd869080	-0.0657053
68	0xbe48f648	-0.19625199
69	0xbe0c91af	-0.13727449
70	0x3e190ac3	0.14945512
71	0xbd641399	-0.055682752
72	0x3d45b259	0.04826579
73	0x3cf58136	0.02996884
74	0x3e28a252	0.1646817
75	0x3d6dc9d3	0.058053803
76	0xbdb6db4d	-0.08928547
77	0x382695ea	3.9717102e-05
78	0xbdf09b1a	-0.11748333
79	0x3e6fc05b	0.23413222
80	0xbe5f843f	-0.21827792
81	0x3e631c8f	0.22178863
82	0xbdaad53a	-0.08341451
83	0x3dd761b6	0.10516684
84	0x3869cc58	5.574184e-05
85	0x3e1eacc6	0.15495595
86	0x3c327286	0.010891562
87	0x382ca420	4.116085e-05
88	0xbd3ce534	-0.046117023
89	0xbd133178	-0.03593585
90	0x38975417	7.215904e-05
91	0xbe360f67	-0.17779313
92	0x3c4348f2	0.011919247
93	0xbe0effa7	-0.13964711
94	0xbd8dba05	-0.06920246
95	0xbd4bee77	-0.049787965
96	0x3d81c5e2	0.06336571
97	0xbd3a4e75	-0.04548498
98	0xbd78ab01	-0.060709957
99	0x3e4696ce	0.19393465
100	0x3d300c23	0.042980324
101	0x3daffafb	0.085927926
102	0xb874ee50	-5.839608e-05
103	0x3ded5494	0.115883976
104	0x3c9765e5	0.018481204
105	0xbdf0021e	-0.11719154
106	0x3ea1e3a2	0.31618983
107	0x3e509a5a	0.2037138
108	0x3c85b34f	0.016320853
109	0xbc1ac984	-0.009447459
110	0x3d23d034	0.03999348
111	0x3e379f20	0.17931795
112	0x3e71ca28	0.23612273
113	0xbdbfba02	-0.0936165
114	0xbeaca509	-0.33719662
115	0x38b601e6	8.67879e-05
116	0xbdbdbd58	-0.0926463
117	0xbdba73f0	-0.091041446
118	0x3dd2cacd	0.102925874
119	0x3e54c668	0.20778811
120	0xbc86f495	-0.016474048
121	0xbdb8e82a	-0.09028657
122	0x3f096bbb	0.5368001
123	0x3e6a52d0	0.22883153
124	0x3eb2a87d	0.3489417
125	0x3e17164b	0.14754598
126	0x3de18629	0.11011917
127	0x392f537f	0.00016720405
128	0xbe6f6bab	-0.23380916
129	0x3e03e816	0.12881503
130	0xbf0233ce	-0.508603
131	0x3c42a30f	0.0118796965
132	0xbe24681a	-0.16055337
133	0x3d2f3a70	0.04278034
134	0x390ecdc8	0.00013618835
135	0x3e7a7b2c	0.24461049
136	0xbdb09c58	-0.0862357
137	0xb884c7e1	-6.331481e-05
138	0x3c8a409f	0.016876517
139	0x3cf2346c	0.029566012
140	0x37fedca4	3.0381903e-05
141	0x3dedce08	0.11611563
142	0xbde27e49	-0.11059243
143	0x3cc3c267	0.02389641
144	0x3d0f4e76	0.034986936
145	0xbec1faae	-0.37886566
146	0x3e795702	0.24349597
147	0x3d9e3faf	0.077269904
148	0x3df39a8c	0.11894712
149	0x3c58867f	0.01321566
150	0x3dc22ab7	0.094808035
151	0xbd9f6ff8	-0.07785028
152	0xb8ad328a	-8.2586965e-05
153	0xbdd9990a	-0.10624893
154	0xbd21a75c	-0.039466247
155	0x3d6a9025	0.057266373
156	0x3d4c944f	0.049946126
157	0xbe1c303d	-0.15252776
158	0x3b680897	0.003540551
159	0xbd8d1d5d	-0.06890366
160	0xbe18ff40	-0.1494112
161	0x3d98e3e6	0.07465343
162	0x3d092d14	0.033490255
163	0xbdf5c756	-0.12000911
164	0xbe0aca21	-0.13553669
165	0x37d2ca26	2.5128084e-05
166	0xbe0015ca	-0.12508312
167	0x3d9e0b0c	0.07716951
168	0x3cb3400b	0.021881124
169	0x3c95849c	0.01825171
170	0x3e694949	0.22781862
171	0xbe0d51b6	-0.13800701
172	0x3e322dc8	0.17400277
173	0x3c1239aa	0.008924881
174	0x3dbd1182	0.09231855
175	0xbdb26a69	-0.087117024
176	0x3e1fe198	0.15613401
177	0x387d5a02	6.0403727e-05
178	0xbd5f7825	-0.054557938
179	0x3e32cc80	0.17460823
180	0xbdd185e6	-0.10230617
181	0x3e0fd5f3	0.14046459
182	0x3e09b7b7	0.13448988
183	0x3d0adc23	0.033901345
184	0x3892b37d	6.995255e-05
185	0x3d97ee03	0.07418444
186	0x3e072d1a	0.13200799
187	0x388baa8c	6.659803e-05
188	0x3bd592b2	0.0065177316
189	0xbceaa362	-0.02864236
190	0xb819e885	-3.6694593e-05
191	0x3dac7e53	0.08422532
192	0xbe478f74	-0.19488317
193	0x3e52b19f	0.2057557
194	0x3e6d3e31	0.23168255
195	0xbd602f21	-0.054732446
196	0x3e189780	0.14901543
197	0xbe109e19	-0.1412281
198	0x3d0bfe35	0.034177978
199	0xbd99e417	-0.07514208
200	0x3da88e2f	0.08230244
201	0xbed4adcb	-0.41538844
202	0xb8858ab6	-6.367771e-05
203	0x3e26903c	0.16265959
204	0x3e18da1d	0.14926954
205	0x3e1a9eab	0.1509959
206	0xbd55c569	-0.052190218
207	0xbaa36f03	-0.0012468997
208	0xbcc48203	-0.023987776
209	0x3d41d76b	0.04732458
210	0x3c616e68	0.013759233
211	0xbdc86cfe	-0.097864136
212	0x3920119c	0.00015265349
213	0x3be28d3a	0.006913808
214	0x3f164001	0.5869141
215	0x38520b8a	5.007865e-05
216	0xbc7dbf75	-0.015487541
217	0x3e3c5214	0.18390685
218	0x3df2b50b	0.118509375
219	0xbe27d8a3	-0.16391234
220	0xbe597f48	-0.2123996
221	0xbc7235f4	-0.014783371
222	0x3e7137eb	0.23556487
223	0x3e23c7b5	0.15994151
224	0x3e5a9d90	0.21349168
225	0x3e54c9ca	0.20780101
226	0xbe05db09	-0.13071837
227	0xb7c38776	-2.330889e-05
228	0x3da699f3	0.08134832
229	0xbd62d16c	-0.0553755
230	0xbbf923af	-0.007603131
231	0xbd878fde	-0.06619237
232	0x3e27d3cf	0.16389392
233	0xbe0c71cb	-0.13715284
234	0xb7c2ce2d	-2.322261e-05
235	0xbccdc6cf	-0.025119213
236	0x3e0ab893	0.13546972
237	0xb8d350b3	-0.000100762954
238	0x3cc08f4c	0.02350583
239	0x3e81a280	0.2531929
240	0x3827967e	3.995606e-05
241	0x3e1fd767	0.15609513
242	0xbdad2de8	-0.084560215
243	0x3c4d608a	0.012535224
244	0x3e50bb87	0.20384036
245	0x3d932375	0.07184497
246	0xbe1bd765	-0.15218885
247	0xbd525a58	-0.05135569
248	0xbe8d5009	-0.27600124
249	0x3d2aec85	0.04172947
250	0xbdc4cb1c	-0.096090525
251	0x3e20a6fc	0.156887
252	0xb7242238	-9.783129e-06
253	0x3eb414d2	0.35172135
254	0x3e739d21	0.23790409
255	0xbdfe6bc5	-0.12422899

5.bias f4 [50]
0	0x3e928b44	0.28621876
1	0x3da295ab	0.07938703
2	0x3e0cc663	0.13747554
3	0x3e634fe5	0.22198446
4	0x3e3fb631	0.18721844
5	0x3e758e43	0.2398005
6	0x3ac55909	0.0015056442
7	0x3eb235db	0.34806713
8	0x3e2c959f	0.16853951
9	0x3d5ed777	0.054404702
10	0x3e6264c4	0.22108752
11	0x3df0bbb1	0.11754549
12	0x3dd05c77	0.10173886
13	0x3d37969c	0.044821367
14	0x3db40ffb	0.087921105
15	0xbd191bc3	-0.03737999
16	0x3e26cd37	0.16289221
17	0x3db34a09	0.087543555
18	0x3e1d8578	0.15382946
19	0xbe131287	-0.14362536
20	0x3e6aa06e	0.22912762
21	0x3cd40a97	0.025883956
22	0xbddc8ab1	-0.10768641
23	0x3dc7dbc3	0.09758713
24	0x3ddf934f	0.10916769
25	0xbcc45e7b	-0.023970833
26	0x3ec10024	0.3769542
27	0x3d147649	0.036245618
28	0x3e890fdc	0.26769912
29	0x3d3c7365	0.046008486
30	0x3e81db57	0.25362656
31	0x3e3a7238	0.18207633
32	0xbd856251	-0.06512893
33	0xbd9785c5	-0.073985614
34	0xbcd9ab55	-0.026570955
35	0x3ded66cb	0.11591872
36	0xbeaf80b5	-0.34277883
37	0x3e1edd17	0.15514027
38	0x3e5b83a7	0.2143694
39	0xbe1d2f35	-0.1535004
40	0x3d0c0f3f	0.034194227
41	0xbd5f1fc5	-0.054473657
42	0x3dae017c	0.08496377
43	0x3e527dc0	0.20555782
44	0xbdc11f77	-0.094298296
45	0x3dce6c1c	0.10079214
46	0xbcc0d49e	-0.023538884
47	0xbe0dc182	-0.13843349
48	0x3dab15b5	0.0835375
49	0x3da78ce4	0.0818117

7.weight f4 [50, 50]
0	0x3d4946ef	0.049139913
1	0xbd0f84ec	-0.035038874
2	0x3ca09c63	0.019605821
3	0xbd4c476e	-0.04987281
4	0x3d614322	0.054995663
5	0x3e2255a3	0.1585298
6	0xbb2cc6f2	-0.0026363698
7	0xbdad1f03	-0.08453181
8	0x3dbd666f	0.09248053
9	0x3d28baf4	0.041193917
10	0x3ec6a498	0.3879745
11	0x3cbe9251	0.023263128
12	0x3e26be12	0.16283444
13	0x3d85c2c8	0.06531292
14	0xbc12e157	-0.008964858
15	0x3e2c10f5	0.16803344
16	0xbe56f491	-0.20991732
17	0x3db08ee9	0.08621008
18	0xbe02531b	-0.12727015
19	0x3903ce43	0.00012569972
20	0x3e3f2e01	0.18669893
21	0xbd4b91a4	-0.04969944
22	0xb8bac416	-8.905695e-05
23	0x3d2c3671	0.042044107
24	0xbdc469bc	-0.0959048
25	0xb85efb0d	-5.3162734e-05
26	0x3e470cd2	0.19438484
27	0xba80c4d8	-0.0009824289
28	0x3df4d218	0.11954135
29	0xbb1ab232	-0.0023604748
30	0x3db0089e	0.085953936
31	0xbe21fe24	-0.15819603
32	0xbd460afe	-0.048350327
33	0xbc563725	-0.013074671
34	0x3e1732b3	0.14765434
35	0xbd5251e3	-0.051347625
36	0x3e46959f	0.19393013
37	0x3e4b6ad7	0.19864975
38	0xbdcdcea7	-0.100491814
39	0x38373010	4.367536e-05
40	0xbe629ec8	-0.22130883
41	0x3e25e8d8	0.16202104
42	0xbde890e7	-0.11355763
43	0xbe25c1a7	-0.16187154
44	0xbcd91e0d	-0.026503587
45	0x3d30fe37	0.04321119
46	0xbd919879	-0.0710916
47	0x3824d80a	3.930185e-05
48	0x3cd7cf7c	0.026344053
49	0x3c17c79a	0.009263897
50	0x3e6c5e8d	0.23082943
51	0x3d99bf89	0.075072356
52	0x3e32dc48	0.17466843
53	0xbd3ac230	-0.045595348
54	0x3d87bce4	0.06627825
55	0x3e7043ff	0.23463438
56	0xbd44baf3	-0.04802985
57	0xbd762e96	-0.06010302
58	0xbc3682ce	-0.011139585
59	0xbdc057da	-0.09391756
60	0xbe346729	-0.17617477
61	0xbe380d3b	-0.17973797
62	0x3d4d91f5	0.050188024
63	0x3d0695fa	0.032857873
64	0x3c9ce2d7	0.019151134
65	0x3a68e734	0.00088845496
66	0x3dac114f	0.08401739
67	0x3dcafe20	0.09911752
68	0x3d85d0fe	0.06534003
69	0xb727552f	-9.973809e-06
70	0x3e2cdfb9	0.16882218
71	0xbd41a790	-0.04727894
72	0xb6e2d8cb	-6.760563e-06
73	0xbccf9447	-0.025339259
74	0x3e20ecb6	0.15715298
75	0x36eaeca2	7.001291e-06
76	0x3df8d9cb	0.12150916
77	0x3bf4dc00	0.007472515
78	0x3d3efd5b	0.046628337
79	0xbb94f29d	-0.0045455233
80	0xbde29bee	-0.110648975
81	0x3d6588b5	0.056038577
82	0xbe4230e2	-0.1896396
83	0x3e209fa5	0.156859
84	0x3e02add7	0.12761627
85	0x3c50d771	0.012746678
86	0xbe34103f	-0.17584322
87	0xbd98a8fa	-0.07454105
88	0x3d2481b1	0.040162746
89	0xb802ad2b	-3.115569e-05
90	0x3dacda48	0.08440071
91	0x3cc245ef	0.023714988
92	0x3cc7b922	0.02438027
93	0xbdbe5fbb	-0.09295603
94	0xbc8fe37b	-0.017564526
95	0x3d9ccffe	0.07656859
96	0xbdc6950f	-0.096963994
97	0xb8523017	-5.011269e-05
98	0x3dd7525b	0.10513755
99	0x3d9c33ad	0.07627044
100	0x3eac6fd0	0.33679056
101	0x3ddb20f9	0.106996484
102	0x3bc0ed55	0.005887667
103	0xbe19ae92	-0.15008
104	0x3e29a04a	0.16565052
105	0x3e809e78	0.25120902
106	0xbd83dbf4	-0.06438437
107	0x3d17cd46	0.037061
108	0xbda3e87b	-0.080033265
109	0xbcab11ae	-0.020882454
110	0x3dfabf23	0.12243488
111	0xbbec0a6b	-0.0072033904
112	0x3d5d476a	0.054023184
113	0xbbc7bf97	-0.0060958373
114	0x3df13c9d	0.11779139
115	0x3cf95ccd	0.030439759
116	0xbe52c233	-0.20581894
117	0xbd95d4f0	-0.07316005
118	0x3a06caed	0.00051419326
119	0xb853b27d	-5.047255e-05
120	0x3b3fac61	0.0029247033
121	0xbdd6cfcd	-0.104888536
122	0x38833a89	6.25747e-05
123	0x3e0573cc	0.13032454
124	0x3d388a8a	0.045053996
125	0xb5ea6e1e	-1.7466407e-06
126	0x3e548eb7	0.20757566
127	0x3dbc9477	0.09208005
128	0x3e3e1614	0.1856311
129	0xbd8bbcab	-0.06823095
130	0x3dbd1221	0.092319734
131	0xbdb73c01	-0.08946992
132	0xbe7493ac	-0.23884457
133	0x3dded40c	0.108802885
134	0x3e47f337	0.19526373
135	0x3d9c7dc0	0.076411724
136	0x3d4ac802	0.04950715
137	0xbc5d7666	-0.013516998
138	0xbde83631	-0.11338461
139	0xb7ac34bc	-2.0528554e-05
140	0xbd8ab3c4	-0.06772569
141	0x3e305d6f	0.17223142
142	0x3d3aca05	0.045602817
143	0xbdf9ffc8	-0.122069895
144	0x3dd9ebbe	0.106406674
145	0x3e20399f	0.1564698
146	0xbe6d82ab	-0.23194377
147	0x37ab2575	2.040223e-05
148	0xbca40805	-0.020023355
149	0x3cce0005	0.025146494
150	0x3ed9dd5b	0.42551693
151	0x3dcc1a47	0.099659495
152	0x3ca1dad9	0.019757675
153	0x3de5b3f4	0.11215964
154	0xbd86f905	-0.065904655
155	0x3e0192c6	0.12653646
156	0x3e1261b2	0.1429508
157	0x3e679c49	0.22618212
158	0x3ccb9542	0.024851445
159	0xbdfecfee	-0.12442003
160	0x3e878332	0.26467282
161	0x3e8b48b0	0.27203894
162	0x3c4cc114	0.012497205
163	0x3da7e008	0.081970274
164	0xbd9acdcd	-0.07558785
165	0xbd656dc3	-0.05601288
166	0x3da01749	0.07816941
167	0xbd9778df	-0.07396101
168	0x3e89dcff	0.2692642
169	0x38160f59	3.577708e-05
170	0xbe06504f	-0.13116573
171	0x3c3deac8	0.011591621
172	0xb8e5a33b	-0.00010949975
173	0x3e598c8a	0.21245018
174	0xbcda2314	-0.026628055
175	0xb5889974	-1.017745e-06
176	0x3e6acb77	0.22929178
177	0x3e3fd7c4	0.18734652
178	0xbd1e1170	-0.03859085
179	0xbdd1a00f	-0.10235607
180	0xbe177b5a	-0.14793149
181	0xb8b3be20	-8.570799e-05
182	0xbdfa5a7f	-0.12224292
183	0x3d9d5fdb	0.076842986
184	0xbdc1d301	-0.09464074
185	0xbda36296	-0.07977788
186	0x3e1b9985	0.15195282
187	0xbd16575f	-0.036704417
188	0xbdb5860f	-0.0886346
189	0x38005249	3.0594212e-05
190	0x3e23be38	0.15990531
191	0xbd9f857b	-0.07789131
192	0x3d5aefe6	0.05345144
193	0x3d8173dd	0.06320927
194	0xbe4a5ff2	-0.19763163
195	0x3d8a2a4f	0.06746351
196	0xbde87656	-0.11350696
197	0xb81d7865	-3.7543843e-05
198	0x3d259434	0.04042454
199	0xbd9f2b59	-0.0777194
200	0x3c84533c	0.01615297
201	0x3df3dfeb	0.11907943
202	0x3c5f7aa3	0.013640079
203	0x3e23b2d9	0.15986194
204	0xbc803315	-0.015649358
205	0x3dbc5844	0.09196523
206	0xbcb7bfd7	-0.022430344
207	0x3ca6d880	0.020366907
208	0x3c642fda	0.013927424
209	0xbe33416e	-0.17505428
210	0x3e53574f	0.20638774
211	0x3e590bde	0.21195933
212	0x3e4d1773	0.20028476
213	0xbe3fa944	-0.18716913
214	0x3e7f57e5	0.24935873
215	0x3dcb2186	0.099185035
216	0x3dcc0eee	0.09963785
217	0x3d4d24b2	0.050083824
218	0x3dfdf5cf	0.124004
219	0xb84ad5c3	-4.8359634e-05
220	0x3e3752b9	0.1790265
221	0x3df37e7f	0.118893616
222	0xb81a557c	-3.6796075e-05
223	0xbc5e35a9	-0.013562598
224	0x3ce04068	0.027374461
225	0xb84c2e49	-4.8680497e-05
226	0xbe0ce556	-0.1375936
227	0xbc09d9d2	-0.008413749
228	0xbe0afbb8	-0.13572586
229	0xbd3356bc	-0.04378389
230	0xbd9f16b8	-0.07768005
231	0xbe0770d9	-0.13226642
232	0xbd69d6af	-0.057089504
233	0x3d9cb053	0.07650819
234	0x3d9d3dfe	0.0767784
235	0xbda26872	-0.079300776
236	0x3daa9360	0.08328891
237	0x3e8216bf	0.2540798
238	0x3c85160a	0.01624586
239	0xb7c356ef	-2.3286293e-05
240	0x3e4dd050	0.20098996
241	0x3e318616	0.17336306
242	0xbd37414b	-0.044740003
243	0xbe31be51	-0.17357756
244	0x3dfcae0b	0.123378836
245	0x3e25c0db	0.1618685
246	0x3e0e73c3	0.13911347
247	0x371864b9	9.083357e-06
248	0x3cbc8db2	0.023016784
249	0x3cc79863	0.024364656
250	0xbe2f5506	-0.17122278
251	0x3df53c3e	0.11974381
252	0x3e700921	0.23440982
253	0xbd4a0930	-0.049325168
254	0x3b9fc2ee	0.0048755324
255	0x3e719538	0.23592079

7.bias f4 [50]
0	0x3e630df6	0.22173294
1	0x3e7581e0	0.23975325
2	0x3e737669	0.23775639
3	0x3e44bfa9	0.19213738
4	0x3d4a8476	0.04944273
5	0x3e28af97	0.16473232
6	0xbdb34dc9	-0.08755071
7	0x3e01e84d	0.12686272
8	0xbd9ad318	-0.07559794
9	0xbdb96f4d	-0.09054432
10	0x3b9ad4b7	0.0047250646
11	0xbe284bca	-0.16435161
12	0x3e243735	0.16036685
13	0x3e13dcd2	0.14439705
14	0x3c82b93c	0.015957467
15	0xbe09eece	-0.13470003
16	0xbd8f43e3	-0.0699537
17	0x3d825ba0	0.06365132
18	0x3e346b29	0.17619003
19	0xbd99ff31	-0.07519377
20	0xbe284063	-0.16430812
21	0x3b37312a	0.0027952888
22	0xbbc0c8b8	-0.0058833025
23	0xbe348827	-0.17630063
24	0x3e2b9595	0.1675628
25	0xbdd01d8b	-0.10161885
26	0x3e0699a9	0.13144554
27	0x3e0f35d1	0.13985373
28	0x3b4d3482	0.0031311815
29	0x3e83f613	0.25773677
30	0x3e4dd7ca	0.20101848
31	0x3d1d09bc	0.03833936
32	0x3e3f5ca5	0.18687685
33	0xbcef3c0b	-0.029203435
34	0xbd9eed6f	-0.077601306
35	0x3e11b4f3	0.14229183
36	0xbe1ce8c0	-0.15323162
37	0x3e438127	0.19092236
38	0x3d0e448d	0.034733344
39	0x3e187945	0.1489001
40	0x3d689327	0.05678096
41	0x3b9fad51	0.004872956
42	0xbd71ed60	-0.05906427
43	0x3d97279f	0.07380604
44	0xbe31b375	-0.17353614
45	0x3d3de166	0.046357535
46	0xbe163100	-0.1466713
47	0x3e3094c5	0.17244251
48	0xbc56156f	-0.013066634
49	0x3d9e8d48	0.07741791

9.weight f4 [50, 50]
0	0xbe06f210	-0.13178277
1	0x3d828739	0.06373448
2	0xbbf4ff2e	-0.007476709
3	0x3d95b5ab	0.07310041
4	0x3e359c38	0.17735374
5	0x3c06f55e	0.008237211
6	0x3dd31938	0.103075445
7	0xbca0bbed	-0.01962086
8	0xbd661b75	-0.05617853
9	0x39054f15	0.00012713329
10	0x3c22f108	0.009945162
11	0x3e2fdbd1	0.17173697
12	0x3c09b36f	0.008404597
13	0x3cdcc209	0.026947992
14	0xbdc9fe32	-0.09862937
15	0x37c1488b	2.3041173e-05
16	0x387b51ac	5.9919126e-05
17	0x3d84f681	0.064923294
18	0x3d806970	0.062701106
19	0xb7f289a1	-2.8912737e-05
20	0xb88384ea	-6.271324e-05
21	0x3d86540d	0.06559
22	0xbd8a8e41	-0.06765414
23	0x3e3d7e69	0.18505253
24	0x3cef1912	0.02918676
25	0xb65e363d	-3.3112149e-06
26	0x3c757756	0.014982065
27	0x3b7cd004	0.0038576135
28	0xbcfe105e	-0.031013664
29	0xbde7493a	-0.11293264
30	0x3d9c45d6	0.07630508
31	0x3de9f664	0.114239484
32	0xbd25b634	-0.040456966
33	0xb802f595	-3.122313e-05
34	0xb8ac1770	-8.205965e-05
35	0x3d65ee48	0.056135446
36	0x3e3c6779	0.18398847
37	0xbcad93e6	-0.021188688
38	0x3dd03649	0.10166604
39	0xbd1d0abf	-0.038340326
40	0xbc8e2a4f	-0.017354159
41	0xbe53f17d	-0.20697589
42	0xb783b79b	-1.5701915e-05
43	0xbc244366	-0.010025835
44	0x38258acc	3.946833e-05
45	0x3c86b6e4	0.01644463
46	0x3e595d25	0.21226938
47	0x3e5eb57e	0.21748921
48	0x3e2940af	0.16528581
49	0xbcf30b13	-0.029668367
50	0x3ccab7cf	0.02474585
51	0x3dba7409	0.09104163
52	0x3d89f9f0	0.06737125
53	0x3d4e9918	0.05043897
54	0xbd432e8f	-0.047651824
55	0xbe2e6ecc	-0.17034453
56	0xbd3c3ff8	-0.045959443
57	0x3bc8bc65	0.006125974
58	0x3dc838b5	0.09776441
59	0x37e13cbc	2.6850372e-05
60	0xbd877fa7	-0.066161446
61	0xbc4b2c32	-0.012400674
62	0xbd046219	-0.032320116
63	0xbda8da7e	-0.08244799
64	0x3e177fe3	0.14794879
65	0x3785ecab	1.5965043e-05
66	0x37d715cf	2.5640153e-05
67	0x39410f1f	0.00018411547
68	0x3e1f5674	0.15560323
69	0xb72d9f79	-1.0348734e-05
70	0x3803fe4f	3.1469677e-05
71	0x3ddc4fc3	0.10757401
72	0x3de28f4b	0.11062487
73	0x3d9505a3	0.07276466
74	0x3d68f46e	0.05687373
75	0xb792017c	-1.7405247e-05
76	0x3e1d5f67	0.15368424
77	0x3d87630b	0.06610688
78	0x3d461535	0.04836007
79	0xbd913844	-0.0709081
80	0x3dcc04b0	0.099618316
81	0xbda1ef93	-0.07907023
82	0x3d54a327	0.051913407
83	0x37f582fa	2.9267267e-05
84	0x380061fd	3.0608837e-05
85	0xbe4d37f9	-0.20040883
86	0x3d41a647	0.047277715
87	0xbdb43270	-0.08798683
88	0xbd6f005b	-0.05834995
89	0x3d92bd67	0.07165032
90	0x3d3193a2	0.043353684
91	0xbe936c1d	-0.2879342
92	0xb82bf8b4	-4.10012e-05
93	0xbd777eaa	-0.06042353
94	0xb75bdfa7	-1.310549e-05
95	0x3d43a763	0.047767054
96	0x3ddcc4d7	0.10779732
97	0xbe01e492	-0.12684849
98	0x3dc1ce77	0.09463208
99	0x3d46ff5e	0.04858338
100	0xb672c57c	-3.617576e-06
101	0xb7c70e1a	-2.3729215e-05
102	0xb7db52af	-2.6145337e-05
103	0xb746a582	-1.1840255e-05
104	0x3631ea5e	2.6511475e-06
105	0x379f91fb	1.9022254e-05
106	0x375a4523	1.300991e-05
107	0x384be17f	4.860898e-05
108	0xb786a442	-1.6050533e-05
109	0x37f419a5	2.9099008e-05
110	0xb8181835	-3.626217e-05
111	0x38595065	5.1811705e-05
112	0x363b801e	2.7939745e-06
113	0x395dc350	0.00021148962
114	0x374e7e0b	1.23079035e-05
115	0x37fecd2b	3.0374698e-05
116	0x37d20caf	2.5039857e-05
117	0xb827d45f	-4.001369e-05
118	0x361c60bb	2.3302116e-06
119	0x3901ac63	0.00012366618
120	0xb5657c36	-8.54899e-07
121	0xb5b3c751	-1.3394548e-06
122	0xb7296448	-1.00965335e-05
123	0x3817f87c	3.6232625e-05
124	0xb7f4d186	-2.9184634e-05
125	0xb8bdb750	-9.046367e-05
126	0x363869de	2.747976e-06
127	0xb7133eee	-8.776535e-06
128	0x391a1421	0.00014694083
129	0xb71b7f89	-9.268414e-06
130	0xb9028ca9	-0.00012450166
131	0x38bfcd63	9.145846e-05
132	0x3680944d	3.8319617e-06
133	0x380d27ca	3.3654076e-05
134	0x38cd44b3	9.787958e-05
135	0xb887362b	-6.447391e-05
136	0x37d1a281	2.4990413e-05
137	0x3874028d	5.817651e-05
138	0x37f94df7	2.9719418e-05
139	0xb81267d2	-3.4905803e-05
140	0xb8173077	-3.6046342e-05
141	0x396249de	0.00021580557
142	0x3864dff9	5.4568027e-05
143	0xb79d1559	-1.87258e-05
144	0x37f5c42c	2.9297626e-05
145	0x3830bdf1	4.2138567e-05
146	0x3848cd6a	4.7875023e-05
147	0xb88d7195	-6.74456e-05
148	0xb90e3d2f	-0.00013564968
149	0xb87c4998	-6.015002e-05
150	0xbc648ca4	-0.013949547
151	0xbd6859e6	-0.05672636
152	0xba62a496	-0.0008645741
153	0xbce79afc	-0.028272144
154	0x3e261886	0.16220292
155	0x3e2381b1	0.15967442
156	0x3de9740b	0.113990866
157	0x3dba5847	0.09098869
158	0xbd4095a1	-0.047017697
159	0xb840e259	-4.598717e-05
160	0xbca4d411	-0.020120652
161	0x3da7a54e	0.08185826
162	0xbcc2a28b	-0.023759147
163	0x3e28c257	0.16480385
164	0xbdfdf9e8	-0.124011815
165	0xb9071261	-0.0001288145
166	0xb5a0feee	-1.1995123e-06
167	0xbcf42c23	-0.029806202
168	0xbd5f50ec	-0.054520532
169	0x390e1aad	0.00013552113
170	0xb49366ec	-2.745577e-07
171	0x3e1f65fd	0.15566249
172	0x3da3e822	0.0800326
173	0x3b645f4d	0.0034846843
174	0x3d4744b2	0.048649497
175	0x36c6e2d3	5.9272656e-06
176	0x3de6dad8	0.1127221
177	0x3da2204b	0.07916316
178	0xbd180e73	-0.037123155
179	0xbe8163de	-0.25271505
180	0x3df48790	0.11939919
181	0xbdce22d1	-0.100652345
182	0x3df8ea94	0.12154117
183	0x379e8fc6	1.8902017e-05
184	0x38b3cb3b	8.57324e-05
185	0xbdf3cea2	-0.119046465
186	0x3e19c127	0.15015088
187	0x3c241091	0.010013715
188	0xbde6c1ab	-0.11267408
189	0xbd75f7e9	-0.06005088
190	0xbe0e27a8	-0.13882315
191	0xbe18e8e5	-0.14932592
192	0x3751206e	1.2464921e-05
193	0xbc4967c1	-0.012292803
194	0xb7f0ea5e	-2.8719365e-05
195	0xbd24f765	-0.040274996
196	0x3d861b1f	0.06548142
197	0x3dabb588	0.08384234
198	0x3dc60a2d	0.096699096
199	0x3da19050	0.078888535
200	0x3e0705f5	0.13185866
201	0xbd6e000e	-0.05810552
202	0xbc7a0196	-0.015259167
203	0x3de59ed5	0.112119354
204	0x3dd41158	0.103548706
205	0x3ceff458	0.029291317
206	0xbe69da84	-0.22837263
207	0x3baaf8b7	0.0052176374
208	0x3e2f0d44	0.17094904
209	0xb59f7855	-1.1881444e-06
210	0x3d45d7a2	0.048301347
211	0xbcaaeb99	-0.020864295
212	0xbe459175	-0.19293769
213	0xbcb61f1c	-0.022231631
214	0x3a079ba3	0.0005173033
215	0x36b94199	5.521066e-06
216	0xb6aaadc3	-5.0866233e-06
217	0xbeaf44c6	-0.34232157
218	0xbdab218e	-0.083560094
219	0x37ca786a	2.4136349e-05
220	0xb4872caa	-2.5178207e-07
221	0x3d542137	0.05178949
222	0x3e6990a7	0.22809087
223	0xbd4ee6a3	-0.05051292
224	0x3e1331f1	0.1437452
225	0x378cb8fb	1.6775439e-05
226	0xbc88f22f	-0.016717045
227	0x3d36721b	0.044542413
228	0xbdb2f8ff	-0.087388985
229	0xbe6785f6	-0.22609696
230	0x3e2d12ad	0.16901655
231	0x3d29faf4	0.041499093
232	0x3e1f34c5	0.15547474
233	0x37a6084d	1.9792607e-05
234	0x3787ffb2	1.6212321e-05
235	0x3daea37f	0.08527278
236	0x3d6af03f	0.057358023
237	0x3e1ec208	0.15503705
238	0x3da15ca1	0.07878996
239	0x3c0c6b05	0.008570437
240	0xbdf08ff5	-0.117462076
241	0x3dc37a75	0.09544841
242	0x3805a4d9	3.1863197e-05
243	0xba703ea2	-0.00091646065
244	0xb9832653	-0.0002501482
245	0x3dc79ca0	0.09746671
246	0xbe864bc7	-0.2622969
247	0xbc12a8a5	-0.008951341
248	0xbcb7754f	-0.022394804
249	0xbcb1aa8c	-0.021687768
250	0x3903a363	0.00012554
251	0x35bf15bc	1.4236934e-06
252	0xb7c45e14	-2.340883e-05
253	0x36864c48	4.0023915e-06
254	0xb898bd3f	-7.283175e-05
255	0xb9244422	-0.0001566564

9.bias f4 [50]
0	0xbed7203e	-0.42016786
1	0xbe7ebc1e	-0.24876449
2	0xbd5d823b	-0.054079276
3	0x3d556a01	0.052103046
4	0xbb896dbe	-0.0041939905
5	0xbdbb47c3	-0.09144547
6	0x3dd7c351	0.105353005
7	0x3e698f63	0.22808604
8	0x3bc45c22	0.0059924284
9	0xbeaf6d9b	-0.3426331
10	0x3dab574f	0.08366262
11	0xbdd5fb48	-0.10448319
12	0x3c0d5023	0.008625063
13	0xbd03ea4f	-0.032205876
14	0x3f074fd2	0.5285617
15	0x3d964618	0.07337588
16	0xbdae7787	-0.08518892
17	0xbcad7cba	-0.021177638
18	0x3dbc6e07	0.092006736
19	0xbc49a920	-0.012308389
20	0x3e35961c	0.17733043
21	0x3efeefe7	0.49792406
22	0xbde0529d	-0.10953257
23	0xbc9c5080	-0.019081354
24	0x3e03a6c5	0.12856586
25	0x3d9408ba	0.07228227
26	0xbd293ce6	-0.041317843
27	0x3dd38315	0.10327736
28	0x3eaffc0f	0.34371993
29	0xbe25ea74	-0.16202718
30	0x3cc07311	0.023492368
31	0xbdbb88d5	-0.09156958
32	0x3c9e4546	0.019320142
33	0xbd87ca43	-0.06630375
34	0x3ed7c3e2	0.42141634
35	0xbdad7350	-0.0846926
36	0x3d92ff44	0.07177594
37	0x3d3985ab	0.04529349
38	0x3e2e787c	0.17038149
39	0xbd57c2a6	-0.052675866
40	0xbdd9bbac	-0.10631499
41	0xbe132bd6	-0.14372191
42	0xbe0cb1c4	-0.13739687
43	0xbda31719	-0.0796339
44	0x3cd2891d	0.025700146
45	0x3e33e949	0.1756946
46	0x3e160257	0.1464933
47	0xbe3584b9	-0.17726411
48	0x3e4f7df3	0.2026289
49	0x3e04c7d6	0.12966856

11.weight f4 [50, 50]
0	0x3e879cec	0.2648691
1	0xbbb5e597	-0.005551051
2	0xb8748f2d	-5.8307476e-05
3	0x3e21097a	0.15726271
4	0x3e30d80e	0.17269918
5	0x37141691	8.826742e-06
6	0xbe30c278	-0.17261684
7	0x3e38c222	0.18042806
8	0xbd110f72	-0.03541512
9	0x3db5d09b	0.08877679
10	0xbb06211e	-0.0020466517
11	0xb979e55e	-0.00023831936
12	0xbd9b3589	-0.075785704
13	0x387c0323	6.0084403e-05
14	0x3cf03450	0.02932182
15	0xbd9516b4	-0.07279721
16	0x37331116	1.06732095e-05
17	0x3e2a0fea	0.16607633
18	0xbd36fc63	-0.04467429
19	0xbd2a22fe	-0.041537277
20	0xbd3ef40c	-0.04661946
21	0xbe189aac	-0.14902753
22	0xb936405a	-0.00017380845
23	0x3811b3fc	3.4738317e-05
24	0x3d8cef2a	0.068815544
25	0x3dd7f472	0.10544671
26	0x381e8a7b	3.7799105e-05
27	0xbd5edccf	-0.0544098
28	0xbc465518	-0.012105249
29	0x3c430980	0.01190412
30	0x3e071e91	0.13195254
31	0xb8adc8d5	-8.286691e-05
32	0x3e18dfcb	0.1492912
33	0x3d87d373	0.066321276
34	0xbcb82b04	-0.022481449
35	0x386877bf	5.5424633e-05
36	0x3e4ef61e	0.20211074
37	0xbdeb02e5	-0.114751615
38	0x3e1d2ec0	0.15349865
39	0xbd246535	-0.04013558
40	0xb79b1f40	-1.8491992e-05
41	0x38c64a3e	9.4552044e-05
42	0xbcdb9393	-0.026803767
43	0x3e0213d0	0.1270287
44	0x3dda38ce	0.10655366
45	0x3d01fb92	0.031734057
46	0x3da4c81a	0.08045979
47	0x3ddc4110	0.10754597
48	0xbe271a8a	-0.16318718
49	0x3d6c5095	0.057694037
50	0x3de884d3	0.11353459
51	0x3df229f9	0.11824412
52	0x388306d5	6.247839e-05
53	0x3d417308	0.047228843
54	0xba5c2b49	-0.0008398784
55	0xb72d3719	-1.0324432e-05
56	0x3c36d2e5	0.01115868
57	0x3dee18e1	0.11625839
58	0x3d9f05b3	0.07764759
59	0x3e28ef6d	0.16497584
60	0x3d3fd2a9	0.04683176
61	0x3873f2f1	5.816197e-05
62	0x3e291a28	0.16513884
63	0x37b51d6b	2.159058e-05
64	0x3bb96687	0.005657974
65	0x3dbac583	0.091197036
66	0x3899531d	7.3110896e-05
67	0x3d44830c	0.04797654
68	0x3d5ff545	0.054677267
69	0x3cfb8755	0.03070418
70	0xbcbf64d0	-0.0233635
71	0xbec99d31	-0.3937774
72	0xb818fbc3	-3.6474095e-05
73	0x388cd17e	6.714741e-05
74	0xbd838ed2	-0.06423725
75	0xbd53315f	-0.051560756
76	0x38883251	6.4943575e-05
77	0xbd103436	-0.035206042
78	0x3c13c0c7	0.00901813
79	0x3de34b7e	0.11098383
80	0x3e0210e0	0.1270175
81	0xb90bad20	-0.00013320567
82	0xbd25ea01	-0.040506367
83	0xbc8a8300	-0.016908169
84	0xbba59987	-0.0050537023
85	0x390cf034	0.00013440923
86	0x3c90c1d0	0.017670542
87	0x3dcc32b8	0.09970611
88	0xbc6bd00b	-0.014392863
89	0x3d1982b4	0.037478164
90	0xb816e32e	-3.5974364e-05
91	0xb87d0acd	-6.032996e-05
92	0xbc8b8bed	-0.017034495
93	0x3d9eafad	0.07748351
94	0x3db3deb2	0.0878271
95	0xbbbc6b74	-0.005750114
96	0x3daec277	0.08533185
97	0x3dac675f	0.08418154
98	0x3d863fbf	0.06555127
99	0xbca28ba9	-0.019841986
100	0xbd668034	-0.056274608
101	0xbdbbeebe	-0.09176396
102	0xb8a17b80	-7.700082e-05
103	0x3de8addf	0.11361288
104	0xbbe93ae2	-0.007117615
105	0xb834468b	-4.2981042e-05
106	0x3e0f8341	0.14014913
107	0x3e2c3ce0	0.16820097
108	0x3d1b33aa	0.037891068
109	0x3d9c415b	0.07629653
110	0x3e128821	0.14309742
111	0x381206d3	3.4815468e-05
112	0x3c071891	0.008245603
113	0x3886bccc	6.424784e-05
114	0xbe8416dd	-0.25798693
115	0x3d87da76	0.06633465
116	0x37a809de	2.0031755e-05
117	0x3e36c6f5	0.17849334
118	0xbc4fb8be	-0.012678323
119	0xbe10407a	-0.14087096
120	0xbd7702d8	-0.060305446
121	0xbd65b264	-0.05607833
122	0x3811d551	3.476936e-05
123	0xb87e211d	-6.058916e-05
124	0x3d31251a	0.043248273
125	0x3e32e133	0.17468719
126	0xb75f5893	-1.3312459e-05
127	0x3d179675	0.03700872
128	0xbe0aebd1	-0.1356652
129	0x3ddc7191	0.107638486
130	0x3d848410	0.064705014
131	0x36cdf2f4	6.1377596e-06
132	0x3d5194d8	0.05116734
133	0xbd85d8ef	-0.065355174
134	0x3de3af0e	0.111173734
135	0x37ba7dc5	2.2231494e-05
136	0x3e60f0f5	0.21966918
137	0x3dd0cdc9	0.101955004
138	0xbd4b53a7	-0.049640324
139	0xbc56475b	-0.013078536
140	0xb82387a8	-3.8988568e-05
141	0xb85f0635	-5.3173124e-05
142	0x3dca4581	0.09876538
143	0x3d5b9a4c	0.053613946
144	0xbbaa3789	-0.0051946086
145	0x3e6a946d	0.22908182
146	0x3c33ffba	0.010986263
147	0x3d041b69	0.032252703
148	0xbdf39659	-0.11893911
149	0xbcb47100	-0.022026539
150	0xb8f6efd2	-0.00011774864
151	0xbda4b7a9	-0.08042843
152	0x375744fe	1.2831062e-05
153	0x3e34f2f7	0.17670809
154	0xbd7cbaa5	-0.061701436
155	0x37e9c987	2.7869608e-05
156	0x3e4a577a	0.19759932
157	0x3d22ac0a	0.03971485
158	0x3d895d0b	0.067072
159	0x3d110895	0.035408575
160	0x3e61055e	0.21974704
161	0xb910cee2	-0.0001380998
162	0x3c8ada9d	0.016949946
163	0xb8920d0f	-6.964255e-05
164	0xbd327af8	-0.043574303
165	0xbc84612b	-0.016159615
166	0x38151081	3.553974e-05
167	0x3e163fd5	0.14672787
168	0x3e375dd6	0.1790689
169	0x3d0d1822	0.034446843
170	0x3d908143	0.07055905
171	0xbe1158c4	-0.14194018
172	0xb9297b42	-0.00016163013
173	0xb7c64c35	-2.3638926e-05
174	0x3c19d698	0.009389542
175	0x3e9a8b2e	0.3018431
176	0xb868da31	-5.5516317e-05
177	0x3c35954a	0.011082957
178	0xbe3d82be	-0.18506905
179	0xbd1c2d71	-0.038129274
180	0x3df985bb	0.1218371
181	0x388d9a0e	6.752099e-05
182	0x3dd3dc42	0.10344745
183	0x3e08d187	0.13361178
184	0xbd1230db	-0.035691123
185	0xb86cd112	-5.6461497e-05
186	0x3b457f60	0.0030135736
187	0x3e0be53b	0.13661663
188	0xbe77f467	-0.24214326
189	0x3de14d83	0.11001112
190	0xb764865f	-1.3621145e-05
191	0xb8378f8f	-4.37643e-05
192	0xbe20aa1d	-0.15689893
193	0x3e37f0fb	0.1796302
194	0xbd9fbb87	-0.0779944
195	0xbc82a8a2	-0.015949551
196	0xbc6c57b5	-0.014425208
197	0xbd534c7f	-0.051586624
198	0xbce521c5	-0.027970204
199	0xbe1e86d5	-0.15481122
200	0x3d454e8a	0.048170604
201	0x3ba302d3	0.004974702
202	0x38810cb7	6.153568e-05
203	0x3dfcc65b	0.12342521
204	0xbc37e788	-0.011224635
205	0xb887df83	-6.478934e-05
206	0xbdbbc591	-0.09168542
207	0x3d809e36	0.06280176
208	0xbd602ac5	-0.05472829
209	0x3db43464	0.08799055
210	0x3e1d21c3	0.1534491
211	0xb83441cb	-4.297662e-05
212	0x3d846be9	0.06465895
213	0xb3937889	-6.867146e-08
214	0x3cb9ce63	0.02268142
215	0xbc33f613	-0.010983962
216	0x38673631	5.512516e-05
217	0x3e3cea73	0.1844881
218	0xbe0a01dd	-0.13477273
219	0x3de8a7bd	0.113601185
220	0x3e5ada0b	0.2137224
221	0xbe15f6a4	-0.14644867
222	0x38a7d0b4	8.0020545e-05
223	0xb90717ed	-0.00012883516
224	0xbe154bcd	-0.14579697
225	0x3dea05b2	0.114268675
226	0xb8bcb413	-8.99808e-05
227	0x3d0ff3fe	0.0351448
228	0xbd4390ba	-0.047745444
229	0x3d2426d9	0.04007611
230	0x3df8a3eb	0.1214064
231	0x37f28406	2.8910126e-05
232	0x3e12c8fd	0.14334483
233	0x3d892e7c	0.06698319
234	0x3d24fae4	0.04027833
235	0xb8bd55c6	-9.028199e-05
236	0xbd482df3	-0.048871946
237	0x3d06f208	0.032945663
238	0xbd8b7b79	-0.0681066
239	0x3d3c3c87	0.04595616
240	0xb7cfd84f	-2.477705e-05
241	0xb6dad5d3	-6.5217987e-06
242	0xbd52431f	-0.051333543
243	0x3d43faa6	0.04784646
244	0xbc5b449c	-0.013383057
245	0x3d782048	0.06057766
246	0xbc10df1e	-0.008842258
247	0x3ddb0ca9	0.10695774
248	0x3e3a1b66	0.18174514
249	0x3dd6a1b9	0.10480065
250	0xbdf4fc46	-0.1196218
251	0xbd18998e	-0.037255816
252	0xb6ed52c8	-7.0727874e-06
253	0xbc33a661	-0.010964961
254	0xbf00c62b	-0.5030238
255	0xb66184d4	-3.3604929e-06

11.bias f4 [50]
0	0xbd139a57	-0.03603586
1	0xbf1b48fc	-0.6065824
2	0x3d9fa6b1	0.07795466
3	0x3e6b408d	0.22973843
4	0xbd8d23da	-0.06891604
5	0x3f020da1	0.50802046
6	0xbeba4df0	-0.36387587
7	0xbd78bba7	-0.060725834
8	0xbddd08fc	-0.10792729
9	0xbde314b5	-0.11087934
10	0x3e15253d	0.14564987
11	0xbf20bd0b	-0.62788457
12	0xbd5a7bde	-0.053340785
13	0xbde307c0	-0.110854626
14	0x3c2517b3	0.010076451
15	0x3e121411	0.14265467
16	0xbd896f30	-0.067106605
17	0x3e2b130a	0.16706482
18	0x3ee2f6dd	0.44328967
19	0xbc7a8334	-0.01529007
20	0x3ecaa59e	0.3957948
21	0x3ec6743c	0.38760555
22	0xbd432e51	-0.047651593
23	0xbe3bccc8	-0.18339837
24	0xbe116af5	-0.14200957
25	0xbda02bcd	-0.07820854
26	0x3dd07557	0.10178631
27	0x3e31e69b	0.17373125
28	0xbd423bc9	-0.047420297
29	0xbe1d6eb6	-0.15374264
30	0x3eb8ffeb	0.3613275
31	0x3e37d36a	0.17951742
32	0x3f1a0590	0.6016474
33	0xbe19a98e	-0.15006086
34	0x3ed925c5	0.42411628
35	0x3e341668	0.17586672
36	0xbdb68e4a	-0.08913858
37	0xbde4ac87	-0.111657195
38	0x3e01a814	0.12661773
39	0x3e10c95c	0.14139313
40	0xbe89bc39	-0.26901415
41	0x3e9ceaf7	0.30648014
42	0x3dd6bca4	0.10485199
43	0x3f15f559	0.58577496
44	0x3e3c1c10	0.1837008
45	0x3c1820a4	0.009285126
46	0xbe1fb257	-0.15595375
47	0xbc0738e1	-0.008253307
48	0xbe08ebcc	-0.133712
49	0x3e7020dd	0.23450036
