models/mnist_fc6_dw.pt (torch, 564981 bytes, 16 tensors)

1.weight f4 [100, 784]
0.0005524246 -0.00020012025 0.0009388677 -4.5215536e-05 0.00058723666 -0.00022534023 0.00019718845 0.0003799248
1.6242746e-05 -0.0007764577 -0.00015611749 -1.7460208e-05 -0.0003026438 -0.0002480574 -5.9322796e-05 1.4548792e-05
0.0002980856 0.00029029505 0.00065714883 -9.691181e-05 0.0005045504 2.8993294e-05 9.766828e-05 0.00038187637
-0.00058579195 -2.9341309e-05 0.0006110006 0.0002128484 0.00056321645 0.00040763608 -0.00033687727 -0.00023494635
-2.0160405e-05 0.00037729295 0.00062249496 0.00013888383 -0.0005200978 -0.0011515991 0.00011499989 0.0007349979
-0.0006582114 -0.00050235377 0.00054722955 0.00032139668 -8.012759e-05 0.00012228102 0.00051012693 -2.2386335e-05
-0.0006968282 3.207938e-05 -0.00010992101 -0.00032338657 -0.00047015314 0.0004603452 -0.0005144934 -0.00044206172
0.00037954035 -0.00013578954 -0.00057478074 -6.633002e-05 -0.00017684685 -0.0007653829 0.0001870252 0.00044659694
-0.00077760563 -0.0015854037 0.00032815282 0.00057873107 0.001582958 0.0010043358 -0.000115634626 0.0006552181
0.0014828445 0.001159433 0.00093260827 -0.00025706663 0.000499776 -0.0008980142 -0.0018828904 -0.00051657873
-0.00013462854 -0.00018788967 -0.00015020087 0.00065969134 -0.00015971143 0.0004733785 0.00049577304 0.000481903
-0.00045359787 0.0001349483 0.00018783529 -0.00077164103 -0.0013214472 -0.001526263 0.0019195396 0.0005867538
-0.0016307195 -0.00094119855 -0.00409274 -0.0017255879 -0.0034593402 -0.0018313307 -0.0020368886 -0.0010702118
-0.00015497411 -0.0030272822 -0.0025684375 -0.00048054103 0.00095852016 0.000886111 1.3544647e-05 0.00017167961
-0.00019689086 0.00016634732 6.1572006e-05 2.481729e-05 -0.0013875483 -0.0014118364 -0.0014020901 -0.002566927
-0.005521228 -0.004835395 -0.0011166069 -0.040233847 -0.034529526 -0.0013295942 0.024016775 0.030067198
-0.0039524673 -0.008855412 -0.015528091 -0.0021872898 -0.002259542 -0.0021681031 -0.0032153171 -0.0012438917
0.00035661418 -0.0003914429 0.00036381968 0.00051996607 -0.00051072857 0.00043796076 -9.87853e-05 -4.792043e-05
-0.0008753958 -0.0015477745 -0.0021820844 -0.004074259 -0.005738289 -0.008247941 -0.035239927 -0.065969765
-0.07050141 -0.048440345 -0.013527388 -0.059404854 -0.07841023 -0.080238745 -0.12560368 -0.07121048
-0.03629528 -0.014214715 -0.0032477456 -0.0050968654 1.6213786e-05 -0.0004347911 4.9096707e-07 0.0003026142
-0.00039053007 -0.00023756777 0.00011466662 -0.00027812767 -0.0018224651 -0.0026623867 -0.0022523892 0.0056550237
0.028259272 0.01965656 0.0016047372 -0.037266884 -0.052130513 -0.11396255 -0.042621545 -0.0023816677
-0.013567121 0.0141072525 -0.031341217 -0.04287895 -0.032744363 -0.014176337 -0.019232107 -0.0075963167
-0.0015867807 -0.00095372566 -0.0015039648 -0.0013556288 0.0002337388 0.000401235 0.00019818339 0.00015457562
0.00075680594 -0.00063709385 -0.005787851 0.02889711 0.041416556 0.012346398 0.00024105303 -0.05456528
-0.07805142 -0.017772809 0.009308346 0.0059676724 0.0096189 0.07018873 0.049931012 0.061269425
0.08001878 0.009982136 -0.033919644 -0.014092727 -0.0020088272 -0.0034426977 -0.0015441207 -0.00076564215
0.00029124747 -0.0006517025 0.00013365157 -0.00015147605 0.0023829888 -5.6207307e-05 -0.0023418362 0.008916548
-0.03901857 -0.029303215 -0.07662268 -0.13077809 -0.005911479 0.036949903 0.069412425 0.054192983
-0.048353706 0.039598126 0.044499937 0.08260795 0.0029529722 -0.00973836 -0.016671207 -0.025719013
-0.00395556 -0.0007709101 -0.00023312155 -7.908694e-05 -4.4216882e-05 -0.0004413978 -9.445478e-05 0.00028240535
00000000: 96d0 103a 5fd7 51b9 581e 763a d0a5 3db8
00000010: c9f0 193a 4f49 6cb9 5fc4 4e39 a530 c739
00000020: 0841 8837 328b 4bba 78b3 23b9 8377 92b7
00000030: 2aac 9eb9 b30d 82b9 5ed1 78b8 9616 7437
00000040: 5f48 9c39 be32 9839 8344 2c3a 223d cbb8
00000050: ce43 043a a036 f337 42d3 cc38 9436 c839
00000060: d58f 19ba fb21 f6b7 8e2b 203a 0f30 5f39
00000070: d1a4 133a fdb7 d539 e79e b0b9 ee5b 76b9
00000080: 241e a9b7 67cf c539 ee2e 233a 58a1 1139
00000090: 2c57 08ba 41f1 96ba 192c f138 e0ac 403a
000000a0: d28b 2cba 64b0 03ba f473 0f3a 2281 a839
000000b0: 2c0a a8b8 9038 0039 0aba 053a 4aca bbb7
000000c0: 59ab 36ba f98c 0638 6585 e6b8 368c a9b9
000000d0: e37e f6b9 7d5a f139 11df 06ba 85c4 e7b9
000000e0: 0bfd c639 ba62 0eb9 e2ac 16ba a91a 8bb8
000000f0: f76f 39b9 faa3 48ba 321c 4439 3a25 ea39
00000100: 3bd8 4bba 52cd cfba ed0b ac39 fcb5 173a
00000110: 427b cf3a eba3 833a de80 f2b8 f1c2 2b3a
00000120: 015c c23a 1ef8 973a 487a 743a e6c6 86b9
00000130: 6603 033a b668 6bba 51cb f6ba 036b 07ba
00000140: 132b 0db9 4004 45b9 3d7f 1db9 23ef 2c3a
00000150: 3678 27b9 c92f f839 c4f6 013a eda7 fc39
00000160: e0d0 edb9 e980 0d39 a7f5 4439 f447 4aba
00000170: 6934 adba e30c c8ba 1099 fb3a 62d0 193a
00000180: debd d5ba c4ba 76ba 641c 86bb 1f2d e2ba
00000190: 19b6 62bb 4309 f0ba 527d 05bb 5946 8cba
000001a0: 8c80 22b9 5e65 46bb 3b53 28bb 20f1 fbb9
000001b0: 3345 7b3a e749 683a d13d 6337 e504 3439
000001c0: 7d74 4eb9 856d 2e39 3820 8138 b92e d037
000001d0: 65de b5ba 5e0d b9ba 56c6 b7ba e439 28bb
000001e0: 6beb b4bb 3c72 9ebb 1c5b 92ba 3fcc 24bd
000001f0: d56e 0dbd c745 aeba d4be c43c 7c4f f63c
00000200: b383 81bb 4a16 11bc 8969 7ebc a258 0fbb
00000210: d314 14bb bc16 0ebb 12b8 52bb 140a a3ba
00000220: f2f7 ba39 943a cdb9 0dbf be39 554e 083a
00000230: 6ae2 05ba 199e e539 f42a cfb8 2bfe 48b8
00000240: d17a 65ba b2de caba 4d01 0fbb 5d81 85bb
00000250: 4208 bcbb 5f22 07bc be57 10bd 281b 87bd
00000260: 0b63 90bd 6269 46bd faa1 5dbc 8152 73bd
00000270: 8b95 a0bd 3654 a4bd 409e 00be cdd6 91bd
00000280: 5caa 14bd d6e4 68bc 21d8 54bb 9b03 a7bb
00000290: d702 8837 acf4 e3b9 00cb 0335 31a8 9e39
000002a0: 0fc0 ccb9 9d1b 79b9 2c79 f038 aad1 91b9
000002b0: c8df eeba 707b 2ebb d29c 13bb c74d b93b
000002c0: fd7f e73c cb06 a13c 0c56 d23a 29a5 18bd
000002d0: ce86 55bd 3365 e9bd ee93 2ebd c115 1cbb
000002e0: a148 5ebc 1b22 673c a65f 00bd d6a1 2fbd
000002f0: f41e 06bd de43 68bc a78c 9dbc 86ea f8bb
00000300: 86fb cfba 7203 7aba af20 c5ba 5baf b1ba
00000310: c817 7539 da5c d239 73cf 4f39 9415 2239
00000320: 6364 463a a502 27ba 03a8 bdbb a2b9 ec3c
00000330: 68a4 293d 8c48 4a3c 2ec3 7c39 d87f 5fbd
00000340: 6cd9 9fbd 4898 91bc 0882 183c 778c c33b
00000350: 9798 1d3c 1cbf 8f3d 7684 4c3d a6f5 7a3d
00000360: e3e0 a33d 1d8c 233c 53ef 0abd 2ee5 66bc
00000370: 87a6 03bb e29e 61bb 1864 caba 60b5 48ba
00000380: 93b2 9839 04d7 2aba d224 0c39 8bd5 1eb9
00000390: eb2b 1c3b 23c0 6bb8 7e79 19bb b716 123c
000003a0: f0d1 1fbd 4c0d f0bc 5aec 9cbd b1ea 05be
000003b0: 14b5 c1bb c858 173d 1a28 8e3d 76f9 5d3d
000003c0: 890e 46bd a531 223d 9145 363d 5b2e a93d
000003d0: a786 413b a48d 1fbc 0e92 88bc aeb0 d2bc
000003e0: a49d 81bb e716 4aba 1772 74b9 7adb a5b8
000003f0: 8475 39b8 696b e7b9 0616 c6b8 ce0f 9439

1.bias f4 [100]
-0.009161599 0.20746177 0.112728186 0.04969669 0.014706532 -0.099778205 0.0010585357 -0.026443401
-0.012501444 -0.037160143 0.026513804 0.13405813 -0.009602543 -0.091507055 -0.009965221 0.18121308
-0.048788358 0.105867244 0.09842162 0.004412267 0.39448655 0.0065714475 -0.030392066 -0.2785212
-0.116242915 -0.077848695 0.116796136 -0.015974581 -0.19875373 0.08973417 -0.086012565 0.11086253
-0.17064139 0.19903444 -0.019050084 0.091924265 -0.032205675 -0.11552061 -0.080707476 0.35074598
-0.093949 -0.013196881 0.5029612 0.24596643 0.053116195 0.0065207114 0.103213154 0.17073709
0.059049457 -0.04459015 0.07872663 0.030806653 0.1461849 0.061981034 -0.15874982 -0.09312641
-0.19688705 -0.05029587 -0.09631887 -0.011561899 0.06381388 -0.037240908 -0.20219982 -0.16081053
0.06603622 0.31702414 -0.0035073778 -0.09298107 -0.021713786 -0.07684479 -0.02602092 -0.08573466
0.17141993 0.039121978 -0.16222586 0.25663096 0.02744332 -0.26844996 -0.0310924 0.2601025
0.056240857 -0.11719738 -0.07102046 0.051433768 0.050098516 0.1489281 0.04001638 -0.14215507
-0.07760654 0.16911021 0.10477048 -0.16354915 -0.11597076 -0.019946935 0.3643468 0.17230046
-0.1292168 -0.14695957 0.06168242 0.046070363
00000000: 881a 16bc dc70 543e 09de e63d c28e 4b3d
00000010: aaf3 703c 8458 ccbd 90be 8a3a d59f d8bc
00000020: dbd2 4cbc 3c35 18bd 7a33 d93c 8946 093e
00000030: fc53 1dbc 0d68 bbbd 2b45 23bc ec8f 393e
00000040: 4dd6 47bd edd0 d83d 4691 c93d c794 903b
00000050: 24fa c93e 4c55 d73b c8f8 f8bc 559a 8ebe
00000060: c410 eebd 236f 9fbd d032 ef3d 20dd 82bc
00000070: 1986 4bbe 8cc6 b73d 5b27 b0bd e50b e33d
00000080: 9ebc 2ebe afcf 4b3e ec0e 9cbc ca42 bc3d
00000090: 19ea 03bd 1296 ecbd f649 a5bd fa94 b33e
000000a0: 5568 c0bd bb37 58bc 11c2 003f a0de 7b3e
000000b0: 5e90 593d b1ab d53b 6b61 d33d b4d5 2e3e
000000c0: d8dd 713d 29a4 36bd 6d3b a13d 3c5e fc3c
000000d0: 7fb1 153e d3df 7d3d 508f 22be 0fb9 bebd
000000e0: c29c 49be 0b03 4ebd d442 c5bd 1f6e 3dbc
000000f0: dab0 823d ec89 18bd 780d 4fbe 84ab 24be
00000100: ff3d 873d fd50 a23e 09dc 65bb dc6c bebd
00000110: 1ce1 b1bc cd60 9dbd d329 d5bc a795 afbd
00000120: b588 2f3e 5e3e 203d 891e 26be 2265 833e
00000130: d0d0 e03c 4672 89be 7db5 febc 282c 853e
00000140: d05c 663d 2e05 f0bd 2d73 91bd 37ac 523d
00000150: 1a34 4d3d 9c80 183e 37e8 233d 1991 11be
00000160: 2df0 9ebd 3a2b 2d3e e891 d63d 6e79 27be
00000170: 1482 edbd c167 a3bc aa8b ba3e 886f 303e
00000180: 6951 04be 927c 16be b5a6 7c3d 47b4 3c3d

3.weight f4 [100, 100]
-0.0024366085 -0.04782868 -0.12002904 0.079679385 0.072851546 0.01990302 0.04865357 -0.010631971
-4.4504995e-06 4.197041e-05 0.22331306 -0.040940337 -0.23498069 0.0037011388 0.07954359 0.243704
-7.593721e-05 0.21804793 -0.22271042 -0.23963602 -0.038110994 -0.0022861522 -0.09982245 -0.03597731
0.030425811 -0.05458247 -0.06971178 -5.5611745e-05 0.11466698 0.19834076 -0.07296909 -0.09138107
-0.097454965 0.18065716 0.062110756 -0.043724567 -0.008295749 0.07296379 -0.11014064 0.101038344
-0.1269663 0.0582592 0.14952622 0.010826694 0.06404506 -0.022128006 -0.025716212 -0.040715236
-0.027137937 8.3521765e-05 -0.099491015 -0.009563545 0.09497238 0.20842342 0.08482774 -0.018841939
0.09262869 -2.2691074e-05 0.089200646 -0.19625707 -0.094047174 -0.23024921 -0.02914694 -0.059670016
0.04919783 -0.23853995 0.18232226 -0.039819915 0.131795 0.16787478 -0.3025391 0.20135161
-0.043992836 -0.06708594 0.0033450525 0.09016041 -0.09767088 0.04115935 0.040462937 0.16453452
0.016203402 0.05594278 0.103085324 -0.23517132 -0.011358841 0.032671854 -0.09898507 -0.01438073
-0.18460901 3.4388027e-05 -0.15951137 0.07753285 -0.08650738 -0.007818977 0.09616925 -0.03780179
-0.049223203 0.007857716 -0.15237893 -0.2104428 -0.049000714 0.11566514 0.1616382 0.060050942
-0.110737965 -0.011053033 0.018563306 -0.14912435 3.272406e-05 2.5551699e-05 -0.026741859 -0.020811219
-0.010367697 -0.022731682 -0.03160425 0.03731606 -0.00013744982 0.008836446 0.19901341 0.05302278
0.07135434 -0.014442452 0.04836014 -0.07448328 -0.007838038 0.073346145 -0.1129027 0.00020150529
-0.038012825 -0.0386803 -0.041287642 0.054448172 0.050245166 -0.11497315 -0.101918586 0.27910805
0.049326893 -0.07553592 -0.0898355 0.028029405 0.030734234 0.022358097 0.008340997 0.112509266
0.0768444 -0.023105731 0.042882226 0.20291246 -0.053942934 6.499708e-05 0.051618338 0.031925716
0.172901 0.025289947 0.08777165 0.037933175 -0.026183072 2.1324367e-05 0.057070795 -0.0034011498
-0.043679826 -0.3050643 0.018053282 0.048847433 0.052249283 -0.07252074 -0.0029658638 -0.038185555
-0.0072948025 0.21180637 0.1843701 -0.18855454 -0.059672564 0.05959912 -0.017678475 0.30518353
-0.07311365 -0.14369203 -0.07208934 0.3380509 0.076036155 0.14919028 -0.117219 -0.19317937
-0.01847433 0.11435931 0.027274162 -0.040671833 -0.066106595 0.025654433 -0.1159934 -0.011439417
0.04758687 0.061668113 0.017085347 -0.036601473 0.063140266 0.10446973 -0.036185663 0.23626299
0.11656593 0.07042468 -0.22730558 -0.30299225 0.43159896 0.022884341 -0.003863131 0.13212104
-5.8231976e-06 0.00010742897 0.061420705 -0.072796844 0.05995438 -0.091052584 -0.11882149 0.03338608
-7.110827e-05 -0.0012033707 -0.0006271617 0.10521574 0.02999963 0.036037426 0.00017986863 0.0155876875
-0.06330396 -0.011967629 -0.105903454 4.652043e-06 -0.18168254 -0.025349146 0.1377069 0.10136725
-0.03435847 0.1074278 0.3275614 -0.05205151 -0.05086083 0.06398278 -0.08779619 -0.04236015
0.042727917 -0.17608924 0.20638251 0.05502438 -0.029307846 0.04207856 -0.0319732 -0.111466
0.06813044 5.5645858e-05 -0.01978019 -0.1041848 -0.16713461 -0.18801269 -0.0573694 0.09815692
00000000: 82af 1fbb 02e8 43bd c9d1 f5bd f22e a33d
00000010: 3133 953d a80b a33c f748 473d b831 2ebc
00000020: 8055 95b6 6209 3038 2eac 643e 0eb1 27bd
00000030: c79e 70be ce8e 723b c0e7 a23d 8b8d 793e
00000040: 7b40 9fb8 f547 5f3e 330e 64be 2563 75be
00000050: 461a 1cbd 45d3 15bb b66f ccbd f25c 13bd
00000060: 8d3f f93c de91 5fbd 0dc5 8ebd a840 69b8
00000070: 86d6 ea3d d719 4b3e d170 95bd 0026 bbbd
00000080: 7896 c7bd 31fe 383e d967 7e3d 8818 33bd
00000090: e5ea 07bc 0a6e 953d 6a91 e1bd 31ed ce3d
000000a0: 7403 02be 33a1 6e3d 671d 193e 7262 313c
000000b0: 0e2a 833d cb45 b5bc ceaa d2bc 05c5 26bd
000000c0: 6150 debc 6828 af38 f2c1 cbbd 6ab0 1cbc
000000d0: e180 c23d f36c 553e 2bba ad3d 695a 9abc
000000e0: 1cb4 bd3d b658 beb7 d4ae b63d 9df7 48be
000000f0: ce9b c0bd 73c6 6bbe 90c5 eebc 8c68 74bd
00000100: aa83 493d d143 74be b0b2 3a3e 351a 23bd
00000110: 45f5 063e 5ee7 2b3e 68e6 9abe 1e2f 4e3e
00000120: d531 34bd 5a64 89bd ab38 5b3b 05a6 b83d
00000130: ac07 c8bd b596 283d 77bc 253d bd7b 283e
00000140: ffbc 843c 4224 653d 661e d33d c0d0 70be
00000150: 6f1a 3abc ecd2 053d afb8 cabd 279d 6bbc
00000160: 250a 3dbe dd3b 1038 f356 23be 8bc9 9e3d
00000170: c82a b1bd 2b1b 00bc 62f4 c43d 0dd6 1abd
00000180: 459e 49bd a6bd 003c 3909 1cbe 517e 57be
00000190: f9b4 48bd d8e1 ec3d 7c84 253e faf7 753d
000001a0: 96ca e2bd c817 35bc 1312 983c 0eb4 18be
000001b0: 3141 0938 db57 d637 be11 dbbc 4a7c aabc
000001c0: 46dd 29bc cb37 babc 7573 01bd bad8 183d
000001d0: 6820 10b9 bec6 103c 2cca 4b3e 6a2e 593d
000001e0: 3922 923d 09a0 6cbc 4815 463d b18a 98bd
000001f0: 1d6b 00bc 8136 963d 8839 e7bd 2a4b 5339
00000200: 56b3 1bbd 3c6f 1ebd 3b1d 29bd 0c05 5f3d
00000210: e0cd 4d3d 0b77 ebbd b1ba d0bd 40e7 8e3e
00000220: ff0a 4a3d 94b2 9abd adfb b7bd ec9d e53c
00000230: 5cc6 fb3c 5428 b73c ada8 083c 426b e63d
00000240: 9960 9d3d 3b48 bdbc 46a5 2f3d 49c8 4f3e
00000250: 44f3 5cbd 0b4f 8838 c06d 533d 8ac4 023d
00000260: f60c 313e dd2c cf3c 9fc1 b33d d15f 1b3d
00000270: e27d d6bc bbe1 b237 11c3 693d d3e5 5ebb
00000280: 9ee9 32bd 6331 9cbe 7ae4 933c 3f14 483d
00000290: 5803 563d c185 94bd f05e 42bb 7568 1cbd
000002a0: 3d09 efbb c5e3 583e 84cb 3c3e 7114 41be
000002b0: 386b 74bd 351e 743d 73d2 90bc 0441 9c3e
000002c0: 9cbc 95bd 0124 13be 93a3 93bd 0215 ad3e
000002d0: d8b8 9b3d 56c5 183e 8410 f0bd d0d0 45be
000002e0: 7a57 97bc 3735 ea3d 106e df3c 8297 26bd
000002f0: e562 87bd 3f29 d23c f38d edbd 646c 3bbc
00000300: 73ea 423d b497 7c3d 92f6 8b3c 6deb 15bd
00000310: af4f 813d 3af4 d53d 6b37 14bd edee 713e
00000320: 1eba ee3d d13a 903d cbc2 68be cd21 9bbe
00000330: 8afa dc3e f177 bb3c 952c 7dbb bd4a 073e
00000340: e364 c3b6 7d4b e138 4794 7b3d 8316 95bd
00000350: b992 753d c779 babd ae58 f3bd d8bf 083d
00000360: f61f 95b8 6cba 9dba 1c68 24ba 5a7b d73d
00000370: c9c1 f53c fb9b 133d 1e9b 3c39 8063 7f3c
00000380: 82a5 81bd e013 44bc e9e3 d8bd bf18 9c36
00000390: fd0a 3abe 03a9 cfbc 0a03 0d3e a299 cf3d
000003a0: 78bb 0cbd 1b03 dc3d 21b6 a73e f733 55bd
000003b0: 7253 50bd 6709 833d 7dce b3bd d681 2dbd
000003c0: 7803 2f3d bd50 34be f055 533e 3f61 613d
000003d0: 0217 f0bc 915a 2c3d 55f6 02bd 4948 e4bd
000003e0: f987 8b3d 4965 6938 110a a2bc d75e d5bd
000003f0: 5625 2bbe 6686 40be 2dfc 6abd 7f06 c93d

3.bias f4 [100]
0.12198827 0.16319343 0.032549806 0.2800234 -0.07863541 -0.043520942 0.09199217 0.13977101
0.11507246 -0.09096955 0.1015101 0.038732696 -0.038658585 -0.07386587 0.030016553 0.062719636
0.12238837 -0.19367397 0.024775278 -0.0063102553 0.25214556 0.10637908 0.20717615 -0.028496008
0.18344879 0.1749609 0.1620882 0.37675405 0.07118753 0.0434797 -0.017483586 0.06305077
0.25764415 0.22666 0.15667485 0.25384328 -0.007240498 0.02934973 -0.03383686 0.20178533
0.06282877 0.08530516 -0.03428881 -0.0707097 0.09476052 -0.013680552 0.122323565 0.19164771
-0.081823274 -0.08910272 -0.09518865 -0.014863295 -0.05431909 -0.09161716 0.113438934 -0.070853345
-0.07629954 0.21889906 0.106913544 0.24184762 0.0975037 -0.20478831 0.04667317 0.13876483
0.022502063 -0.022428647 0.13774751 -0.03153955 -0.041782573 0.0974191 0.15761048 -0.08184038
0.14187887 -0.03751296 -0.07942711 -0.05082646 -0.040004045 -0.13320318 -0.09924612 0.06286513
0.10755163 0.098496795 0.025207011 0.10568455 -0.0180805 0.08013136 -0.017989429 -0.014550942
0.009565664 0.080531485 -0.0004494617 0.022028958 -0.20871177 0.09041785 0.029092206 -0.10968672
-0.03840141 0.13314638 -0.008686105 0.048470423
00000000: fcd4 f93d 2e1c 273e f252 053d 3a5f 8f3e
00000010: 9a0b a1bd 0443 32bd 6466 bc3d 2220 0f3e
00000020: 1cab eb3d 3e4e babd 87e4 cf3d 2da6 1e3d
00000030: 7758 1ebd fd46 97bd 46e5 f53c 2773 803d
00000040: c1a6 fa3d 7852 46be 86f5 ca3c 42c6 cebb
00000050: 3919 813e 46dd d93d fc25 543e 7670 e9bc
00000060: 00da 3b3e f328 333e 73fa 253e e8e5 c03e
00000070: c5ca 913d c517 323d bd39 8fbc c320 813d
00000080: efe9 833e 8f19 683e 5f6f 203e bff7 813e
00000090: b341 edbb d86e f03c 8598 0abd d0a0 4e3e
000000a0: 5fac 803d 79b4 ae3d 6c72 0cbd 3fd0 90bd
000000b0: ce11 c23d 6524 60bc c784 fa3d 4c3f 443e
000000c0: f692 a7bd 7d7b b6bd 44f2 c2bd 2d85 73bc
000000d0: b27d 5ebd c7a1 bbbd ac52 e83d 8f1b 91bd
000000e0: ef42 9cbd 1327 603e 7df5 da3d e7a6 773e
000000f0: 05b0 c73d 07b4 51be 5e2c 3f3d 5e18 0e3e
00000100: 3f56 b83c 48bc b7bc af0d 0d3e 9d2f 01bd
00000110: 3424 2bbd aa83 c73d a464 213e ee9b a7bd
00000120: b248 113e 31a7 19bd aeaa a2bd 682f 50bd
00000130: 48db 23bd 6a66 08be 8d41 cbbd 6fbf 803d
00000140: 0744 dc3d b0b8 c93d ef7e ce3c 2471 d83d
00000150: 8f1d 94bc e91b a43d 915e 93bc 1367 6ebc
00000160: 4eb9 1c3c b1ed a43d baa5 ebb9 1376 b43c
00000170: 8ab8 55be fe2c b93d c752 ee3c 6ea3 e0bd
00000180: cc4a 1dbd 8657 083e 2a50 0ebc ec88 463d

5.weight f4 [100, 100]
-0.022620514 -0.044624038 0.06790961 0.040081203 0.0377131 0.045754094 0.12694937 -0.05767651
0.10409352 -1.1851029e-05 -0.00045468722 -0.09193234 -0.06690348 0.12907407 -0.04603057 -0.027760705
0.061691824 0.096432574 -0.00013620348 -0.17771798 -0.027668009 0.28631794 -0.080050014 4.738567e-05
0.0068410174 0.107766956 0.07457403 0.056191586 -0.042997483 -0.050694067 0.15273577 0.12604615
-0.29474273 0.04460827 0.056002725 -1.6551323e-05 -0.014870483 0.01163032 -0.048616838 -0.09499738
-0.1557676 0.017766362 -0.04173718 0.070831604 0.05204627 0.022009874 -0.013083225 -0.015271889
-0.030744677 -1.23649925e-05 4.4866516e-05 -6.592103e-05 -1.5161064e-06 -0.0001599447 0.0011458531 9.218059e-05
2.5333662e-05 -0.04969378 0.1955883 0.012276655 -0.02067485 0.06735519 0.17597654 -0.015931912
-0.092017755 0.028920472 -0.06042527 0.009284428 3.6062345e-05 0.25835827 0.11952935 7.2618255e-05
0.071132004 -0.031775337 0.06677593 -0.20157924 -1.2380457e-05 -0.054361247 -4.2044183e-05 -0.0119530335
-0.0024848904 -0.029980259 0.0034508475 -0.0041785003 -0.044428583 0.039647393 0.005707962 0.10630483
-0.19453336 -0.02258127 0.012157082 0.09416861 0.12660708 0.09619529 0.065924756 0.04391675
-2.9726643e-05 -0.09490672 8.002554e-05 0.14390683 -0.09861086 -0.013566105 0.20743693 -0.16495025
-0.064075164 0.14755906 -0.0052503385 0.068658315 -0.0069105313 0.00010910957 -0.05399084 0.10318664
0.06043035 0.10526132 0.048556805 -0.06257305 0.028389547 -0.036498077 0.0817235 -0.07910442
0.010908951 -0.11236048 0.08917643 -2.0944557e-05 -0.23579709 0.065811686 0.1446377 0.059260204
-0.1381951 0.007957188 -0.05905444 0.082253635 -0.0038616979 0.04707607 0.021241697 -0.18264848
-0.03317912 -0.13798864 0.009796935 0.016678942 -0.021536168 -0.0945876 0.01352203 -0.14595068
-0.16021216 -0.04532777 0.06834195 0.0013730288 0.06150968 7.257684e-06 0.00025633266 6.6325897e-06
-0.000111167246 -6.741364e-05 0.17433515 5.5979723e-05 -1.2957396e-05 0.15224603 -0.0631272 0.053016823
-0.2180212 -0.018623622 0.058020968 0.052231275 -0.12221005 -0.06786438 -0.007371721 -0.048138816
4.4767912e-05 0.07024459 0.009626968 -3.826566e-06 -0.029375931 -0.023561614 0.04448872 -0.0060549313
-8.076217e-05 -0.054891255 -2.9155588e-05 0.0682533 0.10108649 0.051086586 0.09818107 -0.11597868
0.06998735 0.034670062 0.22073182 0.11563975 -0.16793069 -0.09820892 -0.023973458 -0.07123548
-0.21799704 0.30023143 0.01090747 0.03703571 3.0983956e-05 0.13506593 0.00010470189 -0.0024303906
0.047301967 -0.17253229 -0.1003562 -0.010703784 0.1079535 -0.23936103 0.013258678 -0.028506873
0.0070230616 8.504954e-05 -0.067332774 0.0075612906 0.26205972 0.018318018 -0.019352293 0.10860493
-0.1658529 0.06306414 0.044577435 0.15811373 0.009244932 0.092914276 0.08502024 9.290125e-06
-0.25408188 -0.026628695 0.053299073 -0.06423544 0.09086732 0.09129811 0.08184255 -0.122566245
-0.12174867 -0.1284779 -0.04972494 0.17421663 -0.011125694 0.05330301 -0.14935209 0.048441477
-0.11310152 0.107412726 -0.17457436 0.041626174 0.04527118 -0.15687573 0.021707986 0.07429015
-0.06548575 1.1167958e-05 7.9284684e-05 -4.5004836e-05 -1.0347264e-05 4.831288e-06 -0.0017431306 -2.4192259e-05
00000000: a84e b9bc b2c7 36bd 3214 8b3d 302c 243d
00000010: 0d79 1a3d a568 3b3d 04ff 013e 343e 6cbd
00000020: fc2e d53d c8d3 46b7 1663 eeb9 0647 bcbd
00000030: b104 89bd fe2b 043e 8d8a 3cbd 6b6a e3bc
00000040: 91b0 7c3d 717e c53d d8d1 0eb9 b4fb 35be
00000050: 05a8 e2bc 4498 923e 43f1 a3bd fabf 4638
00000060: 9d2a e03b ecb4 dc3d 45ba 983d 2629 663d
00000070: 211e 30bd 95a4 4fbd c466 1c3e 3e12 013e
00000080: 85e8 96be 29b7 363d 1d63 653d b2d7 8ab7
00000090: 54a3 73bc 198d 3e3c 7322 47bd fd8d c2bd
000000a0: 8b81 1fbe c38a 913c 9bf4 2abd 2910 913d
000000b0: 782e 553d 0d4e b43c 065b 56bc f236 7abc
000000c0: 43dc fbbc 3d73 4fb7 0e2f 3c38 153f 8ab8
000000d0: 057d cbb5 d4b6 27b9 7330 963a 1451 c138
000000e0: a083 d437 b48b 4bbd 4d48 483e 0624 493c
000000f0: 4e5e a9bc 85f1 893d 3233 343e a483 82bc
00000100: ce73 bcbd a0ea ec3c 7d80 77bd b71d 183c
00000110: a641 1738 8947 843e cecb f43d a14a 9838
00000120: a8ad 913d db26 02bd d2c1 883d ca6a 4ebe
00000130: a8b5 4fb7 e6a9 5ebd 9958 30b8 a8d6 43bc
00000140: 8bd9 22bb 2999 f5bc 9d27 623b cdeb 88bb
00000150: bffa 35bd 4e65 223d db09 bb3b 59b6 d93d
00000160: c133 47be 5bfc b8bc 7f2e 473c 79db c03d
00000170: 49a5 013e 0902 c53d 8f03 873d 0de2 333d
00000180: 7b5d f9b7 745e c2bd 62d3 a738 505c 133e
00000190: 7ef4 c9bd 5e44 5ebc 596a 543e b8e8 28be
000001a0: d739 83bd b919 173e 080b acbb bb9c 8c3d
000001b0: bd71 e2bb c1d1 e438 8025 5dbd 8453 d33d
000001c0: d185 773d 3f93 d73d 80e3 463d 4d26 80bd
000001d0: 3291 e83c 027f 15bd a65e a73d 8001 a2bd
000001e0: 75bb 323c 401d e6bd 22a2 b63d 18b2 afb7
000001f0: cb74 71be 47c8 863d e81b 143e d4ba 723d
00000200: 0483 0dbe de5e 023c 12e3 71bd 9874 a83d
00000210: 8a14 7dbb d6d2 403d 1103 ae3c 3408 3bbe
00000220: d4e6 07bd e54c 0dbe 5383 203c 47a2 883c
00000230: 9e6c b0bc 25b7 c1bd 818b 5d3c 1874 15be
00000240: a80e 24be 9da9 39bd ddf6 8b3d 34f7 b33a
00000250: 93f1 7b3d 0887 f336 6364 8639 838d de36
00000260: 7622 e9b8 6c60 8db8 ea84 323e c5cb 6a38
00000270: 9863 59b7 62e6 1b3e d548 81bd 2b28 593d
00000280: f340 5fbe 9190 98bc 65a7 6d3d 76f0 553d
00000290: 4349 fabd 7bfc 8abd 7a8e f1bb 352d 45bd
000002a0: 2ec5 3b38 65dc 8f3d 6eba 1d3c f465 80b6
000002b0: cba5 f0bc 4904 c1bc ce39 363d 7268 c6bb
000002c0: dc5e a9b8 a7d5 60bd 2693 f4b7 63c8 8b3d
000002d0: 6f06 cf3d 2b40 513d 2813 c93d 3b86 edbd
000002e0: 8755 8f3d 3202 0e3d 8607 623e 89d4 ec3d
000002f0: 06f6 2bbe c221 c9bd fc63 c4bc e8e3 91bd
00000300: 9e3a 5fbe efb7 993e 3fb5 323c c2b2 173d
00000310: c5f4 0138 b94e 0a3e 6693 db38 3047 1fbb
00000320: b5bf 413d 4eac 30be 8d87 cdbd ed5e 2fbc
00000330: b916 dd3d 0f1b 75be ed3a 593c 3f87 e9bc
00000340: b621 e63b a05c b238 c4e5 89bd b4c4 f73b
00000350: b12c 863e ab0f 963c b388 9ebc 436c de3d
00000360: 58d5 29be c627 813d d496 363d 91e8 213e
00000370: 0e78 173c d749 be3d 171f ae3d c8dc 1b37
00000380: 0517 82be 6c24 dabc 2150 5a3d df8d 83bd
00000390: a518 ba3d 81fa ba3d 119d a73d 0304 fbbd
000003a0: 5e57 f9bd b68f 03be 61ac 4bbd d865 323e
000003b0: 8b48 36bc 4254 5a3d c1ef 18be 926a 463d
000003c0: c5a1 e7bd 34fb db3d 9fc3 32be 3580 2a3d
000003d0: 466e 393d 08a4 20be f2d4 b13c 6f25 983d
000003e0: 651d 86bd 045e 3b37 a445 a638 93c3 3cb8
000003f0: 2999 2db7 731c a236 c279 e4ba 7bf0 cab7

5.bias f4 [100]
0.10163253 0.07431298 0.09412391 -0.08823073 0.012790101 0.13501874 0.104141414 -0.043237306
0.08442222 0.05245547 0.16606419 0.1439684 -0.0739751 -0.09143588 0.28038162 -0.08496433
-0.013129848 0.06350534 -0.030086832 0.21222335 0.25211278 0.032440618 -0.090808615 0.17706083
0.12728085 0.08667433 -0.05989839 0.08339133 -0.039763633 0.21320836 0.0874415 -0.084494404
0.057563245 0.2090094 0.070264935 0.23734224 0.17398678 -0.09725114 0.09973605 -0.047413275
0.20091733 0.18295132 0.06367352 -0.117989406 0.079712026 0.1790098 0.15101674 0.1937814
0.15603545 0.12408521 0.072216995 0.14079241 0.097716175 0.08710465 0.09628978 0.13218322
0.124311976 0.1076706 0.14502677 0.11147098 0.14221981 0.02009929 -0.010109082 -0.091822594
0.0053403233 0.02018174 -0.03533645 0.07931382 0.05490533 0.12336855 -0.036314953 -0.025827559
-0.087147586 0.17593664 -0.07041746 0.096488014 0.05654574 0.22603855 0.12784047 0.031173617
0.08404186 -0.024523102 0.10226334 0.05348693 -0.074726544 -0.084988564 -0.12370758 0.13433611
-0.028042546 -0.0142933 0.06643757 0.11810133 -0.05377819 -0.015115755 0.012564206 0.054466173
-0.063417524 0.056418665 0.06966512 0.057416204
00000000: b724 d03d 6731 983d 09c4 c03d 50b2 b4bd
00000010: 928d 513c 5a42 0a3e 1848 d53d 9a19 31bd
00000020: 8fe5 ac3d 8cdb 563d bb0c 2a3e 746c 133e
00000030: 4280 97bd bc42 bbbd 2e8e 8f3e c701 aebd
00000040: 931e 57bc 160f 823d a978 f6bc 1451 593e
00000050: ed14 813e 74e0 043d def9 b9bd 6f4f 353e
00000060: e955 023e 5082 b13d 0458 75bd 13c9 aa3d
00000070: 31df 22bd 4b53 5a3e 8714 b33d 670b adbd
00000080: 70c7 6b3d 8f06 563e 10e7 8f3d d809 733e
00000090: 9729 323e 9b2b c7bd 6a42 cc3d 6c34 42bd
000000a0: 46bd 4d3e 9757 3b3e 4367 823d 6ea4 f1bd
000000b0: 0f40 a33d 584e 373e 22a4 1a3e a26e 463e
000000c0: c2c7 1f3e 6320 fe3d 81e6 933d e32b 103e
000000d0: 6b1f c83d ec63 b23d 9433 c53d 0a5b 073e
000000e0: 4797 fe3d 6782 dc3d e681 143e e64a e43d
000000f0: 12a2 113e 44a7 a43c 90a0 25bc 7c0d bcbd
00000100: e1fd ae3b 2d54 a53c f4bc 10bd 496f a23d
00000110: 69e4 603d a6a8 fc3d fdbe 14bd 5194 d3bc
00000120: 6f7a b2bd bc28 343e 0737 90bd 829b c53d
00000130: 829c 673d a676 673e 9de8 023e d05f ff3c
00000140: 241e ac3d ace4 c8bc 716f d13d 1c15 5b3d
00000150: 3b0a 99bd 7c0e aebd 665a fdbd 688f 093e
00000160: 7bb9 e5bc 722e 6abc 6c10 883d 1cdf f13d
00000170: 8546 5cbd 12a8 77bc 19da 4d3c ec17 5f3d
00000180: 0ce1 81bd 4217 673d 96ac 8e3d 412d 6b3d

7.weight f4 [100, 100]
2.2623102e-05 3.4969496e-05 -3.339626e-05 9.858134e-05 7.321668e-06 4.141533e-05 -6.2316785e-06 -2.7123815e-05
-3.3587432e-05 -8.8440305e-05 0.00017359268 -7.998529e-05 -4.2071395e-05 8.6260174e-05 -7.203402e-05 -1.737266e-05
1.9046905e-05 7.9901685e-05 -0.00012157959 3.0442277e-05 2.6479278e-05 -2.4989617e-05 -0.00015390891 4.8431608e-05
8.1389815e-05 9.034353e-05 -4.4121483e-05 8.0022226e-05 -2.4985177e-06 -7.864228e-05 6.4092965e-05 -0.000106811116
-8.399751e-06 -0.00011023709 -4.69368e-05 2.4799624e-06 4.112401e-05 4.371022e-05 6.640567e-05 8.481665e-05
2.6471966e-05 -1.7398022e-05 -3.7712336e-05 5.4282107e-05 2.5175965e-05 8.141854e-05 9.975757e-06 7.7697056e-05
-9.807426e-05 1.1183531e-05 7.260469e-05 2.9177389e-05 7.825533e-05 5.7097353e-05 8.2202976e-05 1.2519005e-05
7.001783e-05 -7.583624e-05 -0.00016444296 -6.7786204e-05 6.7007044e-05 -3.2121054e-05 6.7758505e-05 -7.4859425e-05
1.3901358e-05 -6.883862e-05 -2.8097611e-05 7.5634366e-06 6.9712965e-05 -0.000113741764 -2.1434598e-05 -2.8574075e-06
-1.2414647e-05 1.6489086e-05 -4.4890738e-05 -5.844917e-06 -0.00024421635 -2.926077e-05 6.6828215e-05 -2.3602795e-05
0.00012395628 -0.000117502335 5.936087e-05 -0.00010312182 2.2692702e-05 3.2198404e-05 -6.618061e-05 8.389557e-05
1.0078294e-05 2.3162038e-05 -3.0445728e-05 -2.3849254e-05 -2.4386307e-05 4.6690725e-06 -6.984572e-05 -1.8167028e-05
0.00011631503 -8.260496e-05 0.00021043757 0.00014205163 -0.00010659413 0.0001395602 -8.516161e-06 -5.494188e-05
-9.3324095e-05 3.4704695e-05 -3.809261e-05 2.5221396e-05 0.00014011853 -4.5488123e-05 -8.104933e-05 3.975466e-06
5.019008e-06 5.882526e-06 -1.1766167e-05 -1.6673548e-05 0.00017274852 -9.977001e-06 2.2301401e-05 -3.214972e-05
3.393909e-05 -4.3162116e-05 1.2916957e-05 1.2578735e-05 -2.0849811e-06 0.00021752143 4.135807e-05 -7.367829e-05
-5.4612187e-06 8.478185e-05 7.4502736e-05 4.0185405e-05 2.516699e-05 -4.6430523e-05 3.5972356e-05 -6.2855006e-06
-0.00015910584 -7.334785e-06 -5.408366e-05 3.0099494e-05 1.9920008e-05 -8.231236e-05 -1.466526e-05 4.7864956e-05
8.3402865e-06 0.00010475627 2.6927344e-06 -2.9492712e-05 -0.00014801449 2.256659e-05 4.6160883e-05 3.9104278e-05
9.1603004e-05 8.004954e-05 -1.38092155e-05 2.3133036e-05 1.2071529e-05 -9.074887e-05 -5.7261062e-05 0.00012703933
-4.2152005e-05 0.00010356879 -5.5973112e-05 -4.3594384e-05 -0.00017276345 -9.327112e-05 -1.9782132e-05 1.6999114e-05
9.528395e-05 -2.1161732e-07 7.666627e-05 0.00016222833 0.00012801058 -8.605348e-07 1.2863208e-06 -6.748956e-05
-7.4279465e-05 1.6549493e-06 -6.7427565e-05 -2.2101016e-05 8.2630715e-05 7.65668e-05 -4.2362135e-05 -1.7194783e-05
-6.882777e-05 2.2385404e-05 -0.000116300835 -0.00012008594 1.5342936e-05 -1.1206277e-05 4.847986e-05 -5.896569e-05
5.1617342e-05 -6.706007e-05 -4.773776e-05 1.182211e-05 0.0001077302 -2.9353214e-05 -8.323239e-05 5.531736e-05
-0.0032947815 -0.0027324539 0.053057905 -0.00013422701 0.078793444 -0.07352738 0.11562685 0.06069
0.040135924 -0.02643036 0.047465675 0.08641587 -5.2746367e-05 3.722226e-05 -0.0131153455 4.3448836e-05
-4.4109074e-06 -0.058188684 -3.5049616e-05 -0.10693128 -0.38112763 0.01973919 -0.00026016275 -0.0038838636
0.06800934 0.1923236 -2.280951e-05 0.20801125 -1.8482264e-05 -0.091714375 -0.01522885 2.3417468e-05
-0.032010633 0.000958654 0.10249602 -0.017565532 0.110322595 1.5669159e-05 -0.0669763 -0.006267882
-0.1887029 0.095607884 -0.056641787 0.04674866 0.21638693 0.12345156 0.058612417 -0.13323401
0.10036486 -0.08933335 0.0068401415 -0.04025478 0.028754454 0.045942698 -0.022721147 0.03299692
00000000: bec6 bd37 36ac 1238 f612 0cb8 74bd ce38
00000010: a6ac f536 5fb5 2d38 b619 d1b6 f387 e3b7
00000020: 3be0 0cb8 0779 b9b8 6e06 3639 c7bd a7b8
00000030: d175 30b8 94e6 b438 f810 97b8 81bb 91b7
00000040: ebc6 9f37 e490 a738 8cf8 feb8 4b5e ff37
00000050: d11f de37 cba0 d1b7 9c62 21b9 0b23 4b38
00000060: d3af aa38 d076 bd38 150f 39b8 9bd1 a738
00000070: 35ac 27b6 c1ec a4b8 a669 8638 c8ff dfb8
00000080: a8ec 0cb7 162f e7b8 01de 44b8 6e6d 2636
00000090: 927c 2c38 7e55 3738 4643 8b38 98df b138
000000a0: 1d10 de37 f8f1 91b7 502d 1eb8 f8ac 6338
000000b0: f930 d337 3fbf aa38 8d5d 2737 4af1 a238
000000c0: 38ad cdb8 e6a0 3b37 5943 9838 f7c1 f437
000000d0: 031d a438 d17b 6f38 6364 ac38 b808 5237
000000e0: 89d6 9238 450a 9fb8 526e 2cb9 7128 8eb8
000000f0: 2286 8c38 b8b9 06b8 9219 8e38 d9fd 9cb8
00000100: e139 6937 745d 90b8 29b3 ebb7 6dc9 fd36
00000110: dd32 9238 a588 eeb8 73ce b3b7 e3c1 3fb6
00000120: 8148 50b7 0b52 8a37 1049 3cb8 741f c4b6
00000130: 2a0a 80b9 0675 f5b7 2026 8c38 9efe c5b7
00000140: 43fa 0139 966b f6b8 40fa 7838 1b43 d8b8
00000150: 355c be37 c60c 0738 72ca 8ab8 17f1 af38
00000160: f115 2937 194c c237 b465 ffb7 e20f c8b7
00000170: 3291 ccb7 07ab 9c36 237a 92b8 6565 98b7
00000180: 28ee f338 333c adb8 e8a8 5c39 b2f3 1439
00000190: 4a8b dfb8 e856 1239 a2e0 0eb7 6571 66b8
000001a0: feb6 c3b8 e28f 1138 a1c5 1fb8 8992 d337
000001b0: c8ec 1239 80ca 3eb8 07f9 a9b8 fe64 8536
000001c0: f368 a836 8362 c536 4d67 45b7 2cde 8bb7
000001d0: d423 3539 e562 27b7 e513 bb37 80d8 06b8
000001e0: d259 0e38 f808 35b8 e8b5 5837 4109 5337
000001f0: b4eb 0bb6 7716 6439 e477 2d38 bb83 9ab8
00000200: 833f b7b6 e9cc b138 5a3e 9c38 c08c 2838
00000210: b31d d337 65be 42b8 06e1 1638 0ae8 d2b6
00000220: a6d5 26b9 531d f6b6 e3d7 62b8 2c7e fc37
00000230: e419 a737 1d9f acb8 d00a 76b7 9bc2 4838
00000240: 42ed 0b37 98b0 db38 d3b4 3436 1e67 f7b7
00000250: 5634 1bb9 624d bd37 df9c 4138 e603 2438
00000260: fd1a c038 45e0 a738 21ae 67b7 d10d c237
00000270: d386 4a37 6e50 beb8 992b 70b8 dc35 0539
00000280: 5fcc 30b8 1233 d938 acc4 6ab8 1dd9 36b8
00000290: d627 35b9 8d9a c3b8 cef1 a5b7 5299 8e37
000002a0: 2ed3 c738 ed38 63b4 e4c7 a038 d61b 2a39
000002b0: 943a 0639 80ff 66b5 a5a5 ac35 2e89 8db8
000002c0: 7cc6 9bb8 a01f de35 e667 8db8 9265 b9b7
000002d0: 074a ad38 7d92 a038 ffad 31b8 843d 90b7
000002e0: a157 90b8 4ac8 bb37 89e6 f3b8 a6d6 fbb8
000002f0: b4b4 8037 9802 3cb7 da56 4b38 ed51 77b8
00000300: b37f 5838 9aa2 8cb8 083a 48b8 9357 4637
00000310: 36ed e138 8c3b f6b7 0d8d aeb8 9004 6838
00000320: 43ed 57bb f812 33bb 3f53 593d 4abf 0cb9
00000330: 755e a13d 8695 96bd c5cd ec3d 1496 783d
00000340: 9165 243d 7b84 d8bc 5e6b 423d cefa b03d
00000350: fb3b 5db8 191f 1c38 bfe1 56bc d53c 3638
00000360: 6801 94b6 4257 6ebd 3d02 13b8 c9fe dabd
00000370: 2923 c3be 15b4 a13c 7466 88b9 6b88 7ebb
00000380: 7b48 8b3d 7af0 443e 0d57 bfb7 e700 553e
00000390: 5c0a 9bb7 bfd4 bbbd 6d82 79bc a170 c437
000003a0: 951d 03bd 2e4e 7b3a 6fe9 d13d 97e5 8fbc
000003b0: d0f0 e13d 4371 8337 df2a 89bd ce62 cdbb
000003c0: 553b 41be 11ce c33d 3801 68bd 867b 3f3d
000003d0: 8994 5d3e 2cd4 fc3d 9313 703d 7f6e 08be
000003e0: 178c cd3d 67f4 b6bd 4423 e03b 32e2 24bd
000003f0: 768e eb3c 692e 3c3d b321 babc c727 073d

7.bias f4 [100]
-0.113727115 -0.053405523 0.07550315 -0.031654846 0.17680737 0.0053055948 0.11595654 0.042365
-0.07447318 -0.043551885 0.15804148 0.1637872 0.076435365 0.038773365 -0.0012882855 -0.0124283135
0.056574963 0.09146979 -0.053353295 0.0665942 -0.047295097 -0.047333065 -0.06002069 0.09457015
0.18192105 0.09482568 0.0038103436 -0.0484364 0.14475375 0.15572317 0.11602799 0.09387709
0.121660195 -0.029068332 0.095881 -0.059984744 0.18681042 -0.0013062789 -0.057549525 0.074046426
0.01370175 -0.022010934 0.1818772 0.04298262 0.05231861 -0.044019748 -0.073386736 0.06323814
0.13757597 0.14293858 -0.071561374 0.080136 -0.10484512 0.15177988 0.08252811 0.023769744
0.07244758 -0.09277693 0.13312684 -0.055703674 0.15190534 -0.013715789 0.23650612 0.13921978
0.17601015 0.18252462 -0.02919237 0.14091867 0.10112439 0.046825495 0.065158084 -0.034169465
3.4294306e-05 0.072986275 -0.018529132 -0.0014138715 -0.035788845 -0.10765434 0.06940325 0.052219447
-0.08189354 0.089873135 0.07068595 0.089015916 -0.08621325 -0.006876924 0.13219358 0.114399344
-0.04246106 -0.05382373 0.048418704 -0.024689715 -0.06666434 0.18348233 -0.058663283 -0.102131486
0.16069159 -0.09147818 -0.010719689 0.10521223
00000000: c3e9 e8bd c0bf 5abd 65a1 9a3d 83a8 01bd
00000010: fe0c 353e 8eda ad3b 9f7a ed3d ec86 2d3d
00000020: 6585 98bd 7663 32bd a0d5 213e d5b7 273e
00000030: 258a 9c3d d2d0 1e3d b0db a8ba 20a0 4bbc
00000040: 26bb 673d 8354 bb3d fc88 5abd 8a62 883d
00000050: 81b8 41bd 51e0 41bd 41d8 75bd ffad c13d
00000060: 8349 3a3e f733 c23d f5b6 793b 3f65 46bd
00000070: 543a 143e e575 1f3e 15a0 ed3d a242 c03d
00000080: fb28 f93d b620 eebc 425d c43d 90b2 75bd
00000090: 3b4b 3f3e 7237 abba 0db9 6bbd a7a5 973d
000000a0: 4e7d 603c 4650 b4bc 043e 3a3e 8b0e 303d
000000b0: 0a4c 563d 0d4e 34bd c94b 96bd ff82 813d
000000c0: b7e0 0c3e 7e5e 123e c58e 92bd 581e a43d
000000d0: 0ab9 d6bd 2f6c 1b3e 7f04 a93d c4b8 c23c
000000e0: 665f 943d d501 bebd 6752 083e 8929 64bd
000000f0: 138d 1b3e 30b8 60bc a92e 723e a18f 0e3e
00000100: 013c 343e bce7 3a3e d624 efbc fc4c 103e
00000110: 4e1a cf3d 17cc 3f3d 9a71 853d 48f5 0bbd
00000120: 3bd7 0f38 d479 953d 68ca 97bc a851 b9ba
00000130: 5397 12bd e179 dcbd 4b23 8e3d 0fe4 553d
00000140: cdb7 a7bd 680f b83d ccc3 903d fa4d b63d
00000150: 9390 b0bd d257 e1bb c15d 073e 344a ea3d
00000160: a6eb 2dbd 4676 5cbd b152 463d 1642 cabc
00000170: 5087 88bd cbe2 3b3e e948 70bd 502a d1bd
00000180: 568c 243e e958 bbbd a2a1 2fbc 8279 d73d

9.weight f4 [100, 100]
7.855612e-06 6.327382e-06 0.11415269 1.992643e-05 0.015210583 -0.030855495 -0.09684173 0.088425934
1.976854e-05 1.7702718e-05 -0.028120661 0.0120684765 0.111333854 -0.059297238 -0.08771087 0.0012455209
-0.066252686 -0.19582327 0.00026581337 0.11315136 -0.016039118 -0.00011228703 0.075331315 -0.034012254
-0.046400484 -0.058519598 -0.113208875 -4.8276266e-05 0.23579146 -0.029189914 -0.057452705 -0.056813248
-0.07366275 -0.048469115 0.20230249 1.1590986e-05 0.01723126 -0.013813208 -5.283805e-05 0.058992237
-0.050164457 -0.00010239776 0.10929854 0.080314375 0.18136604 0.12772088 0.00014571373 0.07448967
-0.0515094 0.16394259 -6.364051e-06 0.015378693 -7.031351e-05 -0.06956226 -0.017033745 -0.008929834
0.11710894 -4.1695133e-05 -0.033266157 -4.538315e-05 0.10525652 -0.059079003 0.10874159 0.106036924
-0.0012751593 0.011144586 0.03292416 -0.010718269 -0.052181672 0.06710982 0.08286702 -0.00024258727
-0.023264468 0.025631586 2.8967397e-05 0.092648886 -0.01127676 1.691269e-05 0.23961753 -0.0054919315
2.2527262e-05 -0.09470327 0.050908785 0.06189391 0.00012212232 3.232509e-05 -0.00031754086 -0.0113012185
0.00018784989 9.975326e-06 -0.06618394 -0.03233074 1.922467e-06 -0.08926912 -0.00012403002 9.424745e-05
0.13950005 0.00014379119 0.004832555 0.0025447009 0.0001120588 0.0002665563 9.258838e-05 1.0563689e-06
0.00011029965 8.66403e-05 1.4436543e-05 -8.354352e-05 2.1851056e-06 2.0568052e-05 0.00010155822 -0.000117836506
4.9041155e-05 0.00013399965 1.3447821e-05 -7.681097e-06 7.125174e-05 -3.7292654e-07 -1.5071249e-05 -3.925478e-05
-3.6779787e-05 -3.1026473e-05 5.307055e-05 5.2490057e-05 1.3889685e-05 1.9880747e-05 2.4294324e-05 -8.515814e-05
-1.4453681e-05 1.543486e-05 5.789042e-05 3.7431753e-05 1.13640845e-05 -2.6131482e-05 -0.0002371666 6.815134e-05
1.0889779e-05 4.7441852e-05 0.000121094294 6.398531e-05 -3.3345943e-05 2.3452598e-05 0.00010769893 -6.2859486e-05
-3.727253e-05 -1.0011104e-06 2.1851743e-05 -6.5651795e-05 5.1253643e-05 0.00013093288 -7.1690745e-05 2.9018854e-06
-1.8267694e-05 2.213902e-05 2.2925935e-05 -3.7643893e-08 0.0001110185 -7.242052e-07 -5.05102e-05 -0.00010575676
2.9983481e-05 7.6577286e-05 2.232938e-05 6.829637e-05 0.00013790814 -1.4898533e-05 -4.0969266e-05 1.0794464e-05
-1.9825442e-05 -5.5867244e-05 -2.6724703e-05 -1.4340223e-05 4.6462555e-05 -2.2149955e-07 -8.344762e-05 -2.3725628e-05
-4.581661e-05 6.547545e-05 5.584923e-05 4.0559226e-07 3.6873167e-05 -5.5442933e-06 -1.2463801e-05 -0.00013329163
-6.1977174e-05 5.3315318e-05 -6.8944873e-06 1.3440597e-05 -9.6271775e-05 3.4436664e-05 -6.214035e-05 3.0289923e-05
5.344664e-05 -9.032862e-06 -2.665079e-06 4.277795e-06 6.304192e-05 3.2024538e-05 8.697127e-05 -0.0001617102
0.000110584246 7.758354e-07 -2.0561814e-05 2.2412623e-06 0.00013643486 -8.634968e-06 8.1523154e-05 -1.9409925e-05
-1.8736528e-05 7.988951e-05 0.00010492583 5.826021e-05 8.3845145e-05 -6.1773055e-05 9.5489886e-05 -1.4637954e-05
7.580188e-05 0.0001222079 -4.976084e-06 -6.040589e-05 0.000105101215 2.60444e-05 -8.330049e-05 -4.763605e-05
-0.000127984 6.116659e-05 5.4544933e-05 -2.458647e-05 9.238179e-05 5.4330303e-05 8.391424e-05 8.973751e-05
9.555755e-06 3.4011457e-05 2.2567396e-05 2.8557726e-05 8.474617e-05 6.5538145e-05 -7.356016e-05 -1.1706829e-05
6.166846e-05 -7.88008e-05 4.707995e-06 2.8200962e-05 8.971719e-06 -3.857621e-05 1.441153e-06 7.567381e-05
4.052727e-05 -1.2046048e-05 0.00013963628 6.88997e-05 1.0521625e-05 -6.705578e-05 6.453579e-05 5.6829176e-05
00000000: 99cb 0337 cc4f d436 e3c8 e93d af27 a737
00000010: cf35 793c aac4 fcbc f554 c6bd a818 b53d
00000020: 9ed4 a537 4c80 9437 4d5d e6bc dcba 453c
00000030: 0103 e43d a9e1 72bd c2a1 b3bd bf40 a33a
00000040: 7daf 87bd e585 48be de5c 8b39 e6bb e73d
00000050: 7864 83bc a47b ebb8 4e47 9a3d 6f50 0bbd
00000060: 6f0e 3ebd 3fb2 6fbd 0eda e7bd 3f7c 4ab8
00000070: 5173 713e b01f efbc 8753 6bbd 02b5 68bd
00000080: 7fdc 96bd 8d87 46bd 6228 4f3e e876 4237
00000090: 9228 8d3c cb50 62bc 6d9e 5db8 d8a1 713d
000000a0: 3f79 4dbd 61be d6b8 ead7 df3d dd7b a43d
000000b0: 05b8 393e 43c9 023e bbca 1839 0a8e 983d
000000c0: 85fb 52bd 91e0 273e c88a d5b6 eaf6 7b3c
000000d0: 4775 93b8 a876 8ebd 5a8a 8bbc 704e 12bc
000000e0: d0d6 ef3d cfe1 2eb8 1842 08bd c959 3eb8
000000f0: bb90 d73d d3fc 71bd e9b3 de3d e329 d93d
00000100: 3f23 a7ba c897 363c 7cdb 063d ae9b 2fbc
00000110: 73bc 55bd e070 893d 2fb6 a93d 065f 7eb9
00000120: 2095 bebc 55f9 d13c 03ff f237 b3be bd3d
00000130: 29c2 38bc badf 8d37 4c5e 753e a9f5 b3bb
00000140: edf8 bc37 caf3 c1bd bb85 503d 7884 7d3d
00000150: f60d 0039 cd94 0738 9d7b a6b9 bf28 39bc
00000160: 92f9 4439 b35b 2737 728b 87bd 3d6d 04bd
00000170: bb03 0136 bad2 b6bd 0e0e 02b9 b7a6 c538
00000180: 1ad9 0e3e a7c6 1639 695a 9e3b ffc4 263b
00000190: 1c01 eb38 95c0 8b39 022c c238 8fc8 8d35
000001a0: ac50 e738 a8b2 b538 7b34 7237 1634 afb8
000001b0: d4a3 1236 8e89 ac37 a7fb d438 fe1e f7b8
000001c0: 8ab1 4d38 4282 0c39 f49d 6137 0fde 00b7
000001d0: fd6c 9538 a236 c8b4 86da 7cb7 80a5 24b8
000001e0: ff43 1ab8 6c22 02b8 1298 5e38 c528 5c38
000001f0: be07 6937 94c5 a637 aacb cb37 ee96 b2b8
00000200: 167e 72b7 1c7a 8137 5dcf 7238 0a00 1d38
00000210: 5fa8 3e37 ee34 dbb7 edaf 78b9 79ec 8e38
00000220: 3fb3 3637 4dfc 4638 01f4 fd38 da2f 8638
00000230: efdc 0bb8 12bc c437 6cdc e138 6ed3 83b8
00000240: 1355 1cb8 e45d 86b5 434e b737 8aae 89b8
00000250: 2ef9 5638 074b 0939 ad58 96b8 03be 4236
00000260: 933d 99b7 2fb7 b937 1251 c037 e6ad 21b3
00000270: 9ad2 e838 0167 42b5 eada 53b8 bac9 ddb8
00000280: 0985 fb37 1e98 a038 fa4f bb37 563a 8f38
00000290: 6f9b 1039 b6f4 79b7 6ad6 2bb8 df19 3537
000002a0: d04e a6b7 ff52 6ab8 dd2e e0b7 ca96 70b7
000002b0: cae0 4238 55d5 6db4 9a00 afb8 6606 c7b7
000002c0: 362b 40b8 dd4f 8938 a73f 6a38 2dc0 d934
000002d0: 43a8 1a38 1e09 bab6 9e1b 51b7 33c4 0bb9
000002e0: bef9 81b8 e39e 5f38 3257 e7b6 ed7e 6137
000002f0: 84e5 c9b8 1670 1038 5951 82b8 1d17 fe37
00000300: e52b 6038 d98b 17b7 b5d9 32b6 fb89 8f36
00000310: 6035 8438 1652 0638 5864 b638 c090 29b9
00000320: 77e9 e738 0143 5035 297c acb7 9868 1636
00000330: f40f 0f39 e8de 10b7 69f7 aa38 7fd2 a2b7
00000340: 632c 9db7 5b8a a738 a00b dc38 6d5c 7438
00000350: 05d6 af38 288c 81b8 be41 c838 8995 75b7
00000360: d3f7 9e38 ef24 0039 3cf8 a6b6 555c 7db8
00000370: c969 dc38 ec79 da37 9cb1 aeb8 d2cc 47b8
00000380: 7233 06b9 9046 8038 2dc7 6438 0b3f ceb7
00000390: 19bd c138 b8e0 6338 1dfb af38 7531 bc38
000003a0: a851 2037 86a7 0e38 1d4f bd37 408f ef37
000003b0: c1b9 b138 8671 8938 4f44 9ab8 7368 44b7
000003c0: 0154 8138 db41 a5b8 5ef9 9d36 1b91 ec37
000003d0: 3d85 1637 e4cc 21b8 a46d c135 11b3 9e38
000003e0: d3fb 2938 6219 4ab7 546b 1239 3f7e 9038
000003f0: 0986 3037 4ca0 8cb8 6357 8738 dd5b 6e38

9.bias f4 [100]
0.081087925 -0.04291249 -0.051086478 -0.073724106 0.13425326 -0.049131103 0.13557322 0.10936326
0.0042000175 0.107853174 -0.14434302 0.12945351 -0.09851848 -0.05119067 -0.05605988 0.10714799
0.28936476 -0.1004387 -0.029724268 0.016352775 -0.04937184 0.29529825 0.18286005 -0.037920814
-0.04328244 -0.045097053 -0.11135126 -0.07860434 -0.07682353 -0.0062875496 -0.009110581 0.056173433
-0.08423302 0.09510038 0.04008992 -0.10667619 -0.01988171 -0.01704959 -0.093531884 -0.09409683
0.0072116554 -0.09810204 -0.06610836 -0.03400953 -0.059772577 -0.102064274 0.14105454 -0.058958914
-0.0401129 -0.086291894 0.15415405 -0.020414451 -0.09957546 0.07816934 -0.08951936 0.025214687
0.04425959 -0.11106175 -0.0055018184 -0.07708352 -0.089123756 0.20606403 0.011917753 0.16353376
-0.048563547 0.19935854 0.14855951 0.21997967 -0.061235715 0.12826183 0.041634038 0.03478296
0.16921164 0.14306065 -0.035358224 -0.040369064 0.030002825 0.11680353 0.12128527 0.029012091
-0.09502432 0.13442619 0.0757964 -0.09529642 -0.04076682 0.047830924 0.04656576 -0.0738055
-0.06971098 -0.016669415 -0.08470715 -0.057554517 0.12787023 0.068595216 -0.032144707 0.11079834
-0.09917952 0.16536647 0.054301362 -0.014776839
00000000: 6d11 a63d 02c5 2fbd 0e40 51bd aafc 96bd
00000010: b079 093e b23d 49bd b5d3 0a3e d8f9 df3d
00000020: 4da0 893b 20e2 dc3d a8ce 13be 768f 043e
00000030: 0fc4 c9bd 4fad 51bd 0b9f 65bd 6870 db3d
00000040: 9e27 943e ceb2 cdbd 4f80 f3bc 41f6 853c
00000050: 203a 4abd 5531 973e aa3f 3b3e db52 1bbd
00000060: ee48 31bd b0b7 38bd 210c e4bd 50fb a0bd
00000070: a855 9dbd ca07 cebb 8c44 15bc 1d16 663d
00000080: 5d82 acbd fdc3 c23d 5435 243d 0c79 dabd
00000090: f8de a2bc 95ab 8bbc a58d bfbd d7b5 c0bd
000000a0: c04f ec3b b9e9 c8bd d263 87bd 944d 0bbd
000000b0: 17d4 74bd 1307 d1bd 9a70 103e e77e 71bd
000000c0: 6d4d 24bd ceb9 b0bd 8fda 1d3e 353c a7bc
000000d0: 38ee cbbd 3f17 a03d ed55 b7bd 088f ce3c
000000e0: 8b49 353d 5874 e3bd 9948 b4bb f7dd 9dbd
000000f0: 8486 b6bd 7302 533e ae42 433c 6575 273e
00000100: 92ea 46bd a524 4c3e fc1f 183e 5a42 613e
00000110: 4dd2 7abd 1257 033e 7488 2a3d 9478 0e3d
00000120: d145 2d3e 7e7e 123e c9d3 10bd 085a 25bd
00000130: 7cc8 f53c b036 ef3d 6964 f83d c4aa ed3c
00000140: 1c9c c2bd 05a7 093e 253b 9b3d c52a c3bd
00000150: 1cfb 26bd 5cea 433d bdbb 3e3d 5727 97bd
00000160: a1c4 8ebd 4c8e 88bc f17a adbd 49be 6bbd
00000170: 6af0 023e a67b 8c3d 2baa 03bd 3dea e23d
00000180: a21e cbbd d455 293e 1b6b 5e3d 8e1a 72bc
