models/mnist_fc_linear.pt (torch, 182031 bytes, 8 tensors)

1.weight f4 [50, 784]
0	0x3702a7eb	7.7877e-06
1	0xb617b445	-2.2605684e-06
2	0x37dd1d16	2.6358797e-05
3	0xb50cc38e	-5.2438634e-07
4	0x3752a493	1.2555293e-05
5	0x361e2f82	2.3571488e-06
6	0xb5da99cb	-1.6287025e-06
7	0x379af0bd	1.8470333e-05
8	0x37d860ea	2.5794336e-05
9	0xb6f0fabc	-7.1817467e-06
10	0x3752c4df	1.2562813e-05
11	0x36bce0e2	5.6290164e-06
12	0xb5da5440	-1.6266786e-06
13	0x37153f46	8.895824e-06
14	0x370f98f8	8.55908e-06
15	0xb4ab52ca	-3.191147e-07
16	0x37b597db	2.1647595e-05
17	0x37b5b145	2.1659429e-05
18	0x37123c3a	8.716301e-06
19	0x37c23952	2.3153294e-05
20	0x37c78d8e	2.3788565e-05
21	0x3791e559	1.7392145e-05
22	0x37a13037	1.9215147e-05
23	0x37a807dd	2.0030822e-05
24	0xb50df69d	-5.288546e-07
25	0xb71acc3f	-9.22667e-06
26	0x36bbc396	5.5958035e-06
27	0x376fc6a1	1.4291757e-05
28	0x376a867b	1.3978798e-05
29	0x377f2629	1.5208069e-05
30	0x370679b9	8.015363e-06
31	0x3720f6ab	9.594175e-06
32	0x3786ce83	1.607021e-05
33	0x364a7258	3.0166902e-06
34	0xb6b88b9a	-5.499879e-06
35	0x376b515f	1.4026037e-05
36	0x3702eae1	7.803291e-06
37	0x3841283b	4.6052253e-05
38	0x363a45c6	2.7756773e-06
39	0x374d955f	1.225373e-05
40	0x3616777a	2.2421286e-06
41	0x37db58bc	2.6148155e-05
42	0x34daa2df	4.0724169e-07
43	0x37a07067	1.9125828e-05
44	0x37e29b1c	2.7013528e-05
45	0x379a52b7	1.8396748e-05
46	0x37d22e04	2.5055379e-05
47	0xb6acec34	-5.153497e-06
48	0x36d6d03e	6.4019396e-06
49	0x36990d84	4.5613288e-06
50	0x364219c7	2.8923257e-06
51	0x379a5eee	1.8402436e-05
52	0xb704595b	-7.888618e-06
53	0xb53bc94c	-6.9955854e-07
54	0xb691deb3	-4.3472623e-06
55	0x37bbbb96	2.2379489e-05
56	0xb6cab8a4	-6.041564e-06
57	0xb6143f63	-2.2090614e-06
58	0x3763ad9c	1.3570676e-05
59	0x37353145	1.0799912e-05
60	0x3765d0a6	1.3698043e-05
61	0x36e68b95	6.8707836e-06
62	0x35a475d8	1.2253249e-06
63	0x37ec095f	2.8137756e-05
64	0x37b7674a	2.1863398e-05
65	0xb8302b93	-4.200225e-05
66	0x382779d4	3.9929364e-05
67	0x380f3230	3.4140598e-05
68	0x39144cd5	0.00014143002
69	0x39b1a1c0	0.00033880584
70	0x3967b95f	0.00022098933
71	0x39683c27	0.00022147653
72	0x39704d8d	0.00022917074
73	0x389c0ab8	7.440656e-05
74	0x3913e94b	0.00014105921
75	0x39056bbc	0.00012724003
76	0x34901a04	2.684102e-07
77	0x37348dd8	1.0761862e-05
78	0x36b2ef18	5.3326476e-06
79	0x37a2714d	1.9364665e-05
80	0x36a3be5f	4.8799407e-06
81	0x378add63	1.6553973e-05
82	0xb70ec633	-8.510006e-06
83	0x37799d51	1.4878185e-05
84	0x37474d32	1.1879298e-05
85	0x3743c3d9	1.1668505e-05
86	0x3744cf91	1.1730838e-05
87	0x3799ee0c	1.834987e-05
88	0x372a5e9b	1.0154817e-05
89	0x3778e35e	1.483489e-05
90	0x373d76c0	1.12929265e-05
91	0x37e69f6c	2.7492373e-05
92	0x3914de21	0.0001419713
93	0x372a7bb7	1.0161594e-05
94	0xb818f9cb	-3.6472262e-05
95	0xb90ca13b	-0.00013411503
96	0xb902f0e8	-0.0001248751
97	0x39795e75	0.00023781678
98	0x3ac60b1a	0.001510951
99	0x3d203044	0.03910853
100	0x3c69e6d0	0.014276221
101	0x3dff31be	0.124606594
102	0x3dd8ebcf	0.10591852
103	0x3e3b3d0f	0.18285011
104	0x3a94981d	0.0011336837
105	0x39b04a9e	0.0003362493
106	0xb8197c96	-3.6594072e-05
107	0xb74f47d7	-1.2354888e-05
108	0x37e747b1	2.757073e-05
109	0x378eabc8	1.7007711e-05
110	0x37d598f6	2.5462807e-05
111	0xb5fcc3be	-1.8832432e-06
112	0x3752ff6c	1.2576445e-05
113	0x37c37321	2.3299423e-05
114	0x37885090	1.6249978e-05
115	0xb69e6dbe	-4.7215426e-06
116	0x36972dad	4.505468e-06
117	0x373085a3	1.0521532e-05
118	0xb84b18dc	-4.8422124e-05
119	0x38ac72d0	8.2229846e-05
120	0xb9782fae	-0.00023668885
121	0xba34efba	-0.0006902177
122	0xbc55518f	-0.013019933
123	0xbcc70085	-0.02429224
124	0xbd70c319	-0.05877981
125	0xb95e8aa7	-0.00021223222
126	0xb9424a5d	-0.00018528984
127	0xb9621792	-0.0002156182
128	0xb92531cb	-0.00015754176
129	0x391ef17d	0.00015158016
130	0x3a0da16d	0.00054027775
131	0x3d8dcaf3	0.06923475
132	0x3dc204a5	0.09473542
133	0x3aa01d18	0.0012215702
134	0x395ab227	0.00020856467
135	0x37e6bf05	2.7507087e-05
136	0x38a22581	7.7317476e-05
137	0x38319989	4.234308e-05
138	0xb7968145	-1.794159e-05
139	0xb6c3d221	-5.835915e-06
140	0x3791bc64	1.7373073e-05
141	0x371b787f	9.266775e-06
142	0x35ed431b	1.7677406e-06
143	0x358b6e65	1.0388436e-06
144	0xb75595c9	-1.2730664e-05
145	0xb928296c	-0.0001603716
146	0x38a4e59f	7.8629e-05
147	0xb98410dd	-0.00025189566
148	0xba62168e	-0.0008624577
149	0xbdc589ea	-0.09645446
150	0xbd67c252	-0.056581803
151	0xbde57825	-0.112045564
152	0xbdae9c77	-0.08525937
153	0xbdc47b7d	-0.09593866
154	0xbce03117	-0.027367158
155	0xbd3ee061	-0.046600703
156	0xbcebe0c5	-0.028793702
157	0xb908c41d	-0.00013043029
158	0x3a4fdc2e	0.00079292327
159	0x3a1e8474	0.0006046959
160	0x3be4be00	0.0069806576
161	0x3cb004d7	0.021486683
162	0xba0c86b4	-0.00053606485
163	0xb87c1e6d	-6.0109818e-05
164	0x3935ddc7	0.00017344124
165	0x38d6cb50	0.00010242185
166	0x380fdbea	3.4298668e-05
167	0x36aa235c	5.070511e-06
168	0xb6ce7534	-6.1529227e-06
169	0x3764a3b3	1.3627973e-05
170	0x3491391a	2.7049902e-07
171	0x37aef828	2.0857973e-05
172	0x37888b11	1.6277221e-05
173	0xb7f1111f	-2.8737411e-05
174	0xb82ae7a7	-4.07469e-05
175	0xbc614062	-0.01374826
176	0xbd71abd9	-0.059001777
177	0xbd80b3d4	-0.062842995
178	0xbd41627c	-0.047213063
179	0xbd0e7cde	-0.03478705
180	0xb9687e1d	-0.00022172225
181	0xbd67507c	-0.05647324
182	0xbd208289	-0.039186988
183	0xbd37d573	-0.044881295
184	0xbca2dbc5	-0.019880185
185	0xbc09107e	-0.008365748
186	0x37d47057	2.5324682e-05
187	0xbad93479	-0.0016571424
188	0xbbd9b6ab	-0.00664409
189	0x395abe0f	0.00020860902
190	0x390d7e9e	0.00013493976
191	0xbd13dfd2	-0.036102124
192	0xb9d7f42e	-0.00041189924
193	0x39526d01	0.00020067768
194	0x37145f4e	8.843677e-06
195	0x36e56b03	6.8371896e-06
196	0x38152845	3.5561872e-05
197	0x372ef3cd	1.04279725e-05
198	0x37c24e19	2.316297e-05
199	0xb8ecef0b	-0.00011297882
200	0xb72d934c	-1.0345899e-05
201	0xb6a92c35	-5.041739e-06
202	0xb9b7dcd2	-0.00035069004
203	0xb98d52c1	-0.00026955272
204	0xbd8851dd	-0.06656239
205	0xbbd3ddfd	-0.006465672
206	0xbdc8e56d	-0.098093845
207	0xbd47c639	-0.048773024
208	0xbe05cb79	-0.130659
209	0xbe0621c0	-0.13098812
210	0xbde2e764	-0.110792905
211	0xbd95b461	-0.07309795
212	0xbe1f304b	-0.15545766
213	0xbd963a39	-0.07335324
214	0xbd33ce94	-0.04389818
215	0xbdbd8702	-0.09254266
216	0xbd9b4ad3	-0.07582631
217	0xbe095ba7	-0.13413869
218	0xbd4ed0a9	-0.050491963
219	0xbd63a3a4	-0.05557598
220	0xbca2478d	-0.019809509
221	0x398c0ddf	0.00026713216
222	0x36ddb4f9	6.6073812e-06
223	0x3781edee	1.5488793e-05
224	0xb6e313d9	-6.7674378e-06
225	0x376ce4a2	1.4119929e-05
226	0xb7a8570b	-2.0067693e-05
227	0x3740e3de	1.1497146e-05
228	0xb8553464	-5.083195e-05
229	0xb8396962	-4.4205583e-05
230	0xba06fe22	-0.0005149563
231	0x380b8c41	3.3270804e-05
232	0xb6fbf947	-7.5094026e-06
233	0xbcc4274d	-0.023944521
234	0xbdd88049	-0.105713435
235	0xbd3c886e	-0.046028547
236	0xbd2e6282	-0.042574413
237	0xba26976e	-0.0006354962
238	0xbe10b1d1	-0.14130332
239	0xbd9df883	-0.077134155
240	0xbcedaa6e	-0.029011931
241	0xbc660afc	-0.014040705
242	0xbe7fa214	-0.24964172
243	0xbe52ec90	-0.20598054
244	0xbe502f37	-0.20330511
245	0xbe04e736	-0.12978825
246	0xbd861311	-0.065466054
247	0xbddfff83	-0.10937407
248	0xbd871b53	-0.065970086
249	0xb8b7124c	-8.729528e-05
250	0x37877b81	1.6150765e-05
251	0x36ded0b6	6.6404127e-06
252	0x3807e953	3.240381e-05
253	0xb6997afd	-4.574073e-06
254	0x37ad8ee2	2.0689742e-05
255	0x37865afb	1.601641e-05

1.bias f4 [50]
0	0x3da50694	0.08057895
1	0x3bc5a194	0.0060312245
2	0x3efa20e3	0.48853216
3	0x3c940f64	0.018073745
4	0x3e1e108f	0.15436004
5	0xbbd038e1	-0.0063544367
6	0xbdeb9dee	-0.11504732
7	0x3e2be11e	0.16785094
8	0xbe8f5ab0	-0.27998877
9	0x3eb5d990	0.3551755
10	0xbebe609b	-0.3718308
11	0xbd1eb171	-0.03874344
12	0x3be9bca5	0.007133084
13	0xbbc5be1c	-0.0060346257
14	0x3e32d684	0.17464644
15	0xbe9744be	-0.29544634
16	0xbbc7cab9	-0.0060971645
17	0xbe774768	-0.24148333
18	0xbe50e70a	-0.20400634
19	0xbda046e0	-0.07826018
20	0x3d8e57b2	0.0695032
21	0xbe3a1451	-0.18171813
22	0xbcd7cc17	-0.026342435
23	0x3e8c44cf	0.27396247
24	0xbeb6faf3	-0.35738334
25	0x3d6656c2	0.056235082
26	0x3e8a9617	0.27067634
27	0xbbc16349	-0.0059017283
28	0xbbc6e441	-0.0060696905
29	0x3bb6c5c0	0.005577773
30	0xbcd75865	-0.026287267
31	0xbe8884a8	-0.2666371
32	0x3e4aefb5	0.19818003
33	0xbdebbffd	-0.11511228
34	0xbe903ef2	-0.28173023
35	0x3e04d363	0.12971263
36	0xbbc73ba4	-0.0060801078
37	0x3e5bfc13	0.21482877
38	0xbe7c6979	-0.2464961
39	0xbe94c37e	-0.290554
40	0x3d4d1fa8	0.050079018
41	0xbbd43e2d	-0.0064771385
42	0x3dbf4ba7	0.093406014
43	0xbe115f61	-0.1419654
44	0x3bcb5be8	0.0062060244
45	0x3e636990	0.22208238
46	0xbbd243eb	-0.006416788
47	0xbec5e6ba	-0.38652593
48	0x3e1d0e7b	0.15337555
49	0xbe21e905	-0.15811546

2.weight f4 [50, 50]
0	0x38b97a36	8.844251e-05
1	0x37fe9091	3.0346479e-05
2	0x3dd500d8	0.104005516
3	0x3d97f0d3	0.074189804
4	0xbe00b143	-0.1256762
5	0x37274828	9.970776e-06
6	0xbe20cb78	-0.15702617
7	0xb7c1d92c	-2.3108521e-05
8	0xb992fba7	-0.00028034786
9	0x3dff5d05	0.12468914
10	0xb9492678	-0.00019183184
11	0xbd7cc5ad	-0.061711956
12	0xb78ea3d5	-1.700401e-05
13	0x381eb097	3.7834598e-05
14	0xbe08fd7d	-0.13377948
15	0x3ba53403	0.0050416007
16	0x3806c78b	3.213393e-05
17	0xbe47d3b4	-0.19514352
18	0xba71f125	-0.0009229354
19	0xbc16adb9	-0.009196692
20	0xb98acad0	-0.00026472518
21	0x395297e4	0.00020083744
22	0xb934afda	-0.00017231648
23	0xb89606ea	-7.153845e-05
24	0x3d0e2251	0.034700695
25	0xbcb2b477	-0.021814568
26	0xbc4c6ef8	-0.012477629
27	0x38056c71	3.1810665e-05
28	0xb76af785	-1.4005117e-05
29	0x367165e9	3.5971118e-06
30	0xbd8edc36	-0.06975596
31	0x397264b6	0.00023116436
32	0x3d7d9e80	0.061918736
33	0xbc0faf10	-0.0087697655
34	0xbd312819	-0.04325113
35	0x3b992f1d	0.004674806
36	0xb6be5b1a	-5.673047e-06
37	0x39a9b9a9	0.0003237252
38	0x3a147070	0.00056625064
39	0x39fb1e76	0.00047897146
40	0x36a9f11a	5.0646604e-06
41	0x37cec461	2.464856e-05
42	0x3e38f6b4	0.1806286
43	0xbc45f6a3	-0.012082729
44	0xb6da87d9	-6.512721e-06
45	0xb98537aa	-0.0002540921
46	0x37bd7b45	2.2587958e-05
47	0x3d116a1e	0.03550159
48	0x3cb8aac5	0.022542367
49	0xb9244436	-0.0001566567
50	0xbe06a3b4	-0.13148385
51	0xb79dd77f	-1.8816207e-05
52	0xbdcda531	-0.100412734
53	0x3df28ee8	0.118436635
54	0xbb70f87e	-0.0036769207
55	0xb76e25fa	-1.4194748e-05
56	0xbe97a043	-0.29614457
57	0x3e276f92	0.16351154
58	0xbe775cf6	-0.24156556
59	0x3d3529d4	0.044229344
60	0x3b955a37	0.0045578736
61	0xbc061468	-0.008183576
62	0x3717fa29	9.058546e-06
63	0x37d2571f	2.507452e-05
64	0xbabe5643	-0.0014521558
65	0xbdab21d0	-0.083560586
66	0x37a14e89	1.9229266e-05
67	0xba0d9371	-0.00054006936
68	0xbd4ee58c	-0.05051188
69	0x3afabfab	0.0019130608
70	0x3dd06e6e	0.10177313
71	0x3a2074b2	0.00061209046
72	0xba3ad94e	-0.0007127718
73	0xb8705808	-5.7302444e-05
74	0x3b8ab67a	0.0042331787
75	0xb71fe314	-9.530009e-06
76	0x3d2038a5	0.03911652
77	0x381ad692	3.6916295e-05
78	0xb6cac5b1	-6.0430834e-06
79	0xb74d73f5	-1.22459505e-05
80	0xbdec8112	-0.11548056
81	0x3db36f10	0.08761418
82	0xbd811c83	-0.06304266
83	0xbe2594e0	-0.16170073
84	0x396d9a9b	0.00022659676
85	0xbd669298	-0.056292146
86	0x381a130a	3.6734193e-05
87	0xbe0e829d	-0.13917013
88	0xbd42352f	-0.047414
89	0xbca6985d	-0.020336324
90	0x3d1326c4	0.03592564
91	0x37895930	1.6373204e-05
92	0xbe4bbdc3	-0.19896607
93	0xbdd22093	-0.10260119
94	0xb7f9173d	-2.9693934e-05
95	0x3d91fec7	0.07128673
96	0xb71ee818	-9.471572e-06
97	0x3d1fab44	0.03898169
98	0xba7b2b26	-0.000958132
99	0x3d8328fe	0.06404303
100	0x3d23dd69	0.040006075
101	0x3804e8ec	3.1688178e-05
102	0xbcbc2cad	-0.022970522
103	0x3e0d76be	0.13814828
104	0xbde54520	-0.11194825
105	0xb87ad1ef	-5.980016e-05
106	0xbc0e58c9	-0.00868816
107	0xbd8bdcd8	-0.06829232
108	0xbe326021	-0.17419483
109	0x3ce0b096	0.027427953
110	0x3c2d366f	0.01057206
111	0xbd48466b	-0.04889528
112	0xb6784796	-3.6996548e-06
113	0xb80bfcb9	-3.337555e-05
114	0xbe03a490	-0.12855744
115	0x3d8d13fd	0.06888578
116	0x36f8727e	7.4043046e-06
117	0x3cb7d5d7	0.022440834
118	0xbdd6f888	-0.10496622
119	0xbddd4864	-0.10804823
120	0xbdd67e6b	-0.10473331
121	0x3a048c2c	0.00050562876
122	0xb95da488	-0.00021137495
123	0xb6d0b663	-6.2201157e-06
124	0xb83c6cea	-4.4924127e-05
125	0x37f6214b	2.9340988e-05
126	0x3ac3243f	0.0014888122
127	0xb82d3024	-4.129125e-05
128	0xb7c4ae7c	-2.3446271e-05
129	0x381dfd87	3.7667833e-05
130	0xbe331b9c	-0.17491001
131	0x3e34221b	0.17591135
132	0xba9a64dd	-0.0011779327
133	0xbd536643	-0.051611196
134	0x3e1d748c	0.1537649
135	0x3dd655ca	0.10465582
136	0xb7bde23b	-2.2635902e-05
137	0x3d9b6612	0.07587828
138	0x3ddaeffc	0.10690305
139	0x3e151b57	0.1456121
140	0xbcb141ef	-0.021637885
141	0xb7c2bcba	-2.3214485e-05
142	0x3e3ee0be	0.1864042
143	0xbdeb3d67	-0.11486321
144	0x38007a23	3.0631327e-05
145	0xbb9f9bdd	-0.0048708753
146	0xb82dcb8d	-4.1435986e-05
147	0x39368b39	0.00017408737
148	0x3d826830	0.063675284
149	0xba1ef279	-0.0006063353
150	0x3d522fca	0.051315106
151	0x37d633d3	2.553492e-05
152	0x39658914	0.00021890207
153	0x390207fa	0.00012400738
154	0xb9ca7f8b	-0.0003862347
155	0xb7e30054	-2.7060662e-05
156	0x3d9c9cfa	0.076471284
157	0x3cf77577	0.030207379
158	0x3e1745cb	0.14772718
159	0x3bda0b67	0.0066541913
160	0x3bd6d6ba	0.006556359
161	0x394ac50e	0.0001933763
162	0x37a31010	1.9438594e-05
163	0x3586c5f9	1.0041396e-06
164	0x38393716	4.415874e-05
165	0xb92adae2	-0.00016294004
166	0xb743e246	-1.1675589e-05
167	0xba080dac	-0.00051900255
168	0x37696d35	1.3913309e-05
169	0x3dc42bfc	0.09578702
170	0x395e0862	0.00021174693
171	0x39cd3f62	0.0003914787
172	0xb8ea7936	-0.00011180567
173	0xb98e2a9a	-0.0002711609
174	0x3d8ed415	0.06974045
175	0x38f0618a	0.0001146226
176	0xbe209883	-0.15683179
177	0xb6cbd289	-6.074381e-06
178	0xb7701fc0	-1.4312507e-05
179	0x36a14116	4.805751e-06
180	0xbde1da0c	-0.11027917
181	0xb9958599	-0.00028519033
182	0xbd339c40	-0.043850183
183	0x3c55a37d	0.013039467
184	0x3dc187c7	0.094497256
185	0xb9014770	-0.00012329011
186	0xb81fb4ea	-3.8077043e-05
187	0xbd53d029	-0.05171219
188	0xb996b3e6	-0.00028744264
189	0xb9650eaa	-0.00021844605
190	0xb9a2550c	-0.00030962413
191	0xb7fd28c4	-3.0178933e-05
192	0xbd3f100b	-0.04664616
193	0x39b70f86	0.00034916046
194	0x380d8012	3.3736294e-05
195	0xbcf78918	-0.030216739
196	0xb7892221	-1.6347565e-05
197	0x3996d3cb	0.00028768028
198	0xb93b2506	-0.00017847502
199	0x39cc69a5	0.00038988623
200	0xbe5f54ce	-0.21809694
201	0xb8ba5d8a	-8.886594e-05
202	0x39231549	0.0001555282
203	0xba29f4e7	-0.00064833317
204	0x3e31fccf	0.17381595
205	0x38a0f6c3	7.6753575e-05
206	0xba0efb17	-0.00054542854
207	0xba2bceb9	-0.00065539364
208	0xbd5bc906	-0.053658508
209	0xbccf41d7	-0.02529995
210	0xb8fe4f8a	-0.00012126479
211	0xbcb284f2	-0.021791909
212	0xb89595cc	-7.1327755e-05
213	0x389d2f87	7.495196e-05
214	0xb92d8118	-0.00016546657
215	0xbd318e85	-0.043348808
216	0x38a5e2e7	7.910077e-05
217	0x3bd0fdb9	0.0063779023
218	0x3e3fba77	0.18723474
219	0x3e2b288a	0.16714683
220	0x3df87ab4	0.12132779
221	0x3da530aa	0.080659226
222	0x3937be4c	0.00017523131
223	0x388f8506	6.843549e-05
224	0xbd6d2db4	-0.057904914
225	0x3d98f83d	0.07469223
226	0x3e1d6868	0.15371859
227	0x38c177a0	9.225239e-05
228	0x38997bfd	7.318703e-05
229	0xb8a81ff5	-8.016817e-05
230	0x3d1b712b	0.037949722
231	0x3c7a4c1e	0.015276937
232	0x3e22f155	0.15912373
233	0xbda9753f	-0.08274316
234	0xbdfa5822	-0.12223841
235	0xbdc933c6	-0.09824328
236	0x38a5a613	7.898747e-05
237	0xb98dc2e4	-0.0002703882
238	0xb9bfa2f4	-0.00036551768
239	0xbd3b1d62	-0.04568232
240	0xbc4ca8b2	-0.012491392
241	0x38cd9279	9.8024444e-05
242	0xbe0d4b57	-0.13798271
243	0x3a4f0274	0.0007896789
244	0xb8cf67d1	-9.8898665e-05
245	0x3e75c406	0.24000558
246	0x38ba3532	8.8790795e-05
247	0xbe0cace9	-0.13737835
248	0xbc42c7c4	-0.011888448
249	0xbe0f1d47	-0.13976012
250	0xbd6e5806	-0.058189414
251	0x38126d3c	3.4910845e-05
252	0xbe85acf0	-0.26108503
253	0xb9b1f090	-0.00033939304
254	0xbe1951ee	-0.1497266
255	0xb5e00fd7	-1.669391e-06

2.bias f4 [50]
0	0x3e5db222	0.21649984
1	0x3e5fd92c	0.21860188
2	0xbdfb14dc	-0.12259838
3	0xbe6d1e96	-0.23156199
4	0x3e63e47d	0.2225513
5	0xbe8a1abc	-0.26973522
6	0x3e12f054	0.1434949
7	0x3ec2d25c	0.38051116
8	0xbdb1bfde	-0.08679174
9	0x3d10212d	0.03518789
10	0xbed9e09a	-0.4255417
11	0x3e963c46	0.2934286
12	0x3d5dc359	0.054141376
13	0x3cb50028	0.022094801
14	0xbace4ada	-0.001573886
15	0xbe02eda4	-0.12785965
16	0x3e85c52c	0.26126993
17	0xbe86920f	-0.2628331
18	0x3e927dcf	0.2861161
19	0xbe435b7e	-0.1907787
20	0xbe8640bc	-0.26221263
21	0x3e94dc73	0.2907444
22	0x3c0690ab	0.0082132025
23	0x3cd1ca8a	0.025609273
24	0x3d37c475	0.04486509
25	0xbd87e3fe	-0.06635283
26	0x3e60e24b	0.21961324
27	0xbe9cef0e	-0.30651134
28	0x3e912488	0.28348184
29	0x3bec059f	0.0072028185
30	0x3e301a55	0.17197545
31	0x3d9be29e	0.07611583
32	0xbe936a56	-0.28792065
33	0xbdd60ab7	-0.104512624
34	0xbd82f151	-0.06393684
35	0xbe910109	-0.28321102
36	0xbcc360ce	-0.023849871
37	0x3e198da7	0.14995442
38	0xbe47282d	-0.1944892
39	0xbd26ee8b	-0.040754836
40	0xbd120587	-0.035649803
41	0xbd590da6	-0.05299153
42	0x3d00cd89	0.031446014
43	0xbe1dbf05	-0.154049
44	0x3dd69b42	0.10478832
45	0xbe13daa7	-0.14438878
46	0xbe96a1c5	-0.29420295
47	0xbe2d9d3c	-0.16954511
48	0x3df3d406	0.11905675
49	0x3e1dfb62	0.15427926

3.weight f4 [50, 50]
0	0xbc4985f2	-0.012300001
1	0x3da453dc	0.080238074
2	0x3d1ced7d	0.038312424
3	0xbd9682ea	-0.073491886
4	0x3e2bb236	0.16767201
5	0xbe1d19d0	-0.15341878
6	0x3cd85919	0.026409673
7	0xbddddb0e	-0.10832797
8	0xba2e375f	-0.0006645824
9	0xb9d11775	-0.00039881063
10	0xbb456566	-0.0030120253
11	0xbdc50dfc	-0.09621808
12	0xb987816b	-0.0002584563
13	0x3b058b9d	0.0020377405
14	0x3de2ab3d	0.11067817
15	0xbd6236ae	-0.055227928
16	0xb9131077	-0.00014025146
17	0xbdc8c2da	-0.0980279
18	0x3cd20463	0.025636857
19	0xbd962168	-0.073305905
20	0xbe629a5e	-0.22129199
21	0xbde2cb28	-0.11073905
22	0x37f728a0	2.9463612e-05
23	0x38c11df7	9.2085385e-05
24	0xbd9222c8	-0.0713554
25	0xba1d63ff	-0.0006003975
26	0xbe13d934	-0.14438325
27	0x3ab430cb	0.0013747452
28	0xbd9549f7	-0.07289498
29	0xbe149b25	-0.14512308
30	0xbdaa75b4	-0.08323231
31	0x39810821	0.00024610854
32	0x3a02bd38	0.0004987302
33	0x3e3f4c89	0.1868154
34	0xbd8b69b7	-0.06807273
35	0x3910a571	0.00013794542
36	0x3d9e7982	0.077380195
37	0x3d8fc73d	0.070204236
38	0x39891199	0.00026143788
39	0xbd9c581c	-0.07633993
40	0x3cc4a51e	0.024004515
41	0x3d6883d4	0.056766346
42	0x3dc9ff0e	0.09863101
43	0x3e8bef87	0.27331182
44	0xbe0322ab	-0.12806194
45	0x39806fda	0.00024497398
46	0xbca69440	-0.020334363
47	0xbde33f49	-0.11096055
48	0xbe6c7293	-0.23090582
49	0xbd93e487	-0.072213225
50	0x3c752bfb	0.014964099
51	0x3debd7b1	0.11515749
52	0x398b5d95	0.0002658187
53	0xba178bef	-0.00057810446
54	0x3d19d9c5	0.037561197
55	0xbbbf90b5	-0.005846108
56	0x3dbfa04d	0.09356747
57	0x3922c01b	0.00015521089
58	0xb935ef69	-0.00017350692
59	0x3c6f196f	0.014593466
60	0xbe336cc7	-0.17521964
61	0x3dca10f4	0.09866515
62	0x3e4d397c	0.2004146
63	0xb920ab70	-0.00015322655
64	0xbd82d070	-0.063874125
65	0x3d838614	0.06422058
66	0xb76ea2ec	-1.4223839e-05
67	0x39754b73	0.00023393128
68	0x3d8856b9	0.06657166
69	0x3a0ec979	0.0005446892
70	0xbbc39f6b	-0.005969932
71	0x3d99c4bc	0.07508227
72	0xb8ac170d	-8.205893e-05
73	0xb8c51eaa	-9.399404e-05
74	0xbe2769a9	-0.163489
75	0xb841b071	-4.617911e-05
76	0xbd50b5df	-0.050954696
77	0xb905a094	-0.00012743688
78	0xbde709e3	-0.112811826
79	0x3dedb513	0.11606803
80	0xbd4602bc	-0.04834245
81	0x3d16ec3b	0.03684638
82	0xbd2db5f3	-0.04240985
83	0x3e5e24cd	0.21693726
84	0x3dae0c01	0.08498383
85	0x3cba9f14	0.022780932
86	0x3cfcc2a7	0.030854536
87	0x3e48a533	0.19594269
88	0x39420a8a	0.00018505208
89	0x380a6a94	3.3001023e-05
90	0x3e16c967	0.14725266
91	0xbe921a64	-0.2853576
92	0xbbc1ec07	-0.005918029
93	0xb899bf7e	-7.331277e-05
94	0x3bfcb295	0.0077117183
95	0xbd902307	-0.07037931
96	0x3d4c9de1	0.049955253
97	0xba075903	-0.0005163105
98	0xbc68d379	-0.014210575
99	0x3e093316	0.13398394
100	0x3d858406	0.06519322
101	0x3de4de0a	0.11175163
102	0xbe4f196c	-0.20224541
103	0x39154d47	0.00014238535
104	0x3e0ed684	0.13949019
105	0xbe41463d	-0.1887445
106	0x3e5507a0	0.2080369
107	0xb8194b4e	-3.6548176e-05
108	0xbe526ec5	-0.20550068
109	0xbda14abc	-0.078755826
110	0xbd8bc371	-0.06824387
111	0x3ddc97da	0.10771151
112	0x3d36cec4	0.04463078
113	0xbdd6a7f6	-0.10481255
114	0x3959e225	0.00020778978
115	0x3d83c756	0.06434505
116	0x380c203a	3.3408614e-05
117	0xbde1a741	-0.11018229
118	0x3e7112ab	0.23542278
119	0xbdc4266c	-0.09577641
120	0xbd263def	-0.04058641
121	0xbcf96b9c	-0.03044682
122	0xb85a5bd3	-5.206077e-05
123	0xb82b07e0	-4.077691e-05
124	0x39a37f12	0.00031184457
125	0x3db338f3	0.087510966
126	0xbb8cf9c9	-0.0043022376
127	0xbe466a44	-0.19376475
128	0x3df71177	0.12063878
129	0x3cfa4cb5	0.030554155
130	0xbe57f933	-0.21091156
131	0x3d876abf	0.06612157
132	0x39a0a43d	0.00030639945
133	0x3cc7675e	0.024341282
134	0xbd80c0d8	-0.06286782
135	0x3e114b24	0.1418882
136	0xbdb9cafa	-0.09071918
137	0x3e2b85a8	0.16750205
138	0x3e0b85a4	0.13625199
139	0x3e4439e7	0.19162713
140	0xb98d2b6c	-0.00026925968
141	0xbdb2876d	-0.08717237
142	0xbd1c1fdc	-0.03811632
143	0xb9256512	-0.00015773278
144	0x3e4869e1	0.1957164
145	0xbe2ae279	-0.16687955
146	0xbe14117b	-0.14459793
147	0x3d1e2f8c	0.038619563
148	0x3e4a81e8	0.19776118
149	0x3e733c15	0.23753388
150	0xb922006b	-0.0001544968
151	0xbe25e685	-0.16201217
152	0x39628939	0.00021604159
153	0x39bc01bc	0.00035859447
154	0xbda3b678	-0.079937875
155	0xb9c9090f	-0.00038344457
156	0x3d6bd104	0.05757238
157	0xb8e038e6	-0.000106917505
158	0x3e4794bc	0.19490331
159	0xbc3b463c	-0.011430319
160	0x3c8ef71a	0.017451812
161	0xbc9e5c58	-0.019331142
162	0x3a464fc3	0.0007564986
163	0xbd145a30	-0.036218822
164	0x3b9df228	0.004820127
165	0xb9590a73	-0.00020698625
166	0xbcb175ba	-0.021662582
167	0x3de58682	0.11207296
168	0xbd98041e	-0.0742266
169	0x3938a8fb	0.00017610558
170	0x3dc9723d	0.09836242
171	0xb9989000	-0.00029098988
172	0x389584ae	7.129587e-05
173	0x3881cd0e	6.189394e-05
174	0xb9b73dc9	-0.00034950514
175	0xbaef293a	-0.0018246539
176	0x3dc4eb7d	0.09615228
177	0xb9e80ead	-0.00044261423
178	0xbccad057	-0.024757547
179	0x3d9d057e	0.07667063
180	0xbe0a6ebb	-0.13518803
181	0x3d89b22d	0.067234375
182	0xb998db07	-0.00029154887
183	0x3d6397bd	0.05556463
184	0xbe2de90f	-0.16983436
185	0x3c60b026	0.013713872
186	0x39b414b7	0.0003434771
187	0x3a6e2662	0.0009084699
188	0x38aa44e6	8.119065e-05
189	0xbc252db3	-0.010081696
190	0x3a081b18	0.00051920256
191	0xba5a203e	-0.00083208445
192	0x38b19895	8.468438e-05
193	0x3db0dc11	0.08635724
194	0x39a53258	0.00031508761
195	0xb9ae02c3	-0.00033189924
196	0xbd53bc2f	-0.051693138
197	0x3e583d6c	0.2111718
198	0x3d82b4f1	0.06382168
199	0x3d39276a	0.045203604
200	0xb76daa01	-1.4165883e-05
201	0x3c1b3b11	0.009474532
202	0x3d53af89	0.051681075
203	0xb9f2a1fc	-0.00046278525
204	0x3e005339	0.12531747
205	0x3e10ead8	0.14152086
206	0x3d7e2708	0.06204894
207	0xbde3ce36	-0.11123316
208	0xbe0a6468	-0.13514864
209	0x3a0afba1	0.0005301778
210	0x373c7053	1.1231826e-05
211	0x3c2dd0a6	0.010608828
212	0xb9e75cc1	-0.0004412886
213	0xbc4a81e9	-0.012360075
214	0xbd807dde	-0.06274007
215	0x3e065c4f	0.1312115
216	0xb93fa314	-0.00018275931
217	0x3c25ab9a	0.010111714
218	0xbe34c1d1	-0.1765206
219	0xbe0f1b4f	-0.13975261
220	0xbe02de7f	-0.12780188
221	0xbdaac6cd	-0.083386995
222	0xb7e20eab	-2.694813e-05
223	0xb801a25a	-3.09072e-05
224	0xb909329b	-0.0001308419
225	0x3d7867ff	0.060646053
226	0xbe680ff8	-0.22662342
227	0xbe112443	-0.14173989
228	0x39e589c8	0.0004378094
229	0xbd60640f	-0.054782923
230	0xbd4e0a41	-0.050302748
231	0xb94b9368	-0.00019414502
232	0x3d4614e5	0.04835977
233	0x3925dd1f	0.00015818
234	0x3e779ca8	0.24180853
235	0xbd0f5e48	-0.035002023
236	0x3e22b390	0.1588881
237	0x3d9a63c9	0.07538564
238	0x3cbe056e	0.023195948
239	0x385c2586	5.2487034e-05
240	0xbd76cfd9	-0.060256813
241	0x3e25a2e5	0.1617542
242	0x3adf3e7f	0.0017032175
243	0x3dc64a4b	0.09682139
244	0xb98912d3	-0.000261447
245	0x3c431af4	0.011908282
246	0x3d7f3a17	0.06231126
247	0xba280713	-0.00064097455
248	0xbe414f87	-0.18877994
249	0xbd06a277	-0.032869782
250	0x38dae6e9	0.000104380604
251	0x37d737a5	2.5655909e-05
252	0xb9e5475c	-0.0004373145
253	0x37a87077	2.0079531e-05
254	0x3d7651da	0.060136653
255	0x370f036e	8.524263e-06

3.bias f4 [50]
0	0x3d49bcfb	0.04925249
1	0x3eb7335b	0.3578137
2	0x3e371948	0.17880738
3	0xbdefbc12	-0.117057934
4	0x3dce772a	0.100813225
5	0x3e724f5c	0.23663086
6	0xbdf76ed4	-0.12081686
7	0x3ebc9721	0.36834052
8	0xbd142b7e	-0.03617429
9	0xbcaf514c	-0.02140107
10	0xbe6bb56f	-0.2301843
11	0x3d3d5f20	0.046233296
12	0x3c81587e	0.015789267
13	0x3d23c535	0.039982993
14	0x3e9386eb	0.28813872
15	0x3b25f731	0.002532434
16	0x3dc3b839	0.09556622
17	0xbdf044d4	-0.11731878
18	0xbc82569c	-0.01591044
19	0x3e3605f9	0.17775716
20	0x3dcb5ff2	0.099304095
21	0xbdb21766	-0.08695869
22	0xbe438392	-0.19093159
23	0xbc924bd0	-0.017858416
24	0x3de53967	0.11192589
25	0x3e2a2284	0.16614729
26	0xbe44ae5b	-0.19207136
27	0xbd3c41c2	-0.04596115
28	0xbe4125ad	-0.18862028
29	0xbe85d223	-0.26136884
30	0x3e556fe4	0.20843464
31	0x3d4b5f3b	0.049651366
32	0xbd83554c	-0.064127535
33	0xbebeb7c6	-0.37249583
34	0x3ced9f7a	0.029006708
35	0x3da3d463	0.07999494
36	0xbb221781	-0.0024733248
37	0xbdeeec11	-0.1166612
38	0x3eabed91	0.33579686
39	0xbd57da6c	-0.052698538
40	0xbdcc824c	-0.0998579
41	0xbe80254b	-0.25028452
42	0x3d9a56b4	0.075360686
43	0x3ec8e854	0.39239752
44	0x3e01cb28	0.12675154
45	0xbe86951d	-0.2628564
46	0xbe7861af	-0.24256013
47	0xbed5ee3e	-0.41783327
48	0x3b0af86e	0.0021205205
49	0x3e09c478	0.13453853

4.weight f4 [10, 50]
0	0x3e245c1d	0.16050763
1	0xbe81514f	-0.25257346
2	0x3db34d45	0.08754972
3	0xbd8aaea7	-0.067715935
4	0x3e36b1bc	0.17841238
5	0x3d94be3a	0.07262845
6	0x3994ef4f	0.0002840706
7	0x3b48e0b9	0.0030651523
8	0x3e88dda1	0.2673159
9	0x3e12c3b7	0.14332472
10	0x3e08d6f8	0.13363254
11	0x3bcf460d	0.0063254894
12	0x3e496e3f	0.19670962
13	0x3d3ad5e7	0.04561415
14	0xbde8384e	-0.11338864
15	0x3e97c002	0.29638678
16	0xbdaa6c17	-0.08321398
17	0x3e512998	0.20426023
18	0xbe1ea556	-0.15492758
19	0xbd207cd5	-0.03918155
20	0x3e21061e	0.1572499
21	0xbe3f88fe	-0.18704602
22	0xbddd02a6	-0.10791521
23	0x3e10879e	0.14114234
24	0xbe512d10	-0.20427346
25	0xb96a3ce6	-0.00022338665
26	0x3c9221ca	0.017838378
27	0x3ddce798	0.107863605
28	0x3e80eae6	0.25179213
29	0xba9c1206	-0.0011907227
30	0x3e223134	0.15839082
31	0xbe79a671	-0.24379899
32	0x3e1d77a8	0.15377676
33	0x3e452cb5	0.19255336
34	0x3df2d715	0.1185743
35	0xbd800cae	-0.062524185
36	0x37390d7b	1.1029998e-05
37	0x3e40caf2	0.18827417
38	0x3c87d07b	0.016578903
39	0xba88efb7	-0.0010447417
40	0xbe026528	-0.127339
41	0x3cb6466c	0.022250377
42	0xbda5cda9	-0.08095867
43	0xbd74ccb1	-0.05976552
44	0xbe8de0cf	-0.27710578
45	0x3d5d5721	0.05403817
46	0xba849442	-0.0010114985
47	0x3eea3369	0.45742348
48	0xb80e2722	-3.3891884e-05
49	0xbd9607e3	-0.07325723
50	0xbe608d42	-0.21928886
51	0x3b15b6fe	0.0022844668
52	0x3e54197c	0.20712847
53	0xbdb3f840	-0.08787584
54	0xbe2c7fe3	-0.1684566
55	0xba38cf0f	-0.0007049897
56	0x3c854442	0.0162679
57	0xbe415340	-0.18879414
58	0xbd0d4592	-0.034490176
59	0xbe765f70	-0.24059844
60	0xbe9ff3b5	-0.3124062
61	0xbe9a505f	-0.30139443
62	0x3e281e5c	0.16417831
63	0x3dc51496	0.09623067
64	0x3e4e8160	0.2016654
65	0xbe11f2a0	-0.1425271
66	0x3e08117c	0.1328792
67	0x3e9b8727	0.3037655
68	0x3dc5e4e6	0.096627995
69	0xbe36b94a	-0.1784412
70	0x3dab86a1	0.08375288
71	0x3be61301	0.0070213084
72	0xbe364888	-0.17801106
73	0xbc9edda4	-0.019392796
74	0x3e2962f6	0.16541657
75	0x3e7f5919	0.24936332
76	0x3e296a35	0.16544421
77	0xbd3bc3af	-0.045840915
78	0xbe0eb062	-0.13934472
79	0xbd95de43	-0.07317784
80	0xbe7a55cb	-0.2444679
81	0x3e2c1e2e	0.16808388
82	0xbe24bf4e	-0.16088602
83	0x3e1d4f00	0.15362167
84	0x3d70b1c6	0.058763288
85	0xbd5a7dbe	-0.053342573
86	0xb7976c0f	-1.8050921e-05
87	0xbe8450bc	-0.25842845
88	0xbc542d1e	-0.01295021
89	0xbcc3da6e	-0.023907866
90	0x3dc73839	0.097275205
91	0x3e84ec5d	0.2596158
92	0x3d885186	0.06656174
93	0xbbaafc95	-0.0052180984
94	0xbe6e3d69	-0.23265614
95	0x3c4ece88	0.012622483
96	0xbe48931d	-0.1958737
97	0x3dc3fff5	0.09570304
98	0x3637dd60	2.7397982e-06
99	0x3e18c27d	0.14917941
100	0x3e30a443	0.17250161
101	0x3e5846f7	0.21120821
102	0x3d4d3987	0.05010369
103	0xbdb5d6ed	-0.088788845
104	0x3e0ea3bc	0.13929647
105	0x3d22bb4f	0.039729413
106	0x3c1aa13e	0.009437857
107	0xbbeb3b5c	-0.007178707
108	0xbdc1faf6	-0.09471695
109	0xba76ef22	-0.0009419789
110	0x3d2ef55d	0.042714465
111	0xbbde57f3	-0.0067853867
112	0xbab0fb17	-0.0013502565
113	0xbdae1852	-0.085007325
114	0x3d9a8bfe	0.07546233
115	0xbd0ff73f	-0.0351479
116	0xbdbbea3b	-0.09175535
117	0x3d93a3c3	0.072089694
118	0x3a032be3	0.0005003793
119	0xbd8a84d6	-0.06763618
120	0xbdbcf11b	-0.09225675
121	0xbe015dd4	-0.12633449
122	0x3c960ee5	0.01831765
123	0x3dc6fa4b	0.09715708
124	0x3cc6a39d	0.024247939
125	0x3db1b0da	0.0867631
126	0x3c6f1535	0.0145924585
127	0x3bcc3ab7	0.0062325853
128	0x3e59f0a2	0.212832
129	0x3b7353e4	0.003712886
130	0x3dac0726	0.08399801
131	0x3c31eca4	0.010859642
132	0xbd80297c	-0.062579125
133	0x3e44fd15	0.19237168
134	0x3e56fd74	0.20995122
135	0x3e0281fb	0.12744896
136	0x38f066fc	0.00011463274
137	0xbda039d1	-0.078235276
138	0xbe47ca49	-0.1951076
139	0x3e5637af	0.20919679
140	0x3da4634e	0.08026753
141	0xbdecebd2	-0.11568417
142	0x3dca1d39	0.09868855
143	0x3d6c01c2	0.057618864
144	0x3df7a3d9	0.12091798
145	0xbdad13df	-0.08451056
146	0xbd7e5bb2	-0.062099166
147	0xbe368548	-0.1782428
148	0xb882eb23	-6.242681e-05
149	0x3dc13e0c	0.094356626
150	0xbe5e0997	-0.21683346
151	0x3d0c2536	0.034215175
152	0x3da1e90e	0.0790578
153	0x3dd32a24	0.10310772
154	0xbdeb6277	-0.1149339
155	0x3dc797d3	0.09745755
156	0x3d9fa248	0.077946246
157	0x3e3f4898	0.18680036
158	0xbd48826a	-0.048952498
159	0xbe518774	-0.20461828
160	0x3d8da294	0.06915775
161	0x3e44be09	0.19213118
162	0x3cdf1230	0.027230352
163	0x3c274d85	0.010211353
164	0xbdfe4a37	-0.12416499
165	0xbc460e18	-0.012088321
166	0xbd9cbe56	-0.07653491
167	0xbdcf78e6	-0.101304814
168	0x3da54912	0.08070578
169	0xbdd48420	-0.10376763
170	0xbe25fd08	-0.16209805
171	0xbda472b3	-0.0802969
172	0x3d24fb5e	0.040278785
173	0x3e3c2103	0.18371968
174	0xbd31486e	-0.043281965
175	0xbdffa7d1	-0.1248318
176	0xb9cc3577	-0.00038949747
177	0x3e2c89d5	0.16849454
178	0xbd57664e	-0.0525878
179	0xbe1ecb4d	-0.1550724
180	0xbdd003fc	-0.1015701
181	0xbd0bc832	-0.034126468
182	0x3d442170	0.04788345
183	0x3e0d98e2	0.13827851
184	0xbd947a7a	-0.07249923
185	0xbdadf915	-0.08494774
186	0x371c994c	9.334017e-06
187	0xb89df600	-7.5321645e-05
188	0xbd96976a	-0.07353099
189	0x3dc9ba56	0.09849994
190	0x3e4ec664	0.20192868
191	0xbe00c4b9	-0.12575044
192	0xbcbbc0a1	-0.022919001
193	0x3d39bb02	0.04534436
194	0xbdaffed0	-0.085935235
195	0xb9a12520	-0.00030735973
196	0xbe7647e1	-0.24050857
197	0xbabb1424	-0.001427297
198	0xb84767d9	-4.7542013e-05
199	0xbd37a905	-0.044838924
200	0x3a099e5e	0.0005249734
201	0xbe2900a8	-0.16504157
202	0xbe2954d5	-0.16536267
203	0x3dca1373	0.09866991
204	0x3ba52293	0.005039522
205	0xbce8926b	-0.02839013
206	0xbe6b5c5f	-0.22984456
207	0x3adbf5a7	0.0016781584
208	0xbce86949	-0.028370516
209	0xbdb884d0	-0.09009707
210	0x3b1436f9	0.0022615774
211	0x3e008b17	0.12553059
212	0x3a3ed081	0.00072789943
213	0xbe3ec0dc	-0.18628258
214	0x3e8a44fa	0.2700575
215	0x3d8acb58	0.06777066
216	0x3e34becb	0.17650907
217	0xbdd6d565	-0.104899205
218	0x3dc9c586	0.09852128
219	0x3e005a44	0.12534434
220	0x3eaa0535	0.33207098
221	0x3d432282	0.04764033
222	0xbdb7bfd3	-0.089721344
223	0xbd53ba52	-0.05169136
224	0xbdd4b18e	-0.10385428
225	0x3de60a7b	0.11232468
226	0xbd0aa1e8	-0.033845812
227	0xbd906e4f	-0.0705229
228	0xbdf57049	-0.11984307
229	0x3e0ba32f	0.13636468
230	0xbd727d7b	-0.0592017
231	0xbe21013d	-0.15723129
232	0xbde7a792	-0.113112584
233	0xb9721455	-0.00023086493
234	0xbdf4e48e	-0.11957656
235	0xbe22ea71	-0.15909745
236	0x37941506	1.7652765e-05
237	0x3e203adf	0.15647458
238	0xbd87aeff	-0.06625175
239	0x3e381751	0.17977645
240	0x3dc92fe8	0.098235905
241	0xbcdd3894	-0.027004518
242	0xbd11798d	-0.03551631
243	0xbe5913e2	-0.21198991
244	0x3e23b3ac	0.15986508
245	0x3c29a5ed	0.010354501
246	0x3e1c5c04	0.15269476
247	0xbd021862	-0.031761535
248	0xb6a2f64d	-4.8566494e-06
249	0xba7aeeba	-0.0009572316
250	0xbdbd2a03	-0.09236529
251	0xbc1059e1	-0.008810491
252	0x3bd668b6	0.0065432442
253	0xbd88eef2	-0.066862
254	0x3cff141e	0.031137522
255	0x3de080f0	0.10962093

4.bias f4 [10]
0	0xbe9478b0	-0.28998327
1	0xbe2a3bdc	-0.16624397
2	0xbb0c81b1	-0.0021439607
3	0xbd3d4a50	-0.046213448
4	0x3d24c403	0.040225994
5	0x3e9f196c	0.31074083
6	0x3ba7400f	0.005104072
7	0x3e29f432	0.1659706
8	0xbe8464d9	-0.2585819
9	0x3ddfaefc	0.109220475
