models/mnist_fc6_w.pt (torch, 401359 bytes, 8 tensors)

1.weight f4 [100, 784]
000000 80 e4 4b 39 08 81 fc b8 3a 69 cd 39 3f 52 fc 39
       0.00019444712 -0.0001204033 0.00039179047 0.00048126464
000010 c4 b6 8d b8 f3 a6 2a 3a f7 6c 1f 3a c9 c2 b9 39
       -6.757447e-05 0.0006509863 0.00060816057 0.00035431076
000020 6f 48 33 3a 65 e2 ea 39 3c a3 e7 38 28 fb 7e 3a
       0.00068391016 0.00044800635 0.00011045343 0.0009726756
000030 0a 62 9a 39 02 23 fc b8 8e 7d ac 39 65 58 05 39
       0.00029446214 -0.00012022817 0.00032899942 0.00012716798
000040 8c f7 0e 3a 35 ae 69 3a f3 41 95 3a ad ed 4a 39
       0.00054537575 0.00089142035 0.0011387452 0.00019352762
000050 9b ab 02 3a d9 0f c4 39 2a ae f2 39 43 72 1a 3a
       0.00049846777 0.0003739584 0.000462876 0.000589166
000060 2a ff f5 34 58 be ac b7 c6 cd 6c 39 41 ea 98 39
       4.5820462e-07 -2.0592634e-05 0.0002258337 0.00029166232
000070 5d 4c da 39 64 96 eb 35 86 4e 0f 39 62 43 b1 39
       0.00041637095 1.7552634e-06 0.00013666795 0.00033810275
000080 c8 95 88 39 4f db bc 39 1e 88 a1 3a 9b 9d b4 39
       0.00026051537 0.00036021552 0.0012323891 0.000344497
000090 9d 92 2d 3a ba 7a 54 3a 84 3d 31 3a ed 36 08 3a
       0.00066212734 0.0008105446 0.00067611807 0.0005196173
0000a0 d5 77 fe 38 4e 79 1e 3a 56 f6 e8 39 ba 15 9c 39
       0.00012133984 0.00060452975 0.00044434023 0.00029770826
0000b0 f8 5a 90 39 62 2a 1a 39 c0 ae c3 39 0b e2 3b 3a
       0.00027533597 0.00014702373 0.00037323497 0.0007167167
0000c0 29 8d 66 3a dc 84 db 38 28 c5 90 39 65 ec 0f 3a
       0.0008794838 0.00010467481 0.00027612713 0.00054902426
0000d0 19 19 0b 3a 32 bb 79 39 4a 87 24 3a 28 69 20 3a
       0.0005306169 0.00023816226 0.0006276263 0.0006119185
0000e0 8e 1a b5 39 5e 42 8d 3a 54 8b 04 3a 94 c1 c2 39
       0.00034542795 0.0010777225 0.0005056162 0.0003714679
0000f0 d1 7c be 39 3c ab d1 39 ad 0a d4 39 25 5c 90 39
       0.0003633262 0.00039991166 0.00040443745 0.00027534473
000100 81 9c 74 3a 96 b5 fe 39 5b 2d e0 39 e9 70 a1 3a
       0.0009331182 0.00048581947 0.00042758402 0.0012316975
000110 3e 0f 2a 39 d5 00 c0 ba da 16 c3 b8 e8 04 65 3a
       0.00016218142 -0.0014648685 -9.302581e-05 0.0008736388
000120 d4 56 ca 3a 86 a5 2f 3a 5b a8 64 b9 65 f8 44 ba
       0.0015437254 0.0006700385 -0.00021806492 -0.00075138203
000130 ec d8 1c ba 68 48 88 b9 9e 0e 1b 3a 8e f1 fd 39
       -0.00059832516 -0.00025993888 0.0005914959 0.00048435893
000140 0f 96 be 3a 7b 46 92 39 fe 64 2e 3a b5 df c9 39
       0.001454057 0.00027899802 0.0006652622 0.00038504382
000150 fc 3a c9 39 7b 2b ed 38 52 1e 3c 3a b7 29 b2 39
       0.00038381654 0.000113091395 0.0007176149 0.00033981886
000160 7b 9c 0c 3a 64 a5 01 3a e9 58 85 3a d0 00 15 3a
       0.00053638936 0.00049456046 0.0010173592 0.000568402
000170 e1 20 80 3a 39 29 8d 3a a4 b1 45 3a 33 9f 1d 3b
       0.0009775424 0.0010769732 0.0007541424 0.002405119
000180 60 00 48 3b 95 58 45 b8 8f 75 17 bb 20 43 dc 3a
       0.0030517802 -4.705096e-05 -0.0023110842 0.0016804673
000190 b8 58 a0 3b f0 70 94 3b 15 d2 a3 3b 8b 0f 5a 3b
       0.0048933886 0.0045300648 0.004999409 0.0033273424
0001a0 eb b5 03 3b 88 66 a3 3a bb a0 b1 b9 58 30 b2 39
       0.0020097445 0.001246647 -0.00033879824 0.00033986825
0001b0 72 ea b0 b9 c9 6a 18 3a 47 25 31 3a 0d 83 3e 3a
       -0.0003374401 0.0005814252 0.0006757569 0.0007267453
0001c0 fd 87 54 3a 9a df d3 39 29 34 7f b7 cf 09 8f 38
       0.0008107422 0.00040411652 -1.5211329e-05 6.820598e-05
0001d0 9a e5 4e 38 f4 ce 53 3a 71 b3 85 39 bd 01 9a ba
       4.932806e-05 0.00080798496 0.0002550143 -0.0011749786
0001e0 16 3d 38 ba 90 fc e9 b9 50 45 04 bb dc b9 24 3b
       -0.00070281455 -0.00044629397 -0.0020182915 0.0025135195
0001f0 15 79 cf bc 5c ba 1a bd 2c 80 2a bd bc da 79 3b
       -0.025326291 -0.037775382 -0.04162614 0.003812476
000200 48 b9 14 3d b1 75 fb 3c c0 d3 c9 3c 78 d9 6f 3c
       0.03630951 0.030695768 0.024637103 0.014639251
000210 94 c9 dc 3b 17 a1 a8 3a 05 d1 fe 39 16 bb 65 39
       0.006737897 0.0012865391 0.00048602387 0.00021908837
000220 20 8f 0c 3b cb 44 6f 3a 57 11 da 39 1e 0a db 39
       0.0021447614 0.00091273774 0.0004159312 0.00041778473
000230 7a 2b 31 3a e0 ab 91 38 00 74 f3 39 b0 0f b1 3a
       0.00067584927 6.946153e-05 0.00046434999 0.0013508704
000240 65 e9 78 3a 55 da 4d 3a 1a 32 cb ba 12 75 6b bb
       0.0009495228 0.00078526634 -0.0015502602 -0.0035927934
000250 b2 95 99 bb 52 6e 22 3b a3 50 a6 3c 7d 9b d2 3c
       -0.0046870345 0.0024784994 0.020302122 0.025708908
000260 8a d2 95 3c 16 be b5 ba 44 61 4b bb 6a 21 12 3d
       0.01828887 -0.0013865854 -0.0031033317 0.035676397
000270 77 37 95 3d 63 e3 b4 3d f5 4c 85 3d 57 f2 5a 3d
       0.0728597 0.08832433 0.06508819 0.05345377
000280 be 41 92 3c 0b 8d aa 3b 89 94 a4 3b b9 ed a7 3b
       0.017853614 0.005204802 0.0050225896 0.0051247743
000290 64 4c 76 3b 9c 7d 53 3a 72 be a7 39 a0 40 e7 39
       0.0037582153 0.00080677285 0.00031994615 0.00044107903
0002a0 69 48 4c 3a 4c 8c f9 39 bd fa 2c 39 7e 05 a5 3a
       0.00077927724 0.0004759751 0.00016496606 0.0012590138
0002b0 52 11 dc 39 52 dc 65 ba a7 98 2e bb bd 34 da bb
       0.00041974575 -0.0008768487 -0.002664128 -0.006659119
0002c0 0f 91 c5 3b ea 86 72 bb ba fb 87 bb b0 dc 04 bd
       0.006029255 -0.0037006685 -0.004149881 -0.032437027
0002d0 ef 85 6d 3b a4 ac c3 3c 95 9f 88 3c 1c 02 76 bb
       0.003624316 0.023886032 0.016677657 -0.0037537878
0002e0 47 a9 a3 bb 59 14 13 3c 10 e7 1d 3d d3 c2 8f bb
       -0.0049945447 0.008977019 0.038550436 -0.0043872385
0002f0 cb 6b 0f 3c bb 43 f7 3b 9f 82 a3 3c f7 1d 35 3b
       0.008753727 0.007545916 0.019959746 0.0027636269
000300 8b cd 89 3a db a9 0d bb b6 20 e7 39 8f 56 2a 3a
       0.0010513527 -0.0021616134 0.00044084125 0.00064978836
000310 dc b7 82 38 1e e3 19 39 b0 0a 1d 3a 8c 08 c1 3a
       6.2331295e-05 0.00014675825 0.0005990667 0.0014727279
000320 7c ec e2 38 30 27 6c b9 d0 e1 98 bb 27 d6 94 bb
       0.000108205684 -0.00022521312 -0.004665591 -0.0045421305
000330 b4 42 9e 3b aa b8 bf bc 3b 83 c7 bc c4 6c 3f bc
       0.004829729 -0.023403484 -0.024354568 -0.011683647
000340 89 5a 32 3c f8 ee 68 3c 28 17 b5 3c de b0 4b 3d
       0.010885843 0.014217131 0.022105768 0.04972922
000350 52 94 8b bc 70 9c 07 bd 87 39 b2 3c 5d c5 ee 3b
       -0.017038498 -0.033108175 0.021755947 0.007286711
000360 d4 62 9b bc ca 04 b8 bb 39 07 9e 3c 50 7b 03 ba
       -0.018968023 -0.0056158053 0.019290553 -0.00050156284
000370 47 d7 06 bb be 2f 12 bb 54 2e 4d 39 17 ad d0 39
       -0.0020575093 -0.0022306289 0.00019567582 0.00039801814
000380 33 da 26 3a 81 20 d8 39 43 cb 7b 3a 11 77 29 3a
       0.00063649117 0.00041222948 0.00096051785 0.00064645807
000390 b2 5b f1 3a 49 2e 91 3a 82 68 d0 ba 94 7b fe ba
       0.0018414168 0.0011076416 -0.0015900286 -0.0019415491
0003a0 89 20 59 3c 07 0a f9 3b e3 2e ad ba e9 a4 41 3d
       0.013252386 0.0076000723 -0.0013212826 0.04727641
0003b0 6c 74 18 3d 75 9c 0c 3d 3a 2b b9 3d a5 34 8d 3d
       0.037220404 0.034328897 0.09041448 0.06894807
0003c0 78 4e 74 bb 6c 9b fa 3a 13 1c ea 3b a1 a7 b4 3b
       -0.0037278216 0.0019119806 0.00714446 0.005513147
0003d0 61 3d 7c 3c 6d 68 9b bb 36 65 8d 3c 5e 02 1d 3b
       0.015395493 -0.004742673 0.017260175 0.002395771
0003e0 f9 c3 10 ba 51 96 b9 ba 49 4d 6a b9 a5 12 d9 39
       -0.0005522366 -0.0014159178 -0.0002234477 0.00041403357
0003f0 86 0e 4c 3a ba 42 8b 39 4e 15 65 3a 94 18 9f 38
       0.00077841466 0.0002656186 0.00087388314 7.586289e-05

1.bias f4 [100]
000000 85 44 b7 3d 65 c2 52 3e 7a 18 83 bd c3 a2 28 3e
       0.08948616 0.20581968 -0.06401153 0.16468339
000010 44 58 92 3b cc b0 1a 3e 5e 68 a2 bd b6 8a bd 3d
       0.0044660885 0.15106505 -0.07930063 0.09254973
000020 c6 0f 1e bc ff 5a 03 bd d6 7f 7c be c5 3a 80 3d
       -0.009647315 -0.032069203 -0.2465814 0.062612094
000030 fb 54 9c bd 50 59 25 be dc 9a 66 3e 01 1a 69 3b
       -0.07633396 -0.16147351 0.22520012 0.0035568478
000040 b5 46 53 3e 55 94 d8 bc 8d 98 d2 3e b9 3f 95 3d
       0.20632441 -0.026437918 0.41132012 0.07287545
000050 27 a4 7a 3e 8c 69 f0 bc c2 57 1d 3e fb 5f 89 3d
       0.24476682 -0.029347204 0.15365508 0.0670776
000060 6e cc aa 3c d8 35 4e 3e fc df ea bc ae fa 13 be
       0.020849433 0.20137727 -0.028671257 -0.14451095
000070 fe a6 dd bd 5e 9d af bd c7 28 50 be 80 43 59 3d
       -0.10822867 -0.08574937 -0.20328055 0.05304289
000080 83 a8 3e 3e aa e9 9b bd aa 07 18 be 9f 40 48 be
       0.1861897 -0.07612927 -0.14846674 -0.19555901
000090 08 4b 03 3f 40 50 a8 3d 5a 04 bf bc 65 f2 42 bd
       0.51286364 0.082184315 -0.023317505 -0.047594447
0000a0 b1 5f 7c 3e be 16 39 be ee 4b 4b 3d cd 61 1a 3e
       0.24645878 -0.18075082 0.04963296 0.1507637
0000b0 25 6f 9d bc 63 a0 89 3e 24 27 33 be f7 21 af 3d
       -0.019218037 0.26880178 -0.174954 0.085514
0000c0 8f 78 4b 3e 19 94 6e 3c 62 45 25 3e dd 73 83 bd
       0.19870208 0.014561676 0.16139749 -0.064185835
0000d0 4b 7e 79 3e 74 4e 16 be 69 72 ba bc 2c 06 d2 3c
       0.24364583 -0.14678365 -0.022759633 0.025637709
0000e0 4b 8f cb bc 66 46 f6 3c 50 2a a8 3c 68 6f 9c bd
       -0.0248486 0.030062865 0.020527989 -0.076384366
0000f0 bf 09 97 3d 45 72 3d be 47 8d 97 3d 2c a3 79 3d
       0.07374906 -0.18500622 0.073999934 0.06094663
000100 63 2c cc 3d e2 b5 eb 3d 3f 73 5e bd 1c 58 13 3c
       0.099694036 0.11509301 -0.054309126 0.008993175
000110 56 98 72 3e 9d e0 7a 3e f7 62 3f be f6 cc bb 3e
       0.23690924 0.24499746 -0.18690096 0.3667981
000120 d7 b5 86 be 56 d4 da bd a1 b5 31 3d c2 9e 2e bd
       -0.26310608 -0.10685031 0.043386105 -0.042631872
000130 a7 9b 93 3d 5d 3b 61 3e b2 85 9c be e6 b8 84 be
       0.07207423 0.21995302 -0.3057075 -0.25922316
000140 a7 09 29 3e 5a 3b 17 be 5e b1 09 3c fa 20 ac bd
       0.16507588 -0.14768735 0.008404104 -0.08404727
000150 f2 cb 30 be ed 7a 81 3c f7 be bc bd b3 4c 8c 3d
       -0.17265299 0.015805686 -0.09216111 0.06850567
000160 07 c9 09 be 3a 54 d7 bd 6a 63 23 bd 83 f2 e7 3c
       -0.13455592 -0.10514112 -0.03988973 0.02831388
000170 76 17 6c bc 50 6f 29 bd 92 24 c0 3d bb 36 47 be
       -0.01440989 -0.04136592 0.09381975 -0.19454472
000180 66 78 77 bc d3 54 7a 3d 28 fd 58 3e 2d 3c ad bc
       -0.015104389 0.06111605 0.21190321 -0.021146858

3.weight f4 [100, 100]
000000 17 e4 84 3d 05 3c c4 bd c5 9a 0c b8 12 cc b0 3e
       0.06488817 -0.0958176 -3.352274e-05 0.34530693
000010 67 68 91 3d 6c da cf 3d db 32 ed bc d5 d1 34 bd
       0.07099991 0.101490825 -0.028954914 -0.044145424
000020 3a 01 42 be 80 6d 4c 35 f3 de 18 bd 1b 3b 60 3e
       -0.1894578 7.6155266e-07 -0.037321996 0.21897547
000030 f0 76 9c 3c bc b5 8d bd b5 b7 2a 3d 31 99 b4 bd
       0.019099683 -0.06919429 0.041679103 -0.088182814
000040 26 aa f1 3d c3 08 f4 b7 c7 58 a0 3d 36 08 b0 be
       0.11800031 -2.9091147e-05 0.07829433 -0.34381264
000050 a1 41 92 bd 53 52 8b 3d e7 a2 37 3e c5 f8 2d bd
       -0.07141424 0.068028115 0.17933236 -0.042473573
000060 75 ef 1e be 26 c2 2c 3d 02 4e b6 bd c3 c5 eb 3d
       -0.15521033 0.042177342 -0.089015976 0.115123294
000070 94 16 11 bb 14 ec 44 be 73 28 d9 bd e1 8e 8f be
       -0.0022138702 -0.19230682 -0.10603418 -0.28038695
000080 44 2b 0c 3e 4d 5a 52 3e 10 21 3c 3e 5f b8 22 3d
       0.1368838 0.2054226 0.18371987 0.03972661
000090 1a 9e a3 bc 4e d2 74 3e ff 53 d2 3c cf c4 ca 3c
       -0.01997285 0.2390835 0.025674818 0.024752049
0000a0 93 35 b5 bd 70 a2 8a be dd 4c ab bd a9 aa cb 3d
       -0.08848109 -0.27077055 -0.0836427 0.0994466
0000b0 36 3b 0b bd 3c a4 e5 bc 51 2d 65 3e c6 d2 a1 be
       -0.033992015 -0.028032415 0.22380568 -0.3160612
0000c0 2b 46 07 3e 19 77 47 3e 7d cf 0b bd ee 77 4a be
       0.1321036 0.19479026 -0.034133423 -0.19772312
0000d0 c3 a0 10 3d f5 e6 fe 3d 3e ab c2 b7 13 55 22 3e
       0.035309564 0.12446395 -2.3206343e-05 0.15852766
0000e0 61 8b 70 3d 53 a2 c9 bd 52 f0 4c 3e 94 61 cb 3d
       0.058726672 -0.09845414 0.2001355 0.09930721
0000f0 9c 22 a6 3d 45 f1 33 bd 67 1e f8 3d e3 57 9c bd
       0.0811207 -0.043931264 0.12115174 -0.076339506
000100 e9 ac a6 bd 4c 0b 11 3c c2 16 e3 bd b8 ce 55 3d
       -0.08138449 0.008852791 -0.11088325 0.052199095
000110 f9 d5 11 3c b3 df a8 3e b2 5c 65 bd 6e 23 aa bd
       0.008901113 0.3298317 -0.055996604 -0.08307539
000120 66 09 cb 3c 92 a9 a8 bd ad 0f 35 bc a1 1f 4b b7
       0.024784755 -0.08235468 -0.011051101 -1.2107107e-05
000130 17 c1 9a be c2 7e f2 bd 4c e8 58 be a0 df d2 3c
       -0.3022544 -0.118405834 -0.21182364 0.025741398
000140 c5 88 33 3e 0a 37 ab bd 51 65 24 3e 4a 88 e7 3c
       0.17532642 -0.08360107 0.16054274 0.02826323
000150 7f 23 96 3d 9e 52 f1 bc 46 09 60 be b1 e8 3f bd
       0.07330989 -0.02945834 -0.21878538 -0.04685277
000160 3e d4 08 be 99 cd 5a 3d 80 0a 16 be 7c 91 b9 be
       -0.13362214 0.05341873 -0.14652443 -0.36243808
000170 ef 85 91 38 ec 00 c0 3c 42 a1 d3 3d 93 5f ce 3c
       6.939086e-05 0.02343794 0.10333492 0.025192058
000180 50 0b ff 3d 57 b8 00 3e 41 28 7b 3e 23 4a 0a 3e
       0.124533296 0.1257032 0.24527074 0.13504843
000190 48 5e c9 bc aa c1 12 3e 81 bc d0 38 bf 29 0a 3d
       -0.02458109 0.1433169 9.9533245e-05 0.03373122
0001a0 7c 5d 05 bd ea 79 5c bd de da c3 bd 50 e1 c0 3b
       -0.032559857 -0.053827204 -0.0956323 0.0058862343
0001b0 fd 1b 21 3c 7b 1f ff 37 84 45 c4 3b 15 c8 0e 3e
       0.009833333 3.0413028e-05 0.005989732 0.13943513
0001c0 61 81 6c 3e 6d f9 0f be 6d 7c 30 3e f3 5b a2 bd
       0.23096229 -0.14059992 0.17234965 -0.07927694
0001d0 a1 e1 88 bd 28 b1 4d b9 42 9e f8 3d 74 a6 8e bd
       -0.0668366 -0.0001961632 0.1213956 -0.06965342
0001e0 0f 9c 10 3e 36 b7 0e 3d 87 d9 a3 3d 2a 66 75 3d
       0.14122032 0.034842692 0.080004744 0.059911884
0001f0 81 1a cf bd 2e 87 06 bc 57 25 eb bd 40 05 35 bd
       -0.10112477 -0.00821094 -0.114817314 -0.04419446
000200 5e 93 59 3d 36 fd de 3d 5d 6e e1 bb 52 f3 54 3d
       0.053119056 0.1088814 -0.0068796114 0.05198986
000210 f4 9c 8e 3d 42 66 18 be a4 58 47 3d e4 18 6b bc
       0.0696353 -0.14882758 0.04866852 -0.014349196
000220 d8 4d 14 3e 4c 24 c0 be 53 2c 29 3d ef ea c3 bc
       0.1448282 -0.37527692 0.041302036 -0.023915736
000230 59 5e bc 3a 35 92 2b 3d 8a 0f d9 3d 52 8a c0 3d
       0.001437138 0.04188748 0.10598667 0.094013825
000240 c5 9f eb 3d c8 bb 1b 3c 1f c1 6a be 8c 8c 3c bc
       0.11505083 0.00950522 -0.22925232 -0.011508118
000250 a4 78 27 bd eb df 41 bd 87 72 d2 3d 5f dc da bc
       -0.040886536 -0.047332685 0.102757506 -0.02671641
000260 49 53 2c 3e c8 0a 2b 3e 74 ae 69 38 3f 1c b5 be
       0.16828646 0.16703331 5.5714e-05 -0.35373113
000270 3b d4 7b 3e 57 c3 d3 3c 9a a6 7c bc b2 28 e1 3b
       0.24592678 0.025849981 -0.01542058 0.0068713063
000280 9f 78 67 bd f8 13 db bd a0 fb 88 3d 3e c1 35 3e
       -0.056511518 -0.10697168 0.06688619 0.17749497
000290 78 54 89 3d 2b 77 09 3e 25 e8 2e 3d cb ff 25 3e
       0.06705564 0.13424365 0.04270186 0.16210859
0002a0 07 a7 03 3d 74 4b d3 3d 38 92 e3 3b 70 a6 3b be
       0.03214171 0.10317126 0.006944921 -0.1832521
0002b0 f3 15 a3 3b d9 be 12 3d 7f 1c 1d be 4d b1 0f 39
       0.004976982 0.035826538 -0.15342902 0.00013703592
0002c0 50 b1 53 be 2c 9a 35 bb b8 4b 86 3c 12 32 33 bc
       -0.20673108 -0.0027710302 0.016393527 -0.010937231
0002d0 77 20 7d bc 1d 1f de 3d 19 be 8f 3d aa 5b 9d 3d
       -0.015449635 0.10845778 0.0701868 0.07683499
0002e0 19 2b 9c 3c f5 49 ae bb 72 43 38 3d ed dc b4 be
       0.01906352 -0.005318875 0.044986196 -0.35324803
0002f0 5f fc d7 3c d4 13 17 3e 02 6a f5 3d e1 1a c7 3d
       0.026365457 0.14753658 0.1198311 0.097219236
000300 2b e6 bf b7 05 59 38 3d fb a1 6d bc 59 0e 94 3d
       -2.2876155e-05 0.04500677 -0.014503951 0.07229299
000310 90 39 8b bc 7f da 99 3d a3 dc e6 bd 6d d7 c0 3d
       -0.016995221 0.07512378 -0.11272552 0.09416089
000320 db 19 29 bd e1 05 37 be 08 7a e9 36 51 3c 71 3b
       -0.041284423 -0.17873336 6.9581474e-06 0.0036809633
000330 39 52 27 3e fa bb 10 3e 8c 66 34 bf 44 92 8e 3d
       0.16339959 0.14134207 -0.70468974 0.06961492
000340 6f 42 8b be 2d e1 ad b8 35 55 a5 be 41 8b 03 3e
       -0.27199122 -8.291225e-05 -0.3229157 0.1284609
000350 56 06 c9 3d 41 3d 09 be 77 d4 0a 3e da d7 03 3d
       0.098156616 -0.13402273 0.13557611 0.032188274
000360 64 44 91 3e 35 68 0a b7 f9 e0 ea 3c 9b 8a 44 3c
       0.2837249 -8.249704e-06 0.028671728 0.011995937
000370 25 a2 30 3d f4 81 ee bc a0 62 4f be 2e 2a b2 be
       0.043123383 -0.0291147 -0.20252466 -0.34797806
000380 eb 83 a6 3d 7b 52 e1 3b ae f3 0a 3d 33 db 67 3d
       0.0813063 0.0068762875 0.033923797 0.05660553
000390 2e 48 2f 3e 44 63 38 3c c1 c6 eb 3c 37 ce 96 3c
       0.17117378 0.0112541355 0.028781297 0.018408878
0003a0 16 6b c2 3e 3f 94 9e 3d 4e 49 3b bd 70 be db bc
       0.37972325 0.077431194 -0.045724206 -0.026824206
0003b0 8f 94 67 3e 8f c9 ea 3d 72 96 98 bc 63 b1 00 be
       0.22615264 0.114642255 -0.018626425 -0.12567668
0003c0 a4 13 d5 bd 22 42 06 be f1 6d 35 bd db a5 a0 3d
       -0.10404137 -0.13111165 -0.0442943 0.078441344
0003d0 a6 f4 e9 3d c5 b3 9e bc 75 fa 76 3c 92 cf d4 3d
       0.11423616 -0.01937283 0.015074362 0.103911534
0003e0 b6 28 32 3c 07 ee 72 bd 0e 9e 9d bc f7 29 e6 bd
       0.010873964 -0.05930903 -0.019240405 -0.11238473
0003f0 39 79 bd 3d 8d 3c e0 bd 6a 9d cd 36 7e cd 1b 3e
       0.09251637 -0.10949049 6.1278015e-06 0.15215108

3.bias f4 [100]
000000 c3 2f 16 3e 6b 17 6c 3e ab fb b4 3e 2d ac 3e 3e
       0.14666657 0.23055808 0.35348257 0.18620367
000010 c7 cc 5b 3e 70 a6 19 be 7e 90 16 3e e1 fb 07 be
       0.21464835 -0.15004897 0.14703557 -0.13279678
000020 20 b1 8b 3e 0a 1d 4d 3e 55 09 9e 3d ad da af 3d
       0.27283573 0.20030609 0.07716624 0.08586631
000030 58 82 95 bc 5e 83 0c 3e 11 f2 b1 bd e4 14 47 bc
       -0.01825063 0.13721988 -0.08688749 -0.012150977
000040 46 c5 ff 3d 8d 88 25 bd 08 d6 75 bc 26 21 e1 3d
       0.12488799 -0.040413428 -0.015004642 0.10992651
000050 92 d5 a7 3e 12 3f 6d 3e 44 46 4e 3e 6f 2e 41 3e
       0.3278013 0.2316859 0.20143992 0.1886537
000060 ac 3a 16 3d 0e a5 0b 3e c6 e5 38 3e 6e 0a 92 3d
       0.036677048 0.13637182 0.18056402 0.071308956
000070 24 68 26 3d fd 83 ad 3e 8e 1f 20 bd e4 9a 5e 3e
       0.04062666 0.33889762 -0.039092593 0.21738774
000080 cf a8 29 bd 3e 80 a1 3e ae 9c 2c 3e 30 01 9c 3e
       -0.041420754 0.31543154 0.16856644 0.30469656
000090 91 b1 31 be 38 e5 b2 3e d8 09 4e be 77 44 fa bd
       -0.17352892 0.34940505 -0.20120943 -0.1222009
0000a0 a6 6e 4e 3e 29 66 50 3e 1d ea 4a be 76 a8 08 3c
       0.20159397 0.20351471 -0.1981587 0.0083409455
0000b0 1a bf 67 bd 8d e6 a6 3c c0 12 c3 3d ad 58 82 bd
       -0.056578733 0.020373607 0.09525061 -0.0636457
0000c0 68 70 82 bd 9e 5d b6 bd 87 d4 de 3c e9 58 b9 bc
       -0.06369096 -0.08904575 0.02720095 -0.022625403
0000d0 f2 14 2e bb bc 49 d5 bd 24 3f 1b bd a0 ed ce 3c
       -0.0026562777 -0.10414454 -0.037902012 0.025259793
0000e0 03 44 a2 bd d5 34 6e 3d 4e 1d 60 3d a3 51 88 3e
       -0.079231285 0.058155853 0.054715447 0.26624784
0000f0 22 5b 55 3e df 90 0b be d2 6f fd 3c 31 aa b4 3d
       0.20835546 -0.13629483 0.03093711 0.08821524
000100 9e e3 53 bd 8c 6d 32 bd 0c cd 1c 3d 7c 73 72 3e
       -0.051730745 -0.043561503 0.038281485 0.23676866
000110 df fa 50 bd f3 a6 cd bd 19 3c b9 3d 67 26 99 3e
       -0.0510205 -0.10041609 0.09044666 0.2991211
000120 1c 00 3d 3c 18 17 a5 3d b2 73 38 be eb d4 8e be
       0.011535671 0.080610454 -0.18012884 -0.2789682
000130 64 e5 23 bd ee d1 bd 3d b8 47 d5 bd c5 c6 6d bd
       -0.040013686 0.092685565 -0.1041407 -0.05805089
000140 b5 ce 0a be 4d 60 b4 3e 44 ba d6 bc f2 8a 0c bd
       -0.13555415 0.35229722 -0.026211865 -0.034312196
000150 36 38 7e bd 35 14 97 3d de 6c 4c 3e ee e6 bc bc
       -0.062065326 0.07376901 0.19963405 -0.023059335
000160 a1 d2 b9 bc e2 83 7d 3c 43 4e a1 bd cf 01 a3 bd
       -0.022683444 0.015473338 -0.07876255 -0.07959329
000170 6b 32 7c be b8 f6 5a 3d f1 fe 2f 3e c9 16 8d bd
       -0.24628608 0.053457946 0.17187096 -0.068891115
000180 99 eb 8b 3c fd f8 e5 3d 13 20 ba bd 26 bf 0d 3d
       0.017080115 0.11229131 -0.09088149 0.03460612

5.weight f4 [100, 100]
000000 00 5c 0a 3e a7 df 73 bd 74 c3 bc bd 7f c2 1e 3e
       0.13511658 -0.059539463 -0.09216967 0.15503882
000010 0c 97 4a 3e 01 a3 0f bd 0e 41 2e 3c 51 46 9c bd
       0.19784182 -0.035067562 0.010635627 -0.07630599
000020 91 95 1e 3e ee 28 f0 bd 50 96 5f 3d 04 30 bb bd
       0.15486743 -0.11726557 0.05458671 -0.09140018
000030 d5 92 73 be 72 55 24 3e e8 a4 24 be aa e6 e8 38
       -0.2378648 0.1604822 -0.16078532 0.000111055866
000040 c8 ae e7 bc 1c e1 66 3d 77 05 c9 be e5 18 67 bd
       -0.028281584 0.056367025 -0.39261982 -0.056420226
000050 3a 60 3b 3d 7b 0c 86 3e 5c fa 72 3d 56 fa 90 3d
       0.045746066 0.26181397 0.059320793 0.07078998
000060 a5 9a 5e 3c 4d f6 4d 3e a8 e1 b9 bb 76 c4 45 3e
       0.013586675 0.20113488 -0.0056726523 0.19313225
000070 c5 64 e1 3d 3e 67 d0 3c 2f 19 bc 3d d6 95 9c 3d
       0.110055484 0.025439855 0.09184491 0.076457664
000080 78 bd cc 3c f3 e2 86 bd 43 e7 0e 3d 77 fb cf 3e
       0.02499269 -0.06586256 0.034888517 0.4062154
000090 1e c7 d5 3d 8c 3b be 3d fa a9 61 ba ea e2 f1 bd
       0.10438369 0.092887014 -0.00086083973 -0.118108585
0000a0 5a 60 b4 be 9c 06 d7 3d 1a 95 94 be eb 1a b1 3d
       -0.3522976 0.104993075 -0.29020005 0.08647712
0000b0 81 85 15 bc 75 a2 95 bb 66 ca 2e bd 00 20 0a be
       -0.009126068 -0.0045664855 -0.04267349 -0.1348877
0000c0 d7 a5 89 bd 5b f1 dd 3d 97 74 1f 3e ea 83 44 b7
       -0.067210846 0.108370505 0.15571819 -1.1713224e-05
0000d0 db 09 ab 3c 0d 43 15 b8 ec 15 01 3e 46 b8 41 be
       0.020878723 -3.5586814e-05 0.12606019 -0.18917951
0000e0 0d 04 84 38 7f c4 b9 3c 9c 3d 75 3d ce d8 6b ba
       6.295005e-05 0.022676704 0.05987321 -0.0008996845
0000f0 2e be cc bc c6 1e fc bd e9 68 9a 3d d3 76 be bc
       -0.024993028 -0.12310557 0.07539541 -0.02325002
000100 b3 c8 9a bd 87 37 c3 bd ad 32 a4 3c dc aa 6f ba
       -0.075578116 -0.095320754 0.020043695 -0.00091425865
000110 a4 40 cc 38 ea 47 44 3e ef f1 2f be d1 f1 4f 3d
       9.739518e-05 0.19168058 -0.17182134 0.050767723
000120 f5 c3 82 3e 24 3a e8 3d 07 70 96 3e 33 44 e4 bc
       0.25540128 0.113392144 0.29382345 -0.027864551
000130 1b 21 6e bd 28 b0 41 be 79 bc 1a b8 49 82 09 bd
       -0.05813704 -0.18914855 -3.689199e-05 -0.033571515
000140 e8 a6 b6 bd b2 4c 7e 3b 65 df 92 bc 4e 06 2f 3c
       -0.089185536 0.0038803038 -0.017928788 0.0106826555
000150 02 8a 97 bd 0f b6 55 bd 74 43 83 3e b6 2a 02 3c
       -0.0739937 -0.052175578 0.256374 0.007944753
000160 55 c5 d5 bd 24 30 3a be 8e 94 be 3e 56 5f ec b7
       -0.10438029 -0.18182427 0.37222713 -2.8177787e-05
000170 bd 2f 84 3c 16 72 b7 3d 40 98 99 3b e4 d5 0d be
       0.016136045 0.08957307 0.004687339 -0.13851124
000180 e0 88 15 bd 8a 3b 80 3d 73 84 23 3c cc ac a2 bd
       -0.036507487 0.06261356 0.009980309 -0.07943115
000190 88 a9 0c bd 3a 43 2a bd b2 8c c2 bd cc 52 06 bd
       -0.034341365 -0.04156802 -0.09499492 -0.032793805
0001a0 84 4f da 3e b2 75 98 bd cb 8b f8 3d 0b ac 81 3d
       0.4263879 -0.074443236 0.121360384 0.06331643
0001b0 fa 14 60 3d e3 64 ca bc 88 3b fd bd d7 40 cc bd
       0.054707505 -0.02470631 -0.1236487 -0.09973305
0001c0 37 a0 b3 bc c4 36 a5 3d 01 e3 07 3e 28 60 73 b9
       -0.021926982 0.08067086 0.13270189 -0.00023210107
0001d0 8f cc 00 be 06 16 af bd 5c d5 50 3d 57 59 77 3c
       -0.12578033 -0.085491225 0.050984725 0.015096984
0001e0 ea e7 b2 bc b0 67 d8 3d 17 b9 8e 3c 9a b5 bf bd
       -0.0218391 0.10566652 0.017422242 -0.093608096
0001f0 d0 67 90 3d c2 1b db 3d 99 9f 1d 3e 6d c7 67 bd
       0.07051051 0.10698654 0.15392913 -0.05658667
000200 2b 24 0b bd 0f 8e a3 bb 4c f1 22 be 93 9a d4 3d
       -0.03397004 -0.0049913 -0.1591236 0.10381045
000210 35 47 d3 3c 43 e8 05 bc d4 c9 fa bd 68 3a d5 be
       0.02579079 -0.008173051 -0.12245527 -0.41646123
000220 0b 97 68 3b c7 18 07 bd 22 f7 d9 bd 4b b4 27 bb
       0.003549042 -0.032982614 -0.1064284 -0.002558964
000230 b7 a5 88 bd 01 88 b0 bd bc 34 6d 3c 44 4c fb bc
       -0.066722326 -0.08619691 0.014477905 -0.030676015
000240 35 7d 0c be 67 0f 0b 3e a6 52 33 bd 02 c2 af 3d
       -0.13719638 0.13580094 -0.04377999 0.08581926
000250 01 25 93 3c 5b 05 6e bc 8f ea f6 ba 9f 8e 81 36
       0.01796198 -0.014527644 -0.0018838214 3.861103e-06
000260 83 c4 a9 3d 77 e0 8e b8 7e 8b 9e 3d d3 09 8e bd
       0.08289435 -6.8128975e-05 0.0774145 -0.069354676
000270 8b a4 00 b8 59 c9 74 bd bb 9c aa bd 16 2d 12 3e
       -3.067082e-05 -0.059762333 -0.08330675 0.14275011
000280 b9 00 4a 3c 10 1a 6c 3c 9b 06 cc bd b6 2f 07 3d
       0.012329274 0.014410511 -0.099621974 0.033004485
000290 8b 0a 94 bd 57 e2 d3 bd 2d 22 d6 3d f8 20 71 bd
       -0.072285734 -0.10345905 0.10455737 -0.058869332
0002a0 09 51 e2 b6 1a 9b 0e 3e b4 75 d8 3c 00 71 49 be
       -6.7447586e-06 0.13926354 0.026423313 -0.19672012
0002b0 10 fd be 3d 40 f8 a9 bd c1 85 ce 3e 30 8d 03 be
       0.093256116 -0.08299303 0.4033642 -0.12846828
0002c0 24 df bb 3c 55 e8 a3 3d 2d 00 c7 36 8d 52 2b bb
       0.02293355 0.08003298 5.9306826e-06 -0.0026141733
0002d0 76 2d 0d 3d d8 b2 22 3e c0 16 ea 3d f2 01 22 3d
       0.034467183 0.15888536 0.114301205 0.039552636
0002e0 c8 01 4d bc bf ba b8 3b 61 7f 31 3d ca 21 52 bd
       -0.012512632 0.0056374962 0.04333437 -0.051301755
0002f0 e6 87 b6 3d f3 44 15 3e 05 1f bd 3d 6b ac 49 b8
       0.08912639 0.14577083 0.09234432 -4.808271e-05
000300 d2 35 0c bd 72 53 fe bc 93 8e 96 3d 3a b5 b5 bd
       -0.034231015 -0.03104565 0.073514126 -0.08872457
000310 f7 57 e6 bc 52 b4 fe bd 3a 30 09 3d ab 50 b7 bb
       -0.028118117 -0.12436737 0.033493258 -0.005594333
000320 52 07 0d 3c 0c b8 85 bd d4 43 92 3c 82 3a 96 3d
       0.008607702 -0.06529245 0.017854609 0.07335378
000330 b0 cc 41 3e 04 f2 c4 bd b3 29 75 bb 44 3c 24 3b
       0.18925738 -0.09616473 -0.0037408888 0.0025060335
000340 5e 2b 4f 3d 58 0d a8 3d 39 10 af 3c 93 bb 4c 3e
       0.050578468 0.0820567 0.02137004 0.19993429
000350 b8 7f 15 3e 8d 6b 5f 3d be 30 3c 3d 8f a3 f4 37
       0.14599502 0.054545928 0.04594492 2.916323e-05
000360 0e a0 a8 bd b8 45 bb bd ab 66 0c be b1 81 36 3d
       -0.08233653 -0.09144157 -0.1371104 0.044557277
000370 be a1 ad 3e 24 10 d5 3d 5d ed 50 3d c9 73 88 bd
       0.33912462 0.10403469 0.051007617 -0.06662709
000380 08 fe b4 bd b6 e7 de 3c c4 70 87 3e a4 03 5c bd
       -0.08837515 0.027210098 0.2645322 -0.05371441
000390 64 fe c9 3d 7a fc 1c 3d 03 9a 4c bd 8b c5 d8 bc
       0.09862974 0.038326718 -0.049951565 -0.026461383
0003a0 71 8b e6 3c c2 90 a5 bd a1 dc 3b be 51 70 dd bd
       0.028142663 -0.08084251 -0.18345882 -0.10812438
0003b0 f9 a5 c6 3d 3a dc 39 be 08 a1 97 bd a1 db 69 3d
       0.096996255 -0.18150416 -0.07403761 0.05709422
0003c0 d1 05 18 be 98 ed 7b 3e 91 3a 34 bc 09 2e 74 3d
       -0.14845969 0.24602354 -0.011000291 0.059614215
0003d0 a9 fd 4b 3d 6d 5b 67 bb be b7 8e 3d be 66 db 3d
       0.049802456 -0.0035302297 0.0696864 0.10712956
0003e0 72 b5 f6 bd 17 35 74 3d 60 14 1a be 30 05 b3 38
       -0.12046327 0.059620943 -0.15046835 8.5363514e-05
0003f0 e7 c7 06 bd d1 c8 ca 37 74 10 a9 3d e6 59 b3 bd
       -0.032905485 2.4173789e-05 0.08255091 -0.08757381

5.bias f4 [100]
000000 5d c0 a5 3e 27 9e 53 bd 33 11 2c 3d 01 9a 3c be
       0.32373324 -0.051664498 0.04200859 -0.18418123
000010 ff 51 b7 bd d6 83 03 3e 63 69 9a 3d 4d ab ab 3c
       -0.089511864 0.1284326 0.07539632 0.020955706
000020 42 d3 4d 3d 62 94 38 3d 5a b2 e8 3c 46 cb 99 3d
       0.0502503 0.045063384 0.028405357 0.075094745
000030 93 21 90 bd 45 6b af bd bf 06 d2 b9 86 f2 aa bd
       -0.07037654 -0.08565382 -0.00040059348 -0.08347039
000040 84 06 02 3e 05 8e 65 bc d9 15 19 bd a9 58 55 3e
       0.12697798 -0.014010911 -0.03737435 0.20834602
000050 97 6c 4b 3e 95 84 83 3c 9f 1b be 3d fc 34 10 3c
       0.19865642 0.016054431 0.09282612 0.008801695
000060 27 03 fc 3c 69 ba 9e 3e 03 b8 a5 bd d4 c1 40 3e
       0.030763222 0.31001595 -0.08091738 0.1882394
000070 37 62 4b bd eb a9 3f 3e 71 8d 14 3e d4 cb a1 bd
       -0.04965421 0.18717162 0.1450708 -0.07900205
000080 af d2 81 3d cb 5d 08 be a2 22 b7 bc 6f 12 aa 3e
       0.06339013 -0.13317029 -0.022355381 0.3321719
000090 e4 1c 80 be 33 10 05 3e 49 7f 55 3e 13 19 06 3e
       -0.25022042 0.12994461 0.20849337 0.13095503
0000a0 04 00 5f 3e 81 5f 88 3d e6 25 41 3d b7 1d 83 3d
       0.2177735 0.06658841 0.047155283 0.06402152
0000b0 df 9a bc 3d ac e3 15 3e d3 4a 7f 3d e0 08 6c 3e
       0.09209227 0.14637631 0.062327217 0.2305026
0000c0 c2 30 72 3e 16 d8 b8 3d 1b 67 ed 3d 90 5d 15 3e
       0.23651412 0.0902559 0.115919314 0.14586473
0000d0 40 5a ab 3c 8b ab ff 3d da 14 87 3e 84 5b b8 3c
       0.020917058 0.12483891 0.26383096 0.022504576
0000e0 d0 fe 18 3e 94 f9 e6 bb aa 23 72 3e 7e 08 ab 3e
       0.14940953 -0.007048795 0.23646417 0.33404917
0000f0 4b b6 fe 3d 9e c5 54 bd cf 14 b9 bc 36 b9 a1 3d
       0.124371134 -0.051946275 -0.02259293 0.07896654
000100 97 c4 61 bd 08 a9 21 bd 87 06 a5 bd 7f e2 8f bd
       -0.055119123 -0.03946784 -0.080578856 -0.070256226
000110 c5 38 8c bc 43 cd 58 3e 1c ad 92 3e 3a b3 b6 3d
       -0.017116914 0.21172051 0.28647697 0.089209035
000120 b3 9d a4 bd cb 30 c3 3d 48 d7 a4 bd e3 06 69 3d
       -0.08037891 0.09530791 -0.08048874 0.056891333
000130 f1 79 b8 3d cf 34 e5 3d 04 f6 49 bd 8e 4d 9b 3c
       0.090076335 0.11191713 -0.049306884 0.01895788
000140 23 9d 8d 3c 20 89 ce 3d 65 19 c7 3c e1 12 6b 3e
       0.017286843 0.10084748 0.024304101 0.2295642
000150 01 60 47 3d c7 e6 b8 bd 12 e0 86 3e b5 c0 e4 3d
       0.04867554 -0.09028392 0.26342827 0.111695684
000160 e8 c5 db bc 43 ba 2b 3d 98 46 0c 3e 63 1b 25 3e
       -0.026827767 0.04192568 0.13698804 0.16123728
000170 87 fa fe 3d ee 99 14 3e 5d fa 8b 3d 58 42 8e 3d
       0.12450128 0.14511845 0.068348624 0.06946248
000180 a6 71 01 3c ca 76 9c bd 33 be fe 3d 4b 9f 65 3d
       0.007900631 -0.07639845 0.12438621 0.056060117

7.weight f4 [10, 100]
000000 68 90 95 be 0f ac b8 3c 1f c9 3e 3e be 79 40 3d
       -0.29211736 0.022542981 0.18631409 0.046991102
000010 7c c1 4e 3e bd 5f 4d 3c 71 65 e7 3b a2 2c 10 3e
       0.20190996 0.012535033 0.0070616533 0.14079526
000020 73 43 11 3e 3c 74 a2 3d 5e db 6f 3d 50 9f ef 3d
       0.14185886 0.07932326 0.058558814 0.11700308
000030 51 c5 bd b8 37 ff 33 bc 75 f1 0c bd 5a 9a 4e b8
       -9.048975e-05 -0.010986141 -0.03440996 -4.925798e-05
000040 4f 51 dc be 48 05 ac 3d 95 e4 05 38 bc 1e 30 bd
       -0.43030784 0.08399445 3.1922555e-05 -0.04299806
000050 de a0 06 be de 7c 4e be 05 dd 21 3d 0d b6 79 3e
       -0.13147303 -0.2016482 0.03951742 0.24385853
000060 79 4c b0 3d b1 4d 14 3e 26 c2 b9 b6 ae 0f c3 3d
       0.08608336 0.14482762 -5.5360315e-06 0.09524475
000070 27 59 63 3c b4 0b e1 bd 5b 9f a1 3d 69 71 e8 36
       0.013876236 -0.1098856 0.07891723 6.9273415e-06
000080 15 6b f1 bd bb 03 04 be 4d 53 a0 bd 4d 16 c1 3e
       -0.117880024 -0.12892048 -0.07828388 0.37712327
000090 28 0c 0a be 5f 87 09 3e e1 dd 62 3e 82 05 6b bd
       -0.134812 0.13430546 0.22154953 -0.0573783
0000a0 d5 a9 bb be 7f 04 70 be c0 1f e6 bd 5e 04 ff 3c
       -0.3665301 -0.23439215 -0.112365246 0.031130012
0000b0 2f e3 39 3e 32 3e 81 be 9d 36 19 3e 5d e0 e5 3d
       0.1815307 -0.25242764 0.1496224 0.112244345
0000c0 75 27 0c bf 22 a4 b5 3d 5b fc 88 3d b6 25 95 3d
       -0.54747707 0.088691965 0.06688758 0.072825834
0000d0 ae c4 b6 bd d8 48 37 be e5 86 91 be 4b 08 13 3e
       -0.089242324 -0.17898881 -0.2842323 0.14358632
0000e0 81 ee b8 be 1f 42 37 3e 56 36 92 ba f3 e5 9b be
       -0.36119464 0.17896317 -0.0011155109 -0.30448875
0000f0 aa f9 dd bd 3a bd d5 3d b6 a8 b8 37 d9 73 2e be
       -0.10838635 0.10436483 2.2013071e-05 -0.1703638
000100 87 34 bf bd c9 e6 08 3e a1 eb 55 b8 5f 11 0d 3e
       -0.09336191 0.13369288 -5.1002604e-05 0.13776158
000110 2d 6d 1d be 4d d8 26 be 33 50 c0 bd fc 0d 2d bc
       -0.15373679 -0.1629345 -0.09390297 -0.010562416
000120 81 48 50 b7 65 5b ab be 80 69 3c b8 a4 84 22 3d
       -1.2414647e-05 -0.33468166 -4.4920947e-05 0.039677277
000130 bc bf a4 be bb c3 80 be e3 2b ce bd 1a 84 0f 3e
       -0.32177532 -0.2514933 -0.100669645 0.14015236
000140 20 1e 0d 3e 35 cc 59 bd 6b 8d 11 bd 1b 7d 8c 3d
       0.13781023 -0.053173263 -0.035535257 0.068597995
000150 5f df d0 be c6 0c 07 38 87 62 11 39 9f ef a3 3d
       -0.4079542 3.2198404e-05 0.00013864982 0.080046885
000160 58 30 a1 b4 26 95 54 3c 76 2d 77 bd d9 41 a6 bd
       -3.0023762e-07 0.012975013 -0.06034609 -0.08118028
000170 f0 99 67 3d d0 5f da 3c fb a0 e1 3d 11 dc 5d 3c
       0.05654329 0.026657015 0.11017033 0.013541237
000180 b9 a1 27 3e 32 fd db ba d6 36 58 3e d0 90 01 bf
       0.16370286 -0.0016783832 0.21114668 -0.5061159
000190 6a dc 0f 3d 6b 71 31 be 1d 62 19 be 85 c8 88 bc
       0.035122313 -0.17328422 -0.14978833 -0.016697178
0001a0 0f d3 27 3e 33 48 fe bd dc a3 fa bd 60 c0 22 3e
       0.16389106 -0.12416115 -0.12238285 0.15893698
0001b0 97 8d 20 3d e2 7a 94 bb 26 c2 5d be e6 e8 d8 3c
       0.03919753 -0.0045312503 -0.21656093 0.026478242
0001c0 c2 a2 80 b8 87 e3 49 bd df ae b8 3d 36 38 81 37
       -6.1338316e-05 -0.049289253 0.09017729 1.5404174e-05
0001d0 6c 5b e0 3d eb a6 a6 3d 5d e4 08 38 76 bd 39 3e
       0.10954937 0.08137306 3.2637607e-05 0.1813868
0001e0 d2 3c b7 3e 17 89 13 3e d4 3a aa be 4e c4 dc bd
       0.3578859 0.14407764 -0.33248007 -0.1077963
0001f0 00 90 17 3d 66 67 17 bc da 65 40 b7 b6 bc 7c be
       0.037002563 -0.009240961 -1.1467806e-05 -0.24681363
000200 15 1d 4b bd 27 66 22 bc 83 e3 9e be 88 ce c7 b6
       -0.04958828 -0.00991205 -0.31032953 -5.9547056e-06
000210 e0 b5 bb bc 76 f3 84 be 5b c2 d8 3d 26 10 b0 3e
       -0.022913873 -0.25966996 0.10583945 0.3438732
000220 e7 9c b9 bd 65 f3 3b 3d 22 92 5c 3e 80 10 f2 bd
       -0.0906313 0.045886416 0.2154012 -0.118195534
000230 d0 32 39 3e cf 46 38 be 33 4e bf 3c ed 7f 9f be
       0.1808579 -0.17995761 0.023352718 -0.31152287
000240 67 a6 b0 3d 1c fe 9d be c2 77 10 be 79 e2 d9 3e
       0.08625489 -0.30857933 -0.14108184 0.42555597
000250 3f 44 a2 3d 50 7b ca 3d 70 ea 67 be 48 60 d3 3d
       0.07923173 0.09886801 -0.22648025 0.103210986
000260 dd cf 75 be 19 14 d7 be 93 66 d1 3c 11 9a 20 3e
       -0.24005075 -0.4200752 0.025561607 0.15683772
000270 e9 c0 09 3e d7 8c b8 be 01 ac 9e 3d e2 2e 07 3e
       0.13452496 -0.36044952 0.07747651 0.13201478
000280 bb 08 59 be be a9 a6 bc 4a 32 17 39 50 c2 8e be
       -0.21194737 -0.020344611 0.00014419216 -0.27882624
000290 ec bf a5 ba 6a 52 14 3d 9e 3f 08 b9 65 96 c1 3c
       -0.0012645698 0.03621141 -0.0001299367 0.023631284
0002a0 b6 e8 36 be 57 83 da bd 19 24 c9 bc cd 10 54 3e
       -0.1786221 -0.10669582 -0.024553346 0.20709534
0002b0 94 3a 06 39 90 f3 d4 bd a5 50 ac 35 63 61 ef bd
       0.00012801058 -0.10398018 1.2838469e-06 -0.11688497
0002c0 06 0f e6 3d 51 99 65 3e 7a 1a 8d bd c0 f3 f3 3d
       0.11233334 0.22421767 -0.06889816 0.11911726
0002d0 aa 21 06 3e d1 22 00 be 5f 7c d9 3d 5d 3a 01 3e
       0.1309878 -0.12513281 0.10619425 0.1261992
0002e0 03 c5 b8 3d 4a c8 bb 37 d5 46 51 3e e3 1c 33 be
       0.09021952 2.2385404e-05 0.20437177 -0.17491488
0002f0 12 bb b6 b8 6f 4b 6e be f4 f1 ce 3d 2e 1f 3f 3e
       -8.713281e-05 -0.23270963 0.10104743 0.18664238
000300 ef 97 1b be b9 dd 96 be ff 7e 27 3e 48 e8 14 3e
       -0.15194677 -0.29466036 0.16357039 0.14541733
000310 f6 a8 01 3e 7f 2f 76 3d e3 16 ae 3e df 45 ea 3b
       0.1266211 0.06010389 0.34001836 0.0071494426
000320 af 59 da 3d 4d 2d be 3d 81 41 d6 3d 56 d7 8e 3d
       0.10661637 0.09285984 0.10461713 0.06974666
000330 37 b6 48 3d 04 98 35 be fb 4d b7 3d 31 a7 81 3d
       0.0490019 -0.1773377 0.089504205 0.06330717
000340 41 76 0d 3d 03 c2 42 be ea a6 cd 3d a0 89 a8 bc
       0.034536604 -0.19019322 0.10041602 -0.020573437
000350 ac cb cd 34 99 de e4 ba 77 fa 38 3d c2 a2 b6 b6
       3.8332416e-07 -0.0017461359 0.045160737 -5.44297e-06
000360 c5 a2 de 3d fc a4 c7 be 23 1c c9 38 42 64 10 be
       0.108708896 -0.3899306 9.589668e-05 -0.14100745
000370 bb d8 ac be f3 64 a2 3c fe 1f 4b be 81 a8 11 bd
       -0.33759102 0.019823527 -0.19836423 -0.03556109
000380 e8 08 ef 3d ad 7a 69 3e 7b 1d 09 38 29 a9 0d 3d
       0.116716206 0.22800703 3.26908e-05 0.03458515
000390 70 45 92 3c d3 aa c8 be 68 88 c4 bc 9e 73 7a 38
       0.017855376 -0.3919283 -0.023990825 5.971232e-05
0003a0 61 44 81 bd e5 03 29 3d c3 42 5a 3d ef 47 08 3e
       -0.0631187 0.04126348 0.053286325 0.1330869
0003b0 7c 07 1f 3e 9f 2a 7f 3e 1e ae b7 3c d6 5a d2 3c
       0.15530199 0.24918602 0.022421893 0.02567808
0003c0 f6 a4 36 be af 30 30 3e d6 7a 8c 3d 3b 0e f2 3d
       -0.17836365 0.17206071 0.068593666 0.118191205
0003d0 34 3c 10 3d f6 68 50 3d 81 34 2f bd 0e 15 46 be
       0.035213664 0.05088135 -0.04277468 -0.19343969
0003e0 79 d2 28 3e 74 e4 04 be ad bb 2a be b5 18 ed bd
       0.16486539 -0.12977773 -0.16673155 -0.11576978
0003f0 24 73 eb 3d 0e 4e 4b bd 7a d9 12 be d7 1e 9f 3d
       0.11496571 -0.049634986 -0.14340773 0.07769554

7.bias f4 [10]
000000 57 3f ea bd 25 d4 47 3d 3d 7b c5 bd b3 c9 82 3c
       -0.11437862 0.0487863 -0.096426465 0.015965318
000010 f4 59 cc bd ee f2 0e 3e 81 76 da bc 5b 16 8d 3d
       -0.09978095 0.13959858 -0.026667835 0.068890296
000020 15 7e 21 be 08 aa d8 bc
       -0.15770753 -0.026448265
