models/mnist_skip_large.pt (torch, 290129 bytes, 28 tensors)

1.weight f4 [50, 784]
4.7770864e-06 -6.576849e-05 0.00017153622 6.8767324e-05 -0.00034572472 -0.00020424442 -8.05925e-05 -0.00047174556
-0.0005300829 -6.573269e-05 -0.00034056584 7.6257897e-06 -0.00047922548 -0.0006422996 -6.510143e-05 -0.00057466474
4.24577e-05 8.934761e-05 0.00017853863 -0.00045039074 -0.00016036688 -3.9524486e-05 -0.00041983128 -0.00010563252
-0.00014325014 -4.585259e-05 -0.00026784925 5.9263937e-05 -0.00032418146 -9.905246e-05 -0.00023634381 -0.00050012075
-0.0003657534 -0.0005014424 -0.00040313284 0.00020501511 0.00027865422 -0.00061184977 -0.00022501513 2.0879046e-05
0.00013921042 -5.268615e-05 -0.00035798518 -0.0002064394 2.246752e-05 -0.0004864832 -0.0005050743 -0.00032870323
8.483565e-05 -0.00016148413 -0.00025258536 8.74775e-05 -0.00029584015 -0.00024974882 -0.00037250124 -0.000115127645
2.726921e-05 -0.00034340686 -0.00014170054 8.754426e-05 -0.00025264086 -0.00026950202 -0.00023889054 -0.00057294435
-0.00032413905 -0.00037413518 -0.0007202906 -0.00079668104 0.00018380403 0.00014142743 -0.0008677184 -0.00081565394
0.00012289683 -4.9849023e-06 -0.0005017087 -0.00072551914 -0.00091325364 -0.0004017415 -0.00037528013 -0.0007725665
-0.0006320709 -0.0004569156 -0.0004493222 -0.00043011786 -0.00058997166 -0.0007549854 -0.00029883807 -0.00043560678
-0.00015247586 -0.0007075454 -0.00037348174 -1.927525e-05 -0.00066569186 -0.0008718039 -0.00023239973 0.00014689773
0.0021785107 0.0017111435 -0.0012076343 -0.0013086703 -0.0021190401 -0.001928294 -0.0019351318 -0.0011466813
-0.0004563048 0.00028910436 0.0004108002 -0.00030754064 -0.00031907856 -0.00029103135 -0.0006671019 -0.0008037661
-0.00024417194 0.0001154006 0.00017492786 -0.0002708576 2.1491252e-05 -7.968041e-05 -0.000784547 -0.0016025031
-0.0017511863 0.0011465654 0.0011690031 0.012332062 0.010055921 -0.0027551262 -0.0047160205 -0.055269267
-0.06374141 -0.032471735 -0.016616892 -0.0026720727 -0.000863652 -0.0013827858 -0.00084166497 -0.0006577621
-0.0008852119 -0.0012816575 0.00016664957 0.0001579307 -6.350722e-05 -0.0001453661 -0.00023468606 -0.00051827665
-0.0007338679 -0.0006979683 -0.0013317177 -0.0006813026 -0.003991834 -0.021221463 -0.009233934 0.0016421442
0.069072984 0.035295438 -0.09084316 -0.24111563 -0.2296063 -0.07122009 -0.034366224 -0.052036714
-0.052994303 -0.0014475056 -0.0014021909 -0.0028388845 -0.001099411 -0.00020690385 -0.0002324563 -0.00017806582
3.1522228e-05 0.00017888649 -0.00022243675 -0.0005250526 -0.00057367684 -1.0431693e-05 -0.0005019578 -0.008327801
-0.04927528 -0.054394666 -0.008282783 0.028784564 0.12814088 0.15037994 0.042612977 -0.10509194
-0.037693076 0.08706117 0.1312473 0.032970466 -0.028985828 -0.029291559 -0.019776486 -0.00564231
-0.0024509472 -0.0002414854 -0.00097519055 -0.0001937606 -0.00043844694 -5.9395843e-05 -0.0010041179 -0.000806085
-0.00014695727 -0.0010254119 -0.00197183 -0.0050674956 -0.037598986 -0.012905885 0.038672097 0.16288954
0.251877 0.18391375 0.009503458 -0.10148226 0.06375609 0.18829817 0.19237189 0.03417208
-0.04294623 -0.11105112 -0.16751066 -0.052704267 -0.001956507 -0.0008081405 -0.0009534834 -0.00025179738
-0.00031042795 -6.9667453e-06 -0.0005640418 -0.0010849293 -0.00049532996 -0.0010717142 -0.002038174 -0.026457554
-0.072866924 -0.062369507 0.017040296 0.22202039 0.20693281 0.021392943 -0.19764921 -0.24345441
0.024222948 0.18804732 0.18235104 0.003735545 -0.10313143 -0.107385315 -0.10436755 -0.031116808
-0.002861659 -3.193702e-05 -0.0003772759 -0.00013434564 -0.0003245312 -6.874577e-05 -0.0004929504 -0.0008018295
00000000: dc4a a036 30ed 89b8 67de 3339 2d37 9038
00000010: 6342 b5b9 722a 56b9 c503 a9b8 9e54 f7b9
00000020: 43f5 0aba f8d9 89b8 f98d b2b9 09e1 ff36
00000030: 8e40 fbb9 ff5f 28ba 1087 88b8 19a5 16ba
00000040: 9c14 3238 2260 bb38 1936 3b39 6c22 ecb9
00000050: 2828 28b9 18c7 25b8 cd1c dcb9 0787 ddb8
00000060: 6b35 16b9 d851 40b8 1e6e 8cb9 2b92 7838
00000070: e6f6 a9b9 62ba cfb8 0fd3 77b9 891a 03ba
00000080: 97c2 bfb9 3b73 03ba 935b d3b9 53f9 5639
00000090: 5618 9239 8b64 20ba 0af2 6bb9 6925 af37
000000a0: 03f9 1139 53fb 5cb8 f5af bbb9 a877 58b9
000000b0: a278 bc37 ab0e ffb9 f666 04ba cd55 acb9
000000c0: cbe9 b138 1154 29b9 6f6d 84b9 2074 b738
000000d0: fe1a 9bb9 b8f0 82b9 454c c3b9 af70 f1b8
000000e0: 2fc0 e437 4a0b b4b9 7395 14b9 f797 b738
000000f0: e274 84b9 f34b 8db9 b17e 7ab9 a531 16ba
00000100: 35f1 a9b9 9327 c4b9 e2d1 3cba 5cd8 50ba
00000110: 85bb 4039 234c 1439 9977 63ba 9cd1 55ba
00000120: dedd 0039 fc43 a7b6 1a85 03ba c430 3eba
00000130: 6a67 6fba d5a0 d2b9 3fc1 c4b9 0f86 4aba
00000140: 8fb1 25ba 2c8e efb9 0193 ebb9 7181 e1b9
00000150: 54a8 1aba 36ea 45ba 5ead 9cb9 2762 e4b9
00000160: ede1 1fb9 917a 39ba dfcf c3b9 49b1 a1b7
00000170: d381 2eba c589 64ba 54b0 73b9 8f08 1a39
00000180: 58c5 0e3b 7348 e03a 7c49 9eba b087 abba
00000190: 98df 0abb cfbe fcba 40a4 fdba 3d4c 96ba
000001a0: 323c efb9 ee92 9739 ab60 d739 683d a1b9
000001b0: 004a a7b9 9195 98b9 73e0 2eba d4b3 52ba
000001c0: 3404 80b9 3a03 f238 d76c 3739 e401 8eb9
000001d0: 1d48 b437 181a a7b8 0faa 4dba 150b d2ba
000001e0: 1088 e5ba 5a48 963a 3c39 993a 6b0c 4a3c
000001f0: 97c1 243c 598f 34bb d988 9abb 0762 62bd
00000200: db8a 82bd 1501 05bd 2620 88bc f11d 2fbb
00000210: b466 62ba 983e b5ba 2ea3 5cba ab6d 2cba
00000220: 910d 68ba 4afd a7ba a7be 2e39 339a 2539
00000230: 2e2f 85b8 6a6d 18b9 0f16 76b9 f5dc 07ba
00000240: 0b61 40ba dcf7 36ba 088d aeba 7299 32ba
00000250: eecd 82bb a2d8 adbc ed49 17bc 373d d73a
00000260: 2376 8d3d f391 103d fb0b babd 04e7 76be
00000270: ea1d 6bbe d7db 91bd 99c3 0cbd 7324 55bd
00000280: 8e10 59bd 3aba bdba b8c9 b7ba 940c 3abb
00000290: 1d1a 90ba 54f4 58b9 83bf 73b9 2eb7 3ab9
000002a0: bc36 0438 7a93 3b39 e93d 69b9 afa3 09ba
000002b0: cd62 16ba c803 2fb7 d195 03ba 5471 08bc
000002c0: e0d4 49bd f1cc 5ebd 83b4 07bc 9bcd eb3c
000002d0: 5d37 033e 33fd 193e f28a 2e3d 713a d7bd
000002e0: 0e64 1abd 204d b23d b165 063e 0a0c 073d
000002f0: b073 edbc daf4 efbc 4c02 a2bc 20e3 b8bb
00000300: 12a0 20bb 3e37 7db9 eea3 7fba 372c 4bb9
00000310: 5adf e5b9 cd1f 79b8 9b9c 83ba 734f 53ba
00000320: 8b18 1ab9 1d67 86ba d139 01bb 3c0d a6bb
00000330: 6501 1abd 3573 53bc a266 1e3d 84cc 263e
00000340: 06f6 803e e353 3c3e 64b4 1b3c eed5 cfbd
00000350: 8e92 823d 3cd1 403e 23fd 443e 06f8 0b3d
00000360: 63e8 2fbd c56e e3bd ea87 2bbe 6ee0 57bd
00000370: be38 00bb 64d9 53ba 30f3 79ba ac03 84b9
00000380: efc0 a2b9 e3c3 e9b6 34dc 13ba 3034 8eba
00000390: 08d9 01ba c378 8cba e392 05bb 83bd d8bc
000003a0: 413b 95bd 2b77 7fbd 1798 8b3c 5059 633e
000003b0: 32e6 533e 4140 af3c 8e64 4abe 1d4c 79be
000003c0: 346f c63c 7a8f 403e 3bba 3a3e 0cd0 743b
000003d0: 9236 d3bd d5ec dbbd a7be d5bd ade8 febc
000003e0: ac8a 3bbb 1df4 05b8 1dcd c5b9 22df 0cb9
000003f0: d725 aab9 9b2b 90b8 5739 01ba de31 52ba

1.bias f4 [50]
-0.020472918 0.06461936 -0.14807655 -0.26173633 -0.14072257 -0.016755017 -0.15373804 0.1508472
0.07929723 -0.015826583 0.11954938 -0.02615957 0.021369277 -0.11373619 -0.27285278 -0.048079807
0.12906694 -0.35208917 -0.08400216 -0.2081634 -0.09405969 0.008491528 0.010773604 0.20182182
0.13394144 0.21393318 0.054752465 -0.22654144 0.21266547 0.23886925 -0.025109572 -0.0005218226
-0.0049901316 -0.04873165 -0.032563515 -0.10386665 0.00018213034 -0.18615265 -0.09356559 -0.21918595
-0.1926489 -0.099564396 -0.146628 -0.03551636 -0.10707503 -0.12197919 0.032414302 0.0794894
-0.070040524 0.13625555
00000000: d2b6 a7bc 2857 843d 61a1 17be 4e02 86be
00000010: 9419 10be d141 89bc 816d 1dbe b077 1a3e
00000020: 9666 a23d c0a6 81bc 4ed6 f43d 984c d6bc
00000030: 9f0e af3c 85ee e8bd 5cb3 8bbe 55ef 44bd
00000040: 202a 043e 0845 b4be 5309 acbd c928 55be
00000050: 5ea2 c0bd 0d20 0b3c c583 303c 61aa 4e3e
00000060: f227 093e 4d11 5b3e 1f44 603d 7bfa 67be
00000070: fac4 593e 249a 743e 97b2 cdbc ecca 08ba
00000080: 4284 a3bb d79a 47bd 5261 05bd 0ab8 d4bd
00000090: 3efa 3e39 cd9e 3ebe 519f bfbd 4872 60be
000000a0: c145 45be 6be8 cbbd a725 16be 9a79 11bd
000000b0: 274a dbbd 3ad0 f9bd dcc4 043d 57cb a23d
000000c0: 6871 8fbd 9386 0b3e

2.path.0.weight f4 [50, 50]
-0.059519127 -0.013565178 -0.040997673 0.18064761 0.074405625 -0.061436575 -0.22975548 0.10590755
0.20567356 0.18668793 -0.056038935 -0.016100325 -0.022910304 -0.111656904 -0.1962241 -0.0072710025
-0.2615777 -0.35808128 0.083156094 -0.008957497 -0.13863938 0.10561809 -0.0680133 -0.01498677
0.03475994 -0.061487388 0.034569852 0.16655782 -0.20588057 0.20539746 0.03195457 0.13928176
-0.12704346 0.06566607 -0.057188995 -0.11858542 -0.12613386 -0.080688044 0.053897586 0.0161761
0.1998862 -0.14550662 0.28929755 -0.16001087 0.0059727295 0.017216465 -0.013694656 0.10723958
0.12985241 -0.08195787 -0.2085612 -0.030383788 -0.039581403 0.04047434 0.12822686 0.105589814
-0.14783485 0.019649643 -0.07602144 -0.09336105 -0.03254545 0.22569542 -0.13945305 0.038387492
0.08304045 -0.092148155 -0.02327601 -0.052348983 0.049892016 -0.08664248 0.102579705 0.14998412
0.2631317 0.10007549 0.06748718 0.002366775 -0.090913996 -0.33689854 -0.043365363 -0.13660413
-0.25547847 -0.18308373 -0.04267781 0.041889366 -0.058260065 -0.07075 0.14305387 -0.23940286
-0.27009976 0.07819317 0.079337046 0.037363745 -0.36199304 0.07344418 -0.06374274 0.0058937813
0.004579344 0.10384894 -0.26602665 -0.003723084 -0.023894342 0.07627743 0.09845317 0.061857946
0.060458686 0.22225063 -0.20132104 -0.11950647 -0.054999597 -0.030545423 0.05957005 -0.14280821
0.05956806 -0.0917704 -0.08326693 0.1324967 -0.037661523 0.041967556 -0.2566409 0.0330274
-0.31623673 0.13612664 0.1416615 0.0689126 0.02278075 0.0008504967 -0.14333455 -0.073128335
-0.04549602 -0.08650698 -0.034879692 0.008434637 0.14748183 -0.07156615 0.14001417 0.23050548
0.053811897 0.17444028 0.024967052 0.0759253 -0.17454158 0.06788542 0.011720194 -0.1842598
-0.063862585 -0.05603071 -0.1664596 -0.028518066 -0.10599961 -0.077376716 0.093147784 0.029535748
-8.872468e-05 0.11031634 0.13940124 -0.038122598 0.22882569 0.15221915 0.019442882 -0.07100732
-0.013223278 0.16399013 0.031223632 0.0367328 0.12803027 0.03666492 -0.13503987 0.08987485
0.002449006 0.06241083 -0.0023391403 -0.19982417 0.23841481 0.3483549 0.03538344 0.07584484
0.01734425 0.23938712 -0.16155715 0.0017420013 -0.09929955 0.018428575 -0.3525394 0.006052626
0.11980582 -0.037041582 -0.0015293626 0.08841891 0.075678885 0.064255975 -0.09205595 0.057490535
-0.13497053 0.0593643 -0.34566024 0.12650262 -0.06718535 -0.11841839 -0.1563361 -0.13353421
0.024986941 0.061747864 -0.10830879 0.15441464 0.09764914 0.1275429 -0.067159705 -0.001995745
0.18409547 -0.1483546 0.096540615 0.20818147 0.09949901 0.08668119 -0.026131844 -0.2495614
-0.0044218013 -0.022990642 0.04269888 0.07897115 0.2015441 0.1068745 -0.019710222 0.17575562
-0.025278818 0.33233434 0.06292902 -0.041517295 0.0009071449 0.055204786 0.16278118 0.31342086
0.21405892 -0.041761804 0.19055423 -0.27203164 -0.22803588 -0.080743484 0.05977967 0.19069146
-0.12109211 -0.22743225 -0.03977455 -0.08989806 0.2326502 -0.190806 -0.22083785 0.04117788
0.045484237 -0.14071865 0.17138416 0.17826039 -0.23402901 0.11786406 -0.18220328 0.09023576
00000000: 54ca 73bd 7b40 5ebc 2ded 27bd b0fb 383e
00000010: fa61 983d eba4 7bbd 0545 6bbe 0fe6 d83d
00000020: 179c 523e 1f2b 3f3e 1589 65bd d4e4 83bc
00000030: 64ae bbbc 60ac e4bd f8ee 48be 9741 eebb
00000040: 83ed 85be 6e56 b7be be4d aa3d 77c2 12bc
00000050: 7bf7 0dbe 4c4e d83d 8f4a 8bbd 128b 75bc
00000060: 7060 0e3d 33da 7bbd 1e99 0d3d 228e 2a3e
00000070: 5bd2 52be b653 523e cce2 023d e19f 0e3e
00000080: ae17 02be ef7b 863d 023f 6abd eadc f2bd
00000090: 3c29 01be c63f a5bd b7c3 5c3d be83 843c
000000a0: f8ae 4c3e b0ff 14be cf1e 943e e4d9 23be
000000b0: e3b6 c33b 8b09 8d3c 8d5f 60bc 6da0 db3d
000000c0: 08f8 043e 87d9 a7bd 1191 55be 6ce7 f8bc
000000d0: 1c20 22bd 6cc8 253d e74d 033e 793f d83d
000000e0: 0562 17be 4af8 a03c 21b1 9bbd 1434 bfbd
000000f0: 614e 05bd b31c 673e c8cc 0ebe 343c 1d3d
00000100: 1d11 aa3d 2cb8 bcbd 55ad bebc e36b 56bd
00000110: 925b 4c3d 9d71 b1bd 4f15 d23d 7095 193e
00000120: 33b9 863e 61f4 cc3d b836 8a3d e51b 1b3b
00000130: 1e31 babd f77d acbe e19f 31bd f4e1 0bbe
00000140: 13ce 82be 4d7a 3bbe edce 2ebd 2f94 2b3d
00000150: 1ba2 6ebd 60e5 90bd b77c 123e 0626 75be
00000160: 844a 8abe be23 a03d 767b a23d ba0a 193d
00000170: 2757 b9be e769 963d 8e8b 82bd 9f20 c13b
00000180: 520e 963b c1ae d43d a534 88be fcfe 73bb
00000190: 11be c3bc 5737 9c3d d1a1 c93d c25e 7d3d
000001a0: 87a3 773d ab95 633e 1a27 4ebe cfbf f4bd
000001b0: 4247 61bd 653a fabc baff 733d 513c 12be
000001c0: a3fd 733d 1ff2 bbbd da87 aabd 37ad 073e
000001d0: f842 1abd 2ce6 2b3d 7066 83be bd47 073d
000001e0: c8e9 a1be c864 0b3e b60f 113e 0d22 8d3d
000001f0: b29e ba3c def3 5e3a 4bc6 12be 4fc4 95bd
00000200: 095a 3abd 922a b1bd 02de 0ebd 6f31 0a3c
00000210: 7a05 173e 4691 92bd e05f 0f3e a109 6c3e
00000220: dd69 5c3d 79a0 323e b487 cc3c b97e 9b3d
00000230: 07bb 32be 8307 8b3d 0e06 403c 9aae 3cbe
00000240: 63ca 82bd 7580 65bd 6374 2abe b89e e9bc
00000250: 5316 d9bd af77 9ebd 44c4 be3d f4f4 f13c
00000260: b311 bab8 89ed e13d 33bf 0e3e 7126 1cbd
00000270: 4851 6a3e 56df 1b3e ae46 9f3c 496c 91bd
00000280: 73a6 58bc 07ed 273e b4c8 ff3c 2275 163d
00000290: 5e1a 033e f52d 163d e447 0abe 4e10 b83d
000002a0: 817f 203b 80a2 7f3d 434c 19bb b59e 4cbe
000002b0: 0323 743e 935b b23e 3aee 103d 8a54 9b3d
000002c0: 8715 8e3c e621 753e 3d6f 25be dd53 e43a
000002d0: 905d cbbd 86f7 963c 0b80 b4be 1b55 c63b
000002e0: c15c f53d eab8 17bd e574 c8ba f914 b53d
000002f0: 88fd 9a3d a398 833d d487 bcbd 327b 6b3d
00000300: b735 0abe fb27 733d 61fa b0be e789 013e
00000310: 7998 89bd 5785 f2bd 9216 20be 31bd 08be
00000320: 6ab1 cc3c 54eb 7c3d 00d1 ddbd df1e 1e3e
00000330: 46fc c73d 9b9a 023e 078b 89bd 0ccb 02bb
00000340: 8683 3c3e 45ea 17be 16b7 c53d 862d 553e
00000350: 23c6 cb3d e885 b13d 7312 d6bc 068d 7fbe
00000360: c2e4 90bb df56 bcbc 05e5 2e3d a0bb a13d
00000370: 9461 4e3e 05e1 da3d 5577 a1bc 48f9 333e
00000380: 8615 cfbc ba27 aa3e eee0 803d 0a0e 2abd
00000390: 77cd 6d3a 6a1e 623d 1cb0 263e b378 a03e
000003a0: 4332 5b3e 6d0e 2bbd a620 433e bb47 8bbe
000003b0: 3d82 69be d75c a5bd 87db 743d 9f44 433e
000003c0: 24ff f7bd 00e4 68be a3ea 22bd 791c b8bd
000003d0: db3b 6e3e a662 43be 5123 62be 23aa 283d
000003e0: ae4d 3a3d 8d18 10be 547f 2f3e e489 363e
000003f0: 4da5 6fbe b662 f13d 7f93 3abe 87cd b83d

2.path.0.bias f4 [50]
0.16897151 0.3082653 -0.046723694 -0.0460033 0.15684289 -0.062483482 -0.0876312 -0.059990775
0.09113244 0.3009148 -0.23271506 0.22020236 0.22825871 0.24596049 0.1635842 -0.2518605
0.21194252 -0.13097963 0.038070332 -0.0043102955 -0.0010769675 0.02164768 0.059477106 0.14873198
-0.05469809 -0.026660452 -0.118239395 -0.18175735 -0.0016896859 0.14724639 0.16731492 0.23132068
-0.019135805 0.17645575 -0.022399118 -0.14552413 0.18759103 -0.17118981 -0.05494108 -0.13616148
0.02696885 -0.08738982 0.025510268 -0.06560991 0.010829294 -0.06380358 -0.2354639 -0.22061442
0.05042018 -0.049155302
00000000: de06 2d3e f3d4 9d3e 5861 3fbd f56d 3cbd
00000010: 6c9b 203e aeee 7fbd fd77 b3bd e3b8 75bd
00000020: a5a3 ba3d 8111 9a3e db4c 6ebe ba7c 613e
00000030: a7bc 693e 11dd 7b3e 9e82 273e dcf3 80be
00000040: 7607 593e 861f 06be a3ef 1b3d 613d 8dbb
00000050: 0829 8dba 7a56 b13c 449e 733d 324d 183e
00000060: 1b0b 60bd 0567 dabc 7f27 f2bd 991e 3abe
00000070: 7378 ddba c2c7 163e 9a54 2b3e 54df 6c3e
00000080: b1c2 9cbc d1b0 343e 5b7e b7bc 4704 15be
00000090: dd17 403e 624c 2fbe e609 61bd ea6d 0bbe
000000a0: c7ed dc3c 6ff9 b2bd e9fa d03c 7d5e 86bd
000000b0: 5a6d 313c 74ab 82bd 731d 71be bfe8 61be
000000c0: 6485 4e3d 1257 49bd

2.path.2.weight f4 [50, 50]
0.016105106 0.018455843 0.16780624 -0.09637755 0.122547425 -0.16161627 0.33947402 -0.08745235
-0.026280604 0.017271366 -0.32694492 -0.06528857 0.08229823 -0.03600857 0.20277768 0.08048596
-0.045667928 -0.32921746 -0.00020325257 -0.17324044 0.024205655 -0.04571945 0.10735223 0.121484116
-0.13235135 -0.2401815 -0.2527135 0.10659806 -0.04387718 -0.026694233 -0.08605396 0.11330022
-0.010358742 -0.06994129 0.0361466 0.0044124373 0.09447871 0.058788598 0.058734056 -7.4978595e-07
0.1446794 0.09259114 -0.22230744 0.31789556 -0.075170726 -0.045798067 0.02912659 -0.05233351
0.10406036 -0.07493286 -0.1426079 0.20584022 0.010835988 0.0014117478 -0.03296159 -0.084436275
-0.006587531 0.029924596 0.00662203 -0.0012355258 -0.13773353 0.021047654 0.20739809 0.0053847334
-0.13249262 0.24746497 -0.0367088 0.08492019 0.2578485 -0.19261533 0.01859549 0.1084255
0.16424914 -0.14133535 -0.068401285 0.1465351 -0.13556083 -0.029998127 -0.0848189 0.18112887
0.23693192 0.03864377 -0.14733434 0.15100652 0.054427892 0.06428815 -0.044710796 0.07267734
-0.04934528 1.3270328e-06 0.07929555 0.0015250406 -0.11300394 -0.0062315245 -0.006818314 -0.024986224
0.055174243 0.09566886 0.042030852 0.07232202 0.016552826 -0.03455169 -0.06485722 -0.11043465
0.36665347 0.0069794017 0.056391027 -0.041282747 -0.47878325 -0.08088297 -0.04520453 0.13237606
0.33904463 -0.07709283 0.16187851 -0.0672905 -0.032455176 -0.021803753 0.0892655 -0.020456614
-0.11331159 -0.0059279087 0.030683551 0.11766584 -0.1703043 -0.04714266 0.0071686823 -0.040139295
0.092305474 0.00079618447 -0.11112758 -0.026003564 0.016888691 0.054545462 -0.0029641122 -0.16367458
-0.10439548 0.13746656 0.17838338 0.00011271344 0.051249113 -0.13287838 -0.10218923 -0.075889856
0.05799707 -0.24419782 0.073898986 0.028562095 0.19961075 0.2559482 0.014987238 -0.22825244
0.068077736 -0.14462127 0.06143407 0.118609086 0.117347665 -0.15531847 0.16400525 0.041416116
-0.0097277695 -0.049074065 0.01143557 0.08215235 0.04706038 0.1148461 -0.20473632 -7.036567e-05
-0.15339494 0.084931 0.39015108 0.0028915156 -0.0006692114 0.06283267 -0.3298461 -0.11874889
0.09730036 -0.091149546 0.25900644 0.10586483 -0.16284965 0.025147865 0.21378572 0.023587612
-0.19667685 0.19444762 0.08809115 -0.1694571 0.10971519 -7.782365e-05 -0.12667581 -0.1341297
-0.13621947 0.14558597 -0.014817782 0.24307764 -0.04708402 0.19679615 0.014397182 0.13242544
0.07441784 -0.14581689 -0.093236454 0.009765474 0.2651966 -0.07902619 -0.10522541 -0.043064233
0.15203474 0.07280385 0.06687224 -0.060108438 0.09464434 0.07695865 -0.26793543 0.07139329
-0.04654551 0.054957747 -0.047700975 0.017756604 -0.038011096 -0.18078151 0.27434617 0.140228
-0.18011554 0.04829438 -0.21493407 -0.004968804 0.018661002 0.066056214 -0.14747095 0.06522984
0.19156931 -0.114340685 0.16902952 -0.02694682 0.15313245 0.10591065 0.03588641 -7.147527e-05
-0.04984152 0.13110295 -0.080961615 -0.10097153 -0.007261887 0.019666059 -0.03911525 0.03268825
-0.073059015 -0.09100801 0.090290934 0.13994908 0.055841915 0.2593034 -0.22821721 0.031003864
00000000: dbee 833c b530 973c 66d5 2b3e 9861 c5bd
00000010: 25fa fa3d bc7e 25be 8acf ad3e 381a b3bd
00000020: 6c4a d7bc ae7c 8d3c 5365 a7be 04b6 85bd
00000030: f98b a83d b97d 13bd f4a4 4f3e d3d5 a43d
00000040: 4b0e 3bbd 318f a8be 3220 55b9 f165 31be
00000050: f04a c63c 5144 3bbd 7cdb db3d aacc f83d
00000060: 1d87 07be 24f2 75be aa63 81be 1550 da3d
00000070: 8fb8 33bd ddad dabc 0f3d b0bd f209 e83d
00000080: b7b7 29bc 613d 8fbd 750e 143d 3596 903b
00000090: 0e7e c13d 50cc 703d 1f93 703d e644 49b5
000000a0: d626 143e 6ca0 bd3d 90a4 63be 35c3 a23e
000000b0: 1cf3 99bd c196 3bbd e39a ee3c aa5b 56bd
000000c0: 991d d53d 6676 99bd ce07 12be c7c7 523e
000000d0: 6e89 313c 650a b93a bb02 07bd edec acbd
000000e0: 37dc d7bb 6d24 f53c 9dfd d83b 5ef1 a1ba
000000f0: 050a 0dbe 216c ac3c 2a60 543e 6b72 b03b
00000100: 25ac 07be 7567 7d3e f75b 16bd a3ea ad3d
00000110: b804 843e f43c 45be 9255 983c 300e de3d
00000120: ed30 283e 37ba 10be f915 8cbd 4c0d 163e
00000130: 75d0 0abe a2be f5bc 88b5 adbd d979 393e
00000140: 489e 723e ee48 1e3d d0de 16be 74a1 1a3e
00000150: c8ef 5e3d 81a9 833d ab22 37bd dbd7 943d
00000160: 471e 4abd 801c b235 b565 a23d dfe3 c73a
00000170: 9c6e e7bd d131 ccbb 2a6c dfbb e9af ccbc
00000180: 63fe 613d 09ee c33d 8b28 2c3d 911d 943d
00000190: cb99 873c 1386 0dbd ddd3 84bd 902b e2bd
000001a0: 01ba bb3e 77b3 e43b 47fa 663d 1918 29bd
000001b0: 1423 f5be f8a5 a5bd 6328 39bd 978d 073e
000001c0: 4297 ad3e d8e2 9dbd 7bc3 253e 9acf 89bd
000001d0: b8ef 04bd c99d b2bc d5d0 b63d a194 a7bc
000001e0: e80f e8bd e73e c2bb 125c fb3c cafa f03d
000001f0: 4064 2ebe a918 41bd 44e7 ea3b 1a69 24bd
00000200: a70a bd3d 09b7 503a db96 e3bd 6d05 d5bc
00000210: 275a 8a3c 106b 5f3d 8d41 42bb 4f9a 27be
00000220: 4ccd d5bd 09c4 0c3e 22aa 363e 9160 ec38
00000230: 97ea 513d 4511 08be 9648 d1bd 246c 9bbd
00000240: 568e 6d3d fe0e 7abe 5a58 973d 0efb e93c
00000250: c366 4c3e a40b 833e 088d 753c 02bb 69be
00000260: 576c 8b3d 9917 14be 4ba2 7b3d 52e9 f23d
00000270: f953 f03d ce0b 1fbe fef0 273e f2a3 293d
00000280: 3961 1fbc e301 49bd 425c 3b3c 7e3f a83d
00000290: 63c2 403d 6f34 eb3d 66a6 51be 4891 93b8
000002a0: 9013 1dbe 4ef0 ad3d e2c1 c73e 957f 3d3b
000002b0: 046e 2fba 6aae 803d 97e1 a8be 9e32 f3bd
000002c0: 6945 c73d 9dac babd 7e9c 843e a9cf d83d
000002d0: 0fc2 26be e502 ce3c a5ea 5a3e cf3a c13c
000002e0: a865 49be 471d 473e 2269 b43d 2986 2dbe
000002f0: 5cb2 e03d 4135 a3b8 4eb7 01be 4c59 09be
00000300: 1e7d 0bbe 7d14 153e 48c6 72bc 58e9 783e
00000310: 2cdb 40bd ee84 493e 28e2 6b3c 899a 073e
00000320: 6168 983d 0651 15be c1f2 bebd 5eff 1f3c
00000330: d9c7 873e 7cd8 a1bd 6b80 d7bd 1f64 30bd
00000340: ffae 1b3e 2f1a 953d 50f4 883d 4434 76bd
00000350: e4d4 c13d 7f9c 9d3d d52e 89be a536 923d
00000360: 81a6 3ebd 601b 613d 1962 43bd 4c76 913c
00000370: 86b1 1bbd ca1e 39be 1a77 8c3e ee97 0f3e
00000380: 3570 38be 54d0 453d ad17 5cbe 59d1 a2bb
00000390: f5de 983c 7b48 873d a002 17be 3997 853d
000003a0: bf2a 443e 732b eabd 1316 2d3e 94bf dcbc
000003b0: c1ce 1c3e afe7 d83d a1fd 123d fee4 95b8
000003c0: 9f26 4cbd da3f 063e 34cf a5bd 29ca cebd
000003d0: 20f5 edbb b71a a13c 5037 20bd 1de4 053d
000003e0: f79f 95bd 6862 babd 74ea b83d d04e 0f3e
000003f0: 7eba 643d 6ac3 843e c6b1 69be d1fb fd3c

2.path.2.bias f4 [50]
-0.0030895644 0.21392055 0.06608517 0.007250949 0.020363493 0.17324278 0.113224454 0.14986235
0.15569662 0.035291992 -0.1416803 0.082042046 0.12622377 0.06408863 0.18911938 0.052135848
0.009957184 0.057625193 0.13071293 -0.13389982 0.19346114 0.053738285 -0.10574939 -0.0027468626
0.18645811 0.025412437 0.16366792 -0.17841114 0.06517952 -0.014871938 0.22008845 0.3277163
0.19913973 -0.14486499 0.13034104 0.23115715 -0.1331008 0.04496454 0.32136524 -0.15734328
-0.07086855 -0.26351285 0.18466534 0.23762836 -0.14816922 -0.03572955 -0.18821049 -0.025124028
0.1462251 -0.12988067
00000000: 4a7a 4abb fd0d 5b3e a957 873d 5e99 ed3b
00000010: 57d1 a63c 8e66 313e 39e2 e73d 8475 193e
00000020: ef6e 1f3e 568e 103d a414 11be a905 a83d
00000030: ce40 013e e640 833d 83a8 413e 668c 553d
00000040: 7523 233c 6508 6c3d 9cd9 053e 091d 09be
00000050: ad1a 463e ad1c 5c3d 2393 d8bd b504 34bb
00000060: e0ee 3e3e be2d d03c 9098 273e 69b1 36be
00000070: d77c 853d 6ea9 73bc de5e 613e 6eca a73e
00000080: 49eb 4b3e 7d57 14be 1f78 053e 76b4 6c3e
00000090: 934b 08be bd2c 383d fc89 a43e 991e 21be
000000a0: 8823 91bd 28eb 86be e918 3d3e d954 733e
000000b0: acb9 17be 2659 12bd 40ba 40be e8d0 cdbc
000000c0: 08bc 153e 70ff 04be

2.path.4.weight f4 [50, 50]
-0.067911915 -0.13805085 -0.021774113 -0.15383191 -0.13049735 -0.022999918 -0.093548395 0.0037881313
0.057006083 -0.023194058 -0.27091575 -0.24633543 0.12725997 -0.08632528 -0.011059652 0.10685344
0.021703046 0.1060372 -0.03981747 -4.415582e-05 0.11672074 0.16090833 1.9258528e-05 0.063929595
0.13781261 0.15390581 0.09672999 0.0859441 0.032591015 0.102354944 0.06574824 -0.18010199
0.023297314 0.04806331 0.13593897 0.049829938 3.4795456e-05 0.019107774 -0.07167014 0.026397051
-0.07176104 -0.010289263 -0.019380149 0.23255399 0.0011521679 -0.16707528 -0.028037822 0.15411858
-0.1284058 -0.109550245 -0.022623139 -0.103430524 0.018399017 -0.16436347 -0.09311639 0.01154727
0.010360481 0.0179497 -0.059077863 0.0021898712 -0.14229473 -0.11221133 0.19496188 -0.13342789
-0.033304676 0.01694856 0.043876473 0.10707604 -0.03285906 2.4079693e-05 0.08963593 -0.24924716
8.832271e-05 0.07914627 0.025975725 0.20643196 0.12220774 -0.073461056 -0.079198346 0.094132334
0.10269582 -0.039383743 -0.09308835 0.14406209 -0.036881 0.0715381 7.042254e-05 -0.30906397
0.029743407 -0.028293902 -0.1788132 0.05282669 0.01776889 -0.0120989755 0.047840133 0.2051961
0.044689775 -0.13089979 0.040186923 -0.0015909063 0.04885604 0.038473215 0.17905329 -0.1282646
0.07899738 -0.0272075 -0.08220874 -0.029206837 0.085055135 0.04765523 -0.050521173 -0.047629546
-0.007338843 0.001176343 0.12494193 -0.009439299 -0.021668999 0.046784233 -0.035765987 -2.6506723e-05
-0.09231953 -0.02930416 2.8932652e-06 0.18659072 -0.0007481064 0.3046932 0.13618448 -0.09903887
0.19611034 0.022406857 0.002852546 -0.18074985 -0.115557335 -0.04551768 0.034037534 0.070336856
4.637622e-05 -0.15925567 -0.18928918 -0.10542212 0.14489138 -0.1284087 -0.09323596 0.2693039
0.013034748 0.011967162 0.0064781164 -0.2287641 -0.04767741 -0.017453935 -0.030997043 -0.0057121273
-0.002493209 0.14075547 -0.013671506 0.13415006 -0.12176195 0.19391687 -0.2799404 -0.07787782
-0.08084135 -0.012416829 0.048271872 -0.14210142 -0.103068605 0.15086158 -0.06709567 -0.3181955
0.28865808 -4.2068164e-05 -0.12386532 0.02976812 0.00014019788 0.09663482 -0.061968483 -0.11790328
-0.010360575 0.09023831 -0.14662962 0.11274325 0.05579395 -0.059200637 -0.112001665 -0.011570254
-0.0011321476 -0.33181602 -3.335527e-05 0.1406373 -0.26071128 0.21902712 0.21230625 -0.06900595
-0.024102453 0.08035893 -0.08764669 0.07566271 -0.15294014 1.2937099e-05 -0.04979616 -0.3202323
-0.1634617 -0.19795112 0.089018844 0.17960584 -0.0972802 0.09330813 -0.12462267 -0.21671326
-0.08126926 -0.035641413 -0.06003293 -0.08886161 0.042014733 -0.04621953 0.017126972 -0.019310549
-0.13314807 0.0783959 0.029997185 7.279899e-05 0.35032016 -0.024029577 -3.4687728e-05 -0.016518395
-0.058788534 0.20594299 -0.057333726 0.10729697 -0.13192727 0.0007805326 0.09789601 -0.07486063
-0.09074141 0.29110157 -0.24569905 -0.16431646 7.6184166e-05 0.24105819 -0.09788223 0.19431472
-0.114030905 0.043114953 -0.035896055 -0.30287632 0.081338845 0.089473866 0.04611876 -0.115241125
-0.12992574 -0.19944984 -0.19675769 -0.11049969 -0.035336766 -0.07776804 -0.065943345 0.07703033
00000000: 6715 8bbd 345d 0dbe a05f b2bc 1d86 1dbe
00000010: 19a1 05be 536a bcbc 4d96 bfbd 4c42 783b
00000020: 367f 693d 7701 bebc 78b5 8abe 5b3f 7cbe
00000030: 7050 023e 4fcb b0bd 8b33 35bc fad5 da3d
00000040: 96ca b13c 082a d93d a517 23bd f333 39b8
00000050: 490b ef3d 27c5 243e 608d a137 85ed 823d
00000060: c01e 0d3e 7c99 1d3e 5f1a c63d 7603 b03d
00000070: 287e 053d 789f d13d 03a7 863d a86c 38be
00000080: 02da be3c 09de 443d 9633 0b3e 7a1a 4c3d
00000090: 56f1 1138 e887 9c3c cbc7 92bd a13e d83c
000000a0: 74f7 92bd 4c94 28bc 1ec3 9ebc a222 6e3e
000000b0: 5704 973a c815 2bbe 93af e5bc 43d1 1d3e
000000c0: cf7c 03be e15b e0bd 2954 b9bc 62d3 d3bd
000000d0: 89b9 963c e64e 28be ceb3 bebd c330 3d3c
000000e0: 02bf 293c 400b 933c a1fb 71bd f183 0f3b
000000f0: b6b5 11be 0ecf e5bd 16a4 473e 52a1 08be
00000100: 7c6a 08bd b5d7 8a3c d1b7 333d af4a db3d
00000110: 3997 06bd bffe c937 0b93 b73d a63a 7fbe
00000120: e539 b938 7117 a23d 0bcb d43c e662 533e
00000130: 0d48 fa3d c072 96bd be32 a2bd 74c8 c03d
00000140: 3052 d23d d950 21bd 1ba5 bebd 0385 133e
00000150: 8810 17bd 9182 923d d0af 9338 a23d 9ebe
00000160: 72a8 f33c 9dc8 e7bc cf1a 37be cd60 583d
00000170: 1090 913c c83a 46bc 04f4 433d ed1e 523e
00000180: a00c 373d 980a 06be 0b9b 243d f585 d0ba
00000190: 451d 483d 1796 1d3d bf59 373e cc57 03be
000001a0: 61c9 a13d 43e2 debc 0e5d a8bd 2d43 efbc
000001b0: 6331 ae3d 2132 433d 4aef 4ebd 3317 43bd
000001c0: ad7a f0bb 852f 9a3a 8ee1 ff3d 4aa7 1abc
000001d0: 2f83 b1bc d3a0 3f3d 5b7f 12bd c15a deb7
000001e0: 0612 bdbd 470f f0bc eb29 4236 a311 3f3e
000001f0: 921c 44ba bf00 9c3e f273 0b3e e4d4 cabd
00000200: 26d1 483e 968e b73c c8f1 3a3b 7d16 39be
00000210: 53a9 ecbd bf70 3abd f16a 0b3d c50c 903d
00000220: 1684 4238 eb13 23be 06d5 41be 8de7 d7bd
00000230: 685e 143e 927d 03be 7ff2 bebd 33e2 893e
00000240: b28f 553c ea11 443c 6146 d43b 2341 6abe
00000250: 6349 43bd 8efb 8ebc 83ed fdbc cc2c bbbb
00000260: 1b65 23bb 3422 103e 74fe 5fbc a25e 093e
00000270: 545e f9bd 2592 463e 5954 8fbe 687e 9fbd
00000280: 2690 a5bd f56f 4bbc bab8 453d 0983 11be
00000290: a215 d3bd 757b 1a3e 7469 89bd 85ea a2be
000002a0: feca 933e 5972 30b8 1aad fdbd 46dc f33c
000002b0: 1502 1339 7ae8 c53d aad2 7dbd 4677 f1bd
000002c0: 67bf 29bc ddce b83d 1326 16be efe5 e63d
000002d0: 3288 643d 5e7c 72bd 2161 e5bd 2a91 3dbc
000002e0: 9264 94ba cae3 a9be f3e6 0bb8 3903 103e
000002f0: f37b 85be a548 603e cf66 593e fe52 8dbd
00000300: 8272 c5bc 3993 a43d 1c80 b3bd 0df5 9a3d
00000310: 579c 1cbe 6b0c 5937 0ff7 4bbd 7df5 a3be
00000320: 8162 27be b3b3 4abe 834f b63d 98ea 373e
00000330: d73a c7bd 5518 bf3d 2c3a ffbd 15ea 5dbe
00000340: 7f70 a6bd bbfc 11bd 17e5 75bd 13fd b5bd
00000350: a417 2c3d b150 3dbd dd4d 8c3c 2831 9ebc
00000360: f857 08be 088e a03d a8bc f53c a9ab 9838
00000370: 2a5d b33e add9 c4bc aa7d 11b8 9651 87bc
00000380: 3fcc 70bd b8e2 523e c5d6 6abd 84be db3d
00000390: f117 07be a89c 4c3a b47d c83d 8850 99bd
000003a0: a2d6 b9bd 440b 953e 8898 7bbe 9342 28be
000003b0: 10c5 9f38 f5d7 763e 7b76 c8bd 70fa 463e
000003c0: 0989 e9bd 4e99 303d be07 13bd 9b12 9bbe
000003d0: fb94 a63d 133e b73d 06e7 3c3d 8a03 ecbd
000003e0: 410b 05be 943c 4cbe d97a 49be a94d e2bd
000003f0: 49bd 10bd da44 9fbd 4e0d 87bd 14c2 9d3d

2.path.4.bias f4 [50]
0.15112829 0.17387761 -0.031699862 -0.11896251 -0.13461408 0.087711975 -0.21655543 0.17169078
0.018187562 -0.12215906 0.014058609 -0.14926788 0.08389739 -0.026457608 -0.23115675 -0.11525535
0.042993106 -0.32530022 0.076659925 -0.13406388 -0.19539967 0.032156955 -0.084125 0.028387524
0.16002095 0.0794166 0.19953018 -0.13663183 0.27644068 0.2083683 0.2013884 -0.0339459
0.04814123 0.010154367 -0.07323379 0.10965266 0.03436327 0.04082405 -0.102624565 -0.062445547
-0.14468092 -0.16121346 -0.15425308 -0.029782232 -0.2312696 0.11910474 -0.07551687 0.17225942
-0.10768145 0.25701705
00000000: 60c1 1a3e f90c 323e b7d7 01bd 9ea2 f3bd
00000010: 46d8 09be 56a2 b33d b5c0 5dbe b5cf 2f3e
00000020: 15fe 943c 872e fabd 1456 663c aed9 18be
00000030: 65d2 ab3d a0bd d8bc 5bb4 6cbe ff0a ecbd
00000040: 8a19 303d c08d a6be e1ff 9c3d 0b48 09be
00000050: da16 48be 03b7 033d ba49 acbd f48c e83c
00000060: 88dc 233e 2ca5 a23d a451 4c3e 37e9 0bbe
00000070: a289 8d3e 805e 553e c338 4e3e db0a 0bbd
00000080: bd2f 453d 815e 263c 99fb 95bd 9391 e03d
00000090: 80c0 0c3d 1e37 273d d42c d2bd e7c6 7fbd
000000a0: 3c27 14be 2415 25be 85f4 1dbe def9 f3bc
000000b0: f0d1 6cbe 30ed f33d 97a8 9abd c664 303e
000000c0: 1888 dcbd bd97 833e

3.path.0.weight f4 [50, 50]
-0.0014322047 -0.19607711 0.12318597 -0.14617784 0.1365681 -0.06686416 -0.08572266 -0.15051681
-0.1821233 -0.11492863 0.24361585 -0.11640212 0.05737443 0.03555229 -0.20922926 -0.05247673
-0.027486566 -0.042792276 -0.19508272 -0.084542304 0.07974939 -0.02477377 0.03376526 0.104094766
0.007511544 -0.038942367 -0.09051068 0.11062911 0.06645761 -0.08414328 -0.04560737 0.07850902
0.14372633 0.11543274 0.11541909 -0.010672532 0.21516725 0.061472926 0.19262971 -0.046393547
-0.21653269 -0.08577104 0.14347138 -0.12711097 -0.12165087 0.19731294 -0.0813284 -0.124317855
0.14298598 -0.08910422 0.19387616 0.02409321 0.0018558275 0.12885346 -0.13593775 -0.022142155
-0.0143832415 -0.03830098 -0.09178925 -0.050533086 -0.021688147 0.007291008 0.18781486 0.18863364
0.0789162 0.012752667 -0.07742113 -0.11094718 0.16382006 -0.07294748 -0.1614077 -0.012592606
-0.2782227 -0.11946104 0.118536204 -0.035363365 0.2372743 0.15922931 0.12626606 -0.12677309
-0.020902332 -0.068251275 0.027110344 -0.2025641 -0.14810467 -0.092960194 -0.14230017 -0.009471831
-0.012011145 0.13362059 0.09138708 0.06687761 -0.066079356 0.044480477 0.07948594 0.003534124
-0.0010736655 -0.06228976 0.15091151 -0.1091411 -0.036419965 0.22088608 0.07026471 -0.057143576
0.24372827 -0.14394242 0.13938071 0.03321841 -0.24522048 -0.24798761 -0.19388945 -0.095456585
-0.12735496 -0.15034153 -0.024190422 -0.07404833 0.21068865 0.13112915 0.12199656 -0.04836161
-0.04767523 -0.09217466 -0.05334919 0.02304077 -0.06601807 0.13082045 -0.0951665 0.222283
0.031515907 0.07069585 -0.0024927943 -0.04399734 0.079106994 0.09117339 0.013570926 0.084414974
-0.48928636 0.025530567 -0.029060466 -0.24325193 -0.030568494 0.0561414 0.3322504 -0.1225166
0.08710437 0.0012560182 -0.056309775 -0.10377971 -0.40769517 0.039855514 -0.115606986 -0.15621632
-0.0700591 -0.035257794 0.055078227 0.06549524 -0.13679722 0.19223839 -0.023356806 -0.26639235
0.0206677 -0.09292916 0.1601101 0.1528012 -0.338718 -0.43391907 0.04036644 0.005615519
-0.1443427 0.13314332 0.06659854 0.27267003 -0.093469195 0.20375158 -0.056676414 0.11085764
0.19430564 0.08747053 -0.15535673 -0.06246664 -0.014185467 -0.1506186 0.2112052 0.276893
-0.24878916 -0.08592831 0.056177672 0.05687195 0.0027204822 -0.020277776 -0.12832263 0.055751715
-0.06188656 -0.099147685 0.050147537 -0.04963309 0.23954326 0.00955578 -0.049721267 0.09576556
-0.06448802 -0.11181932 -0.019599767 0.029310597 -0.054918543 0.2595606 -0.08497798 -0.104784995
-0.27417645 0.19277787 -0.033816308 0.00829007 0.27897057 0.013432403 -0.04515006 -0.12912609
-0.09234111 -0.076419964 -0.2170287 -0.21658501 0.1675008 0.022249281 -0.2890053 -0.08090572
0.0990638 -0.007069221 -0.19578278 0.035965618 -0.30219796 -0.10503765 -0.106342755 0.13904546
0.038148034 -0.23785126 -0.07914617 -0.07099891 -0.07281399 0.124711156 0.1721065 0.0031217686
0.057620734 0.035479583 -0.020908302 -0.14125843 -0.22173914 -0.21740556 -0.18198346 -0.18490495
-0.06880856 -0.048115928 -0.1370005 -0.092342846 -0.08322575 0.057576362 0.13524598 0.09639463
00000000: d1b8 bbba 70c8 48be ed48 fc3d a5af 15be
00000010: 82d8 0b3e 14f0 88bd 5d8f afbd 1421 1abe
00000020: 887e 3abe b45f ebbd 6f76 793e 3c64 eebd
00000030: 7301 6b3d 479f 113d 3240 56be d7f1 56bd
00000040: 822b e1bc f446 2fbd c4c3 47be 8424 adbd
00000050: a653 a33d 5cf2 cabc 714d 0a3d a32f d53d
00000060: 6623 f63b 0882 1fbd aa5d b9bd 8491 e23d
00000070: ed1a 883d 5053 acbd cbce 3abd 56c9 a03d
00000080: ff2c 133e 0068 ec3d d860 ec3d d8db 2ebc
00000090: ce54 5c3e 09cb 7b3d b940 453e 2907 3ebd
000000a0: bfba 5dbe baa8 afbd 29ea 123e 6129 02be
000000b0: 1724 f9bd 670c 4a3e 818f a6bd 5c9a febd
000000c0: eb6a 123e 467c b6bd 7987 463e 205f c53c
000000d0: 3d3f f33a 29f2 033e 4433 0bbe 7763 b5bc
000000e0: b0a7 6bbc 7de1 1cbd 01fc bbbd c8fb 4ebd
000000f0: 57ab b1bc 68e9 ee3b 8a52 403e 2d29 413e
00000100: d19e a13d 90f0 503c f88e 9ebd 4638 e3bd
00000110: 72c0 273e 7d65 95bd 0f48 25be 3851 4ebc
00000120: 3573 8ebe fda7 f4bd 1cc3 f23d 2dd9 10bd
00000130: 09f8 723e 020d 233e e44b 013e ced0 01be
00000140: 5e3b abbc 53c7 8bbd 8316 de3c f76c 4fbe
00000150: c0a8 17be ea61 bebd 23b7 11be bd2f 1bbc
00000160: 65ca 44bc d6d3 083e 2629 bb3d 21f7 883d
00000170: 9d54 87bd 2931 363d 86c9 a23d c39c 673b
00000180: 3cba 8cba 8c23 7fbd 8c88 1a3e 5e85 dfbd
00000190: 1a2d 15bd f62f 623e f2e6 8f3d 620f 6abd
000001a0: e793 793e a465 13be d1b9 0e3e 0710 083d
000001b0: 141b 7bbe 77f0 7dbe f58a 46be be7e c3bd
000001c0: 5769 02be 21f3 19be fe2a c6bc a7a6 97bd
000001d0: c4be 573e b846 063e 55d9 f93d d316 46bd
000001e0: 1a47 43bd 11c6 bcbd ae84 5abd ffbf bc3c
000001f0: 7b34 87bd ccf5 053e a7e6 c2bd 289e 633e
00000200: d316 013d fcc8 903d 265e 23bb 8e36 34bd
00000210: d902 a23d 1db9 ba3d 9758 5e3c c2e1 ac3d
00000220: be83 fabe 7b25 d13c 3710 eebc 0917 79be
00000230: c76a fabc 86f4 653d b91c aa3e fce9 fabd
00000240: c763 b23d faa0 a43a 14a5 66bd 758a d4bd
00000250: 6cbd d0be 893f 233d 5bc3 ecbd 2cf7 1fbe
00000260: 257b 8fbd 7a6a 10bd b599 613d 5e22 863d
00000270: 9214 0cbe 24da 443e c656 bfbc 9464 88be
00000280: 4f4f a93c a551 bebd e7f3 233e eb77 1c3e
00000290: 726c adbe a42a debe 4857 253d 6302 b83b
000002a0: 93ce 13be b956 083e d164 883d 689b 8b3e
000002b0: c76c bfbd 41a4 503e 8725 68bd 5509 e33d
000002c0: 0ff8 463e c023 b33d d615 1fbe 05dd 7fbd
000002d0: 296a 68bc c33b 1abe 2d46 583e ebc4 8d3e
000002e0: 96c2 7ebe 2ffb afbd 8f1a 663d 90f2 683d
000002f0: 1e4a 323b 941d a6bc 0267 03be e95b 643d
00000300: c37c 7dbd f10d cbbd 8167 4d3d 114c 4bbd
00000310: d44a 753e d98f 1c3c 87a8 4bbd bc20 c43d
00000320: 4c12 84bd 8701 e5bd b18f a0bc c71c f03c
00000330: 44f2 60bd 21e5 843e ef08 aebd 8499 d6bd
00000340: db60 8cbe 9067 453e f882 0abd 13d3 073c
00000350: 3bd5 8e3e 9513 5c3c 45ef 38bd a139 04be
00000360: 561d bdbd 1282 9cbd c63c 5ebe 76c8 5dbe
00000370: 5485 2b3e 2044 b63c 81f8 93be e6b1 a5bd
00000380: f6e1 ca3d eda4 e7bb 487b 48be af50 133d
00000390: b1b9 9abe fb1d d7bd 3bca d9bd ef61 0e3e
000003a0: 1d41 1c3d 488f 73be 6317 a2bd e067 91bd
000003b0: 801f 95bd 9068 ff3d b03c 303e 9696 4c3b
000003c0: b803 6c3d 0a53 113d e347 abbc 0da6 10be
000003d0: 960f 63be 909f 5ebe df59 3abe b957 3dbe
000003e0: 81eb 8cbd 3515 45bd dc49 0cbe 3f1e bdbd
000003f0: 4372 aabd 31d5 6b3d ec7d 0a3e 8c6a c53d

3.path.0.bias f4 [50]
0.030989723 -0.36982813 -0.27026212 0.11642709 -0.26551902 0.10650494 0.23258777 0.11245605
0.034265805 -0.1465752 0.1236521 -0.08578941 -0.15553226 -0.06528642 0.14715451 0.12268216
-0.1829436 0.11849855 -0.073558114 -0.045461606 0.090786934 0.19607696 -0.33446547 0.3676004
0.21467476 0.048088744 -0.16437082 -0.3100231 0.2031668 -0.2090819 0.02213055 -0.02098248
0.100069866 -0.058132607 0.07153876 0.116094664 0.15949008 0.13202538 -0.3116603 0.0043883016
0.0027567467 -0.07732629 0.08114537 0.14024031 0.019377882 0.33690104 -0.11294567 -0.08326091
0.008247963 0.16384551
00000000: 29de fd3c 1d5a bdbe cc5f 8abe 5371 ee3d
00000010: 1cf2 87be 431f da3d 7d2b 6e3e 5c4f e63d
00000020: 4d5a 0c3d cf17 16be 503d fd3d 5cb2 afbd
00000030: d943 1fbe e3b4 85bd acaf 163e c940 fb3d
00000040: 9155 3bbe 5eaf f23d a3a5 96bd f335 3abd
00000050: 80ee b93d 66c8 483e 0f3f abbe 1f36 bc3e
00000060: b3d3 5b3e b4f8 443d d350 28be 59bb 9ebe
00000070: f50a 503e 9119 56be 214b b53c 73e3 abbc
00000080: 6ef1 cc3d 751c 6ebd ea82 923d 0ac3 ed3d
00000090: 5e51 233e a931 073e f091 9fbe becb 8f3b
000000a0: 89aa 343b 3f5d 9ebd 8b2f a63d 289b 0f3e
000000b0: 5dbe 9e3c 4b7e ac3e 0f50 e7bd b284 aabd
000000c0: 7722 073c 1ec7 273e

3.path.2.weight f4 [50, 50]
0.18800336 -0.17624953 -0.16782418 -0.27400318 0.1770886 -0.27730933 0.08765189 0.17458513
-0.05644982 -0.008672917 0.01973524 -0.19431679 -0.19324435 0.14581296 0.07017391 -0.10186857
-0.13791588 0.13839157 -0.009631926 -0.0649656 -0.22365734 -0.046662223 -0.015534483 0.058022633
0.0093801245 0.21557511 0.30681115 -0.115092374 0.10743429 -0.019746955 0.153571 0.08915755
-0.10991991 -0.15838374 -0.08256802 -0.039891627 0.054943603 -0.19785818 0.0776545 -0.08967153
0.057623982 0.022447443 -0.16116692 -0.08055783 0.0073708487 0.0026567844 0.029810274 0.13999353
-0.11254606 0.05126436 -0.023307288 0.07416912 0.06842629 0.0028511742 0.08616452 0.16938408
-0.031949382 0.100084774 0.16505054 0.24644716 0.09480916 -0.00049229537 0.13792238 -0.18078847
0.09530839 -0.014971974 -0.12967187 -0.065294035 0.04905599 -0.028004633 -0.21036461 0.08500542
-0.14825381 -0.14666334 -0.111947566 -0.094890706 0.3065994 -0.09727762 0.035757516 -0.24723732
0.1402163 0.077964924 -0.16209187 -0.19716008 0.07879677 0.1568801 0.20503832 0.21252199
-0.1160877 -0.039794747 -0.020909157 0.038611162 0.116675556 0.16820103 -0.055847898 -0.024888813
-0.04247419 -0.029986683 0.052431352 -0.17772765 -0.11977701 -0.12014297 -0.50803536 -0.044453703
0.036411602 0.042225186 0.22643532 0.17963451 0.22796412 0.09948063 -0.045366976 0.1021792
0.036979467 -0.07966339 -0.110867076 -0.009560741 0.11386493 0.11007134 0.11588478 -0.018403567
-0.10041186 -0.26457116 0.26826692 -0.13447686 -0.0054144533 -0.03811602 0.025602333 -0.12062869
-0.16144814 0.003928467 0.045680624 -0.32239255 -0.15370193 -0.06291017 0.07040965 -0.04103217
0.18597627 0.0528937 -0.08025698 0.037307724 0.09327482 0.0009363874 -0.016935255 0.061846066
0.24679826 0.23578563 0.115334585 0.1268 -0.29361424 -0.15430129 -0.026492583 0.016610399
-0.020226061 0.12814371 0.3015888 0.042319063 0.07939787 -0.036573447 0.16524872 0.11156068
0.03792626 0.17856704 0.0825903 -0.10424325 0.07627284 -0.06360392 0.17033975 0.08384176
0.07154175 -0.18634114 -0.110984884 -0.13829184 -0.08711022 -0.38644117 0.040749673 -0.0228667
0.17181423 -0.34509194 0.032152712 -0.031487327 0.2710358 -0.048326377 0.09497182 -0.026355678
-0.011741634 -0.113496736 -0.15330583 0.14812829 0.107801706 0.10083098 0.19823392 -0.030049752
-0.035783116 0.30268547 -0.022368276 -0.13985927 0.06266615 -0.057769883 -0.005803021 -0.22729865
-0.10330234 0.12801787 -0.13707744 0.111787535 -0.19930878 0.022401365 0.06624893 0.029625108
-0.091125116 0.017512765 0.02722 -0.021515245 0.020909911 -0.17729856 0.019199608 -0.09170429
0.11667093 0.172073 -0.045986496 -0.009169786 0.22175093 -0.10870877 0.17285769 0.115250506
-0.0713247 -0.057004053 -0.2753345 -0.09695106 0.12669192 -0.06288095 0.04441579 0.15266114
-0.009465506 0.122034684 0.025892204 -0.08808707 -0.11196499 -0.1297637 -0.10364359 -0.19007641
-0.064737484 0.3530883 -0.18504146 -0.12277625 0.23736984 0.18340203 -0.054715913 -0.030420786
0.09257872 -0.03327058 -0.033087485 -0.028394615 -0.17090715 0.031194223 0.027905695 0.023095515
00000000: f483 403e c27a 34be 1ada 2bbe 254a 8cbe
00000010: b756 353e 7dfb 8dbe d682 b33d 72c6 323e
00000020: ed37 67bd da18 0ebc ccab a13c fbfa 46be
00000030: d9e1 45be fe4f 153e 57b7 8f3d 78a0 d0bd
00000040: d239 0dbe 85b6 0d3e 3acf 1dbc af0c 85bd
00000050: 6e06 65be e320 3fbd 5884 7ebc 24a9 6d3d
00000060: 18af 193c b9bf 5c3e 5a16 9d3e 8db5 ebbd
00000070: 8206 dc3d 5ec4 a1bc b741 1d3e 3c98 b63d
00000080: b11d e1bd 592f 22be 6c19 a9bd 6765 23bd
00000090: 8b0c 613d 569b 4abe 5309 9f3d b5a5 b7bd
000000a0: 2007 6c3d b3e3 b73c f108 25be 81fb a4bd
000000b0: 2987 f13b 721d 2e3b ad34 f43c 775a 0f3e
000000c0: 8c7e e6bd 94fa 513d edee bebc fbe5 973d
000000d0: 1523 8c3d c4da 3a3b 0677 b03d 0573 2d3e
000000e0: 5bdd 02bd 3ff9 cc3d 0203 293e a55c 7c3e
000000f0: 4e2b c23d 620d 01ba 863b 0d3e 9d20 39be
00000100: 0c31 c33d 034d 75bc b4c8 04be e1b8 85bd
00000110: efee 483d f969 e5bc d269 57be 5217 ae3d
00000120: d9cf 17be ea2e 16be c444 e5bd 0f56 c2bd
00000130: 99fa 9c3e 7d39 c7bd 7976 123d c82b 7dbe
00000140: dd94 0f3e 13ac 9f3d 69fb 25be 55e4 49be
00000150: 3360 a13d 2da5 203e 91f5 513e 5d9f 593e
00000160: 63bf edbd d1ff 22bd ae49 abbc bd26 1e3d
00000170: 98f3 ee3d e43c 2c3e c4c0 64bd a0e3 cbbc
00000180: 6bf9 2dbd a2a6 f5bc 42c2 563d 3dfe 35be
00000190: a64d f5bd 840d f6bd 9b0e 02bf 1615 36bd
000001a0: 5524 153d 51f4 2c3d a9de 673e 1cf2 373e
000001b0: 6d6f 693e 80bc cb3d b9d2 39bd 5443 d13d
000001c0: c877 173d 8f26 a3bd 470e e3bd a7a4 1cbc
000001d0: 0432 e93d 156d e13d 0055 ed3d 14c3 96bc
000001e0: bca4 cdbd df75 87be 485a 893e 4db4 09be
000001f0: ba6b b1bb 8b1f 1cbd fcbb d13c 2d0c f7bd
00000200: a952 25be 5fba 803b 9b1b 3b3d a310 a5be
00000210: 0a64 1dbe 0cd7 80bd ef32 903d 5911 28bd
00000220: 9070 3e3e 10a7 583d c65d a4bd fccf 183d
00000230: de06 bf3d e577 753a cebb 8abc 4d52 7d3d
00000240: afb8 7c3e ca71 713e 8a34 ec3d dcd7 013e
00000250: 9b54 96be 2801 1ebe f906 d9bc 8812 883c
00000260: 20b1 a5bc 1b38 033e d969 9a3e c156 2d3d
00000270: 5a9b a23d 0ace 15bd f636 293e ed79 e43d
00000280: 9158 1b3d 47da 363e 1a25 a93d 7c7d d5bd
00000290: ef34 9c3d c642 82bd 8b6d 2e3e 3bb5 ab3d
000002a0: 7b84 923d 36d0 3ebe 0b4c e3bd 609c 0dbe
000002b0: d866 b2bd 9edb c5be 21e9 263d f252 bbbc
000002c0: 12f0 2f3e e4af b0be 90b2 033d dbf8 00bd
000002d0: 34c5 8a3e e1f1 45bd 9680 c23d dde7 d7bc
000002e0: fc5f 40bc fa70 e8bd 34fc 1cbe f1ae 173e
000002f0: 24c7 dc3d 7980 ce3d d5fd 4a3e e62a f6bc
00000300: 5191 12bd 97f9 9a3e ad3d b7bc 4537 0fbe
00000310: 1c57 803d 1da0 6cbd 4527 bebb fac0 68be
00000320: 2d90 d3bd 1e17 033e 075e 0cbe ddf0 e43d
00000330: 9a17 4cbe 1183 b73c 85ad 873d 5bb0 f23c
00000340: ce9f babd ee76 8f3c 7afc de3c bd40 b0bc
00000350: 434b ab3c c18d 35be 7f48 9d3c 75cf bbbd
00000360: 2bf1 ee3d e833 303e 565c 3cbd df3c 16bc
00000370: ad12 633e b4a2 debd 9b01 313e 7508 ec3d
00000380: af12 92bd 157d 69bd a5f8 8cbe 478e c6bd
00000390: 87bb 013e bac7 80bd 55ed 353d 3453 1c3e
000003a0: 3615 1bbc 52ed f93d e31b d43c fe66 b4bd
000003b0: e74d e5bd c6e0 04be 1743 d4bd 64a3 42be
000003c0: 1695 84bd fdc7 b43e 827b 3dbe 1d72 fbbd
000003d0: 1411 733e becd 3b3e cb1d 60bd 0335 f9bc
000003e0: e999 bd3d bb46 08bd be86 07bd d39b e8bc
000003f0: 4902 2fbe 078b ff3c 7c9a e43c ce32 bd3c

3.path.2.bias f4 [50]
0.06893747 -0.07492643 0.021946508 -0.011700168 0.19325437 0.37148878 -0.05504753 0.07072813
-0.026533842 0.047664776 0.14112024 -0.2288123 -0.061803132 -0.07899233 -0.07526652 0.22535595
-0.13045879 -0.024624953 0.18461253 0.14271931 0.20412102 0.12601162 -0.034768242 -0.07226323
-0.13071036 0.074315175 0.18745948 0.10149361 -0.09865758 -0.19089451 -0.16287751 0.28223106
-0.06532866 0.11334595 0.15663765 0.1218739 -0.08913858 -0.101117864 0.15339509 0.033583034
0.0027788305 0.24818449 0.25955412 0.008408153 0.22809017 0.15009703 -0.022303775 0.053690486
-0.12533978 0.068252794
00000000: 172f 8d3d 0773 99bd 2ac9 b33c 10b2 3fbc
00000010: 79e4 453e c733 be3e 8579 61bd e9d9 903d
00000020: 805d d9bc 243c 433d d381 103e c64d 6abe
00000030: 4825 7dbd bbc6 a1bd 5525 9abd b6c3 663e
00000040: fd96 05be 45ba c9bc 110b 3d3e 0325 123e
00000050: 1a05 513e 3109 013e 2569 0ebd bffe 93bd
00000060: f0d8 05be 8e32 983d 61f5 3f3e e2db cf3d
00000070: fc0c cabd da79 43be 5dc9 26be 9780 903e
00000080: 08cb 85bd ec21 e83d 9f65 203e 0699 f93d
00000090: 4a8e b6bd e216 cfbd 9a13 1d3e 5d8e 093d
000000a0: 0a1d 363b 1324 7e3e 47e4 843e 5ac2 093c
000000b0: 7890 693e 09b3 193e 68b6 b6bc 8eea 5b3d
000000c0: 1259 00be 1fc8 8b3d
