models/mnist_conv_d.pt (torch, 94081 bytes, 12 tensors)

0.weight f4 [16, 1, 3, 3]
-0.051917892 1.03505 0.25206327 0.0037478325 0.00086323917 0.00018154159 0.0019581828 0.00035413142
-0.0019037802 0.00030015063 -0.0010984223 -3.32671e-05 0.007220706 0.0032290134 0.00095933717 0.19904524
1.1447836 -0.0069956253 -0.0017016543 -0.00041187834 0.00476298 -0.006721094 -0.0041813953 0.001179355
-0.060527794 0.015703268 1.1507742 -0.12336932 -0.04998664 -0.032123353 -0.092548065 -0.040320303
0.005387081 -0.21015957 -0.0072174896 0.005932366 0.11009286 0.060279172 0.036227908 0.053926807
0.044571154 -0.0067059463 0.17398177 -0.030753862 -0.007887127 -0.005873036 0.0007263391 0.0043706847
-0.0028642542 0.0010197919 0.002613207 1.3383164 -0.19002214 0.03202164 0.0076149423 0.009817443
0.0015687731 0.007900152 0.119953156 2.1349435 0.0025053301 0.0110401325 -0.0035661391 0.049655758
-1.1769314 0.31533077 -0.00980815 -0.0054734442 0.0010515166 -0.0036499165 0.0011680368 -0.0001401514
0.0016163185 0.0033936738 -0.010322027 -0.0009755497 2.3842592 -0.12718175 -0.0016394126 -0.004238914
-0.030846395 0.08810972 -0.014107526 -0.1006775 1.0496345 -0.004625645 -0.0051640356 0.023984727
-0.0010990979 -0.01291981 4.3755776e-05 -4.092494e-05 7.252826e-06 4.184971e-05 4.7538088e-05 8.180381e-05
5.2563773e-05 -1.2700809e-05 3.6625684e-06 1.13814185e-05 -0.00012728927 -0.00011040572 8.106505e-06 -7.487914e-05
9.198691e-07 6.182951e-05 -3.5104637e-07 -7.676349e-05 0.026549615 -0.03341421 -0.014862125 0.09718427
-0.014600987 0.0043374263 0.080549136 0.09800282 0.0007545679 1.3803308 -0.085634686 -0.066398256
2.0171814e-05 0.002360753 0.002670612 -0.0027465513 0.0014142282 0.0023001612 -0.07603925 -0.07755267
-0.04294458 0.026330344 -0.049356658 0.008847468 -0.08905514 0.09955621 0.0063195536 0.063255474
0.09445962 0.05040376 -0.07731101 0.056534052 -0.011627692 0.04702239 -0.15275283 -0.0085015595
00000000: dba7 54bd 857c 843f 700e 813e 329e 753b
00000010: 004b 623a 335c 3e39 db54 003b b7aa b939
00000020: 4388 f9ba 895d 9d39 f0f8 8fba 4788 0bb8
00000030: ac9b ec3b db9d 533b 077c 7b3a 84d2 4b3e
00000040: 4588 923f 8f3b e5bb 0b0a dfba 60f1 d7b9
00000050: c612 9c3b 9f3c dcbb 1604 89bb 9694 9a3a
00000060: feeb 77bd 24a4 803c 924c 933f 0ea9 fcbd
00000070: cbbe 4cbd c793 03bd d789 bdbd e726 25bd
00000080: 1c86 b03b 1234 57be b180 ecbb 4b64 c23b
00000090: 5e78 e13d 4be7 763d b763 143d 5be2 5c3d
000000a0: 3e90 363d 8ebd dbbb 4728 323e 86ef fbbc
000000b0: 0239 01bc 9972 c0bb cb67 3e3a f637 8f3b
000000c0: 36b6 3bbb 8aaa 853a 5742 2b3b f44d ab3f
000000d0: 2a95 42be 2029 033d c486 f93b 57d9 203c
000000e0: 4a9f cd3a a46f 013c 00aa f53d eaa2 0840
000000f0: 7730 243b ace1 343c e3b5 69bb d663 4b3d
00000100: b0a5 96bf 0973 a13e 5db2 20bc 945a b3bb
00000110: 0bd3 893a 7033 6fbb d018 993a 9bf5 12b9
00000120: a6da d33a 6668 5e3b b81d 29bc 08bc 7fba
00000130: b497 1840 ef3b 02be 8fe1 d6ba 97e6 8abb
00000140: 94b1 fcbc de72 b43d 4123 67bc 0130 cebd
00000150: 6c5a 863f b992 97bb 1237 a9bb 9e7b c43c
00000160: 9b0f 90ba 9cad 53bc 6886 3738 d2a6 2bb8
00000170: 4d5d f336 c987 2f38 a263 4738 168e ab38
00000180: ec77 5c38 8f15 55b7 72ca 7536 d2f2 3e37
00000190: f478 05b9 9f89 e7b8 2d01 0837 6f08 9db8
000001a0: ecec 7635 77aa 8138 7277 bcb4 16fc a0b8
000001b0: 947e d93c 57dd 08bd 4580 73bc 8c08 c73d
000001c0: fa38 6fbc f820 8e3b f2f6 a43d b4b5 c83d
000001d0: 32ce 453a aeae b03f 3d61 afbd cffb 87bd
000001e0: a436 a937 ddb6 1a3b 6f05 2f3b 7cff 33bb
000001f0: a05d b93a 4dbe 163b 77ba 9bbd efd3 9ebd
00000200: a8e6 2fbd bcb2 d73c 352a 4abd f8f4 103c
00000210: 8b62 b6bd 20e4 cb3d 4214 cf3b 168c 813d
00000220: 0c74 c13d 2c74 4e3d 3c55 9ebd 4090 673d
00000230: 1382 3ebc 8d9a 403d 3d6b 1cbe 204a 0bbc

0.bias f4 [16]
-0.10360248 -0.108319916 -0.093708746 0.22690395 0.5085736 -0.11097507 -0.18742642 -0.031182455
-0.19036615 -0.09811666 -0.25164503 -0.31487578 0.2266686 -0.11181087 0.27597764 0.35182905
00000000: 892d d4bd d5d6 ddbd 5fea bfbd 8259 683e
00000010: e131 023f e646 e3bd b6ec 3fbe 5972 ffbc
00000020: 58ef 42be 63f1 c8bd 9ed7 80be 6637 a1be
00000030: d01b 683e 19fd e4bd f14c 8d3e f022 b43e

2.weight f4 [8, 16, 3, 3]
0.060097635 0.18156359 0.056843206 0.2023374 0.42150468 -0.24454834 0.34088495 0.2855352
-0.30397567 0.031415593 0.14652205 -0.06735908 0.18568435 0.3325404 -0.3064343 -0.057644345
-0.037255544 -0.18131852 -0.0076503283 0.22839324 -0.22312503 0.3326341 0.1564413 -0.21001852
0.10899974 -0.14151853 -0.04200828 0.10958103 0.009644838 0.031441938 0.057960782 0.011636371
-0.030279594 0.06515421 0.022227265 -0.0037093642 0.14091396 0.04493919 0.056813877 0.09517478
0.05609723 -0.01939916 0.084040165 0.025511986 -0.014483055 -0.04154371 0.19603953 0.024333445
0.17953962 0.52140373 -0.24453375 -0.19350381 0.040891483 -0.27200586 0.06661524 0.15580721
-0.118683025 0.7262041 0.22492698 -0.16235046 0.1907398 -0.17715535 -0.008697434 0.05509557
0.15878539 0.026266456 0.17761166 0.36409935 -0.21456696 0.2998889 0.24479131 -0.26366925
-0.0107894 0.24887247 -0.060972095 0.49373257 0.98479575 -0.45012572 0.079971515 -0.0035053014
-0.33330438 -0.0038271828 0.05092355 -0.071183845 0.35501352 0.1868875 -0.067069426 -0.09108791
0.09638488 -0.18154249 5.941327e-05 -6.449563e-05 5.414637e-05 0.00012414217 -7.0082475e-05 8.999841e-05
-2.1144078e-05 4.204571e-06 -1.3332484e-05 -5.3415308e-05 -3.979121e-06 -7.861181e-05 -4.459958e-05 -3.3452066e-05
-0.00011016276 -2.064927e-05 2.297876e-05 8.089721e-05 0.053061187 -0.026713438 -0.010612196 -0.010871937
-0.043089632 -0.041666552 0.018726835 0.00020051177 0.0041593057 0.09564287 0.17768656 0.17472248
0.21813868 0.36606568 0.07962607 0.11256741 0.26436684 -0.21409181 0.1039983 0.042436868
0.024830963 0.04067151 0.033703547 -0.02819776 0.039669216 -0.009382545 -0.01949432 0.07013869
0.0014096797 -0.0027755944 -0.0022529834 -0.017398026 -0.040669672 0.01844749 -0.011773394 -0.006913516
-0.06855607 -0.18159322 -0.13291454 -0.013219724 -0.07084486 0.043411884 0.4407911 0.4350439
0.25535256 -0.056630123 -0.19779041 -0.20509896 0.275602 0.27988407 0.23389973 -0.029275868
0.047144037 -0.0029528178 -0.12787783 -0.23193794 -0.086596854 0.27060324 0.27733135 0.26445508
0.049737837 0.073140375 -0.071596384 0.046841532 0.028464321 0.041992895 -0.015777197 -0.043698274
-0.0010683815 -0.07172916 -0.08763965 -0.04426458 0.051377323 0.05400145 0.06452063 -0.048815027
-0.11700713 -0.071789294 -0.058038704 -0.09659793 -0.022580681 -0.011555121 -0.24318977 -0.34789753
0.2961194 0.36978373 0.2999148 -0.12614949 0.085288115 0.011432354 -0.36695158 -0.3683607
-0.23725432 0.2760598 0.2632437 0.2728228 0.36853668 0.2902809 -0.0008614923 -0.065582335
-0.16056508 -0.10995443 -0.019108668 -0.06322369 0.034750015 0.37414688 0.38558012 0.22177158
-0.21209759 -0.598416 -0.3810508 0.3277909 0.35525513 0.29607922 0.30496836 0.45426494
0.14690626 -0.07826275 -0.19763067 -0.22288144 0.23287588 0.093081586 -0.013630372 0.09867563
0.076468416 -0.06679083 -9.189856e-06 -3.288849e-05 -6.5396443e-07 0.00014564164 0.00011481021 -2.991592e-05
-2.021159e-05 7.4501055e-05 -0.00015580097 0.00010733255 -2.6142265e-05 -6.435369e-05 4.3800614e-05 -7.661899e-07
6.4833934e-05 -8.323777e-06 -7.0766306e-05 9.3857176e-05 0.027185202 -0.011061975 0.0024743916 0.047630098
00000000: f028 763d ceeb 393e 6cd4 683d 8931 4f3e
00000010: 76cf d73e e16a 7abe 7988 ae3e ab31 923e
00000020: b3a2 9bbe a3ad 003d e009 163e 8ff3 89bd
00000030: 0a24 3e3e bc42 aa3e f5e4 9cbe 7a1c 6cbd
00000040: 4599 18bd 90ab 39be 9baf fabb ebdf 693e
00000050: e37a 64be 044f aa3e 2632 203e 180f 57be
00000060: 413b df3d 3cea 10be e010 2cbd 056c e03d
00000070: 6205 1e3c 43c9 003d 4968 6d3d 7aa6 3e3c
00000080: e90c f8bc 926f 853d f415 b63c ce18 73bb
00000090: c04b 103e 2812 383d abb5 683d ffea c23d
000000a0: 36c6 653d fdea 9ebc 401d ac3d 83fe d03c
000000b0: 564a 6dbc bd29 2abd 96be 483e ef56 c73c
000000c0: 3cd9 373e b77a 053f 0e67 7abe dd25 46be
000000d0: d47d 273d 5a44 8bbe 926d 883d ed8b 1f3e
000000e0: 1610 f3bd 83e8 393f 4253 663e 333f 26be
000000f0: 4b51 433e 3668 35be af7f 0ebc e4ab 613d
00000100: a398 223e c02c d73c d5df 353e 3b6b ba3e
00000110: 71b7 5bbe 0a8b 993e 93aa 7a3e a8ff 86be
00000120: 06c6 30bc 6dd8 7e3e e0bd 79bd 84ca fc3e
00000130: 931b 7c3f e176 e6be 1bc8 a33d 33b9 65bb
00000140: dfa6 aabe 79d1 7abb 3695 503d d6c8 91bd
00000150: 55c4 b53e 705f 3f3e b25b 89bd 4c8c babd
00000160: 7065 c53d 46e6 39be 8332 7938 d441 87b8
00000170: 391b 6338 292c 0239 3ef9 92b8 87bd bc38
00000180: 905e b1b7 fd14 8d36 95ae 5fb7 400a 60b8
00000190: 6484 85b6 65dc a4b8 6f10 3bb8 e24e 0cb8
000001a0: 2e07 e7b8 f837 adb7 83c2 c037 5ca7 a938
000001b0: b056 593d 24d6 dabc c7de 2dbc 3520 32bc
000001c0: c17e 30bd 8caa 2abd 0569 993c 7840 5239
000001d0: c94a 883b 69e0 c33d 77f3 353e 73ea 323e
000001e0: bf5f 5f3e f66c bb3e fe12 a33d be89 e63d
000001f0: 175b 873e e23a 5bbe 10fd d43d 48d2 2d3d
00000200: 4e6a cb3c 2b97 263d bb0c 0a3d fdfe e6bc
00000210: 307c 223d 3fb9 19bc 8db2 9fbc e0a4 8f3d
00000220: 00c5 b83a bfe6 35bb caa6 13bb 4e86 8ebc
00000230: 3e95 26bd 311f 973c 32e5 40bc c78a e2bb
00000240: 2067 8cbd 93f3 39be c01a 08be 8b97 58bc
00000250: 1c17 91bd a9d0 313d 5faf e13e 13be de3e
00000260: 92bd 823e fdf4 67bd 9289 4abe 7605 52be
00000270: b51b 8d3e f74c 8f3e 6983 6f3e f2d3 efbc
00000280: 1b1a 413d 1084 41bb 68f2 02be 2481 6dbe
00000290: b159 b1bd 828c 8a3e 60fe 8d3e a866 873e
000002a0: e7b9 4b3d 9fca 953d 20a1 92bd e8dc 3f3d
000002b0: 022e e93c be00 2c3d 2e3f 81bc f6fc 32bd
000002c0: ef08 8cba bde6 92bd 6b7c b3bd c74e 35bd
000002d0: 0771 523d a030 5d3d 6423 843d 44f2 47bd
000002e0: 6fa1 efbd 4406 93bd feb9 6dbd 23d5 c5bd
000002f0: 1ffb b8bc b151 3dbc bd06 79be a01f b2be
00000300: f69c 973e 4b54 bd3e 6f8e 993e 552d 01be
00000310: 89ab ae3d c54e 3b3c 14e1 bbbe c699 bcbe
00000320: ccf2 72be b657 8d3e e1c7 863e 6eaf 8b3e
00000330: d7b0 bc3e b39f 943e c5d5 61ba 0850 86bd
00000340: 2c6b 24be ca2f e1bd c889 9cbc 6c7b 81bd
00000350: 0856 0e3d 2e90 bf3e c26a c53e 1718 633e
00000360: 1c30 59be ca31 19bf 1719 c3be 35d4 a73e
00000370: 00e4 b53e b297 973e d024 9c3e 6a95 e83e
00000380: 986e 163e 3848 a0bd b25f 4abe 083b 64be
00000390: 0477 6e3e 8fa1 be3d ec51 5fbc 7316 ca3d
000003a0: 799b 9c3d a1c9 88bd 222e 1ab7 bff1 09b8
000003b0: 188c 2fb5 61b7 1839 43c6 f038 f3f3 fab7
000003c0: 0f8c a9b7 733d 9c38 815e 23b9 b917 e138
000003d0: 164c dbb7 a0f5 86b8 8db6 3738 2bac 4db5
000003e0: 74f7 8738 5aa6 0bb7 5f68 94b8 30d5 c438
000003f0: 80b3 de3c 493d 35bc 6729 223b c717 433d

2.bias f4 [8]
0.08004469 -0.04135696 0.1760041 0.22068371 0.114583015 0.09675462 0.10169719 0.31258264
00000000: 78ee a33d ea65 29bd 6b3a 343e e9fa 613e
00000010: 80aa ea3d 4927 c63d 9e46 d03d d50a a03e

4.weight f4 [8, 8, 3, 3]
0.15817384 -0.0646744 0.067352064 0.4800067 0.27126396 0.059382137 -0.03568603 0.023362705
-0.021269025 -0.105709635 -0.2221122 -0.22754733 -0.12649418 -0.010740493 -0.10021 0.14604594
-0.2645739 0.06621849 0.014224735 0.07698603 0.12824178 -0.5684978 -0.053535536 -0.060768336
-0.045839813 0.059815936 0.055742312 0.09197342 0.0022065258 0.09313164 0.21569441 -0.19146173
-0.027706278 0.17575736 0.080347285 0.032665282 0.166712 0.2336906 -0.3139894 -0.10706409
-0.49159175 0.06566255 -0.3359405 -0.13265106 -0.12986436 -0.018157959 -0.040691584 0.037437093
-0.41279325 0.10007413 0.06890292 0.01844175 0.102991596 -0.15440734 0.22754066 -0.04549921
0.11085397 -0.7338456 0.22023062 0.017850123 -0.02841543 0.10649824 -0.10683996 0.04620694
0.19909565 -0.13121688 0.2664451 0.2202825 0.070611656 0.26358342 -0.18889073 0.15170285
0.14711897 -0.38900715 0.15191317 -0.15628421 0.047020752 0.00034550732 0.027287552 0.07821439
-0.22786509 -0.43720403 -0.09562229 -0.3113658 0.12983224 0.11086312 -0.0423274 0.017177694
-0.10448533 0.15380493 -0.30907765 -0.025491873 0.010067177 -0.18560095 0.08748407 -0.12612405
-0.13379131 0.043396335 -0.05862097 0.18470187 -0.14227419 0.18304352 0.19571082 0.091975965
0.21929768 -0.052081585 -0.10444414 0.16379613 0.3524483 0.2518633 0.001478265 -0.23891754
-0.21909045 0.25122082 0.15422876 0.0842272 -0.069377914 -0.39969546 -0.032457523 0.014440615
-0.20132363 0.1033496 0.024978979 -0.05266379 0.046484515 -0.02812502 -0.30123425 0.10302208
0.040845357 -0.0038698064 0.055740483 0.04718667 -0.15600216 -0.019276857 -0.029106306 0.13137004
0.2916671 0.0001069356 0.5273641 0.120556585 -0.21050933 0.1430708 0.0124154575 0.09389553
0.012568974 -0.0031554522 0.013477201 -0.023666352 0.09761249 0.16870001 0.016589314 -0.19588742
-0.113733545 -0.008904885 -0.07001908 -0.2192099 0.075026445 0.2016091 0.45551157 0.25206444
0.74536616 0.2503741 0.027950019 0.046346813 0.019578617 0.0360561 0.0020364241 0.10240316
-0.07210512 -0.28059235 -0.050167743 0.029686578 -0.09759532 -0.09411238 0.011560878 0.02187167
0.14383103 0.11987567 0.016444026 -0.107259065 -0.05250293 -0.10067071 0.069980286 0.16947348
0.30413064 0.49203366 0.014929657 -0.1973035 -0.1754787 -0.043710575 0.10738421 -0.08411317
-0.051161207 0.013070329 0.021008966 -0.10438234 -0.18769057 -0.025521206 -0.027049217 -0.011217712
-0.115559556 0.013117009 0.13847049 0.043999113 -0.12338727 -0.37288815 -0.009771957 0.03403636
-0.09375977 0.08201782 0.024549393 -0.21853592 -0.39662668 -0.031902928 0.27552372 0.29123434
-0.10366327 0.008966598 0.1826232 -0.08575812 -0.18612407 0.18532404 -0.018814381 -0.21959373
-0.013473663 0.13291313 -0.095964134 0.027790263 0.08960495 -0.13579729 0.005491033 0.0348976
-0.15877035 -0.29589465 0.013090816 -0.08075453 0.20085312 -0.07258328 0.051952943 0.26095647
-0.0015704584 -0.22272415 0.2743208 -0.1134965 -0.053358126 -0.05829642 -0.01728035 -0.039297525
0.28324935 0.16706705 -0.08225263 -0.029322086 0.052926052 0.2586766 -0.06600792 -0.004230297
00000000: 53f8 213e 0374 84bd e1ef 893d 70c3 f53e
00000010: 1ce3 8a3e af3a 733d 842b 12bd 2563 bf3c
00000020: 613c aebc 4b7e d8bd 6171 63be 2b02 69be
00000030: b187 01be e5f8 2fbc e73a cdbd 118d 153e
00000040: 3b76 87be 8f9d 873d dd0e 693c daaa 9d3d
00000050: d051 033e 1289 11bf 1448 5bbd 38e8 78bd
00000060: 87c2 3bbd 8e01 753d 0d52 643d 8f5c bc3d
00000070: 5c9b 103b cdbb be3d ffde 5c3e 8b0e 44be
00000080: 47f8 e2bc bdf9 333e 1e8d a43d 08cc 053d
00000090: 8db6 2a3e 974c 6f3e 38c3 a0be 6b44 dbbd
000000a0: eab1 fbbe 167a 863d 6500 acbe aed5 07be
000000b0: 2afb 04be 00c0 94bc 38ac 26bd a357 193d
000000c0: a359 d3be aaf3 cc3d f91c 8d3d 2713 973c
000000d0: 42ed d23d f51c 1ebe 6b00 693e 615d 3abd
000000e0: 6807 e33d 4edd 3bbf 2384 613e 6c3a 923c
000000f0: 7ac7 e8bc c01b da3d e9ce dabd 7d43 3d3d
00000100: bbdf 4b3e b85d 06be 7e6b 883e bc91 613e
00000110: d89c 903d 68f4 863e 926c 41be fe57 1b3e
00000120: 5ba6 163e f22b c7be 208f 1b3e f808 20be
00000130: d598 403d 3525 b539 258a df3c de2e a03d
00000140: 7755 69be 35d9 dfbe 9fd5 c3bd 576b 9fbe
00000150: bef2 043e 340c e33d 7f5f 2dbd 3cb8 8c3c
00000160: 68fc d5bd 0a7f 1d3e 6d3f 9ebe 55d4 d0bc
00000170: cdf0 243c 2d0e 3ebe d92a b33d aa26 01be
00000180: 9700 09be 5bc0 313d 8b1c 70bd 7d22 3d3e
00000190: 53b0 11be c36f 3b3e 6b68 483e e55d bc3d
000001a0: 928f 603e 8053 55bd cfe6 d5bd 2cba 273e
000001b0: 1b74 b43e 3af4 803e 58c2 c13a cda6 74be
000001c0: 3f59 60be 04a0 803e 25ee 1d3e 4f7f ac3d
000001d0: 0216 8ebd e2a4 ccbe 2ef2 04bd 5498 6c3c
000001e0: c827 4ebe f5a8 d33d b7a0 cc3c fcb5 57bd
000001f0: 8c66 3e3d 7166 e6bc 603b 9abe 3efd d23d
00000200: 764d 273d 949c 7dbb 2250 643d cf46 413d
00000210: 08bf 1fbe 80ea 9dbc 5970 eebc de85 063e
00000220: 6455 953e 9d42 e038 5501 073f 5fe6 f63d
00000230: c28f 57be 2781 123e 346a 4b3c 4d4c c03d
00000240: 19ee 4d3c b4cb 4ebb 7acf 5c3c f0df c1bc
00000250: 0fe9 c73d b2bf 2c3e 50e6 873c b696 48be
00000260: 22ed e8bd cbe5 11bc 2a66 8fbd 8f78 60be
00000270: 77a7 993d 9e72 4e3e d038 e93e 970e 813e
00000280: 51d0 3e3f 0931 803e 70f7 e43c 28d6 3d3d
00000290: 5663 a03c 90af 133d 8775 053b bfb8 d13d
000002a0: d9ab 93bd cda9 8fbe b17c 4dbd 4431 f33c
000002b0: 0ee0 c7bd febd c0bd d669 3d3c 372c b33c
000002c0: 7148 133e 6081 f53d 9fb5 863c a4aa dbbd
000002d0: 500d 57bd 722c cebd d351 8f3d 758a 2d3e
000002e0: 03b7 9b3e d6eb fb3e 859b 743c ee09 4abe
000002f0: b0b0 33be dc09 33bd 41ec db3d 8743 acbd
00000300: 6a8e 51bd ef24 563c ff1a ac3c 69c6 d5bd
00000310: f531 40be d911 d1bc 5296 ddbc 7fca 37bc
00000320: 7daa ecbd b9e8 563c 35cb 0d3e 6a38 343d
00000330: 77b2 fcbd 32eb bebe 8f1a 20bc b669 0b3d
00000340: 1f05 c0bd f5f8 a73d cf1b c93c e1c7 5fbe
00000350: a712 cbbe a5ac 02bd 7211 8d3e ab1c 953e
00000360: 694d d4bd a3e8 123c 9301 3b3e f4a1 afbd
00000370: 4f97 3ebe 96c5 3d3e 9e20 9abc 2edd 60be
00000380: a3c0 5cbc 611a 083e d888 c4bd 68a8 e33c
00000390: cd82 b73d 720e 0bbe 20ee b33b c9f0 0e3d
000003a0: b294 22be 817f 97be dd7a 563c a262 a5bd
000003b0: 71ac 4d3e 8ba6 94bd 9ccc 543d 169c 853e
000003c0: d7d7 cdba cd11 64be c773 8c3e da70 e8bd
000003d0: 0d8e 5abd 3ac8 6ebd 858f 8dbc 71f6 20bd
000003e0: 0f06 913e a013 2b3e 1174 a8bd df34 f0bc
000003f0: fdc8 583d 4271 843e 292f 87bd 4e9e 8abb

4.bias f4 [8]
0.060238235 0.36212018 0.025169784 -0.06761185 0.23039228 0.17646411 0.17873906 0.18222469
00000000: 5ebc 763d d167 b93e dd30 ce3c 1578 8abd
00000010: f4eb 6b3e 02b3 343e 5f07 373e 1c99 3a3e

6.weight f4 [8, 8, 3, 3]
-0.1052106 -0.43482205 -0.010686933 0.0017412233 0.09045887 -0.29216757 0.032078095 -0.060774308
0.23168404 0.069186136 -0.06790154 0.21027358 -0.019541197 0.07268498 -0.06751466 -0.18044816
0.11471241 -0.08417643 0.35605592 -0.035805937 -0.038910266 0.03952128 -0.069125496 -0.012251944
0.26594558 -0.07863128 -0.06970518 -0.10521544 -0.119201526 0.022497736 -0.1180014 -0.116732985
-0.04309073 -0.17425905 -0.15949349 -0.20943835 0.004887989 0.34835932 0.21768002 -0.05633262
-0.15081398 0.2963805 -0.023259293 -0.014713064 -0.17418855 0.0721035 -0.061877906 0.10881573
0.06378672 -0.16790529 0.118733704 0.32606998 0.0044910936 0.04525249 -0.1019236 0.09577479
-0.2108099 0.16282801 -0.17796059 0.04702331 -0.021769661 0.24551402 0.20889783 0.06307966
-0.2254661 0.04036371 -0.27229014 0.023034157 -0.13165934 -0.19393815 0.17835197 0.19950934
0.0037189196 0.34606507 0.18799955 0.24683921 0.1772932 -0.15994065 -0.12278373 0.0676845
0.046279192 -0.042393155 -0.33118007 0.3060131 -0.016780406 0.2697501 -0.21847944 0.0016573113
0.02138124 0.17900813 -0.15740876 -0.21260437 -0.02339758 -0.29526836 0.29319036 -0.15106666
0.109875925 0.110895224 0.4107675 0.031280294 0.118940406 0.21028006 0.025762845 -0.18153249
-0.26928303 0.06741316 -0.075249575 -0.10373173 -0.17485905 -0.17512436 -0.18945484 0.13449958
-0.03794691 -0.018649874 0.3166114 0.06103311 -0.060418747 -0.2978357 -0.15145697 0.021851541
-0.30434257 -0.035930816 0.07191007 0.20014846 0.13573615 -0.029710168 0.24448994 -0.010661163
0.027016442 -0.069014385 0.19326079 0.08208685 -0.1766515 -0.12237 0.10010419 0.013212609
-0.026076388 -0.08673456 0.056400765 0.025352841 -0.03094491 0.071305625 -0.17559464 -0.07884305
0.09360145 -0.08611862 -0.014061829 0.24880116 0.065744214 0.030659918 0.032408666 -0.4332182
-0.71544737 0.03329512 -0.025679732 0.04266429 -0.03342824 -0.009752694 0.2949098 0.0943943
0.095788136 0.073861755 -0.09042416 -0.14228015 -0.23554464 0.035645533 0.3142069 -0.04507467
0.11163144 0.08490769 0.112247735 0.07384585 -0.18113911 0.2810442 0.40957028 -0.33672684
0.10225666 -0.15583149 -0.17452869 0.0055539156 0.0072220345 -0.24138491 -0.007774996 0.121086
0.12354259 0.114157 -0.13999307 -0.21457426 0.15212458 -0.008292047 0.054777887 -0.17626502
-0.06952806 -0.12792538 -0.2044343 0.19641872 0.22483623 0.10249622 -0.22257024 0.082560405
0.47792932 -0.06312013 -0.31742105 -0.36703503 0.16596308 0.34803444 0.14279276 0.057611797
0.11597096 -0.3278222 0.21216428 0.1464598 -0.031479552 -0.32249814 -0.20336531 0.17236114
0.10722418 -0.07696837 -0.105386056 0.25211883 -0.048683755 0.32456398 0.06801604 0.20298094
0.14752236 0.115573205 0.030550526 0.20204006 0.18681078 -0.17254399 0.09610105 0.1274276
0.13111822 0.15036012 -0.061557613 -0.04546176 -0.07833836 -0.024858776 -0.0022583636 -0.2811479
0.15231104 -0.16983733 -0.072494976 0.08932232 0.19371407 0.04136127 -0.048709124 -0.19537872
-0.29822794 0.0052309497 -0.08647305 0.046072096 -0.09569562 -0.118525796 -0.21079464 -0.20252082
00000000: a878 d7bd ffa0 debe 3f18 2fbc c239 e43a
00000010: 8042 b93d fd96 95be 5264 033d 7bee 78bd
00000020: 953e 6d3e 76b1 8d3d f60f 8bbd f551 573e
00000030: dc14 a0bc dddb 943d 2045 8abd 67c7 38be
00000040: 57ee ea3d b164 acbd f64c b63e 3fa9 12bd
00000050: 5f60 1fbd 11e1 213d ab91 8dbd 61bc 48bc
00000060: 052a 883e 7009 a1bd 97c1 8ebd 317b d7bd
00000070: ee1f f4bd 2c4d b83c b8aa f1bd b411 efbd
00000080: e87f 30bd f770 32be 4352 23be 0277 56be
00000090: 6c2b a03b 275c b23e 83e7 5e3e 09bd 66bd
000000a0: fb6e 1abe 2fbf 973e 468a bebc 100f 71bc
000000b0: 7c5e 32be 00ab 933d b073 7dbd c8da de3d
000000c0: 9da2 823d 5def 2bbe a82a f33d a5f2 a63e
000000d0: 062a 933b ad5a 393d 52bd d0bd 9325 c43d
000000e0: 8dde 57be 63bc 263e 4d3b 36be 849b 403d
000000f0: 4a56 b2bc 0768 7b3e 50e9 553e e92f 813d
00000100: 96e0 66be 6b54 253d 9d69 8bbe 21b2 bc3c
00000110: b5d1 06be b997 46be e6a1 363e 2d4c 4c3e
00000120: 1eb9 733b 712f b13e f482 403e 6bc3 7c3e
00000130: 598c 353e 7bc7 23be 0976 fbbd 2c9e 8a3d
00000140: 408f 3d3d 72a4 2dbd 6f90 a9be c0ad 9c3e
00000150: 1077 89bc af1c 8a3e 13b9 5fbe 243a d93a
00000160: b627 af3c e84d 373e c32f 21be f6b4 59be
00000170: 48ac bfbc 6a2d 97be 0c1d 963e 38b1 1abe
00000180: a106 e13d 091d e33d 1e50 d23e c41f 003d
00000190: 0797 f33d a853 573e 9a0c d33c a7e3 39be
000001a0: 77df 89be e90f 8a3d 731c 9abd 4d71 d4bd
000001b0: 400e 33be cd53 33be 7300 42be 42ba 093e
000001c0: 386e 1bbd 9fc7 98bc e41a a23e dbfd 793d
000001d0: a679 77bd ec7d 98be 8917 1bbe 0102 b33c
000001e0: cad2 9bbe 312c 13bd 9645 933d b8f3 4c3e
000001f0: 6bfe 0a3e bd62 f3bc 925b 7a3e 29ac 2ebc
00000200: 9651 dd3c 6a57 8dbd 28e6 453e 271d a83d
00000210: 21e4 34be 1f9d fabd 6d03 cd3d b379 583c
00000220: 269e d5bc e4a1 b1bd 7d04 673d c3b0 cf3c
00000230: 2e80 fdbc af08 923d 15cf 33be 7778 a1bd
00000240: 1eb2 bf3d f65e b0bd 9663 66bc bbc5 7e3e
00000250: e7a4 863d 822a fb3c f3be 043d c7ce ddbe
00000260: 8f27 37bf 7760 083d 4d5e d2bc c0c0 2e3d
00000270: 0dec 08bd c3c9 1fbc 6bfe 963e cc51 c13d
00000280: 922c c43d d544 973d 4d30 b9bd e3b1 11be
00000290: 9d32 71be 0d01 123d badf a03e 38a0 38bd
000002a0: 069f e43d 15e4 ad3d 24e2 e53d 7e3c 973d
000002b0: 887c 39be 06e5 8f3e 32b3 d13e 7667 acbe
000002c0: f16b d13d 4a92 1fbe a6b7 32be 9ffd b53b
000002d0: d1a6 ec3b 9b2d 77be 65c5 febb f0fb f73d
000002e0: e603 fd3d 25cb e93d 585a 0fbe 5bb9 5bbe
000002f0: 8cc6 1b3e 5edb 07bc c75e 603d d17e 34be
00000300: ba64 8ebd dffe 02be 3a57 51be fd21 493e
00000310: 783b 663e 8ae9 d13d 74e9 63be 6e15 a93d
00000320: 27b3 f43e 2045 81bd 0385 a2be 04ec bbbe
00000330: 3af2 293e 9231 b23e 4438 123e 59fa 6b3d
00000340: 2f82 ed3d 50d8 a7be 9841 593e 8ff9 153e
00000350: b4f0 00bd 7a1e a5be ff3e 50be 707f 303e
00000360: 5a98 db3d 98a1 9dbd a5d4 d7bd b815 813e
00000370: 9e68 47bd 402d a63e fe4b 8b3d 3cda 4f3e
00000380: 1a10 173e a5b1 ec3d 1945 fa3c 97e3 4e3e
00000390: 534b 3f3e 5faf 30be a1d0 c43d 617c 023e
000003a0: db43 063e 01f8 193e d623 7cbd 1c36 3abd
000003b0: dd6f a0bd a2a4 cbbc 0e01 14bb 9ef2 8fbe
000003c0: 6df7 1b3e d6e9 2dbe 3f78 94bd 9fee b63d
000003d0: fb5c 463e 6f6a 293d 3883 47bd 5c11 48be
000003e0: 55b1 98be 6368 ab3b c818 b1bd 18b6 3c3d
000003f0: 11fc c3bd a7bd f2bd 8dda 57be 9e61 4fbe

6.bias f4 [8]
0.21101229 -0.15924154 -0.07012757 -0.07844893 -0.046031237 -0.0024954677 0.17375848 -0.09258247
00000000: 9b13 583e 3710 23be 0b9f 8fbd d5a9 a0bd
00000010: 408b 3cbd 008b 23bb beed 313e e19b bdbd

9.weight f4 [50, 392]
0.007220499 -0.1492136 0.2085236 0.5064818 0.264475 0.15364943 0.0044700713 -0.044651963
-0.04837855 -0.06910273 0.01415732 0.057013556 -0.14113575 0.048630387 -0.0005468704 -0.04948615
-0.06440547 -0.020858057 0.076356746 -0.07653639 0.0070851343 -0.027087787 -0.034492493 0.0550331
0.1462705 -0.00020374703 0.06336784 0.105906576 -0.015317466 0.13319336 0.02288983 -0.017951615
0.032322843 0.15484105 -0.0035247668 -0.00524259 0.036188964 0.087585956 -0.05736121 0.09153706
0.067930065 -0.05591449 -0.15524305 0.03017297 0.077606305 0.14239538 0.07264501 0.07849866
0.058915433 0.04652419 0.005012354 0.023375062 0.06566549 0.006711958 -0.1395419 -0.038395397
-0.16561629 -0.078877635 0.06716235 0.15039416 -0.04117843 0.0114211375 0.064336024 -0.059502877
-0.19670889 -0.028729096 0.06476888 0.15696529 -0.062017202 0.11038384 -0.16731425 -0.192522
0.061472826 -0.038777705 0.23251855 0.09220148 0.055127297 0.018040672 -0.15847537 0.016612072
-0.053222615 -0.082434356 0.051582426 0.036332514 -0.02933693 -0.02214196 0.03711668 -0.10860468
0.104627356 -0.35353422 0.073187426 -0.03300344 0.13306674 0.031617437 0.01646638 -0.08079044
0.06565344 0.05314875 -0.1005834 -0.25794646 0.0106922 -0.15055364 0.0802125 0.17455572
0.019027267 0.078619026 -0.17384309 -0.13620543 0.020550106 0.113688156 0.1242171 0.14452627
-0.024985902 0.064361505 0.058889706 0.011760858 0.22121333 0.13774815 0.1681236 -0.058423802
0.039089154 -0.07697583 0.06474355 -0.02432629 -0.0702847 -0.27647588 0.078656256 -0.054197554
-0.045179706 -0.06340442 -0.016351119 -0.030449608 -0.07029625 0.05091183 -0.08763258 -0.016390406
0.022527816 -0.15835866 -0.013371117 -0.122664765 0.018363953 -0.014938558 -0.15479617 -0.16148424
-0.004519253 0.06722231 0.071218126 -0.015881842 -0.05606912 -0.030932743 -0.13822706 -0.16404095
0.10008434 -0.017147683 0.0013412145 -0.1272392 0.0013956106 0.15872304 0.205217 0.16832384
0.019680845 0.0011592692 -0.078636974 0.023208944 0.14878738 0.05189396 0.14437646 -0.097180955
0.055042658 -0.21257542 -0.13036332 -0.000116539006 -0.024338977 0.027679214 0.031934656 0.09509735
-0.11739539 0.026746197 0.08823592 -0.15861484 0.11992888 -0.012507936 0.05718691 -0.117018774
-0.035945706 -0.06570326 0.107689194 0.08219755 -0.27605882 0.032474488 0.045436308 0.06129666
0.048978765 0.07476408 0.010090292 0.0068935724 -0.24047314 -0.42106172 -0.39561436 0.16733849
0.22529046 0.020327343 -0.094802886 -0.47093335 -0.077886105 -0.10273236 0.17146094 0.11778732
0.101929255 -0.03553598 -0.0853339 -0.018650582 0.01739901 0.18208663 0.043240204 -0.05342917
-0.36075103 -0.027042536 -0.074739985 0.021434382 -0.057532992 -0.14908017 0.031089112 0.027035505
0.03121937 0.05479867 0.0068561467 -0.021277767 -0.024401456 0.08434426 0.028331384 -0.106985584
0.06405036 0.12043989 0.011381615 0.05466214 0.019528119 0.06314838 0.00081590266 0.29618812
-0.008128455 -0.32235733 -0.14555064 -0.018466046 0.1715495 -0.008137189 -0.070798166 0.13640338
0.013776209 0.09385318 0.21613088 0.08665075 -0.24566303 -0.078329906 -0.05093327 0.078858085
00000000: f099 ec3b 73cb 18be 3687 553e cba8 013f
00000010: 4469 873e 4756 1d3e ad79 923b fae4 36bd
00000020: 9628 46bd bb85 8dbd 1bf4 673c 0c87 693d
00000030: e485 10be a830 473d da5b 0fba fdb1 4abd
00000040: 04e7 83bd 84de aabc ed60 9c3d 1cbf 9cbd
00000050: 6a2a e83b 35e7 ddbc 0048 0dbd 636a 613d
00000060: efc7 153e eda4 55b9 00c7 813d 8ce5 d83d
00000070: 1cf6 7abc d763 083e 7483 bb3c 440f 93bc
00000080: f564 043d a78e 1e3e c6ff 66bb 08ca abbb
00000090: e13a 143d 4460 b33d 97f3 6abd c877 bb3d
000000a0: eb1e 8b3d 9806 65bd 09f8 1ebe 4e2d f73c
000000b0: 0ef0 9e3d 18d0 113e e8c6 943d e8c3 a03d
000000c0: 4f51 713d 2690 3e3d ac3e a43b 0f7d bf3c
000000d0: a17b 863d fcef db3b 12e4 0ebe 7e44 1dbd
000000e0: 5197 29be 998a a1bd 6a8c 893d ed00 1a3e
000000f0: b7aa 28bd b91f 3b3c 9bc2 833d 4ab9 73bd
00000100: 0e6e 49be 4859 ebbc 8ca5 843d 82bb 203e
00000110: c005 7ebd ec10 e23d 6d54 2bbe 7d24 45be
00000120: eeca 7b3d 5fd5 1ebd 5819 6e3e 21d4 bc3d
00000130: 29cd 613d 08ca 933c 5e47 22be 0a16 883c
00000140: f5ff 59bd 58d3 a8bd 1848 533d 67d1 143d
00000150: 0054 f0bc 0e63 b5bc a907 183d 216c debd
00000160: de46 d63d 7002 b5be 4ae3 953d 9d2e 07bd
00000170: a642 083e 4981 013d 80e4 863c 7575 a5bd
00000180: 5075 863d 81b2 593d abfe cdbd 8f11 84be
00000190: 562e 2f3c bc2a 1abe 7446 a43d bcbe 323e
000001a0: 12df 9b3c 0303 a13d ec03 32be 7079 0bbe
000001b0: b258 a83c 56d5 e83d 8965 fe3d b2fe 133e
000001c0: 3caf ccbc f7cf 833d 5536 713d 9db0 403c
000001d0: bf85 623e da0d 0d3e 9828 2c3e cc4d 6fbd
000001e0: f31b 203d 81a5 9dbd 4498 843d ed47 c7bc
000001f0: 6df1 8fbd 3f8e 8dbe 8816 a13d 41fe 5dbd
00000200: 5b0e 39bd 2dda 81bd c8f2 85bc 7571 f9bc
00000210: 7bf7 8fbd ec88 503d b678 b3bd 2c45 86bc
00000220: 418c b83c c628 22be 8812 5bbc aa37 fbbd
00000230: 0070 963c dbc0 74bc e382 1ebe 205c 25be
00000240: 3e16 94bb daab 893d cfda 913d a31a 82bc
00000250: bca8 65bd aa66 fdbc 658b 0dbe 5afa 27be
00000260: 05f9 cc3d 4c79 8cbc b1cb af3a fe4a 02be
00000270: ecec b63a 4b88 223e 6824 523e 165d 2c3e
00000280: b939 a13c 9ff2 973a 6c0c a1bd af20 be3c
00000290: b85b 183e c38e 543d 6cd7 133e cf06 c7bd
000002a0: 6974 613d 5fad 59be f67d 05be 6766 f4b8
000002b0: 8962 c7bc 85bf e23c eacd 023d 66c2 c23d
000002c0: ff6c f0bd d71a db3c 09b5 b43d ee6b 22be
000002d0: 469d f53d 16ee 4cbc d23c 6a3d 8aa7 efbd
000002e0: ce3b 13bd 6e8f 86bd 278c dc3d 3057 a83d
000002f0: 9557 8dbe f803 053d 6c1b 3a3d 3512 7b3d
00000300: f59d 483d e91d 993d c151 253c 7ae3 e13b
00000310: 973e 76be 6795 d7be f78d cabe c85a 2b3e
00000320: 8bb2 663e 8785 a63c 0428 c2bd 2d1e f1be
00000330: c082 9fbd 5865 d2bd 7593 2f3e 7a3a f13d
00000340: 49c0 d03d 2d8e 11bd 8ac3 aebd 1bc9 98bc
00000350: 5e88 8e3c eb74 3a3e a41c 313d 8cd8 5abd
00000360: 5cb4 b8be 4f88 ddbc 4711 99bd 2897 af3c
00000370: b7a7 6bbd 79a8 18be 98ae fe3c 9079 dd3c
00000380: c4bf ff3c 9274 603d 87a9 e03b b64e aebc
00000390: 90e5 c7bc afbc ac3d 3817 e83c 421b dbbd
000003a0: d62c 833d 30a9 f63d f479 3a3c 68e5 5f3d
000003b0: 6ff9 9f3c f053 813d 4de2 553a f8a5 973e
000003c0: 362d 05bc 050c a5be 3a0b 15be 1b46 97bc
000003d0: acaa 2f3e d851 05bc a1fe 90bd 54ad 0b3e
000003e0: 9cb5 613c 1936 c03d 6a51 5d3e f375 b13d
000003f0: 178f 7bbe 6e6b a0bd 689f 50bd 5980 a13d

9.bias f4 [50]
-0.046917453 -0.039212167 -0.0344467 -0.025561258 -0.037301276 -0.024264013 0.07034082 -0.040311173
-0.054646775 -0.054752514 -0.06130502 -0.04369371 0.00805831 -0.047433566 -0.03994688 -0.018397268
-0.03529148 -0.033081803 0.06638588 0.055205904 0.08627587 0.09133359 -0.0349285 -0.04242056
0.21300128 -0.09342394 -0.050715394 -0.056699015 -0.059361223 0.033286177 0.102924325 0.021112284
-0.13365026 0.021768583 -0.009146784 -0.03773477 -0.02278322 0.07266983 -0.03710173 -0.034911007
0.007966445 0.08231327 0.13723247 -0.039659016 -0.049175803 0.037661918 0.030545486 0.044645444
-0.058647923 0.069379695
00000000: 842c 40bd f09c 20bd fc17 0dbd d865 d1bc
00000010: 39c9 18bd 53c5 c6bc d90e 903d 541d 25bd
00000020: 4cd5 5fbd 2c44 60bd f91a 7bbd 2df8 32bd
00000030: 0007 043c b349 42bd 579f 23bd deb5 96bc
00000040: cd8d 10bd c980 07bd 52f5 873d 961f 623d
00000050: 67b1 b03d 1b0d bb3d 3011 0fbd 2ec1 2dbd
00000060: 021d 5a3e 0d55 bfbd f2ba 4fbd 3a3d 68bd
00000070: c124 73bd 1657 083d fdc9 d23d abf3 ac3c
00000080: 9ddb 08be 0754 b23c 65dc 15bc c68f 1abd
00000090: e0a3 babc ebd3 943d fcf7 17bd d8fe 0ebd
000000a0: b185 023c dc93 a83d ab86 0c3e 7e71 22bd
000000b0: 916c 49bd 6243 1a3d 873a fa3c 24de 363d
000000c0: ce38 70bd f116 8e3d

11.weight f4 [10, 50]
0.028915485 -3.5309135e-05 -2.928594e-05 -7.0955975e-05 -0.18794169 -5.0583447e-05 -0.07169137 -0.00012267834
4.919177e-05 -3.587629e-05 -5.3082083e-05 -0.00013575812 -0.47397327 -4.6408128e-05 8.693853e-05 2.007688e-05
-3.5000186e-05 0.23100007 -0.090334035 -0.3062564 -0.12612481 -0.1928582 3.524033e-05 -0.24416664
-0.0525958 -0.3178547 -4.2055963e-05 0.15235986 -1.8782663e-05 0.091723144 -0.04812814 -0.026677508
0.020812077 0.30926552 0.31420976 -2.876047e-05 -0.0687011 -0.062522255 5.7462123e-05 -5.5947963e-05
-0.10583566 0.16115323 0.08369911 3.317326e-05 -8.620438e-05 0.10764817 -0.009120826 0.21056509
-4.4811713e-05 -0.1439759 -0.455785 2.913506e-06 -5.414337e-06 -0.00021264772 0.17230827 0.00010225361
0.05165548 -8.74402e-05 -7.2576135e-05 4.0464358e-05 -7.314481e-05 0.00014561541 -0.17101641 0.00013526289
-0.00013343658 -6.3805464e-06 -7.191031e-05 0.15615635 0.016296204 0.23333466 0.05013426 -0.28029242
4.217611e-05 0.14432481 -0.25709713 0.18756767 -4.7945065e-05 0.19260284 -3.4842828e-06 -0.08250112
-0.20471212 0.034210704 0.18704364 -0.0020396393 0.113043495 0.000120726196 -0.07722121 0.0058959466
6.3003594e-05 5.8012207e-05 0.06500361 -0.19103359 -0.096169904 7.5377e-07 -3.0784857e-05 -0.30816752
-0.00088622526 -0.11753086 4.1381772e-05 -0.5447218 -0.31930125 3.6563142e-05 -3.1040032e-05 6.7388835e-05
-0.101244874 -2.8359873e-05 0.16368009 -1.8498971e-05 -4.8834713e-06 3.1791642e-05 4.5096855e-05 5.7731897e-05
0.14805649 6.0403374e-05 -0.00020967767 -0.00013820095 9.755455e-06 0.04747751 0.08209636 0.09536782
-0.3746342 -0.0036928644 -6.0444163e-06 -0.045141738 0.046357974 -0.1659011 -3.781598e-05 -0.005859399
-5.1272556e-05 0.13889772 0.20734292 -0.23346184 0.047792245 0.312563 -0.33856016 3.1309315e-05
0.19922335 -0.24082394 1.6879688e-06 -1.779872e-06 0.04908476 0.07788696 0.031410668 -0.0001236402
5.4940494e-05 0.10050964 -0.070170335 0.10750318 -9.143413e-06 0.097987615 -0.19777839 4.9639243e-06
2.6023925e-05 -2.8662813e-05 -0.040582553 -8.040818e-05 -0.37094912 0.00013707273 -2.694633e-05 -1.9267785e-05
-5.6002802e-05 1.4801641e-05 0.12339088 -5.2685937e-07 4.4329736e-05 3.4482837e-05 -6.0893904e-05 -0.29530534
-0.31044215 0.058162235 0.14137268 0.07149031 3.4649496e-05 0.0038399948 0.15608864 -0.03172411
-6.167972e-06 -0.10670825 -6.2229636e-05 -0.049031414 0.024134353 0.24787584 0.008265263 0.092859626
0.01977281 -4.2199415e-05 0.18412435 0.14433761 -3.501098e-07 -0.00012211708 -0.009048018 -0.1480574
-0.09204583 0.00021472464 0.0002026287 -0.12105372 0.18764453 0.21355036 8.647188e-06 -0.17081636
-0.084053725 -6.9763286e-05 2.9401845e-05 4.854865e-05 0.08370791 -1.0733961e-05 0.13852644 -2.490827e-07
9.115168e-06 0.0001145632 3.4666778e-06 7.598646e-05 0.0023083517 -4.15364e-05 -4.7246092e-05 2.5993495e-05
6.388752e-05 -0.23572342 -0.028491678 -0.16022839 0.03226457 -0.35274166 -1.7480761e-05 -0.010770368
0.05978636 0.19456194 5.3948155e-05 -0.24930209 3.6918541e-07 0.34689832 -0.19978404 -0.11238666
0.047362603 -0.3551619 0.035106562 -3.1561653e-05 -0.29813176 0.18221387 -9.7342716e-05 -3.179295e-05
0.060902685 0.12568808 0.06344922 -4.3508535e-05 1.5761998e-05 0.19647855 -0.3026993 -0.4506107
-9.917729e-05 -0.010195413 0.16320409 -2.5933175e-06 1.7679537e-05 -6.8152135e-06 0.033871237 -5.2710042e-05
00000000: 2be0 ec3c e518 14b8 14ab f5b7 33ce 94b8
00000010: c973 40be 9029 54b8 edd2 92bd 37a3 00b9
00000020: 4353 4e38 e079 16b8 74a4 5eb8 4b5a 0eb9
00000030: a0ac f2be 59a6 42b8 c552 b638 c66a a837
00000040: 2acd 12b8 488b 6c3e 0d01 b9bd a4cd 9cbe
00000050: dd26 01be 9f7c 45be 04cf 1338 d206 7abe
00000060: b26e 57bd dabd a2be 3f65 30b8 3904 1c3e
00000070: 768f 9db7 58d9 bb3d 0322 45bd ca8a dabc
00000080: 177e aa3c 0d58 9e3e 1ae0 a03e a442 f1b7
00000090: 2ab3 8cbd ab0b 80bd 7c03 7138 aba9 6ab8
000000a0: 5ec0 d8bd 5a05 253e 706a ab3d 8423 0b38
000000b0: a0c8 b4b8 a576 dc3d 846f 15bc 609e 573e
000000c0: 36f4 3bb8 6b6e 13be a75c e9be a785 4336
000000d0: cdac b5b6 30fa 5eb9 9471 303e fd70 d638
000000e0: b294 533d 1a60 b7b8 0434 98b8 46b8 2938
000000f0: 5265 99b8 57b0 1839 ed1e 2fbe 5bd5 0d39
00000100: 1ceb 0bb9 7a18 d6b6 8ece 96b8 73e7 1f3e
00000110: 9e7f 853c 48ef 6e3e 9559 4d3d 7d82 8fbe
00000120: 41e6 3038 e2c9 133e 3ca2 83be bd11 403e
00000130: 9f18 49b8 ae39 453e 86d3 69b6 59f6 a8bd
00000140: 0ea0 51be 8620 0c3d 5e88 3f3e 78ab 05bb
00000150: 5983 e73d 622e fd38 2726 9ebd c932 c13b
00000160: cc20 8438 2252 7338 9d20 853d 4f9e 43be
00000170: baf4 c4bd ae56 4a35 fd1e 01b8 22c8 9dbe
00000180: 9251 68ba 05b4 f0bd 5791 2d38 e372 0bbf
00000190: 747b a3be 605b 1938 fb30 02b8 1b53 8d38
000001a0: 7959 cfbd 5de6 edb7 c19b 273e 3d2e 9bb7
000001b0: b3dc a3b6 0458 0538 6126 3d38 2725 7238
000001c0: 1f9c 173e a159 7d38 ecdc 5bb9 09ea 10b9
000001d0: 5cab 2337 c777 423d 2322 a83d 3450 c33d
000001e0: 0ed0 bfbe fc03 72bb 24d1 cab6 8be6 38bd
000001f0: dce1 3d3d fae1 29be 999c 1eb8 3400 c0bb
00000200: 7d0d 57b8 343b 0e3e b451 543e 9f10 6fbe
00000210: cdc1 433d 4208 a03e c257 adbe 1f52 0338
00000220: 3501 4c3e 8d9a 76be 2b8e e235 f0e3 eeb5
00000230: 1a0d 493d 3383 9f3d 79a8 003d 6aa5 01b9
00000240: e86f 6638 00d8 cd3d 77b5 8fbd a12a dc3d
00000250: a966 19b7 bbad c83d 6b86 4abe c98f a636
00000260: f44d da37 ec70 f0b7 e439 26bd d0a0 a8b8
00000270: 0bed bdbe 2ebb 0f39 ce0a e2b7 41a1 a1b7
00000280: 8de4 6ab8 9054 7837 5cb4 fc3d 806d 0db5
00000290: b1ee 3938 aaa1 1038 5568 7fb8 4332 97be
000002a0: 46f2 9ebe 863b 6e3d 00c4 103e 8369 923d
000002b0: 9d54 1138 6ca8 7b3b b3d5 1f3e 24f1 01bd
000002c0: 7af6 ceb6 db89 dabd 4881 82b8 2ad5 48bd
000002d0: 68b5 c53c 2ad3 7d3e 076b 073c 302d be3d
000002e0: 97fa a13c 47ff 30b8 188b 3c3e 3dcd 133e
000002f0: b9f6 bbb4 8e0c 00b9 233e 14bc 5c9c 17be
00000300: 8682 bcbd b527 6139 ba78 5439 03eb f7bd
00000310: e325 403e f2ac 5a3e 6413 1137 7cea 2ebe
00000320: 5c24 acbd e14d 92b8 fba3 f637 b7a0 4b38
00000330: 0d6f ab3d 0316 34b7 e0d9 0d3e aab9 85b4
00000340: 59ed 1837 a641 f038 12a5 6836 ec5a 9f38
00000350: b747 173b 5f37 2eb8 1b2a 46b8 9b0c da37
00000360: 5afb 8538 7b61 71be 6167 e9bc e912 24be
00000370: db27 043d 8e9a b4be a6a3 92b7 3376 30bc
00000380: 8be2 743d 3f3b 473e 6446 6238 0c49 7fbe
00000390: 7534 c634 a89c b13e 3094 4cbe fa2a e6bd
000003a0: 4aff 413d c8d7 b5be e6cb 0f3d 1161 04b8
000003b0: baa4 98be 4696 3a3e 7924 ccb8 6c59 05b8
000003c0: 1875 793d 60b4 003e aaf1 813d ef7c 36b8
000003d0: a238 8437 ac31 493e 67fb 9abe 72b6 e6be
000003e0: 67fd cfb8 a90a 27bc f91e 273e db08 2eb6
000003f0: 844e 9437 3dae e4b6 91bc 0a3d fa14 5db8

11.bias f4 [10]
-0.11925963 -0.25206056 -0.027070189 0.16259791 0.09442362 -0.059774447 -0.03477881 -0.0913313
0.22230408 -0.11285859
00000000: 653e f4bd 150e 81be 4dc2 ddbc 1180 263e
00000010: 2c61 c13d 0dd6 74bd 3a74 0ebd e80b bbbd
00000020: aea3 633e 6822 e7bd
