models/mnist_conv_base.pt (torch, 88399 bytes, 8 tensors)

0.weight f4 [16, 1, 3, 3]
-0.16851306 1.8973848 1.1495318 -0.008640931 0.33675313 -0.050133374 -0.0781506 -0.1234318
-0.10546661 -0.17876723 0.04612429 0.014304386 -0.072415106 0.14444676 -0.19600011 1.0116234
1.0418737 0.4374433 -0.18454507 -0.255685 -0.31675655 -0.036730334 -0.0037213338 0.8039551
-0.04229074 0.9428889 1.0253794 -0.100659795 -0.0070007755 0.3112746 0.06719496 0.060704894
0.20819633 0.0806315 0.122159 0.032684393 0.12144213 -0.00073727197 -0.22053403 -0.06380679
-0.06775994 -0.27378353 -0.34195465 -0.17333701 -0.026903404 -0.1091354 -0.018939225 0.0047441917
1.4737546 0.82712394 0.016019762 1.5595156 -0.008220378 -0.059334055 -0.2964433 -0.16243196
0.88525224 -0.02615441 0.6246496 1.5899565 -0.19417317 -0.039205927 0.011014302 0.6060811
0.13991235 0.57531464 0.08051353 -0.3649125 0.13882709 -0.07043394 0.2659076 0.45675686
-0.19057138 0.20143624 -0.118589565 -0.04179455 1.8443043 0.77380353 -0.15756726 0.3350664
-0.49367642 0.75537133 -0.0047610663 -0.67335415 0.8642921 -0.08563454 -0.7004885 0.8223373
0.009623496 -0.39140737 -5.8602443e-05 -6.865229e-05 6.183216e-05 -5.9764105e-05 6.8400375e-05 -3.63766e-05
9.399217e-05 -1.7387098e-05 3.751973e-06 1.13814185e-05 -0.00012728927 -0.00011040572 8.106505e-06 -7.487914e-05
9.198691e-07 6.182951e-05 -3.5104637e-07 -7.676349e-05 -0.0023530375 0.013453786 -0.053338174 0.008237889
0.019385774 0.08814961 0.25514194 0.062148113 -0.026254877 1.1630903 0.3898881 -0.36768743
0.8115464 0.7499688 0.06481058 -0.37207913 -0.14100337 -0.04038512 -0.12803306 -0.082489416
-0.35436186 -0.044434395 -0.0830071 -0.008357687 -0.06981285 0.12095952 0.14520337 0.12913594
0.09216708 0.24509653 0.032421973 0.082267806 0.020855162 0.23816496 -0.11045453 -0.14805746
00000000: b08e 2cbe 81dd f23f dc23 933f b192 0dbc
00000010: e86a ac3e a758 4dbd 6c0d a0bd d0c9 fcbd
00000020: e1fe d7bd c20e 37be d3ec 3c3d f25c 6a3c
00000030: 5f4e 94bd dae9 133e 41b4 48be e07c 813f
00000040: 1e5c 853f 91f8 df3e 62f9 3cbe 25e9 82be
00000050: ea2d a2be 8c72 16bd 9fe1 73bb 00d0 4d3f
00000060: 0e39 2dbd 2b61 713f a23f 833f b926 cebd
00000070: c366 e5bb 625f 9f3e 839d 893d b2a5 783d
00000080: 6b31 553e 2122 a53d 7f2e fa3d 12e0 053d
00000090: a7b6 f83d 7c45 41ba acd3 61be 22ad 82bd
000000a0: b9c5 8abd 5b2d 8cbe ae14 afbe 427f 31be
000000b0: 8764 dcbc 6182 dfbd 6f26 9bbc 2a75 9b3b
000000c0: fea3 bc3f 65be 533f e03b 833c 359e c73f
000000d0: c4ae 06bc 4408 73bd 6bc7 97be 9054 26be
000000e0: e49f 623f c641 d6bc 09e9 1f3f b283 cb3f
000000f0: 55d5 46be 6596 20bd 5575 343c 2228 1b3f
00000100: 2f45 0f3e d247 133f 47e4 a43d d0d5 babe
00000110: b028 0e3e ab3f 90bd 0a25 883e 09dc e93e
00000120: 2525 43be 4d45 4e3e 16df f2bd c330 2bbd
00000130: 2a12 ec3f fd17 463f 5059 21be d38d ab3e
00000140: 28c3 fcbe 0460 413f b802 9cbb f060 2cbf
00000150: 3f42 5d3f 2961 afbd 3753 33bf b384 523f
00000160: deab 1d3c 8c66 c8be e5cb 75b8 6bf9 8fb8
00000170: e3ab 8138 38ab 7ab8 2c72 8f38 1493 18b8
00000180: a91d c538 82da 91b7 68ca 7b36 d2f2 3e37
00000190: f478 05b9 9f89 e7b8 2d01 0837 6f08 9db8
000001a0: ecec 7635 77aa 8138 7277 bcb4 16fc a0b8
000001b0: 6b35 1abb 456d 5c3c 2179 5abd 36f8 063c
000001c0: eace 9e3c c887 b43d f7a1 823e 058f 7e3d
000001d0: 7814 d7bc 25e0 943f 6a9f c73e 8741 bcbe
000001e0: 81c1 4f3f f5fd 3f3f 69bb 843d 2881 bebe
000001f0: 3063 10be de6a 25bd 191b 03be 36f0 a8bd
00000200: eb6e b5be d700 36bd a0ff a9bd aeee 08bc
00000210: 0afa 8ebd a0b9 f73d 31b0 143e 363c 043e
00000220: 18c2 bc3d 96fa 7a3e e7cc 043d 067c a83d
00000230: 72d8 aa3c 84e1 733e fc35 e2bd 609c 17be

0.bias f4 [16]
-0.13066325 -0.10600744 -0.11391822 0.10170892 0.41734564 -0.15616955 -0.123108454 -0.073118545
-0.12372209 -0.09224588 -0.25217205 -0.31487578 0.021057766 -0.114763305 0.22232556 0.20051317
00000000: 96cc 05be 6e1a d9bd f54d e9bd c44c d03d
00000010: 54ae d53e e9ea 1fbe 4920 fcbd 2dbf 95bd
00000020: 0262 fdbd 68eb bcbd b21c 81be 6637 a1be
00000030: 5681 ac3c 0609 ebbd 50a9 633e 5353 4d3e

2.weight f4 [8, 16, 3, 3]
0.10877387 0.28157115 0.17664662 0.17840762 0.12568514 0.13739583 -0.42064267 -0.7318574
-0.61360353 0.11174033 0.34697062 0.34463295 -0.14525689 -0.1169903 -0.1891137 -0.12423143
0.012217659 -0.05862372 0.25304356 0.42204168 0.5000787 0.0028784792 0.0009564647 -0.29059008
0.05560245 0.014128667 -0.14912511 0.13114648 0.050902035 0.08653667 0.13747165 0.045792047
0.11502818 0.120428264 0.045230825 0.08899158 0.10840096 0.027298624 0.080930285 0.1299617
0.028797342 0.094209105 0.11968051 0.03744667 0.09062073 0.2032588 0.32905313 0.36750114
-0.068783484 -0.053400848 0.025165731 -0.41079277 -0.3455212 -0.248164 0.14078365 0.33467332
0.30880898 0.13037816 0.18195377 -0.06706202 -0.3411856 -0.5007921 -0.38326204 0.23357914
0.17715847 0.14275958 -0.0005434005 0.108956955 -0.011865276 -0.2700919 -0.23866963 -0.1885686
0.14521872 0.4229506 0.29859155 0.0077022943 -0.031987794 0.03889606 -0.4723782 -0.8549499
-0.30032814 0.18789108 0.10430461 -0.09299162 0.010134233 0.0123006245 -0.39118227 -0.2488379
-0.3188348 -0.2562597 5.941327e-05 6.148381e-05 5.414637e-05 0.00012394243 4.2584115e-06 8.999841e-05
-2.1144078e-05 4.204571e-06 -1.3332484e-05 -5.3415308e-05 -3.979121e-06 -7.861181e-05 -4.459958e-05 -3.3452066e-05
-0.00011016276 -2.064927e-05 2.297876e-05 8.089721e-05 0.010248681 -0.061636794 0.031891856 0.060686905
-0.037599932 0.0003249528 0.07966347 0.0022538446 0.06017836 0.29662395 0.28728268 0.19084933
-0.0013394984 0.10390943 0.047148973 -0.35039032 -0.6879798 -0.35624486 0.13113736 0.1275079
0.06651027 0.09907305 0.09909063 0.13272546 0.06528379 0.058495324 0.05125808 0.12957291
0.124343574 0.059435636 0.09091938 0.09516478 0.12379574 0.059320427 0.055455033 0.044676322
-0.21959037 -1.1625882 -0.06465776 -0.9461319 -0.19467375 0.2015148 -0.53749347 0.12326573
0.14265177 -0.1560482 -0.2357293 0.22376531 -0.30349162 0.03547016 0.16342567 -0.091757126
0.31150195 0.18598007 -0.611234 -0.1489688 0.25146937 -0.16755126 0.083246976 0.34935173
0.13564113 0.39992958 0.12096295 0.36199385 0.2319646 0.24097335 0.26244137 0.13508369
0.15140985 0.28654072 -0.0026698012 0.0774096 0.3085824 0.21134527 0.2008794 0.23315462
0.12175925 0.14379771 0.28542626 -0.014242655 0.07357989 0.0756417 -1.0101966 0.008072285
-0.66763204 0.02138784 0.14679822 -0.7183901 0.23307805 0.17498617 -0.18945433 -0.43457308
0.006667889 -0.4316465 0.05563954 0.4311249 -0.14668685 0.14859115 0.20798421 0.13777074
-0.36543038 0.062379897 -0.13806522 0.029801283 0.15009972 -0.17554744 0.21770142 0.22594745
-0.14476909 -0.72301006 0.17137177 -0.60746783 0.1798829 0.2496456 -0.14418775 0.3634374
0.31184685 0.04766624 -0.28655663 -0.23216915 -0.06879159 -0.18323655 0.45133835 -0.17811571
0.5252481 0.39797992 -5.4958236e-06 1.3443722e-05 6.2170893e-06 3.207439e-05 -8.230503e-05 6.7888126e-05
-2.1009126e-05 1.4789376e-05 -4.448236e-05 0.00010733255 -2.6142265e-05 -6.435369e-05 4.3800614e-05 -7.661899e-07
6.4833934e-05 -8.323777e-06 -7.0766306e-05 9.3857176e-05 0.06836613 0.08004483 0.02362265 0.082058996
00000000: d6c4 de3d 182a 903e dae2 343e 7db0 363e
00000010: 9bb3 003e 7eb1 0c3e 7a5e d7be 025b 3bbf
00000020: 1f15 1dbf 1dd8 e43d 22a6 b13e bb73 b03e
00000030: 39be 14be 9c98 efbd 06a7 41be 0c6d febd
00000040: 932c 483c 6d1f 70bd ed8e 813e d915 d83e
00000050: 2805 003f dea4 3c3b 42bb 7a3a 39c8 94be
00000060: 65bf 633d ed7b 673c 41b4 18be 434b 063e
00000070: a77e 503d 233a b13d 5ec5 0c3e 7190 3b3d
00000080: e593 eb3d 18a3 f63d f543 393d 3841 b63d
00000090: 5301 de3d 5da1 df3c c7be a53d ae14 053e
000000a0: 67e8 eb3c b4f0 c03d 0e1b f53d ae61 193d
000000b0: 5c97 b93d 1323 503e a779 a83e 1c29 bc3e
000000c0: 5bde 8cbd d9ba 5abd 5d28 ce3c 6e53 d2be
000000d0: 28e8 b0be b41e 7ebe 9729 103e 4d5a ab3e
000000e0: 361c 9e3e da81 053e 1752 3a3e d057 89bd
000000f0: e1af aebe e933 00bf ec3a c4be 5f2f 6f3e
00000100: 0869 353e 912f 123e fe72 0eba d324 df3d
00000110: 9366 42bc 7c49 8abe d065 74be 2118 41be
00000120: 37b4 143e fb8c d83e fee0 983e 8763 fc3b
00000130: a205 03bd 7a51 1f3d 8edb f1be ffdd 5abf
00000140: 9cc4 99be 8566 403e a89d d53d 6472 bebd
00000150: 0e0a 263c 8f88 493c 0b49 c8be 5dcf 7ebe
00000160: 513e a3be 7934 83be 8332 7938 dff0 8038
00000170: 391b 6338 8bf6 0139 7ae3 8e36 87bd bc38
00000180: 905e b1b7 fd14 8d36 95ae 5fb7 400a 60b8
00000190: 6484 85b6 65dc a4b8 6f10 3bb8 e24e 0cb8
000001a0: 2e07 e7b8 f837 adb7 83c2 c037 5ca7 a938
000001b0: 15ea 273c dd76 7cbd 09a1 023d d592 783d
000001c0: 6302 1abd 6d5e aa39 9a26 a33d 3db5 133b
000001d0: 967d 763d 18df 973e b716 933e 026e 433e
000001e0: 1c92 afba 78ce d43d 481f 413d 5c66 b3be
000001f0: 721f 30bf ba65 b6be df48 063e 6e91 023e
00000200: 8936 883d d0e6 ca3d 07f0 ca3d 2fe9 073e
00000210: 82b3 853d cb98 6f3d fef3 513d c3ae 043e
00000220: d8a7 fe3d c872 733d f133 ba3d c1e5 c23d
00000230: 9f88 fd3d faf9 723d d124 633d 85fe 363d
00000240: 4cdc 60be b1cf 94bf 4a6b 84bd b335 72bf
00000250: 8e58 47be e559 4e3e 2c99 09bf be72 fc3d
00000260: 4e13 123e 19cb 1fbe 0663 71be bc22 653e
00000270: 4163 9bbe 2949 113d 0f59 273e 29eb bbbd
00000280: 2f7d 9f3e 8f71 3e3e d579 1cbf 478b 18be
00000290: 98c0 803e 8f92 2bbe 647d aa3d 3bde b23e
000002a0: 82e5 0a3e 92c3 cc3e 6cbb f73d 4257 b93e
000002b0: 2188 6d3e b8c1 763e b75e 863e 6153 0a3e
000002c0: 2f0b 1b3e 77b5 923e d5f7 2ebb ed88 9e3d
000002d0: 83fe 9d3e e56a 583e 54b3 4d3e 16c0 6e3e
000002e0: ea5c f93d b53f 133e 6423 923e 065a 69bc
000002f0: 0eb1 963d 09ea 9a3d 1f4e 81bf 9e41 043c
00000300: efe9 2abf 8d35 af3c 4652 163e 6ae8 37bf
00000310: 03ac 6e3e 932f 333e 5100 42be 5d80 debe
00000320: 4f7e da3b c500 ddbe 49e6 633d 67bc dc3e
00000330: 1435 16be 4728 183e d0f9 543e c613 0d3e
00000340: b119 bbbe 1082 7f3d f860 0dbe d221 f43c
00000350: beb3 193e b5c2 33be 1fed 5e3e c55e 673e
00000360: 593e 14be 3017 39bf 157c 2f3e 0383 1bbf
00000370: 3933 383e 19a3 7f3e f4a5 13be 7814 ba3e
00000380: 64aa 9f3e ad3d 433d 8db7 92be c0bd 6dbe
00000390: 9be2 8cbd 5da2 3bbe d215 e73e f763 36be
000003a0: a976 063f 06c4 cb3e c468 b8b6 598c 6137
000003b0: 649c d036 9d87 0638 2d9b acb8 295f 8e38
000003c0: c13c b0b7 e31f 7837 9292 3ab8 b917 e138
000003d0: 164c dbb7 a0f5 86b8 8db6 3738 2bac 4db5
000003e0: 74f7 8738 5aa6 0bb7 5f68 94b8 30d5 c438
000003f0: 8b03 8c3d 8bee a33d 4a84 c13c 8c0e a83d

2.bias f4 [8]
0.121247485 0.063382894 0.04360759 0.07077228 0.07530953 0.0033050089 0.07837758 0.094288565
00000000: 9a50 f83d e4ce 813d df9d 323d 0ff1 903d
00000010: e23b 9a3d d998 583b 6d84 a03d 5d1a c13d

5.weight f4 [50, 392]
-0.0019867953 0.0032599731 0.037713755 0.19063073 0.22447595 0.23671454 0.046341553 -0.0024438854
0.060954947 0.21663885 0.17166694 0.13601354 0.0027098593 -0.12292153 0.017606774 0.12221637
-0.28452927 -0.19115491 0.11761762 -0.001765077 -0.09062185 -0.0022169738 0.13146754 -0.10683265
0.055550013 0.05637864 -0.08015339 0.07602728 0.023511332 0.062402528 -0.026335465 0.024181344
-0.0023540019 0.16757719 0.17803976 -0.0020912238 -0.063690916 0.11873847 0.1904037 0.08021495
-0.0154594 -4.5136e-05 0.030221684 0.04346989 -0.0058427094 -0.061477233 -0.031928256 -0.045444444
-0.010323502 -0.0019472394 0.004946945 -0.0021829642 0.02097763 -0.054431103 -0.014166579 0.025107553
0.038357727 -0.043356884 -0.14053632 0.13467509 -0.017305756 -0.1349083 -0.04920503 0.029026195
0.065684274 0.090164006 -0.011135533 -0.27274638 -0.3933149 -0.14956672 0.04272185 0.0031421543
0.035151005 -0.028737903 -0.3591945 -0.13145773 -0.020441907 0.016459187 0.12354597 -0.028800024
-0.039235156 0.068931796 0.25728106 -0.0014192637 0.027526086 0.08751034 0.055414476 0.004222894
-0.10096297 0.2591878 0.118709676 0.013739148 0.02539203 -0.15694214 -0.06872792 0.22795314
0.2065476 0.041014373 5.873861e-07 0.0027522712 0.0057971724 0.028338881 -0.015019921 -0.17886336
9.129047e-06 2.846692e-07 -0.19052975 -0.449487 -0.031055734 0.013890616 -0.102825284 0.008800987
0.0019151927 0.01023548 -0.026841931 0.12634458 0.008153907 -0.12522262 0.008387166 0.00030831582
-0.016063882 -0.02066806 0.21310766 0.17815727 0.11088223 0.009038758 0.004425839 0.052315973
-0.07893342 0.0024813619 0.039297435 -0.002804618 -0.0015606588 -0.01064118 0.12865901 -0.013534601
-0.21851084 0.119127 -0.059934273 -0.07720434 2.7023198e-05 0.11018117 0.052140318 -0.025976466
-0.2835833 -0.045577776 0.0015942471 -7.52569e-05 -6.7897477e-06 -3.6718156e-05 0.0016389324 0.00087611534
0.0023277109 0.00010864443 7.845743e-05 -0.0076134023 -0.041886877 0.046112373 -0.076071605 -0.16841753
0.032841798 3.27901e-05 0.014832442 0.0035276571 0.089908 0.05680019 -0.051729146 0.19678895
-9.033102e-05 -0.0048905113 -0.032445956 0.21891567 -0.07221169 0.07475573 0.0822031 -6.791345e-05
0.09590909 0.18684737 -0.088944584 -0.06227646 -0.06464324 0.002840602 0.0039390633 0.026256166
0.08669893 -0.07715275 -0.031148087 -0.0013413755 -0.0194723 -0.00013123294 0.005452216 -0.06497469
0.03642619 -0.1544224 0.056127794 0.0013943737 -2.3024288e-05 0.0033523105 -4.835418e-05 0.0014815271
-0.008265811 0.00021471208 0.00079288165 1.7568174e-05 -0.0069154217 -0.07277488 -0.1489728 -0.0026731836
-0.05508847 -0.07929947 -2.346176e-05 -0.00025123218 0.025986314 0.12503594 -0.066778064 0.018409163
-0.05502137 -0.00011404919 -0.044465143 0.025979793 0.24150313 0.057976887 0.14747167 0.002835259
-0.00017385781 -0.037106816 -0.0367617 0.013570423 -0.011391348 -0.050321586 -0.016789211 1.1721845e-05
-0.05039341 0.040525638 -0.120304294 0.028514031 -0.06883576 -0.06225473 -6.3725493e-06 -3.1379877e-05
0.0017233866 0.14384127 -0.023727274 -0.0009826705 -0.093659244 4.6196383e-06 -9.2989925e-05 0.00076947577
0.0034082832 -0.00028065316 -0.0017014266 -2.406619e-06 -0.00012798916 0.0008171876 -0.0057989033 -0.15204881
00000000: e534 02bb 46a5 553b bd79 1a3d b434 433e
00000010: 06dd 653e 4c65 723e a4d0 3d3d 9829 20bb
00000020: e5ab 793d 93d6 5d3e 75c9 2f3e 2247 0b3e
00000030: e597 313b 48be fbbd 153c 903c 944c fa3d
00000040: d2ad 91be 1dbe 43be 82e1 f03d 285a e7ba
00000050: f397 b9bd a64a 11bb 6d9f 063e 14cb dabd
00000060: 6988 633d 4aed 663d 7627 a4bd 31b4 9b3d
00000070: d69a c03c cb99 7f3d 79bd d7bc f417 c63c
00000080: 9945 1abb 5b99 2b3e 0e50 363e ea0c 09bb
00000090: 6270 82bd 282d f33d 30f9 423e bc47 a43d
000000a0: 6c49 7dbc 6950 3db8 7793 f73c 7c0d 323d
000000b0: 3374 bfbb 8dcf 7bbd 34c7 02bd f423 3abd
000000c0: e823 29bc 833a ffba fb19 a23b 1010 0fbb
000000d0: 47d9 ab3c 26f3 5ebd f01a 68bc 5bae cd3c
000000e0: fe1c 1d3d fd96 31bd c1e8 0fbe 44e8 093e
000000f0: cdc4 8dbc 6725 0abe 378b 49bd 58c8 ed3c
00000100: 7a85 863d e8a7 b83d d071 36bc 6aa5 8bbe
00000110: 9260 c9be 0528 19be 1bfd 2e3d 9aec 4d3b
00000120: 80fa 0f3d c06b ebbc 57e8 b7be db9c 06be
00000130: c975 a7bc 6bd5 863c ab05 fd3d 07ee ebbc
00000140: 0bb5 20bd 1d2c 8d3d 58ba 833e 9606 baba
00000150: 637e e13c 9f38 b33d 4afa 623d 3460 8a3b
00000160: acc5 cebd 43b4 843e 0f1e f33d 2a1a 613c
00000170: f202 d03c 71b5 20be 39c1 8cbd 8c6c 693e
00000180: 3781 533e b0fe 273d deac 1d35 735f 343b
00000190: 35f6 bd3b f126 e83c 1d16 76bc f527 37be
000001a0: f528 1937 a3d4 9834 3b1a 43be 2923 e6be
000001b0: 9868 febc 7795 633c 1096 d2bd 0432 103c
000001c0: 3407 fb3a b7b2 273c 9ce3 dbbc 7960 013e
000001d0: f797 053c 5c3a 00be 536a 093c 73a5 a139
000001e0: 6798 83bc 1050 a9bc e538 5a3e dc6e 363e
000001f0: 3916 e33d 4d17 143c a106 913b 4649 563d
00000200: d8a7 a1bd 589e 223b 59f6 203d afcd 37bb
00000210: 058f ccba 5858 2ebc 30bf 033e 3bc0 5dbc
00000220: 4ec1 5fbe dbf8 f33d a47d 75bd 4f1d 9ebd
00000230: e0af e237 aaa6 e13d 1691 553d 99cc d4bc
00000240: d531 91be c3af 3abd 0ef6 d03a 3ed3 9db8
00000250: 7dd3 e3b6 d201 1ab8 72d1 d63a 1bab 653a
00000260: 828c 183b 09d8 e338 8389 a438 d979 f9bb
00000270: 9391 2bbd 54e0 3c3d 6ecb 9bbd a575 2cbe
00000280: 1f85 063d 1a88 0938 c503 733c 4430 673b
00000290: af21 b83d 51a7 683d f1e1 53bd 0b83 493e
000002a0: 1970 bdb8 9540 a0bb 0de6 04bd 6e2b 603e
000002b0: b9e3 93bd 8819 993d 195a a83d c16c 8eb8
000002c0: fc6b c43d eb54 3f3e 9428 b6bd 9a15 7fbd
000002d0: ad63 84bd 6529 3a3b 4213 813b 2c17 d73c
000002e0: 358f b13d 4302 9ebd 462a ffbc 18d1 afba
000002f0: 5f84 9fbc 939b 09b9 81a8 b23b 7311 85bd
00000300: a133 153d e820 1ebe 42e6 653d 6bc3 b63a
00000310: 4824 c1b7 70b2 5b3b e8cf 4ab8 cd2f c23a
00000320: 536d 07bc 5624 6139 63d9 4f3a 5e5f 9337
00000330: c39a e2bb ff0a 95bd 538c 18be 9430 2fbb
00000340: 73a4 61bd c367 a2bd bfcf c4b7 d0b7 83b9
00000350: 40e1 d43c 6c09 003e f0c2 88bd d0ce 963c
00000360: 175e 61bd b12d efb8 1521 36bd 93d3 d43c
00000370: 994c 773e 2c79 6d3d d002 173e c1cf 393b
00000380: 9a4d 36b9 51fd 17bd 7093 16bd 7b56 5e3c
00000390: c7a2 3abc 021e 4ebd 8789 89bc f1a8 4437
000003a0: 5269 4ebd 36fe 253d 1962 f6bd 4296 e93c
000003b0: c3f9 8cbd d1fe 7ebd c8d3 d5b6 e39d 03b8
000003c0: 42e3 e13a 204b 133e b35f c2bc f3cc 80ba
000003d0: 6bd0 bfbd 6402 9b36 9603 c3b8 a5b6 493a
000003e0: 815d 5f3b a124 93b9 6702 dfba 6681 21b6
000003f0: d434 06b9 8838 563a ba04 bebb afb2 1bbe

5.bias f4 [50]
0.14219329 0.016678052 0.06910956 0.16130637 -0.030616848 -0.019288741 0.041941684 0.16156673
0.048043974 0.1378348 0.0609612 0.10879526 0.022225948 0.1324378 0.023118747 -0.002894179
0.15489069 -0.011766019 -0.013394629 0.014538928 -0.027010232 0.063627966 0.010545543 0.06704144
0.0613508 0.08791211 -0.009699724 0.07602372 -0.009264945 0.11402877 0.017489448 0.06223955
0.0040464243 0.07742053 -0.08062024 0.092210464 0.03777288 -0.053235766 -0.06967901 0.0024727806
0.03995262 -0.062000107 0.05998308 -0.024540689 -0.017951287 0.10757652 0.16197477 -0.020201914
0.0636129 -0.022643326
00000000: 1e9b 113e 69a0 883c 5089 8d3d 7f2d 253e
00000010: 2fd0 fabc 6c03 9ebc 0bcb 2b3d c071 253e
00000020: c2c9 443d 9124 0d3e 74b2 793d 0dd0 de3d
00000030: 3113 b63c c69d 073e 8763 bd3c 44ac 3dbb
00000040: aa9b 1e3e 43c6 40bc 2575 5bbc af34 6e3c
00000050: 9044 ddbc 614f 823d 37c7 2c3c 064d 893d
00000060: fa4a 7b3d 440b b43d 97eb 1ebc 53b2 9b3d
00000070: ffcb 17bc ea87 e93d 0846 8f3c e6ee 7e3d
00000080: de97 843b a88e 9e3d 391c a5bd d7d8 bc3d
00000090: bcb7 1a3d bf0d 5abd deb3 8ebd 600e 223b
000000a0: 5ca5 233d d3f3 7dbd d1b0 753d 8e09 c9bc
000000b0: 940e 93bc 1451 dc3d b7dc 253e 7c7e a5bc
000000c0: 7b47 823d 7f7e b9bc

7.weight f4 [10, 50]
0.06813654 0.14155227 -0.08044865 0.17876174 0.17622507 0.16733442 0.02119708 -0.31099713
-0.31183165 0.08437449 -0.043456357 -0.33720174 0.1825636 0.024821103 0.04401708 -0.3788827
0.02960869 -0.045755908 -0.3092707 0.24558997 0.21853295 -0.08283667 0.19199145 0.13951987
-0.13444015 -0.0030660369 -0.013887579 -0.21271224 -0.298028 0.12575886 0.011127751 0.2611555
-0.00588865 -0.087523125 -0.07463958 -0.29743293 0.13585365 0.11410914 2.199165e-05 0.2771781
-0.26445162 -0.2743566 -0.36671904 -0.113921605 -0.11989255 -0.37290522 -0.36769402 0.22122638
-0.11978153 0.40516755 -0.3685936 -0.23806302 -0.27717936 0.44573367 0.1327602 -0.061226163
-0.1761942 0.0042211274 -0.17662968 -0.10447472 0.021414801 -0.46871182 0.31380048 -0.33784243
0.08008451 0.121152535 -0.4088266 0.21177644 -0.004146335 0.011219157 -0.050560758 -0.20184164
-0.24063936 -0.013779628 0.08442656 0.038394056 0.11203865 0.010293486 0.18011267 -0.45922846
-0.33840984 0.17907344 0.09386051 -0.076651454 0.42966145 0.27963495 -0.15195732 -0.009878925
4.0044783e-06 0.1661256 0.2784958 0.2777765 0.12898818 0.3303149 0.07666493 0.11952015
-0.34800333 -0.013151209 0.021366138 0.14525688 0.07882899 0.18522407 0.10418168 0.027578525
0.21673262 -0.18475129 0.05097841 -0.028461713 -0.24602158 0.13855907 -0.50689447 -0.016210634
-0.2807537 -0.11128469 0.31701872 -0.31357637 0.18801053 0.30763954 0.11794704 -0.39512601
0.18102519 -0.0450684 0.13810186 0.19019356 0.15974969 0.18638787 -0.34045917 -0.36265537
-0.04197718 -0.07071438 -0.2045602 -0.10756289 0.26679206 0.268396 -0.35061452 0.042956907
0.014875572 -0.0667094 -5.501375e-06 0.1489564 -0.3563951 0.15769011 0.007107025 0.07079378
0.15604354 0.039204217 -0.18862742 0.13551354 -0.41815895 -0.28217733 -0.21326411 0.013071517
0.25432527 -0.11367629 -0.12533836 0.08868035 -0.10471544 0.15460892 0.3433141 -0.40554878
0.10386228 -0.19886756 -0.0052532773 0.031402588 -0.06681329 -0.17675073 -0.22425224 -0.24101858
-0.040407505 0.14455593 0.017568486 0.3965725 0.17007054 -0.091232985 0.18912292 0.065927655
-0.20212181 -0.09575463 -0.51679057 0.106109284 0.24382629 -0.036526334 0.13582604 -0.33293712
0.02098827 0.047979623 0.072007135 -0.20628479 6.372187e-05 -0.09562026 -0.17342782 0.09092626
-0.08653961 0.16671619 0.0694232 0.08486821 0.1042086 -0.008391541 0.08124954 -0.061876785
0.013100908 0.0580705 -0.2912565 -0.49997002 0.24112593 0.03196429 -0.042031746 0.1263816
0.022976343 -0.11057188 0.11080372 0.16878444 -0.26829883 0.09096233 0.26277402 0.33554223
0.19333228 -0.026335107 -0.28703162 0.18679433 -0.3163022 -0.45290735 -0.11632113 -0.07252742
-0.057634924 -0.06501066 0.006533228 -0.1274927 0.1575272 0.055934362 -0.44993696 0.09138652
-0.4243186 0.08142165 -0.015068704 0.36748356 -0.5794374 0.19002613 -2.6599178e-05 -0.52388155
0.10532463 -0.48432624 0.16888155 0.16936633 -0.22385804 -0.1005644 0.2398749 0.131953
-0.09466509 -0.23029011 0.17257445 -0.0681476 -0.29241264 0.21015467 -0.4671099 0.12203292
00000000: 2c8b 8b3d 14f3 103e 43c2 a4bd 510d 373e
00000010: 5874 343e b759 2b3e 80a5 ad3c 043b 9fbe
00000020: 66a8 9fbe 88cc ac3d 4bff 31bd b5a5 acbe
00000030: f4f1 3a3e a055 cb3c 414b 343d eafc c1be
00000040: ec8d f23c 8c6a 3bbd bb58 9ebe f07b 7b3e
00000050: 1ac7 5f3e 46a6 a9bd 6899 443e 4cde 0e3e
00000060: aeaa 09be 90ef 48bb ba88 63bc 3dd1 59be
00000070: 2097 98be eec6 003e 2c51 363c 2cb6 853e
00000080: 94f5 c0bb 533f b3bd a3dc 98bd 2149 98be
00000090: 381d 0b3e 0eb2 e93d b57a b837 4aea 8d3e
000000a0: 3466 87be 7878 8cbe 99c2 bbbe bb4f e9bd
000000b0: 3a8a f5bd 6fed bebe 6442 bcbe 2b89 623e
000000c0: 0550 f5bd 1f72 cf3e 4db8 bcbe cbc6 73be
000000d0: 74ea 8dbe 3437 e43e 4af2 073e 49c8 7abd
000000e0: 416c 34be 6251 8a3b 69de 34be d8f6 d5bd
000000f0: 186e af3c fffa efbe 75aa a03e aff9 acbe
00000100: 5903 a43d d21e f83d b851 d1be ecdb 583e
00000110: fbdd 87bb 8ed0 373c cc18 4fbd 93af 4ebe
00000120: 2a6a 76be f3c3 61bc d5e7 ac3d 1643 1d3d
00000130: 8574 e53d 02a6 283c 756f 383e fe1f ebbe
00000140: 0e44 adbe 075f 373e f039 c03d 70fb 9cbd
00000150: 96fc db3e 502c 8f3e b39a 1bbe 37db 21bc
00000160: 355e 8636 d41c 2a3e 0097 8e3e b938 8e3e
00000170: 7a15 043e 091f a93e 8102 9d3d fbc6 f43d
00000180: 7e2d b2be 2b78 57bc 0a08 af3c 38be 143e
00000190: 1871 a13d 61ab 3d3e 345d d53d 5cec e13c
000001a0: 28ef 5d3e 712f 3dbe bdce 503d 8a28 e9bc
000001b0: 15ed 7bbe 6ee2 0d3e d6c3 01bf 2acc 84bc
000001c0: f3be 8fbe 3ae9 e3bd 4750 a23e 158d a0be
000001d0: d585 403e ee82 9d3e 388e f13d f54d cabe
000001e0: ab5e 393e a599 38bd 936a 0d3e 1ac2 423e
000001f0: 6c95 233e 76dc 3e3e aa50 aebe f7ad b9be
00000200: 43f0 2bbd b3d2 90bd 3b78 51be ef49 dcbd
00000210: f898 883e 336b 893e bf83 b3be 95f3 2f3d
00000220: acb8 733c f09e 88bd 7498 b8b6 0788 183e
00000230: 6b79 b6be 8479 213e 0ce2 e83b 54fc 903d
00000240: e1c9 1f3e 9a94 203d 8c27 41be 10c4 0a3e
00000250: ee18 d6be 8c79 90be e861 5abe eb29 563c
00000260: ec36 823e 1dcf e8bd b358 00be 0b9e b53d
00000270: 0c75 d6bd cd51 1e3e dec6 af3e 17a4 cfbe
00000280: bfb5 d43d f0a3 4bbe af23 acbb 00a0 003d
00000290: 68d5 88bd 25fe 34be 61a2 65be 93cd 76be
000002a0: 5782 25bd 7806 143e c9eb 8f3c 8d0b cb3e
000002b0: f926 2e3e 5cd8 babd 70a9 413e 1405 873d
000002c0: 05f9 4ebe 011b c4bd 634c 04bf d34f d93d
000002d0: 99ad 793e a39c 15bd fb15 0b3e bc76 aabe
000002e0: 98ef ab3c 4886 443d 7a78 933d 523c 53be
000002f0: 6ba2 8538 8ed4 c3bd 1097 31be 8c37 ba3d
00000300: ae3b b1bd a6b7 2a3e c02d 8e3d 62cf ad3d
00000310: 526b d53d ad7c 09bc 2966 a63d 8372 7dbd
00000320: 31a5 563c 55db 6d3d 921f 95be 12fc ffbe
00000330: b7e9 763e fdec 023d 7b29 2cbd 2e6a 013e
00000340: e238 bc3c 8373 e2bd 10ed e23d d4d5 2c3e
00000350: 775e 89be 754a ba3d 518a 863e 31cc ab3e
00000360: e6f8 453e b9bc d7bc cff5 92be 0347 3f3e
00000370: 5df2 a1be 79e3 e7be c639 eebd 4289 94bd
00000380: 9912 6cbd 4f24 85bd b014 d63b 728d 02be
00000390: cf4e 213e 6e1b 653d 235e e6be db28 bb3d
000003a0: 4a40 d9be 65c0 a63d bae2 76bc ce26 bc3e
000003b0: 0256 14bf 3696 423e 4d21 dfb7 1a1d 06bf
000003c0: 71b4 d73d 9cf9 f7be 49ef 2c3e 5e6e 2d3e
000003d0: 0b3b 65be b5f4 cdbd c4a1 753e b01e 073e
000003e0: c5df c1bd 2cd1 6bbe 5bb7 303e f890 8bbd
000003f0: 1cb7 95be c932 573e 0729 efbe 65ec f93d

7.bias f4 [10]
-0.022311168 -0.14411259 -0.042180095 0.04633611 -0.06514022 0.07579611 0.102046266 -0.17520463
0.13004048 0.12144032
00000000: e9c5 b6bc 4092 13be 09c5 2cbd efca 3d3d
00000010: 3c68 85bd fe3a 9b3d a2fd d03d d868 33be
00000020: 5529 053e b4b5 f83d
