models/mnist_fc_base.pt (torch, 182095 bytes, 8 tensors)

1.weight f4 [50, 784]
0	0xb8acc3c8	-8.238066e-05
1	0x39a2dbe4	0.0003106288
2	0xb8f17506	-0.00011513573
3	0xb9828164	-0.00024891936
4	0xb9212a3f	-0.00015369894
5	0xb82fe6c1	-4.1938158e-05
6	0xb8aeeeed	-8.34147e-05
7	0xb881e52b	-6.193885e-05
8	0xb7dcaebb	-2.6307409e-05
9	0xb8d1a4dd	-9.996605e-05
10	0xb99ce768	-0.0002992705
11	0xb9a4f61e	-0.0003146389
12	0xb928f9dc	-0.00016114808
13	0x39104fc0	0.0001376262
14	0x38d38a6c	0.00010087047
15	0xb93a3a3a	-0.00017760033
16	0x39072825	0.00012889558
17	0xb88b4a14	-6.6418346e-05
18	0xb935d488	-0.00017340679
19	0xb90a706c	-0.00013202586
20	0xb8b74b51	-8.740149e-05
21	0xb9edaa9c	-0.00045331276
22	0x38fec3cf	0.00012148136
23	0xb86eba5f	-5.6917193e-05
24	0x3905364b	0.00012704094
25	0x39fcbe13	0.00048206802
26	0xb949be33	-0.00019239708
27	0x39255291	0.00015766385
28	0xb97c3788	-0.0002405328
29	0xb96f1340	-0.00022799987
30	0xb9449791	-0.0001874848
31	0x38b5c75b	8.6678854e-05
32	0x39315290	0.00016910792
33	0xb7388feb	-1.1000763e-05
34	0x3997db2a	0.00028964254
35	0xb75748e8	-1.2831973e-05
36	0x399a58b6	0.00029439264
37	0xba01e89c	-0.0004955621
38	0x390a20db	0.00013172945
39	0xb8b1d61b	-8.479898e-05
40	0xb90396c5	-0.000125493
41	0xb94a5d3b	-0.00019298952
42	0xb9891bd9	-0.00026151424
43	0xb8bff794	-9.153705e-05
44	0xba2e10b7	-0.0006640064
45	0xb9354190	-0.00017285929
46	0x391ecdee	0.00015144769
47	0xb953c916	-0.00020197438
48	0x399ea0ab	0.00030255815
49	0x3b04e6f7	0.0020279267
50	0x3b47ea3e	0.003050461
51	0xb9475857	-0.00019011028
52	0x3869f80d	5.5782544e-05
53	0xb99f80a7	-0.00030422697
54	0x393b4940	0.00017860997
55	0xb90bb3fb	-0.00013323121
56	0xb994b91d	-0.0002836668
57	0x39b8223e	0.00035120727
58	0xb8ef5cb7	-0.000114136776
59	0x392ede5d	0.0001667677
60	0xb9306fcb	-0.00016826314
61	0xb981a3b9	-0.0002472678
62	0xb8f1ad76	-0.00011524085
63	0xb94182e3	-0.00018454673
64	0x3aa751f8	0.0012765517
65	0x3a1ee1ad	0.000606085
66	0xb95b21fd	-0.00020898129
67	0xb918c274	-0.00014568289
68	0x3754f366	1.2692855e-05
69	0xb9f691f7	-0.0004702953
70	0xbb6f5d79	-0.003652422
71	0xbb4ac37c	-0.0030939272
72	0xbaecdb20	-0.0018070675
73	0xb981049a	-0.00024608226
74	0x3a1fda0a	0.0006097859
75	0x3aa407ae	0.0012514496
76	0x3a029292	0.0004980947
77	0x3a833747	0.0010010981
78	0x3b6d306b	0.003619219
79	0x3aa15838	0.0012309616
80	0x392adf60	0.00016295677
81	0x39273da4	0.00015949324
82	0xba0b9379	-0.00053244043
83	0xb96ee880	-0.00022784062
84	0xb8f3c447	-0.000116237024
85	0x388f58e6	6.83533e-05
86	0xb9ac235d	-0.00032832744
87	0xb7c15c9d	-2.305052e-05
88	0xb945c86b	-0.00018862046
89	0xba15a4fa	-0.00057084823
90	0xb9c3edf5	-0.0003737059
91	0xb9a1095f	-0.00030715295
92	0x3b20844c	0.0024492918
93	0x3ada6989	0.0016663532
94	0x3b060ebf	0.0020455567
95	0x3b8b8f2f	0.004259012
96	0xbb4812a5	-0.003052869
97	0xbd9ffbc6	-0.07811694
98	0xbe734843	-0.23758034
99	0xbdc3d4d9	-0.09562082
100	0xbdb2449c	-0.087044924
101	0xbc2e11c3	-0.010624352
102	0xbb6e901d	-0.0036401816
103	0x3b2064da	0.0024474175
104	0x3b1943a0	0.0023386255
105	0x3b55fec7	0.003265308
106	0x3ac60912	0.0015108904
107	0x39b3fb3a	0.0003432872
108	0xb9835cf5	-0.00025055525
109	0x37c4072f	2.3368366e-05
110	0x37a8252a	2.0044467e-05
111	0x3804c42b	3.1653948e-05
112	0xb8c5b729	-9.427808e-05
113	0xb9a5ef98	-0.00031649764
114	0x3916164f	0.00014313425
115	0x396720a3	0.00022042035
116	0x39c47ce7	0.00037477093
117	0xb99f2da1	-0.0003036084
118	0xb8ab3b06	-8.1649094e-05
119	0x3a53cd09	0.0008079564
120	0x3c08e765	0.00835595
121	0x3d672675	0.05643316
122	0x3d8a89f3	0.06764593
123	0xbbea30b5	-0.0071469196
124	0xbe466d5a	-0.19377652
125	0xbeb9945f	-0.3624601
126	0xbee61013	-0.4493414
127	0xbe72f10d	-0.23724766
128	0xbdc04364	-0.09387854
129	0xba94903b	-0.0011334488
130	0x3d1f47a7	0.038886692
131	0x3d5bcb1f	0.05366051
132	0x3c86f5b6	0.016474586
133	0x3b95a8b8	0.004567232
134	0x3bb41fdc	0.005496962
135	0x3b4c2125	0.0031147685
136	0x3a339ca7	0.0006851651
137	0xb872f381	-5.7924077e-05
138	0x399e6dc8	0.00030217902
139	0x39224d1f	0.00015478254
140	0xb938f45f	-0.00017638643
141	0xb98bf072	-0.00026691292
142	0xb9ab8451	-0.00032714245
143	0x39db17e6	0.0004178874
144	0x38e212af	0.0001078
145	0x3a006ed2	0.0004899326
146	0x3abee789	0.0014564852
147	0x3cfd3065	0.030906865
148	0x3dd03aa9	0.101674385
149	0x3d8c7726	0.06858663
150	0x3d9f8619	0.07789249
151	0xbe2f3fc8	-0.17114174
152	0xbec64c76	-0.3873021
153	0xbee93b7d	-0.45553198
154	0xbeb0f61f	-0.34562775
155	0xbe6169e3	-0.22013049
156	0x3d01032a	0.031497158
157	0x3e65c160	0.22437048
158	0x3e5f483e	0.21804902
159	0x3e65319b	0.22382204
160	0x3e44bd01	0.19212724
161	0x3d7b19ef	0.06130403
162	0x3d5c34bc	0.05376123
163	0x3c3147ef	0.010820373
164	0x3b9fc9ba	0.0048763426
165	0xba102a60	-0.00054994784
166	0xba38b837	-0.0007046493
167	0xb993393e	-0.00028080674
168	0xb99af70a	-0.00029557227
169	0x35c3178a	1.4535483e-06
170	0x39a22875	0.0003092919
171	0xb948ed37	-0.00019161856
172	0x39ff05b7	0.00048641648
173	0x3adcd7af	0.0016848947
174	0x3cddd3ff	0.027078627
175	0x3df3b4c7	0.11899715
176	0x3e197cd9	0.14989032
177	0x3e42e536	0.1903275
178	0x3d9a35b7	0.075297765
179	0xbdf3b7c1	-0.11900283
180	0xbee29308	-0.442528
181	0xbf37581d	-0.71618825
182	0xbe654eba	-0.22393313
183	0x3dae93f8	0.085243165
184	0x3e746843	0.23867898
185	0x3e398864	0.18118435
186	0x3db94b5e	0.09047578
187	0x3c990423	0.01867873
188	0x3db65f68	0.08904916
189	0x3d243bef	0.04009622
190	0x3d754eb1	0.0598895
191	0x3d74ab2c	0.059733555
192	0x3bedc2d2	0.0072558904
193	0x3b2637ee	0.0025362927
194	0x39b4c434	0.00034478458
195	0x385db663	5.2860367e-05
196	0xb959d159	-0.00020772721
197	0xb91eade1	-0.00015132829
198	0x36bb1496	5.575431e-06
199	0x38f5dfe7	0.000117242154
200	0xb9c7de95	-0.00038122074
201	0x3b29513e	0.0025835778
202	0x3d36c80c	0.044624373
203	0x3df9d128	0.121980965
204	0x3e792944	0.24332148
205	0x3e3b45af	0.18288301
206	0x3d87d0d7	0.0663163
207	0xbe1b6c51	-0.15178038
208	0xbf64bde4	-0.8935225
209	0xbedf846a	-0.4365571
210	0xbd691863	-0.056908023
211	0x3e5ad114	0.2136882
212	0x3e8fd939	0.28095415
213	0x3e5be619	0.21474494
214	0xbb0da145	-0.0021611017
215	0xbdc398ea	-0.095506504
216	0xbc349afb	-0.011023278
217	0x3d2dca3b	0.04242919
218	0x3c76e2d4	0.0150687285
219	0xbcfae52e	-0.03062686
220	0x3b37d66c	0.002805139
221	0xba0f6796	-0.00054704526
222	0xb9074f7d	-0.00012904215
223	0xb98f0539	-0.00027278977
224	0x3a071852	0.00051534653
225	0xb9e44357	-0.0004353772
226	0x397d0eae	0.00024133429
227	0xb90743ac	-0.00012899813
228	0xb9dd23b1	-0.00042178997
229	0x3b9140e7	0.004432786
230	0x3babc03b	0.0052414215
231	0x3dc7f586	0.09763627
232	0x3e665470	0.22493148
233	0x3e31ca14	0.17362243
234	0x3daab01c	0.083343714
235	0xbe705d6b	-0.23473136
236	0xbf53a1c9	-0.8266874
237	0xbe6b38f9	-0.22970952
238	0x3cf872ef	0.030328242
239	0x3e76f01b	0.2411503
240	0x3ea41b09	0.32051876
241	0x3e196309	0.14979185
242	0xbd31d070	-0.043411672
243	0xbd15da45	-0.03658511
244	0xbda476b5	-0.08030454
245	0xbbe2fc46	-0.006927046
246	0xbd587851	-0.052849118
247	0xbd943e08	-0.07238394
248	0xbc894db4	-0.016760685
249	0xbad6ab3a	-0.0016377934
250	0xb9ff7336	-0.0004872323
251	0xbaacee7d	-0.0013193634
252	0x399f3371	0.0003036517
253	0xb98e875f	-0.0002718521
254	0xb86abb44	-5.5964352e-05
255	0x3a30d32d	0.0006745335

1.bias f4 [50]
0	0x3e4baf08	0.19890988
1	0x3e5a1940	0.21298695
2	0x3eb4514e	0.3521828
3	0x3e2646c7	0.16237937
4	0xbc07c6e6	-0.008287167
5	0x3ec3a87d	0.38214484
6	0x3dd0904b	0.10183772
7	0xbcc1277b	-0.023578396
8	0x3e1bdcb8	0.15220916
9	0xbdac6a33	-0.084186934
10	0x3e37defb	0.17956154
11	0x3e3b389a	0.1828331
12	0x3e762537	0.24037634
13	0x3e897b35	0.26851812
14	0x3e0ba2fc	0.13636392
15	0x3e7fb970	0.24973083
16	0x3e178aa4	0.14798981
17	0xbc9b78f3	-0.018978572
18	0x3ddcb81f	0.10777306
19	0xbe3717be	-0.1788015
20	0x3de3bd5e	0.11120103
21	0x3e0eb2fb	0.13935463
22	0xbddb2298	-0.106999576
23	0x3d8aeaf8	0.06783098
24	0xbddd1efa	-0.10796924
25	0xbcf7f84b	-0.030269763
26	0x3e549fc1	0.20764066
27	0xbda674f2	-0.08127774
28	0x3b2b46af	0.002613466
29	0xbdb05a96	-0.08611028
30	0x3d8e64ca	0.06952818
31	0x3e4f9533	0.20271759
32	0x3a005c51	0.0004896569
33	0xbd8fc49a	-0.07019921
34	0x3d895098	0.06704825
35	0x3d9cbc89	0.07653148
36	0x3e0e68cd	0.13907166
37	0x3eb60a56	0.3555476
38	0x3eadb82b	0.33929572
39	0xbd1ab9de	-0.037774913
40	0x3e15fda8	0.14647543
41	0xbe256750	-0.16152692
42	0x3eccf9e0	0.4003439
43	0xbdccb981	-0.099963196
44	0x3e6b8e03	0.23003392
45	0x3e46d7a9	0.19418205
46	0x3e8c2036	0.27368325
47	0xbcec7b19	-0.028867291
48	0xbd362282	-0.044466503
49	0x3d54914a	0.05189637

3.weight f4 [50, 50]
0	0x3e5c4ace	0.2151291
1	0x3ec2bf7f	0.38036725
2	0x3e828c82	0.25497824
3	0x3ebb7bf6	0.36618012
4	0xbe1c655e	-0.15273044
5	0x3d81c542	0.06336452
6	0xbe884778	-0.26617026
7	0xb891c2b0	-6.950402e-05
8	0x3e1b756d	0.15181513
9	0x3e9f29d8	0.31086612
10	0x3e7a321b	0.24433176
11	0xbd99871f	-0.074964754
12	0x3cb67b20	0.022275507
13	0x3dcc415d	0.099734046
14	0xbe5ee866	-0.2176834
15	0x3e50ea7c	0.20401949
16	0xbd3989b0	-0.045297325
17	0xb8764db4	-5.8723337e-05
18	0xbdf1cbed	-0.11806474
19	0x3df08b73	0.11745348
20	0xbe840a30	-0.25789022
21	0xbd2705c4	-0.040776983
22	0xbd02f5af	-0.031972583
23	0x3c147ab2	0.009062456
24	0xbd31593a	-0.043297984
25	0xbeb2470a	-0.34819824
26	0x3d08e884	0.03342487
27	0x3eabeaf2	0.33577687
28	0xbe91cb2b	-0.28475317
29	0x3e68cb63	0.22733836
30	0xbd60479c	-0.054755792
31	0x3da4aba5	0.08040551
32	0x3e3feaf7	0.18741976
33	0x3d8424c5	0.06452326
34	0xbe8c8357	-0.27443954
35	0x3cc54fd6	0.02408592
36	0x3e2fe83b	0.17178433
37	0x3e771396	0.24128565
38	0x3db9ff81	0.09081937
39	0x3c603ac5	0.013685887
40	0x3dbed742	0.09318401
41	0xbe33facb	-0.17576139
42	0x3ed7a4d6	0.42117947
43	0xbd9af162	-0.07565571
44	0xbddb3c97	-0.10704916
45	0x3e7dbfae	0.24780151
46	0xbe20d2c4	-0.157054
47	0x3694158b	4.4132516e-06
48	0x3e8f6a9e	0.2801103
49	0x3d5e040f	0.05420309
50	0xbdc33005	-0.095306434
51	0x3e4697d3	0.19393854
52	0x3d51ce9d	0.051222432
53	0x3cde13df	0.027109085
54	0xbec369f6	-0.3816678
55	0x3e5ba3bd	0.2144918
56	0xbe1025b2	-0.1407688
57	0xb9854177	-0.00025416512
58	0xbeb66ea6	-0.35631293
59	0x3df40c5c	0.1191642
60	0x3d27a2d7	0.04092678
61	0xbdc2830d	-0.09497652
62	0x3d18b97d	0.03728627
63	0x3e7db0ea	0.24774519
64	0xbc9728fe	-0.018452164
65	0xbdda06bc	-0.10645816
66	0xbad7bb2f	-0.0016458983
67	0xb7e4054f	-2.718219e-05
68	0xbed893c7	-0.42300245
69	0xbe07b7fc	-0.13253778
70	0x3e4a2ba0	0.19743204
71	0x3bc2617d	0.0059320317
72	0x3cab5659	0.020915197
73	0x3e7a4937	0.24441992
74	0x3d8b2eb3	0.067960165
75	0x3e6c16a3	0.2305551
76	0x3e2cf973	0.16892032
77	0x3df29673	0.11845102
78	0xbcca6e8e	-0.02471092
79	0xbe7a2888	-0.24429524
80	0xbec883d8	-0.3916309
81	0xbd4180f0	-0.047242105
82	0xbd663efa	-0.056212403
83	0x3d431958	0.04763159
84	0x3b1a9465	0.0023586985
85	0xbe6d8453	-0.23195009
86	0x3db97462	0.090554014
87	0x3d27cd6c	0.04096739
88	0x3e40aa5c	0.18814987
89	0x3d9a6cda	0.07540293
90	0x3e977760	0.29583263
91	0x3e98d81b	0.29852375
92	0x3dd6e20d	0.104923345
93	0x3e8de247	0.27711698
94	0xbd630a05	-0.055429477
95	0x3d21b57b	0.039479714
96	0xbd8a92ef	-0.067663066
97	0x38ea6790	0.000111772795
98	0x3cf73231	0.0301753
99	0xbe93eec4	-0.288931
100	0x3debcaec	0.11513314
101	0x3e3e037f	0.18556021
102	0xbc5c12c7	-0.013432211
103	0x3e4de3b6	0.20106396
104	0x3cc2ace4	0.023764081
105	0x3e2df755	0.16988881
106	0xba8c4a57	-0.0010703307
107	0xb89e60ec	-7.55208e-05
108	0xbdf602fe	-0.120122895
109	0x3e8fb430	0.2806716
110	0x3c2a0b52	0.010378676
111	0xbe1c5844	-0.15268046
112	0x3d875a20	0.06608987
113	0xbd007ec4	-0.031370893
114	0xbed19d66	-0.40940398
115	0x3dcbc98d	0.09950552
116	0xbd3cd6ac	-0.046103165
117	0xb85d6c87	-5.279158e-05
118	0xbd8f7f88	-0.070067465
119	0x3df124f2	0.11774625
120	0xbe7fbb8b	-0.24973886
121	0x3db7fee0	0.089841604
122	0xbc9c9688	-0.019114748
123	0x3c39822d	0.01132254
124	0x3de76aa8	0.1129964
125	0xbe180e3a	-0.14849177
126	0x3e04de92	0.12975529
127	0xbbf1ebd6	-0.00738285
128	0xbe278e49	-0.16362871
129	0x3d43d507	0.04781058
130	0xbe51f78b	-0.20504586
131	0x3e1a701d	0.1508183
132	0x3d619093	0.055069517
133	0x3d52e04c	0.051483437
134	0x3dc04619	0.0938837
135	0x3e38b5cd	0.18038101
136	0x3e226065	0.15857084
137	0x3e8968ca	0.2683776
138	0x3defc806	0.11708073
139	0x3e4852ca	0.19562832
140	0xbe5383a2	-0.20655683
141	0xbcf64769	-0.030063348
142	0x3ea4ce96	0.32188863
143	0x3d93306b	0.07186969
144	0xbe218fd7	-0.15777527
145	0xbc964acc	-0.018346213
146	0x3d9d1944	0.07670835
147	0x37a0a6df	1.9151192e-05
148	0x3da919ff	0.082569115
149	0xbe235e18	-0.15953863
150	0xbcdfbf4d	-0.027312899
151	0xbe0b9d89	-0.13634314
152	0x3bd07afb	0.0063623167
153	0x3e2f256f	0.17104124
154	0xbee008f0	-0.4375682
155	0xbe732ab2	-0.23746756
156	0x3e9daf4f	0.30797812
157	0x3852af85	5.0231367e-05
158	0x3e08368f	0.13302062
159	0x3db7517b	0.08951088
160	0x3e7a5e17	0.24449955
161	0x3dfe0866	0.124039456
162	0xbe1a701d	-0.1508183
163	0xbd002093	-0.031281065
164	0x3e829f66	0.25512236
165	0x3e596913	0.21231489
166	0xbd2dc30d	-0.042422343
167	0xb78523c5	-1.5871492e-05
168	0xbdcc979d	-0.099898554
169	0x3ef7e55e	0.4841718
170	0x3e31df6b	0.17370383
171	0xbe24af16	-0.16082415
172	0x3ea4c8e6	0.32184523
173	0x3eee0c09	0.46493557
174	0x3c4b22e9	0.01239846
175	0x3dcb3581	0.099223144
176	0xbde903df	-0.113776915
177	0xbd7fe06d	-0.06246989
178	0xbe408662	-0.18801263
179	0xbe131100	-0.14361954
180	0xbdeb7aa9	-0.11498005
181	0x3d386ec3	0.045027506
182	0x3c94abfb	0.018148413
183	0x3db2264d	0.086987115
184	0x3e7dfba7	0.24803029
185	0x3ce5c48f	0.028047828
186	0x3e6262a9	0.22107948
187	0xbe8cf9f7	-0.27534458
188	0x3e3ada8d	0.18247433
189	0xbba4e626	-0.0050323186
190	0xbdcfaca0	-0.101403475
191	0x3e5f34eb	0.2179753
192	0x3dd111e2	0.10208489
193	0xbd79b145	-0.060960073
194	0xbec45eec	-0.3835367
195	0xbba4a8a7	-0.0050249877
196	0x3d053022	0.032516606
197	0xb819b238	-3.664402e-05
198	0xbe60738a	-0.21919075
199	0xbd794c70	-0.060863912
200	0xbe25e067	-0.16198884
201	0x3e280ab3	0.16410331
202	0xbd72fb10	-0.059321463
203	0x3e249628	0.16072905
204	0x3cdcc376	0.026948672
205	0x3dc81903	0.097703956
206	0xbb80435e	-0.003914281
207	0xb8bdf78d	-9.058332e-05
208	0x3b1d9a66	0.0024048327
209	0xbe873619	-0.2640846
210	0x3dd62692	0.104565755
211	0x3e1d3751	0.15353133
212	0x3e610467	0.21974336
213	0xbe25561a	-0.16146126
214	0x3e110898	0.14163435
215	0xbd1a3411	-0.03764731
216	0xbd1e713b	-0.038682204
217	0x390d76a2	0.00013491002
218	0x3d7a1c57	0.061062183
219	0x3ed73656	0.42033643
220	0x3e2a07fe	0.16604611
221	0x3e319fd8	0.17346132
222	0x3e331340	0.17487812
223	0xbc5bc367	-0.013413287
224	0xbe2f1fc2	-0.17101958
225	0x3e60d0fc	0.21954721
226	0x3dc4dfa9	0.09612972
227	0xbc788325	-0.015167986
228	0xbc31762f	-0.0108314
229	0xbe492817	-0.196442
230	0xbe403ab5	-0.18772395
231	0x3edc3b13	0.4301382
232	0x3de15b3c	0.1100373
233	0xbdf3166c	-0.11869511
234	0xbcd4e489	-0.02598788
235	0xbe203953	-0.15646867
236	0x3e31ce0a	0.17363754
237	0xbea1082d	-0.3145155
238	0x3d0e44f4	0.034733728
239	0x3d6e0f22	0.0581199
240	0xbc3e2e82	-0.011607768
241	0xbdfa3ebf	-0.12218999
242	0xbe11046e	-0.14161846
243	0xbe81460b	-0.2524875
244	0x3ec6c4da	0.3882206
245	0x3df83254	0.12118974
246	0xbe0881ae	-0.13330719
247	0xb8133dd5	-3.5105117e-05
248	0xbe407073	-0.18792896
249	0xbd33610a	-0.043793716
250	0xbd76d146	-0.060258172
251	0xbe4744c5	-0.19459827
252	0xbe4967f9	-0.19668569
253	0xbcaf94a7	-0.021433188
254	0xbde00b95	-0.10939709
255	0x3e1226d1	0.1427262

3.bias f4 [50]
0	0x3ea83cd8	0.3285892
1	0x3eccc083	0.39990625
2	0x3db27380	0.08713436
3	0xbd985f18	-0.07440013
4	0x3e8fe7f1	0.28106645
5	0x3e62bb65	0.22141798
6	0x3ec8562f	0.39128253
7	0x3ebf9cf4	0.37424433
8	0x3e2f1ca8	0.17100775
9	0x3e3e473c	0.18581861
10	0xbe8e31b4	-0.27772295
11	0x3e2198ce	0.15780947
12	0x3e2cbc2a	0.16868654
13	0x3e0fd1ef	0.14044927
14	0x3eae345b	0.3402432
15	0xbe3519db	-0.17685644
16	0x3e7fbd41	0.24974538
17	0xbdb70a7a	-0.08937545
18	0xbd798af7	-0.060923543
19	0xbd1a499f	-0.037667867
20	0xbc002e88	-0.007823594
21	0x3e6baeed	0.23015948
22	0x3e818fd0	0.25305033
23	0x3dd41390	0.10355294
24	0x3d9061cf	0.070499055
25	0x3c1ecb4f	0.009692027
26	0x3c7b65ce	0.015344096
27	0x3d414f9c	0.047195062
28	0x3dacc8cf	0.08436739
29	0x3e0b9d14	0.1363414
30	0x3e79b884	0.24386793
31	0x3cd52856	0.02602021
32	0x3e875068	0.26428533
33	0xbda11127	-0.078646
34	0x3e5c8e3b	0.21538632
35	0xbdab7ee1	-0.083738096
36	0x3e55a4fb	0.20863716
37	0x3e2256d6	0.15853438
38	0xbe414893	-0.18875341
39	0xbde4511f	-0.11148285
40	0x3d56d263	0.052446734
41	0x3e85a2f9	0.261009
42	0x3e9dd2a0	0.30824757
43	0xbe071ba9	-0.13194145
44	0xbdf83b9e	-0.12120746
45	0x3cac45f0	0.021029443
46	0xbdde86de	-0.108655676
47	0xbd8b9918	-0.0681631
48	0x3d82bedb	0.06384059
49	0x3e192761	0.14956428

5.weight f4 [50, 50]
0	0x38296bf8	4.0393294e-05
1	0xb8f5066d	-0.00011683707
2	0xb5d60ea9	-1.5948509e-06
3	0xb8dab1bf	-0.00010428158
4	0xb7719bc6	-1.4400988e-05
5	0x3832da1f	4.2641648e-05
6	0x38afacb3	8.376818e-05
7	0x38816fc3	6.1720166e-05
8	0xb8d77370	-0.00010273501
9	0xb6a1c49a	-4.8210613e-06
10	0xb5f9c035	-1.8607885e-06
11	0xb7f09a5a	-2.8682105e-05
12	0xb905e7a7	-0.00012770166
13	0xb9174282	-0.00014425258
14	0x380a9ff2	3.3050725e-05
15	0xb83df5ad	-4.5289915e-05
16	0x37a3f882	1.9546835e-05
17	0xb8f45168	-0.0001164999
18	0xb8ee077a	-0.00011350117
19	0x384012e4	4.579396e-05
20	0x38403a9d	4.5830955e-05
21	0xb855ac72	-5.094376e-05
22	0xb89f2649	-7.588842e-05
23	0x36db7637	6.5404706e-06
24	0xb810b899	-3.4504195e-05
25	0xb712c50b	-8.748156e-06
26	0xb7588303	-1.2905107e-05
27	0x388115ce	6.155261e-05
28	0x37f49aa4	2.9159077e-05
29	0xb7d16340	-2.4960958e-05
30	0x37e92605	2.7793469e-05
31	0xb872455f	-5.7761903e-05
32	0xb85f5bfe	-5.3253018e-05
33	0xb76d4478	-1.4142242e-05
34	0x38bfd429	9.1471076e-05
35	0x3839fc62	4.4342487e-05
36	0xb89e8137	-7.558095e-05
37	0x395fd672	0.00021346824
38	0x37598b30	1.2966615e-05
39	0x36fb0210	7.480623e-06
40	0x38a8ab6f	8.042796e-05
41	0x36567be3	3.1960597e-06
42	0xb8d132a8	-9.975332e-05
43	0xb85204fd	-5.0072547e-05
44	0xb8ac56be	-8.217756e-05
45	0x372aa684	1.017156e-05
46	0x37a117bd	1.920375e-05
47	0x376f4fa7	1.4264056e-05
48	0x3719646b	9.142891e-06
49	0xb8affc5c	-8.391656e-05
50	0xbc19b0fc	-0.009380575
51	0x3e9846e9	0.297416
52	0xbd9a0616	-0.07520692
53	0x3d972d59	0.07381696
54	0x3df88b37	0.12135928
55	0xbc82271f	-0.015887795
56	0xbd33f77d	-0.043937195
57	0x3b3b96b8	0.002862377
58	0xbe09a56c	-0.1344201
59	0x3c9cf02c	0.019157492
60	0xbe0eb4d6	-0.13936171
61	0x3c10162b	0.008794348
62	0x3ea92fb4	0.33044207
63	0x3ce33b35	0.027738193
64	0xbcb1aca1	-0.021688761
65	0x3dc11102	0.09427072
66	0xbcab10f0	-0.0208821
67	0x3bacc0d2	0.0052720094
68	0xbcdf13ed	-0.027231181
69	0xbe424dd2	-0.18974999
70	0xbe5242a2	-0.20533231
71	0xbc489739	-0.012243086
72	0x3e598f4d	0.21246071
73	0xbe00c477	-0.12574945
74	0xbd92642c	-0.071480125
75	0x3d6363fe	0.05551528
76	0x3d2aa112	0.041657515
77	0x3bb32ba7	0.0054678502
78	0x3d4b4a10	0.04963118
79	0x3e4e020f	0.20117973
80	0x3d3eac2b	0.04655091
81	0xbdc3089c	-0.095231265
82	0x3ec0cf0d	0.37657967
83	0x3ea000a2	0.31250483
84	0x3e7952d2	0.24348
85	0x3d113368	0.035449415
86	0x3dbc7161	0.09201313
87	0x3ee10963	0.43952474
88	0x3d9e0345	0.07715467
89	0x3809942d	3.2801345e-05
90	0x3ec18272	0.37794834
91	0xbe1694d9	-0.14705218
92	0xbba24924	-0.0049525667
93	0xbd803423	-0.06259944
94	0x3e201d4f	0.1563618
95	0xbd60fe3f	-0.054929968
96	0x3d94e25b	0.072697364
97	0xbb9b7f17	-0.004745375
98	0xbb97c255	-0.0046313205
99	0x3df9873a	0.121839955
100	0x3def77ec	0.11692795
101	0x3ebfc78d	0.37456933
102	0xbdac5a9c	-0.0841572
103	0x3e1bbc6a	0.15208593
104	0xbdbed020	-0.093170404
105	0xbe9f8116	-0.31153172
106	0x3e5fedf6	0.21868119
107	0xbd3879e9	-0.045038138
108	0xbea99722	-0.33123118
109	0xbe38d3b1	-0.18049504
110	0x3d945c85	0.07244209
111	0x3e82d127	0.25550196
112	0x3db0104d	0.08596859
113	0xbcc4c39e	-0.024019059
114	0x3c341495	0.010991235
115	0x3e82d1dd	0.25550738
116	0xbd830e69	-0.06399233
117	0xbe41b3bb	-0.18916218
118	0x3e7f43dd	0.24928232
119	0xbcfcf6b0	-0.030879349
120	0xbe9d05ce	-0.3066849
121	0xbd8583f2	-0.06519307
122	0x3e26542c	0.16243047
123	0x3e86c588	0.2632258
124	0x3debad62	0.115076795
125	0x3e77cdc8	0.24199593
126	0xbd202782	-0.039100178
127	0xbd412d29	-0.04716221
128	0xbd955ce5	-0.07293109
129	0xbce17505	-0.02752162
130	0xbe2dc912	-0.16971233
131	0xbd2d319c	-0.04228364
132	0xbe117899	-0.1420616
133	0x3e1be4d9	0.15224017
134	0xbd8a327d	-0.06747911
135	0x3da8752e	0.08225475
136	0xbdf28d39	-0.11843342
137	0x3eaf7a6b	0.34273085
138	0x3e2e59cb	0.17026441
139	0xb80d741e	-3.3725162e-05
140	0x3c988cfd	0.018621916
141	0x3de7def5	0.113218226
142	0xbe850cb7	-0.25986263
143	0x3ddc54e8	0.10758382
144	0x3ea5867b	0.32329163
145	0xbdd12bcd	-0.102134325
146	0xbe72d8be	-0.23715493
147	0x3e050dbf	0.12993525
148	0x3e873423	0.26406965
149	0x3eaa7d4a	0.33298713
150	0x3e8b2524	0.27176774
151	0xbe85ca0c	-0.26130712
152	0xbc839971	-0.016064378
153	0xbdfbe1fc	-0.122989625
154	0xbd7f1456	-0.062275253
155	0x3da98dfd	0.08279035
156	0x3e6f1dc0	0.23351192
157	0xbd90c0de	-0.070680365
158	0x3e9d7e16	0.30760258
159	0xbdfeb400	-0.12436676
160	0x3d48be66	0.049009703
161	0x3deed179	0.116610475
162	0xbcf8f1d3	-0.030388748
163	0xbe002227	-0.12513028
164	0x3ecc75cb	0.3993362
165	0x3d766f38	0.06016466
166	0xbe3bd885	-0.18344314
167	0x3e64ff49	0.22363009
168	0xbe2e5136	-0.17023167
169	0x3e044582	0.1291714
170	0x3ea81981	0.32831958
171	0x3e029196	0.12750849
172	0x3e09f44b	0.13472097
173	0xbe2ebe5f	-0.17064808
174	0xbd6f7364	-0.058459654
175	0xbedf2793	-0.4358488
176	0x3dfa1161	0.12210346
177	0xbe8cb6c2	-0.27483183
178	0x3dde8da6	0.10866861
179	0x3e8d425c	0.2758969
180	0xbe06da83	-0.13169293
181	0x3e759d78	0.23985851
182	0x3eb02f8b	0.34411272
183	0xbe4349d5	-0.19071133
184	0xbe04aff2	-0.12957743
185	0x3e5b7fac	0.21435422
186	0x3e1a6225	0.15076502
187	0xbe976a21	-0.29573157
188	0x3ca33fd6	0.0199279
189	0xb7d2fe5c	-2.5152396e-05
190	0xbde4b082	-0.11166479
191	0x3d64b145	0.05583312
192	0xbdeaa676	-0.11457531
193	0x3e67c72e	0.22634575
194	0x3df191b6	0.1179537
195	0x3c8bd37d	0.017068619
196	0xbe46f79f	-0.19430397
197	0x3e082a7f	0.13297461
198	0x3e1547e4	0.14578205
199	0x3edcc5a3	0.43119535
200	0x3e1c2f3c	0.15252393
201	0x3e9f6691	0.3113294
202	0x3e9c9bd8	0.3058765
203	0xbd006081	-0.031342033
204	0x3e348b1f	0.17631195
205	0x3cd02202	0.025406841
206	0x3d3ececc	0.046583936
207	0xbd4bfb34	-0.049800113
208	0xbe366a39	-0.17813958
209	0x3db7a5e7	0.0896719
210	0x3b81f7b7	0.0039662975
211	0x3c3702f0	0.011170134
212	0x3d241c23	0.040065896
213	0x3d01c8ad	0.03168552
214	0xbe063f96	-0.13110194
215	0x3e3fd161	0.18732215
216	0x3d28d004	0.041214004
217	0x3e2d3f7a	0.16918746
218	0xbda30cf0	-0.07961452
219	0xbe1278a2	-0.1430383
220	0xbe9bccf2	-0.30429798
221	0xbdea318e	-0.11435233
222	0x3e02b206	0.12763223
223	0x3d760b4d	0.06006937
224	0xbc6e1090	-0.014530316
225	0x3e5d9634	0.21639329
226	0xbde77827	-0.11302214
227	0x3d2b8c85	0.041882057
228	0xbe257866	-0.1615921
229	0xbe0e2e76	-0.13884911
230	0xbe14c66f	-0.14528821
231	0xbce71185	-0.028206596
232	0x3eb3f16d	0.3514513
233	0xbd4fcf42	-0.050734766
234	0x3e84684a	0.25860816
235	0xbde9e27d	-0.11420152
236	0x3e707b63	0.23484568
237	0x3efafe46	0.4902212
238	0xbd11393d	-0.035454977
239	0x3813ffac	3.5285644e-05
240	0xbe5db23d	-0.21650024
241	0x3e0c7e47	0.13720046
242	0x3e1b1da8	0.15148032
243	0x3e1758b0	0.14779925
244	0x3e003264	0.12519222
245	0x3e2857f3	0.164398
246	0x3e0fc1fa	0.1403884
247	0x3da14571	0.07874573
248	0xbe7f5a91	-0.24936892
249	0xbe9f5de8	-0.31126332
250	0xbdaa2666	-0.08308105
251	0x3f261f2e	0.64891326
252	0xbdf1a03a	-0.11798139
253	0x3ef36cce	0.4754395
254	0x3e924557	0.28568527
255	0x3d54f3ec	0.051990435

5.bias f4 [50]
0	0xbbc6c4b5	-0.00606593
1	0x3e53f2b4	0.20698053
2	0x3db2f7b1	0.0873865
3	0x3e266bb3	0.16252021
4	0x3e8b99c1	0.27265742
5	0x3eb99d53	0.3625284
6	0x3c3d32f3	0.011547792
7	0x3e325b52	0.17417648
8	0x3d6c364e	0.057668976
9	0x3e10373a	0.14083567
10	0xbc93b7a3	-0.0180319
11	0x3d74a298	0.059725374
12	0xbeaed375	-0.34145704
13	0x3d98c8e6	0.07460193
14	0x3e5db523	0.2165113
15	0x3d393544	0.045216814
16	0x3dcdd99f	0.100512736
17	0x3e417cef	0.18895315
18	0x3e1d1fe2	0.15344194
19	0xbe2872d2	-0.1645005
20	0x3e40959b	0.1880707
21	0x3e11ecae	0.14250442
22	0xbdd56037	-0.10418742
23	0x3d825d77	0.06365483
24	0x3b2bc85d	0.0026211955
25	0x3e7ad663	0.24495845
26	0x3e19d367	0.1502205
27	0xbdf65a03	-0.12028887
28	0xbd4955ca	-0.04915408
29	0x3c85a1c3	0.016312486
30	0x3ea78dee	0.3272547
31	0x3e6549c1	0.22391416
32	0x3ccaa4b8	0.024736747
33	0xbe3d3764	-0.18478161
34	0x3cc8e5a1	0.024523558
35	0x3e897c61	0.26852706
36	0xbe30ba15	-0.17258485
37	0x3dd0a7a7	0.10188227
38	0x3ec5b924	0.38617814
39	0xbe21a7ca	-0.15786663
40	0xbdfa4f9d	-0.12222216
41	0xbd3d79e4	-0.046258822
42	0x3dbd2b67	0.09236794
43	0x3e86497d	0.26227942
44	0x3db57497	0.088601284
45	0xbdc5c6ee	-0.096570835
46	0xbe135a95	-0.14390023
47	0x3dac0d55	0.084009804
48	0x3e10331f	0.14082001
49	0x3e4df4d3	0.20112924

7.weight f4 [10, 50]
0	0xb7128bb0	-8.734802e-06
1	0xbed7363a	-0.4203356
2	0xbde68c91	-0.1125728
3	0xbe6ae6d6	-0.2293962
4	0x3d7aa6b4	0.061194137
5	0xbd890c7b	-0.066918336
6	0xbdfbde45	-0.12298254
7	0xbded277a	-0.11579795
8	0x3e097c91	0.13426425
9	0x3d36490e	0.044503264
10	0x388ec414	6.80761e-05
11	0xbd8301df	-0.06396841
12	0x3d77c548	0.060490876
13	0xbe1b9d91	-0.15196826
14	0xbe725fda	-0.23669377
15	0x3e257e4c	0.1616146
16	0xbd995419	-0.074867435
17	0x3da1b27f	0.078953736
18	0xbeb62e77	-0.35582325
19	0xb805979b	-3.1850865e-05
20	0x3d2cdf98	0.042205423
21	0xbe0762fc	-0.13221353
22	0xb8bac416	-8.905695e-05
23	0xbd1e41eb	-0.038637083
24	0xbe42edc8	-0.19036019
25	0x3e99d4b2	0.30045086
26	0x3ee0832a	0.4385007
27	0xbd537ecb	-0.05163459
28	0x3e91645d	0.28396884
29	0x3d734fcd	0.059402276
30	0x3e25f146	0.1620532
31	0xbf007da5	-0.5019172
32	0x3d26971a	0.040671445
33	0x3dd20a20	0.102558374
34	0x3e374f32	0.17901304
35	0xbe1582fd	-0.1460075
36	0xbd29dc87	-0.041470077
37	0x3e18b12d	0.14911337
38	0xbef8edc5	-0.48618904
39	0xb92b0073	-0.00016307998
40	0xbdf38b9e	-0.11891864
41	0x3e5eb9bb	0.21750538
42	0xbe4abca0	-0.19798517
43	0xbd81c1b9	-0.06335778
44	0xbe569799	-0.20956267
45	0x3e53f503	0.20698933
46	0x3ea3937d	0.31948462
47	0x3ef058ad	0.46942654
48	0x3dc05d75	0.093928255
49	0xbd91c1d7	-0.0711705
50	0x38b938d6	8.832074e-05
51	0x3d76c078	0.060242146
52	0x3e59292a	0.21207109
53	0xbe0e2915	-0.13882859
54	0xbe7d5bf6	-0.24742112
55	0x3ef02dc3	0.46909913
56	0xbd734f56	-0.059401833
57	0xbdaf0ae9	-0.08547003
58	0xbe4d2e58	-0.2003721
59	0xbe961a41	-0.29316905
60	0xb7be30a0	-2.2672408e-05
61	0xbe8cf0bb	-0.27527413
62	0x3e6f4ec7	0.23369895
63	0x3d0e7697	0.034781065
64	0x3ef042aa	0.4692586
65	0xbe5a6d12	-0.2133067
66	0x3e13cd8d	0.1443388
67	0x3ed55156	0.41663617
68	0x3d9a7f72	0.075438395
69	0x375ed927	1.3282791e-05
70	0x3e3f6fbe	0.1869497
71	0xbe2e8c74	-0.17045766
72	0xb8587bd1	-5.1613726e-05
73	0xbe68f04a	-0.22747913
74	0x3e354fb4	0.17706186
75	0x3e59de84	0.21276289
76	0x3ea81c4b	0.32834086
77	0xbda63bb6	-0.08116858
78	0x3ea43226	0.3206951
79	0xbea57af9	-0.32320383
80	0xbeeaf62c	-0.4589094
81	0x3e315547	0.17317687
82	0xbe4db772	-0.2008951
83	0xbe3e3a06	-0.18576822
84	0x3d2d1d34	0.04226418
85	0x3e2c6765	0.16836317
86	0xbe3246a0	-0.17409754
87	0xbee1b44a	-0.44082862
88	0xbd4859bf	-0.048913714
89	0xb79cd393	-1.8695171e-05
90	0x3d6b9fef	0.05752557
91	0x3e3bfaf4	0.1835745
92	0x3d9b346d	0.07578359
93	0x3b915d7b	0.0044361926
94	0xbeaed4e5	-0.341468
95	0xbcd2f030	-0.025749296
96	0x3ee8f2fc	0.45497882
97	0xbec18c75	-0.37802473
98	0x3e23ac02	0.15983585
99	0x3df0ab20	0.117513895
100	0xb90f5251	-0.00013668208
101	0x3e194582	0.14967921
102	0x3dce8ebe	0.1008582
103	0xbeb5f770	-0.35540342
104	0x3e801529	0.25016144
105	0x3e2ba521	0.1676221
106	0xbbcdc07f	-0.006279051
107	0x3b9f6183	0.004863919
108	0xbed8ee69	-0.42369393
109	0xbc6afd64	-0.01434264
110	0xb934f4e7	-0.00017257371
111	0x3c0bcf67	0.008533335
112	0xbe218d3c	-0.15776533
113	0xbeabcd5f	-0.33555123
114	0xbeb4f41f	-0.353425
115	0x3dc72ff0	0.0972594
116	0xbdf0d24d	-0.11758862
117	0x3d1b95e1	0.037984733
118	0xbc0b4a3e	-0.008501587
119	0x394e074b	0.00019648408
120	0xbe0b83fb	-0.13624565
121	0xbea42cc7	-0.32065412
122	0xb703fdd2	-7.867306e-06
123	0x3e09bc8d	0.13450833
124	0xbcb5b339	-0.022180187
125	0x3e815ffe	0.2526855
126	0xbd6e2fdd	-0.058151115
127	0x3cecc1ea	0.02890106
128	0x3e1eaf03	0.15496449
129	0x3dcbdeef	0.099546306
130	0x3e232863	0.15933375
131	0xbe09c744	-0.1345492
132	0xbd9b657a	-0.075877145
133	0x3e4332be	0.19062325
134	0x3e008303	0.12549977
135	0x3e46a53d	0.19398971
136	0xbdeed73e	-0.11662148
137	0xbdd4fe40	-0.10400057
138	0xbf131604	-0.5745547
139	0x3917c816	0.0001447502
140	0x3c36ab31	0.011149214
141	0xbe0b5cfd	-0.13609691
142	0x3e3fa657	0.18715797
143	0x3da15b50	0.078787446
144	0x3e0f710e	0.1400797
145	0xbd752d60	-0.059857726
146	0xbce55dd7	-0.027998848
147	0xbefd11e5	-0.49427715
148	0xbf1956d7	-0.5989813
149	0x3d095cc9	0.033535752
150	0xb8664362	-5.489903e-05
151	0xbc08480d	-0.0083179595
152	0xbd275620	-0.04085362
153	0x3e73867f	0.23781775
154	0xbb4068a1	-0.0029359239
155	0x3e38ddfd	0.18053432
156	0x3e47ec0c	0.19523638
157	0x3e11897b	0.14212601
158	0x3ddb7b18	0.10716838
159	0xbe092ce1	-0.13396026
160	0x3816779b	3.5874178e-05
161	0x3e3846bd	0.17995735
162	0x3e5c3205	0.21503456
163	0x3d8b72e7	0.06809025
164	0xbed87db2	-0.42283398
165	0xbdb4a7e6	-0.088210866
166	0x3e9b7b4c	0.30367506
167	0xbeaf73d2	-0.3426805
168	0x3e3f4e8f	0.18682311
169	0x37b9f91b	2.2169717e-05
170	0xbde89eeb	-0.11358436
171	0xbe9afd63	-0.30271444
172	0xb8e5a33b	-0.00010949975
173	0x3e5843c5	0.21119602
174	0xbcb5e71f	-0.022204934
175	0xbf122305	-0.57084686
176	0xbdb070ba	-0.08615251
177	0x3e360101	0.1777382
178	0xbe8dc2e9	-0.27687767
179	0xbde43b7a	-0.11144157
180	0xbe323eb7	-0.17406736
181	0xbd80d629	-0.06290848
182	0x3d7664ec	0.06015484
183	0x3e825c62	0.25461107
184	0xb98e1673	-0.00027101077
185	0xbdb64c04	-0.089012176
186	0x3edee5e2	0.43534762
187	0x3d77c530	0.060490787
188	0xbe53d5cc	-0.20687026
189	0xb7cb8491	-2.4261217e-05
190	0x3e360921	0.1777692
191	0xbe98d1ad	-0.2984747
192	0x3c72f335	0.014828493
193	0xbc55b00c	-0.013042461
194	0xbe8cd681	-0.27507403
195	0xbe7ab262	-0.2448211
196	0xbe9d945c	-0.30777252
197	0xbea14c50	-0.31503534
198	0xbe80675c	-0.25078857
199	0xbda1d282	-0.07901479
200	0x383e1f87	4.5328892e-05
201	0xbdd932d2	-0.10605396
202	0xbedd459e	-0.43217176
203	0x3e17e806	0.14834604
204	0x3da92ac4	0.0826011
205	0xbdac79ad	-0.08421645
206	0xbeb1667c	-0.34648502
207	0x3d97130f	0.07376682
208	0x3c289d1e	0.010291366
209	0xbecc3e1c	-0.39891136
210	0x3864e97f	5.4576896e-05
211	0x3e2be0ad	0.16784926
212	0x3ec5b14b	0.38611826
213	0xbe048ac8	-0.12943566
214	0x3ea34c78	0.3189428
215	0xbd32f58a	-0.043691196
216	0x3e9c5b43	0.30538377
217	0xbe63c67d	-0.22243686
218	0x3dde14b0	0.108437896
219	0xb7ca79c5	-2.413698e-05
220	0x3eb3842e	0.35061783
221	0x3ddab395	0.10678784
222	0xb81a557c	-3.6796075e-05
223	0xbe48fa6e	-0.19626781
224	0xbe05c73d	-0.13064285
225	0x3e0f0506	0.1396676
226	0xbe845f95	-0.25854173
227	0xbe553119	-0.2081951
228	0xbd57e777	-0.052710976
229	0x3d99b7eb	0.07505783
230	0xbd9628ff	-0.07332038
231	0xbda373b8	-0.07981056
232	0xbeff187a	-0.49823362
233	0xbdef1130	-0.116732
234	0xbd08836c	-0.03332846
235	0xbeb7af42	-0.358759
236	0xbec18f3d	-0.37804595
237	0x3da7df61	0.08196903
238	0x3e000731	0.12502743
239	0x386aa4ea	5.5943536e-05
240	0x3ca553c8	0.020181552
241	0x3d5012bc	0.050799116
242	0xbe2bc4d9	-0.1677431
243	0xbee47e2a	-0.44627506
244	0x3e25f83e	0.16207978
245	0x3eb1271a	0.34600145
246	0x3e245754	0.16048938
247	0xbdd568a1	-0.10420347
248	0xbe56845b	-0.20948927
249	0x3cf95c49	0.030439513
250	0xb804a29d	-3.1622698e-05
251	0x3b88e4b5	0.0041776546
252	0x3e32d3ca	0.17463604
253	0xbe8df0ba	-0.27722722
254	0x3c859afb	0.016309252
255	0x3e44c8af	0.1921718

7.bias f4 [10]
0	0xbe3def8d	-0.18548413
1	0xbe1287b4	-0.14309579
2	0xbd8d290a	-0.06892593
3	0xbe1f4220	-0.15552568
4	0x3dea422d	0.11438403
5	0x3e0cb348	0.13740265
6	0x3dc3abbc	0.0955424
7	0x3e04e0ed	0.12976427
8	0xbd944f13	-0.07241645
9	0x3db1d302	0.08682825
