models/mnist_fc6_d.pt (torch, 225013 bytes, 16 tensors)

1.weight f4 [50, 784]
00000000: 6e92 673a 423e 9d3a 79b7 ad3a 8bc9 983a
00000010: 96cf a23a bfed 9b3a 1218 5e3a 89cf 953a
00000020: 65b2 a63a c2ab 843a 3e3a 903a 03a6 963a
00000030: 3656 6a3a 2aef a93a 4c31 583a 8fc7 3c3a
00000040: 1602 843a c0fd 933a 3b70 9f3a 7fad 963a
00000050: ffa9 7e3a ee31 783a 09c6 433a 8e45 a13a
00000060: 1354 8b3a bf06 8e3a 46a0 763a 28da 9d3a
00000070: 0309 a73a 7175 473a f3a5 5c3a fb2d 913a
00000080: 52c5 473a 69c2 883a 9235 603a 1f0f 9d3a
00000090: 8d64 923a ea39 863a bdba 513a 0751 643a
000000a0: 33ef 963a a793 7a3a 25ed 943a 0ae9 af3a
000000b0: 9d64 6d3a d5f3 943a 24a9 843a be01 4f3a
000000c0: c0b8 a33a 017f a83a 5e77 e13a 6eaa 9c3a
000000d0: 037c 873a b6ee c23a 438a 963a ee30 8b3a
000000e0: 6a1f a93a 0d96 963a 8b36 6e3a 73ea 403a
000000f0: 4f5c 823a 1aec 7f3a c20e 4c3a cb2a a33a
00000100: f7fa 9c3a 9278 d839 a0f6 db37 1519 883a
00000110: 9436 cb3a 0f5d de3a 98a2 973a ce2a 8b3a
00000120: b12d f53a 3d4c f93a 6332 813a aedd 613a
00000130: 9eb8 293a 9a7a 183a e7c1 583a 4d1e 9a3a
00000140: 1f27 6b3a cb94 733a 3ecb 823a bded 7d3a
00000150: 814b 923a 7a94 8a3a a642 913a c4d3 883a
00000160: 7fb6 813a b235 793a 74de 9c3a ac90 db3a
00000170: a24b 873a fde9 b33a b1b9 ff39 e093 593a
00000180: 5194 5d37 51fb c1ba 4f02 72ba 28f8 e0b9
00000190: 3fb8 f239 42a1 84ba c1a3 ceba f22f 24ba
000001a0: 3c87 e3b8 80e8 e539 d3c4 573a 3417 603a
000001b0: fcd2 9c3a 363f 693a 8748 1d3a 6fa0 9c3a
000001c0: 40aa 8d3a 1462 873a 074a 9e3a a9dd 6c3a
000001d0: 2415 6e3a d8b8 a73a e0e7 a33a 10b7 c63a
000001e0: 2b5d f83a 20ab 8fb9 12cf 85bb fdf6 b5bb
000001f0: 3a22 a3bc b050 213b 6dd1 7a3d d78a 6a3d
00000200: afd0 f1bb 5c18 48bc 7d03 84bb ee0d a8b9
00000210: 0d58 55b9 0851 253a 5aa6 f939 3e30 efb9
00000220: af70 3fba 22a7 0739 2a13 373a 859d d33a
00000230: 8283 7a3a de84 913a b862 a13a 8439 813a
00000240: 7390 793a 7f3c ad3a 99f1 8a3a f37d 443a
00000250: 472e 85ba 22df 89bc f286 efbc 74c6 0abc
00000260: d661 76bc a81f 9a3c 1d16 b03d 080b f93d
00000270: 13dd b03d 7fc7 d83b e102 9bbb 7058 91bb
00000280: 0dcb 51bc 6510 3339 9a74 c2b8 ab3c d3b8
00000290: a79f 74ba ede6 c939 ff2d 9d3a 1c5e 7d3a
000002a0: 9280 8f3a 4b58 8f3a a141 923a 29eb 353a
000002b0: ed6f 523a 4e01 9a3a 89d1 2a3a f8c2 a2bb
000002c0: adb7 ebbc 17bf 85bd 3223 26bd ed17 29bd
000002d0: 6ffc 0bbd 23d4 d1ba f24b 903d c87b c03d
000002e0: e4d3 573d fcb2 d63c 316a 4c3d 0e05 693c
000002f0: 0db9 a93c 5c44 b63c 7d4b 853c 7c4c cc3a
00000300: 03db ff38 a667 6c3a e215 403a cf1d 1d3a
00000310: 7481 a53a e78b 913a 328e 2e3a d408 d83a
00000320: 2492 be38 7882 d3ba 9e3b a8bb f884 43bc
00000330: 941f debc db4a 0ebd c5f7 82bd 2829 70bd
00000340: 3ab1 c1bc e1a5 493c 89c9 ec3d f5ab 0e3e
00000350: d0d3 b63d fdc4 b03d 0df9 fb3c 7483 023d
00000360: 7d5b 563c dafe fb3c 16ab 083d addc d03b
00000370: 157c 93ba a0e4 df39 a74c a33a 5405 813a
00000380: 78e5 803a fd1f 4d3a 094c 533a 342f f939
00000390: 5d08 aaba b1f9 67bb aa16 c4bb fb35 67bc
000003a0: 9d85 1cbd 9ca5 8cbc f03b eabc 1ed9 4bbd
000003b0: 6730 81bd c1d1 d7ba 969d 0c3e 788b 1d3e
000003c0: a5ec 9d3d 6bd4 c43d 8e55 603d caf8 4b3c
000003d0: 4d9b b23c 34f7 c63c 0edf bd3c 5652 713b
000003e0: c4d8 51bb 4699 1c3a 6b6e 4a3a b80c 813a
000003f0: bc92 a33a 6a7a 9a3a c0a8 393a 1dc7 9f39
0.00088337704 0.0011996704 0.0013253532 0.0011656744 0.0012421485 0.0011896415 0.00084722147 0.0011429648
0.0012717961 0.0010121989 0.0011003686 0.0011493567 0.0008939238 0.0012964953 0.0008247092 0.00072013674
0.0010071422 0.0011290833 0.0012164185 0.0011495798 0.00097146624 0.00094678893 0.0007468169 0.0012304054
0.0010629914 0.0010835751 0.0009408038 0.0012043165 0.0012743775 0.00076087477 0.00084170623 0.0011076325
0.00076206506 0.0010433915 0.00085529045 0.0011982656 0.0011168882 0.0010240648 0.00080005435 0.0008709584
0.0011515379 0.0009558745 0.0011362178 0.0013420891 0.0009055825 0.0011364172 0.0010121209 0.0007896683
0.0012490973 0.0012855233 0.0017201712 0.0011952647 0.0010336641 0.0014872167 0.0011485297 0.001061944
0.0012903039 0.001148881 0.0009087107 0.00073591544 0.0009945723 0.000976266 0.00077841815 0.0012448666
0.0011976649 0.00041288562 2.6221678e-05 0.0010383452 0.0015503936 0.001696499 0.0011568842 0.0010617615
0.0018705634 0.0019019913 0.0009856935 0.00086161017 0.00064743485 0.0005816609 0.000826864 0.0011758298
0.0008970368 0.0009291886 0.0009978784 0.000968661 0.0011161418 0.0010572814 0.0011082485 0.0010439088
0.0009896307 0.00095065974 0.0011968152 0.001675149 0.0010322223 0.001372635 0.0004877574 0.0008299928
1.3207159e-05 -0.001479963 -0.00092319114 -0.000429095 0.0004629511 -0.0010118859 -0.0015765355 -0.0006263248
-0.00010849393 0.0004385151 0.0008230928 0.00085483794 0.0011964734 0.0008897664 0.0005999882 0.0011949668
0.0010808185 0.0010328912 0.0012076505 0.00090357155 0.00090821297 0.0012796177 0.0012505017 0.0015160758
0.0018948665 -0.00027402584 -0.0040835226 -0.005553125 -0.019913781 0.0024614744 0.06123488 0.057261314
-0.0073796134 -0.012212839 -0.004028736 -0.00032053835 -0.00020346064 0.0006306325 0.00047616923 -0.00045621576
-0.0007302863 0.00012936865 0.00069837517 0.0016144967 0.00095563394 0.001110222 0.0012312746 0.000985906
0.0009520121 0.0013216882 0.0010600566 0.00074955745 -0.0010160886 -0.01683003 -0.029239152 -0.0084701665
-0.015037974 0.018813923 0.08597968 0.12160307 0.086359166 0.0066155787 -0.004730568 -0.0044355914
-0.012804759 0.00017076878 -9.2723596e-05 -0.00010072564 -0.00093316514 0.0003850976 0.0011991857 0.00096652075
0.0010948351 0.0010936348 0.0011158475 0.00069396436 0.00080275425 0.0011749656 0.00065162085 -0.0049670897
-0.028774107 -0.06530588 -0.04056091 -0.041282583 -0.034176286 -0.0016008656 0.070457354 0.093986094
0.05269231 0.026208393 0.04990596 0.014222397 0.020718122 0.022249393 0.016271347 0.0015586759
0.00012200142 0.00090181304 0.00073274795 0.00059935165 0.0012627081 0.0011104316 0.0006658762 0.0016482123
9.087127e-05 -0.0016136905 -0.00513406 -0.011933558 -0.027114667 -0.034739356 -0.063949145 -0.058633
-0.023644079 0.012307615 0.11561877 0.13932784 0.08927119 0.086313225 0.030758405 0.031863645
0.013083336 0.030761171 0.033366285 0.006373963 -0.0011252189 0.00042704213 0.0012458757 0.0009843507
0.0009834012 0.0007824896 0.00080603414 0.0004752815 -0.0012972463 -0.003539663 -0.005984147 -0.014111991
-0.03821336 -0.017168812 -0.028593034 -0.049767606 -0.0630806 -0.001646571 0.1373199 0.15385234
0.07711152 0.09610828 0.05476909 0.012449453 0.021802569 0.024287798 0.02317765 0.0036822758
-0.0032020072 0.0005973767 0.0007722142 0.000984571 0.0012479643 0.001178575 0.00070823357 0.00030475194

1.bias f4 [50]
00000000: abd1 79bd 257c 833e ba24 023e dbf0 febc
00000010: 9de4 aebd a3df 2c3e af8c aa3e b947 a2bd
00000020: 0c13 5dbe 165a f93d dd33 9f3d 7945 163e
00000030: d818 e93c 6afa 843c b1c3 58be 4014 8d3e
00000040: 2e67 1f3e 07a5 373e 125a 133e 0657 933c
00000050: 5f29 293e e3bf 293d 99ba b73d 975f 0ebe
00000060: 45ab 043e a84d 90be 227b 273e 6d26 373e
00000070: b1ca 693e 55a3 b0bd e510 863d 6c73 b63d
00000080: 053f ef3e 0369 ffba 91c7 093f 894a 853e
00000090: 6f02 79bd 3905 863e b1b6 873e 7bd3 a73d
000000a0: 3e31 d53e eba9 953d b0ba 523e e14d 1a3e
000000b0: bc2b 4a3d dd4a 313e 5344 1a3e edcd 863e
000000c0: 9c26 9a3d dd63 7ebd
-0.06099097 0.25680652 0.12709323 -0.031120708 -0.08539698 0.16882186 0.33310458 -0.07923836
-0.21589297 0.12175386 0.07773564 0.14674939 0.02845423 0.016232688 -0.211684 0.27554512
0.15566704 0.17934047 0.14389828 0.017985832 0.16519688 0.041442763 0.089711376 -0.13903652
0.12955959 -0.28184247 0.16355565 0.17885752 0.22831227 -0.08624903 0.06546191 0.08908734
0.46727768 -0.0019486252 0.5382014 0.26033428 -0.060793336 0.2617586 0.2650657 0.081946336
0.4163913 0.073078 0.20579028 0.15068771 0.049358115 0.17313714 0.15065126 0.26328984
0.075268954 -0.062106956

3.weight f4 [50, 50]
00000000: 1ae4 e73d 00a6 573e 92a2 4d3e a76e 6337
00000010: 16c0 8f3d aeab ab3d 8d27 9c3d 6867 cebd
00000020: 055a bb3d c52a 613e 18da ce3d 5584 b0be
00000030: 4097 373d 8711 a0bd f275 e9bd 0550 303e
00000040: ba18 cfbd ffba 67be bee5 bfbd 5eef 0ebe
00000050: 9969 b9bd e192 e73d 8d6f 0a3d 0366 423e
00000060: 7aee 5d3c 25e5 2b3e f212 0cbe 7a25 363e
00000070: 3ebe f1bc b10c 4e3e 2507 df3d bc24 9f3e
00000080: dca4 953e bdba e93d e869 b8be 6399 ad3d
00000090: 04cc 2d3c acaf 7cbd 9224 443e c815 a1bc
000000a0: 5024 863d b6eb 84be 9ea1 cb3d b840 5dbd
000000b0: 37fc f6bd 9b02 353d af41 f4bd c194 563d
000000c0: b41c 243d 5453 ab3d be8a 90be 874f 9b3d
000000d0: 040d 8cbe c103 7c38 e705 2a3d ca6b d43c
000000e0: fe09 a5be 0ebc 323c 620f df3d 73a2 2d3e
000000f0: c93a ad3d 33f3 bbbd a391 513c 87de b53d
00000100: 160d 413e 0b03 b3be 7312 4e3d 1a9c c2bc
00000110: 9eca b7bd 6df2 4b3d db96 7d3e 06b5 2cbe
00000120: 094a 943a 4bb1 0f3e 89e4 79bd 2026 db3c
00000130: 4def 65be 5932 99bd 0fd6 503e d60e fe3d
00000140: 3f97 68be e227 5e3d eb66 e73c 4051 6cbb
00000150: 2634 8d3d 9327 313c fef4 453b 7815 82bc
00000160: 1a47 e03d e27f 033e e57f b93d bd23 3f3d
00000170: f42c 7abd f320 6dbd 4885 843c 5e33 163e
00000180: 305c abbc 0802 623e 406f 51bd 52f3 083e
00000190: 161a 023e f758 fd3d 7b92 323e 9e17 4238
000001a0: d3f7 d8bd 5185 af3d 8ffe 413e 2d56 bf3c
000001b0: 96e1 babd 9aaf acbd 599b cabd 0853 c3bd
000001c0: 6d88 a33b 042b 16bd 7715 10be 02d8 a33c
000001d0: 1d05 e83d 112b e6bd 64dc 133d 5e42 92bc
000001e0: dd34 ab3b 1b23 d63d 1cc3 11be 990f c7bd
000001f0: d71a 2d3d c8a6 fcbd c3e1 b33d 3443 a63d
00000200: 2a1e 063b 8534 453d affc ddbb 0e97 55be
00000210: bde8 b63c 03d9 c03d dea0 79be 453a 403d
00000220: 6619 343e 4ebd dc3d 3f78 25bd 1ec3 923d
00000230: 9eea 2abe 6a03 723d c293 253e 75ae 453d
00000240: 5fb6 0a3e aafc bfbd 28b5 9fbd 1654 2ebd
00000250: 4944 a53d 0cf3 963c dfcd e33c c9db 4b3d
00000260: 28f6 833e dc76 bfb8 91aa 27be 70f1 013e
00000270: a903 96be e7bd 0bbd 1863 92be 089f 873d
00000280: 3e7b a53b 29b8 0c3e 7fd7 cbbd 669d c33d
00000290: ce6c 083d b89f 80bd 4c78 e63d d349 043d
000002a0: 346a a53d 546f 773e 7d81 e23c f6cb babe
000002b0: f01e 2b3e ef2c 093d 1d43 6c3e cf62 cc3d
000002c0: 1518 3fbe f2ff b83d 0904 3abe f58d 483d
000002d0: 78dc 81be 0038 7ebc 163c 60bd a16a a63d
000002e0: c231 213e f34d 093b d474 dbbd 2bac bbbd
000002f0: 9d2d 39bc 4aa1 993c 5c24 31be 818d 4a3d
00000300: c922 42be 1f3a 063e 5626 24be 0f99 733d
00000310: 73b8 8ebe db49 243e 0de2 ff3d 3d0a 19be
00000320: 4336 9dbd 05a5 003e 55c8 b9bd db8f 4f37
00000330: 206c 233d 6242 f03d f452 8b3e 9405 f13d
00000340: be12 2dbd b079 af3d 5a18 453d 0a13 0bbe
00000350: 5d55 ea3c 4f04 a8be 2bc0 41be 46b9 153c
00000360: 60e4 383e 4c84 96bd a1de c63d 6fa7 743d
00000370: 4755 4a3e f4e3 953d be04 153e a12d 2f3d
00000380: 34ba ea3b e459 96bd 2647 ac3e 426b f4bc
00000390: 4362 373d 78f7 f3bc 4dcc 70be ba99 8c3e
000003a0: c00d b8bd ea71 2cbe 1cce 5d3c 6bb7 88bd
000003b0: 9352 5c3d 67f0 773d 1fc4 323e b5bc 373d
000003c0: 43c0 82bc 58b3 f5bd 6e84 1abe 4cfb e13c
000003d0: fc9d 253e ea7d 6a3d 3cd5 98bd cf25 24be
000003e0: 1fb8 283e aaa1 a8bd 0021 3fbb 6c19 cd3c
000003f0: 0488 9ebd e038 4637 9001 c03c e32c 943e
0.11322804 0.21059418 0.20081547 1.3556018e-05 0.07019059 0.08382355 0.07624731 -0.10078317
0.09148029 0.21988972 0.10100192 -0.3447596 0.044821978 -0.07815843 -0.113994494 0.17218025
-0.10112138 -0.22629927 -0.09369992 -0.13958499 -0.09053344 0.11307312 0.03379779 0.18984227
0.013545627 0.1678663 -0.13679102 0.17787734 -0.02950966 0.20122029 0.108900346 0.31082714
0.2922734 0.114125706 -0.360183 0.08476522 0.010607723 -0.06169097 0.19154575 -0.019663706
0.06549895 -0.25961083 0.099429354 -0.0540168 -0.12059825 0.044191938 -0.11926591 0.052387957
0.040066436 0.08365503 -0.28230852 0.07583528 -0.2735368 6.0084978e-05 0.041509535 0.025930304
-0.32234186 0.010909094 0.10891606 0.169565 0.08458478 -0.09177246 0.01279107 0.08880334
0.18852648 -0.3496326 0.050310563 -0.023756076 -0.08974193 0.049791742 0.24764578 -0.1686593
0.0011313568 0.14032476 -0.061008964 0.026751578 -0.22454567 -0.07480306 0.20394157 0.124051735
-0.22713946 0.054237254 0.028247317 -0.003605917 0.06894712 0.010812658 0.0030205841 -0.015879378
0.109510615 0.12841752 0.09057597 0.046664942 -0.061078027 -0.05789275 0.016176835 0.14668033
-0.020917982 0.22071087 -0.051131487 0.1337407 0.12705263 0.12370484 0.1743869 4.62752e-05
-0.10594144 0.0857035 0.18944763 0.023356522 -0.09125058 -0.08431931 -0.098929115 -0.09537321
0.0049906285 -0.036662117 -0.14070688 0.020000461 0.113291 -0.11238683 0.036098853 -0.017853912
0.0052248077 0.104559146 -0.14234585 -0.09719772 0.042261925 -0.123364985 0.08783295 0.08118287
0.0020464757 0.04814579 -0.006774507 -0.20858404 0.022327775 0.09416392 -0.24377772 0.04693057
0.17587814 0.107782945 -0.04039788 0.07166122 -0.16691062 0.059085287 0.16169646 0.04826208
0.13546132 -0.09374364 -0.07798225 -0.04256066 0.08069665 0.01842644 0.027808128 0.04977015
0.2577374 -9.129729e-05 -0.1637366 0.12689757 -0.29299667 -0.034116652 -0.28591228 0.0662213
0.005050092 0.13742127 -0.09953212 0.09551506 0.03330689 -0.06280464 0.112534136 0.032296967
0.08076897 0.24163562 0.027649635 -0.36483735 0.1671102 0.033490118 0.23072477 0.09979784
-0.1866153 0.09033193 -0.18165602 0.048963506 -0.25363517 -0.015516281 -0.054744802 0.081258066
0.15741637 0.0020951002 -0.107156426 -0.09163698 -0.011302379 0.018753666 -0.17299026 0.049451355
-0.18958582 0.13108109 -0.16030249 0.05947214 -0.278751 0.16043799 0.12494288 -0.14945312
-0.07676365 0.1256295 -0.090714134 1.2371655e-05 0.039898038 0.117314115 0.27211726 0.11768642
-0.042254202 0.08568132 0.048118927 -0.13581482 0.028605158 -0.32815787 -0.18920963 0.009138411
0.18055868 -0.073494524 0.09710432 0.05972999 0.19759093 0.07318869 0.1455259 0.042768124
0.0071633104 -0.07341364 0.33648032 -0.0298363 0.044771444 -0.029781088 -0.23515435 0.27461034
-0.089869976 -0.1684033 0.01353791 -0.06675609 0.053789686 0.060532 0.17457627 0.0448577
-0.015960818 -0.11997098 -0.1508958 0.027585648 0.16173548 0.057248987 -0.07462546 -0.16030048
0.16476487 -0.0823396 -0.0029163957 0.025036536 -0.07740787 1.1814962e-05 0.023438245 0.28940496

3.bias f4 [50]
00000000: 5623 c43d c3d6 6d3e bdfd d1bd 6799 4a3e
00000010: b671 2b3d 759a 543e 21c7 573e ccb5 003d
00000020: 63cb 583e 723d 1f3e 12d2 9e3d e32a 993e
00000030: 2f67 d33d 61cc 3d3d 8069 dabc 65ad f8bd
00000040: 6b9c 933d 4545 febc 580d 3c3e eea2 383e
00000050: 448e cc3d 845b 1c3e 2c08 1b3e e325 273e
00000060: 9283 bc3d b00e ea3d 3e74 403e 0539 08be
00000070: e2a5 0c3e 6f24 5e3e 1886 f13d a417 9c3e
00000080: 8432 573e 4b09 15be 7391 e9bc 6a2b c13b
00000090: cd64 943e 6f88 d3bd 7a98 853d 9b8c 4fbd
000000a0: 1e0d 99bd 9b76 853d 1736 d8bc e544 ec3d
000000b0: 4b74 71bd 2275 a33d 7597 08be 48f5 8c3d
000000c0: e33a 34bd 821c 85be
0.09577052 0.23226456 -0.10253475 0.19785081 0.04185649 0.20762046 0.21072055 0.031423375
0.21171336 0.15550783 0.077549115 0.29915532 0.10322415 0.04633749 -0.026661634 -0.121424474
0.07207569 -0.03103889 0.18364465 0.18030903 0.099880725 0.15269285 0.15139836 0.16323046
0.092047825 0.11428583 0.18794343 -0.13303001 0.13735154 0.21693586 0.117931545 0.30486786
0.21015364 -0.14554326 -0.028511738 0.005895068 0.28983155 -0.10328757 0.06523223 -0.0506712
-0.07473205 0.06516763 -0.02639298 0.11536578 -0.058948796 0.07981326 -0.13339026 0.06882721
-0.04400147 -0.25998312

5.weight f4 [50, 50]
00000000: ca1a 8f3e f334 0b3e fe9c 2b3e 464e b4bc
00000010: b5d8 fa3d bca4 90be 240d aebd e5ef 47be
00000020: 8d11 19bc 4bbc 76bd 3e76 5abd 5527 183c
00000030: 427c ff3d b6ce acbd 4a54 05b9 bb17 86b5
00000040: 8a02 08be fbf3 b0bc 65b5 23bc ac2a d1bc
00000050: 1225 613b 1295 74be e164 27be 3734 b1be
00000060: fbf8 92be 0065 33be e170 09be 977a 0838
00000070: d217 33bd a9ad 143c 65f3 d13e d51a 293d
00000080: 799c dc3d b54a 29be 4f12 a8b7 417c edbb
00000090: ebe7 08bd 80c7 9835 bdb5 a8bc dd90 12be
000000a0: 8615 5539 d59b fe3d 8ec1 453e 9b23 ad3e
000000b0: 0152 143e 3e43 b4bd adef c0bd 879d 6d3c
000000c0: 5475 2f3e 1ca2 41bd 7054 e23c 4357 483e
000000d0: bc2c 753d d874 f8bc db63 1b3d 99e5 083e
000000e0: dce6 4d3d 046e cfbc 8e27 6fbd 44cf 7bbd
000000f0: 75c7 243e 05b4 f73d 967a 713e 903e f63d
00000100: 85cd bab8 75fd 91b8 e3b1 5f3b 0d67 ab3d
00000110: e3e7 863d a62c 4ebe 10e1 2b3c 137e e93d
00000120: 26d5 26bd d073 29be 0bfe 963d eab4 b23d
00000130: 4624 06be 992e 5536 4674 c7bd 4135 a33e
00000140: 7d1e 93be 89f2 9f3d 21cf 3c3c 6c31 d23d
00000150: 3771 f637 9eae 953d dd47 82bc 20a4 2c38
00000160: 62ac b33d 11f6 373e 9516 3a37 c183 77be
00000170: f7aa 12be 5c50 593d 65c9 393e 39f3 adbd
00000180: 6773 e3bd 5e05 223d 55f1 ef39 ae26 463e
00000190: 2df3 b73d 52ce 8c3d e3ca 12bd c1a6 54bd
000001a0: c97d f5bc 8bd8 843c 5568 443e 37dd 053e
000001b0: 8d6e 533e 8c61 d83d 2aac 223d 7bb2 7f3d
000001c0: 1208 913e da02 3dbe a17a 6839 e601 b638
000001d0: 262f efbd 8130 64bd 9f91 e03d 2502 3f3e
000001e0: 40f6 f0bd 7c19 58bd 2186 b73e a48e 853e
000001f0: f374 c1bd 14d4 8e3c 0260 403e 56da abb7
00000200: 5962 1c3e b150 7abd 2dbe debe 7d72 8c3d
00000210: 0b25 f1bb 25c6 923c 033a e238 292b e73d
00000220: fdc2 a6bd e1c7 84b8 06d7 f23d 86fb 8e3d
00000230: 971f 4238 81ee 07bd d951 a8bc 0993 0fbe
00000240: 9672 08be 16c9 f9bd 7666 a03d 5d56 c83e
00000250: 15b1 d3bd be26 1fbe 9e51 893d 251a c0bd
00000260: 4262 8ebd 4408 1bbe d7b1 00be e66e 083e
00000270: 2813 c83d 01eb 683c 6358 003e 687d 25bd
00000280: 91ef 41be 92be 833d ae76 d8bc 0967 0ebe
00000290: aea9 2a38 26ca d237 f374 06be a7be a5bc
000002a0: bc2c 8cbd 41d3 583c 06b4 9d3d 83f4 3dbe
000002b0: 3275 143e f597 66bd f32f fc3c 1f4e 21bd
000002c0: 9348 d93d 519b d5b7 89b1 a13e 2d64 913d
000002d0: 9588 14bd 6645 463e b55b 7e3e 03b7 2bbd
000002e0: 91ce ec38 9afa 2c3d a624 903d 8caa 8b38
000002f0: c885 313d b20f de3d 761a ceb8 b01e 793d
00000300: 8a2d 00be d4bc d93d 67fe aebc 373c 473c
00000310: 8739 143d 7bc8 9c3d 5827 d1bd 1eb6 82bd
00000320: bbfb 5d3d c574 2cbe b74a 1fbe 9aca 663e
00000330: 2143 fe3d 2c30 1a3e 16c5 96bb ad7b 96bd
00000340: 22b9 37be 5536 9cbc b9fa 833d e6a7 16bd
00000350: 6ec8 abbc 9526 1c3e 241d 58b8 8a0b 5238
00000360: 175c bcbd 42d4 063e 83b5 9fbd 21b9 f2bd
00000370: 6ba4 cdbd 3dbf 75bd aee2 243e 9d8c b83d
00000380: c418 01bd 2bac b13e 0f77 19be 2bde 5038
00000390: 13ba 8abc 1cfb b4bb f72d bfbc 41bc acbd
000003a0: 516d 2d3e 3edb 9e3d d364 ac36 c736 c7bc
000003b0: bff6 9e3d b350 d3b8 aa6e 74bb 2b0e 363e
000003c0: 9d13 2737 6972 823e 64d0 8ebc 8880 913c
000003d0: 89ca 583e ed54 dc3d 784a 23bd 0ff2 02be
000003e0: d347 28be 634b 21be 1905 e5bd c9ba b43d
000003f0: d2ac 9cbd afd0 593e f06d a33d 31ab 7cbd
0.27950126 0.13594417 0.16759107 -0.02200998 0.12248365 -0.28250682 -0.084986 -0.19525106
-0.009342563 -0.060238164 -0.05333542 0.009286721 0.12474872 -0.084378645 -0.00012715269 -9.990684e-07
-0.13282219 -0.021600714 -0.009991978 -0.025533043 0.003435437 -0.23884991 -0.16347076 -0.3461015
-0.28705582 -0.17518997 -0.13421966 3.2539097e-05 -0.04372389 0.009074607 0.41006008 0.041285355
0.10772032 -0.16532405 -2.0035686e-05 -0.0072474782 -0.0334243 1.1382945e-06 -0.020594472 -0.14313073
0.00020321281 0.12432066 0.19312117 0.33816227 0.14484407 -0.08801888 -0.094207145 0.0145028895
0.17134601 -0.04727374 0.027628154 0.19564538 0.059857115 -0.030329153 0.037937026 0.13368835
0.050268993 -0.025321014 -0.05838733 -0.06147696 0.16091712 0.12094883 0.23581919 0.120236516
-8.907452e-05 -6.961349e-05 0.0034133128 0.08369265 0.06587198 -0.2013422 0.010490671 0.11401
-0.040730618 -0.16548085 0.073726736 0.08725913 -0.13099775 3.1766597e-06 -0.09738974 0.31876567
-0.28734198 0.07809932 0.011523993 0.10263333 2.9378205e-05 0.07308696 -0.015903408 4.116085e-05
0.08773114 0.1796496 1.1091722e-05 -0.24171354 -0.1432303 0.053055152 0.18143232 -0.08493657
-0.111059956 0.0395559 0.0004576544 0.19350693 0.08981929 0.0687529 -0.03583802 -0.05191684
-0.029967206 0.016216537 0.19180425 0.13072668 0.2064764 0.105654806 0.03971497 0.06242607
0.2832647 -0.18458119 0.00022170927 8.67879e-05 -0.11678915 -0.05571032 0.10965275 0.18653162
-0.117657185 -0.05275868 0.3584452 0.2608539 -0.094461344 0.017435111 0.18786624 -2.048646e-05
0.15271892 -0.06111211 -0.43504468 0.068577744 -0.007359152 0.017916748 0.00010787325 0.11287529
-0.0814266 -6.331481e-05 0.11857419 0.06981568 4.6282625e-05 -0.03318644 -0.02054684 -0.14020933
-0.13324961 -0.12196557 0.07832043 0.3912839 -0.1033651 -0.15542123 0.0670502 -0.09379987
-0.06952335 -0.15139872 -0.1256784 0.13323554 0.09769279 0.014216186 0.12533717 -0.0404028
-0.18939044 0.06432833 -0.026423778 -0.13906492 4.0689185e-05 2.5128084e-05 -0.1313055 -0.020232512
-0.0684447 0.013233961 0.07700352 -0.18550305 0.14497831 -0.05629726 0.030784583 -0.039381143
0.106095456 -2.5463904e-05 0.3158076 0.07099185 -0.036263067 0.19362411 0.24839671 -0.04192258
0.00011291833 0.04223118 0.0703824 6.659803e-05 0.043340474 0.108428374 -9.827774e-05 0.06082028
-0.12517372 0.10631719 -0.021361543 0.012160352 0.036187675 0.07655426 -0.10212582 -0.06382392
0.054195147 -0.16841419 -0.15555845 0.22538224 0.124151476 0.15057439 -0.004601131 -0.07347808
-0.17941716 -0.019068876 0.06444306 -0.036781214 -0.020969596 0.15249093 -5.1525552e-05 5.007865e-05
-0.09197252 0.13166907 -0.077982925 -0.11851717 -0.10041126 -0.059996832 0.16102096 0.09011195
-0.03151776 0.34701666 -0.14986823 4.9797974e-05 -0.01693443 -0.0055230986 -0.023337347 -0.08434344
0.16936232 0.07756661 5.137737e-06 -0.024318112 0.07761907 -0.000100762954 -0.0037297406 0.17778842
9.958542e-06 0.25477913 -0.017433353 0.017761484 0.21171011 0.10758386 -0.03986594 -0.1278765
-0.16433649 -0.15751414 -0.11182613 0.08824689 -0.0765015 0.21271013 0.07979953 -0.0616867

5.bias f4 [50]
00000000: 938d 483e 9e67 883c 6d9c e13d 1943 6f3e
00000010: 7cb4 693e 7a46 e73d b9d6 673e d892 3f3e
00000020: fb9a f43d 5163 0abd 825f f6bc d8de 3d3e
00000030: 5cb6 e23d ede6 0b3e 9791 de3d bb73 4f3c
00000040: 1635 c23d bf56 ee3d bfbf 593e 3b9c 12be
00000050: 49c3 893e 1d60 d63c b18a dcbd 6a43 8f3d
00000060: 2d1e 8f3d fae0 bcbc b208 d23e 84f6 2f3d
00000070: 0a2d 643d ebb3 1e3c e2c7 093e 63b6 283e
00000080: 6a69 adbd c673 0cbd bcda 933d d5a2 cd3d
00000090: e5b1 81be 87d4 8d3e c759 bd3d 28d7 1fbe
000000a0: e9db 5cbd 03b9 dbbd b836 ac3d f59f 043e
000000b0: 7a25 31be a676 253e 774c 33bd 9e3e 04be
000000c0: 48b7 0e3e 9e78 0e3e
0.19585256 0.016650971 0.11016164 0.2336544 0.22822756 0.11292739 0.22640504 0.1870836
0.11943623 -0.03378612 -0.030074839 0.1854204 0.110699385 0.1366231 0.10867613 0.01266187
0.094827816 0.11637639 0.21264552 -0.1431741 0.26906803 0.026168877 -0.10768641 0.0699528
0.069881774 -0.023056496 0.4102226 0.042959705 0.055707015 0.0096864505 0.13455155 0.16475825
-0.08467372 -0.034290098 0.07219455 0.10040823 -0.25331035 0.27701208 0.09245639 -0.1560942
-0.05392066 -0.107286476 0.08408874 0.12951644 -0.17299452 0.16158542 -0.043774094 -0.12914512
0.13937104 0.139132

7.weight f4 [50, 50]
00000000: 9c42 fe3d 4b7b 9fbd f82a 143e aa6e 3a3d
00000010: 8b9e cd3c 5591 ff3c 7965 82bd 5b6a b0bd
00000020: 6f0c b73d 7cdf ea3d 4507 bd3e 0fc4 f73c
00000030: a613 2d3e b093 263e 7126 2ebd 8524 6f3e
00000040: 0421 42bd 299d d1bd 43c0 4abe f333 39b8
00000050: 0b7d 463e 57d1 60bd 16c4 bab8 8d6d 743d
00000060: 9534 d8bd b94e 52b8 3104 d3bb c823 403c
00000070: ea44 e03e a09e a43d 09ca 5e3e 55aa 22be
00000080: f1bb 453d 2eb8 f23c a903 3e3e e475 52bd
00000090: 2b5d d6bc 4ab1 143e da4e 0bbd 1fbd 3738
000000a0: 42ad e3bc 476a 9337 115a 8aba a3ca 133d
000000b0: 44be b4bd 9c36 babd 398b 72bb 11d3 a9b6
000000c0: 1525 023d 6a58 573b 69c2 543e daf6 733d
000000d0: d3ed 033e da63 7c3c 69c5 98bd f1e0 853d
000000e0: 0696 983d 8b45 12be a43d 5b3d 5d69 0ebe
000000f0: 3f6c 36bd e5f7 2ebc 8ca1 d43d e02f f53c
00000100: 9b8a 513d 0afa 773c 9414 d43d f268 833e
00000110: 06eb d83b ab7a d938 b9e2 6f3e 91c4 d6ba
00000120: cbd8 e2b6 308c 07be 6cd6 a93d d6ff 61b6
00000130: ecfa 2e3e d260 a8bc 3af1 91bd 2fbe 8cbd
00000140: 9725 1ebc ba1a fa3d 7ad4 51be 5e6a d03d
00000150: e0c8 083e 5596 b0bd 32c3 3abe 02da 2fbe
00000160: 9ca5 0b3d 21cc 7436 8cd0 103d 02ae f338
00000170: 5396 283d ed5e 38bd 6258 99ba 2b8e 8f3d
00000180: 71da 033d 9167 20b8 700b c63d 4a82 17bc
00000190: fc23 6d3e 319f 3e3e 9801 0fbd 2bca e6bd
000001a0: 0f0a eebc 1929 303e 601d 343c 2a66 2f3d
000001b0: 66fc bd3c e2f8 0e3d e239 6c3e 7e1c c73c
000001c0: bcbc d13d f863 08be 2a7d 143e b04f f93d
000001d0: e875 f0bd cb6e 153e cd66 44bd bfc1 1938
000001e0: ca13 7ebc fa83 49be 893a 8338 6a5c c23d
000001f0: e3b1 223d 95e1 1bb9 9f45 763c a595 8e3d
00000200: 8446 763e c0c8 5abd 82e4 d93d c2cb 09be
00000210: f63c 71be ea4b be3d ff25 0a3e 755c bebc
00000220: 6d3e fdbc 8ec1 d7bd b390 18be bc34 acb7
00000230: e443 873e 1870 c9b8 f4b1 bc3d 7a21 1cbe
00000240: e757 083e e86b b83e d0d5 84be e631 92b7
00000250: e9eb 01be fcd6 9e3c 7902 88bc 4d7b 683d
00000260: 2e36 d43d aab7 c63d 41f7 88bd 0ef8 c93d
00000270: 7d59 0a3e 3f4e 193c ee60 313d b0a3 39bc
00000280: a9ea 0cbe c319 4a3e e752 7dbd 7fdc dfbc
00000290: 30b9 eebc 7417 8f3d 84b5 8f3d 6913 cabd
000002a0: 82ed 6c3e 5972 30b8 023b d1bd 88fe febd
000002b0: 3ba3 e5b8 d511 543e f587 e93c 9f5c a737
000002c0: 6729 6f3e 3fdf 353e af15 a8be 7fee 5ebe
000002d0: 01e1 8fbd 4689 56bb 0b5f a6bd f137 d93d
000002e0: be4c 68bd 28d9 3dbe 3c3e 1f3e 3451 303e
000002f0: dc0b fbbd 27eb 47b9 4dd6 9e3e 9ab0 e635
00000300: a31a 51bb 7f43 063e 8482 fdbd cef0 b23d
00000310: a814 0bbd 0c8a a236 643d ab3b 596c 073e
00000320: 9818 26bd f366 bd3d 9d45 853d 2a08 273e
00000330: 6f16 09bd 5c2d 0c3d 1613 a0bd 1c53 fe3c
00000340: 72b7 9dba ae26 32be eca1 f338 7e10 3e3e
00000350: 2dfc 0c3e 184f b3bd e1a2 2e3e cca0 7c3d
00000360: b21d d73d 99d1 9bbd ef9f c03b a7cd fdb7
00000370: 76a4 253e 280f 633c 7c55 1ab8 51ae 0a3d
00000380: dcce b93c abb8 a438 7e3f edbc c540 1e3d
00000390: 384b aabd 8fa6 a73c c752 21bd 3596 babd
000003a0: 6fc6 15be 9aa8 2f3c 55af de3d e4fb 02be
000003b0: 2630 15bb ebc3 d93d 0ca0 74bc a645 0238
000003c0: e912 053e fc69 a534 ad5f febc 12c1 18be
000003d0: 4288 d43c 44ef 003e c73c 06bd 43b3 28b8
000003e0: f166 d8bc f411 c43d 083c c7be 1762 d43c
000003f0: 784d 623d e242 5dbd 46ed e53d 6a75 d53d
0.124150485 -0.07787188 0.14469516 0.045515694 0.025100013 0.03119723 -0.063670106 -0.08614036
0.089379184 0.114684075 0.3691961 0.030244855 0.16902027 0.16267276 -0.04251713 0.23353775
-0.047394767 -0.10235054 -0.19799905 -4.415582e-05 0.19383638 -0.054887142 -8.905695e-05 0.05967479
-0.10556904 -5.0141218e-05 -0.0064397086 0.011727281 0.43802577 0.08038068 0.21756758 -0.15885289
0.048274938 0.02962884 0.18556084 -0.05138196 -0.026167473 0.14520755 -0.034010746 4.3806733e-05
-0.027792577 1.7573255e-05 -0.0010555406 0.03608192 -0.08825353 -0.09092447 -0.0037009253 -5.061164e-06
0.031773645 0.0032859095 0.20777287 0.059561588 0.12883691 0.015404666 -0.07459528 0.06537045
0.0745049 -0.14284341 0.053525582 -0.1390738 -0.044536825 -0.01067922 0.10382375 0.029930055
0.051157575 0.015135298 0.103554875 0.25666004 0.006619814 0.00010370215 0.23426332 -0.0016385486
-6.760563e-06 -0.13237071 0.08292851 -3.3676529e-06 0.17087907 -0.02055398 -0.071260884 -0.06872212
-0.009652517 0.12212129 -0.2049121 0.10176538 0.13357878 -0.086224236 -0.18238524 -0.17173007
0.034093484 3.6477652e-06 0.035355136 0.000116195544 0.041158985 -0.045012403 -0.0011699314 0.07009538
0.032190744 -3.8243426e-05 0.0967015 -0.009247372 0.23158258 0.18615414 -0.03491363 -0.11269029
-0.02905753 0.17203178 0.010993332 0.04282204 0.023191642 0.034905322 0.23068956 0.024305578
0.10241076 -0.13319385 0.14500871 0.12173402 -0.11741239 0.14593045 -0.0479496 3.6658483e-05
-0.015507648 -0.19679251 6.25747e-05 0.09490283 0.039720427 -0.00014865988 0.015031247 0.06962136
0.24050337 -0.053414106 0.106392875 -0.13456634 -0.23558411 0.09291823 0.13491057 -0.023237446
-0.030913556 -0.105349645 -0.14898948 -2.0528554e-05 0.26418984 -9.605306e-05 0.09213629 -0.15247145
0.13314782 0.36019826 -0.25944376 -1.7427792e-05 -0.12687649 0.019389622 -0.016602742 0.056758214
0.103618965 0.09703 -0.06687785 0.09861766 0.135107 0.009357034 0.04330533 -0.01133053
-0.13761391 0.1973639 -0.06184664 -0.02732682 -0.029141039 0.06986895 0.07017043 -0.098669834
0.23137477 -4.2068164e-05 -0.10216333 -0.12450892 -0.00010949975 0.20709927 0.028507212 1.9951081e-05
0.23355637 0.17760943 -0.32829043 -0.21770667 -0.07025338 -0.003273563 -0.08123597 0.10606373
-0.056713812 -0.1853987 0.15551084 0.17218477 -0.12258121 -0.0001906572 0.31022874 1.7187733e-06
-0.0031906746 0.13111685 -0.123784095 0.08737336 -0.033955246 4.844047e-06 0.005225824 0.13224925
-0.0405508 0.09248152 0.06507418 0.16311708 -0.03346866 0.034222946 -0.0781614 0.031045489
-0.001203282 -0.17397568 0.00011617303 0.18560979 0.13768072 -0.0875532 0.17054321 0.061676785
0.10503711 -0.07608337 0.0058784406 -3.0255715e-05 0.16176018 0.013858594 -3.6796075e-05 0.033857647
0.022681646 7.8545265e-05 -0.02896094 0.038635988 -0.08315128 0.020465164 -0.039385583 -0.09110681
-0.14626478 0.01072135 0.10873286 -0.12791401 -0.0022764294 0.106330715 -0.014930736 3.105928e-05
0.12995495 3.081076e-07 -0.031051481 -0.149174 0.025943879 0.12591273 -0.032772806 -4.022127e-05
-0.026416274 0.09573737 -0.38912988 0.02592568 0.05524966 -0.054018863 0.11226897 0.104227856

7.bias f4 [50]
00000000: c55e 6c3e 13aa 6b3e b472 f53d b44c 4e3e
00000010: 1d1b b53d 3abf 0c3e a637 32be 0067 033e
00000020: ec02 213d 1295 9ebd dd66 53bd ec15 9fbd
00000030: 4317 8b3d 32c5 be3d 58ab a8bc 6938 0bbe
00000040: 826f 85bd eef5 28be 2d7e df3d b38b 8fbd
00000050: 15c1 2abe fd58 e23d b9f9 0cbc 767d b4bc
00000060: 46da 2c3e c02c b2bd 4c29 803e 174e 783d
00000070: 6c7c 1b3e d8ea cf3d d473 803e 1701 143d
00000080: 1fda 603e e31c 96bc a0ee 8b3e dcac bb3d
00000090: f0fb 753b 9215 8e3e ef8c f73c aa51 9a3d
000000a0: ec46 98bc e59c f7bc 3d5e 60bd 2187 27bd
000000b0: b46f 31be cfab d73d c93e 0bbe ead7 f13d
000000c0: 3d5a 28bd ccf1 c63e
0.23083027 0.23014097 0.119847685 0.20146447 0.08843062 0.13744822 -0.1740404 0.1283226
0.039309427 -0.07743277 -0.05161177 -0.07767853 0.06791546 0.09314956 -0.020589516 -0.13595738
-0.06515409 -0.16500065 0.10912738 -0.070090674 -0.16675217 0.110521294 -0.00860446 -0.02203248
0.1688014 -0.08699942 0.25031507 0.060621347 0.15184182 0.10152215 0.2508837 0.03613385
0.21958207 -0.018324321 0.27330494 0.0916383 0.00375342 0.27750832 0.03021857 0.075351074
-0.018588506 -0.03022618 -0.054777373 -0.040900353 -0.17327768 0.10530817 -0.1359817 0.118087605
-0.041101683 0.3885635

9.weight f4 [50, 50]
00000000: 05e3 e0bd e752 c83c 3901 a2bc 792c 8f3d
00000010: 351d e63d a8b3 d8bc 6534 3a3d d652 203d
00000020: 2522 4dbd a195 79b7 2ebd 8e3c 8273 863d
00000030: a463 8b3d fabf 933d 16e2 dcbd 29c7 16b8
00000040: 0935 6938 0c1f 433d e7e8 b6bd e5fb eb36
00000050: 13fc c4b8 80c9 56bc 14d2 18be c26d 263d
00000060: fd92 e43c 6cf3 4db8 7e07 b73b 8304 823d
00000070: fe43 0739 b745 f03d 52a7 fabc 2278 643e
00000080: 3a5e 903c 8ea1 34b8 5c1d 89be 71c8 f23b
00000090: 94bd 9639 80d4 193e 800b 313e f917 e1bb
000000a0: 2019 c53c dbdf bcbd a5d2 8eb7 ed66 f03d
000000b0: 7d8b a238 f611 df3c 64b7 583d 5bbe 093e
000000c0: fe9d 853d 02d4 79bd c41f 293d fc07 af3d
000000d0: 202d c5bb c5a0 183e 3da8 0f3c 6931 0bbe
000000e0: 49a0 153d 2c4b bc3d c56c 24bd f564 b6b7
000000f0: dc23 c7bc c866 083e 5b9d 9fbc 7349 82bc
00000100: 3f51 063e 7744 30b8 4c8e 08b8 6733 4fbc
00000110: 51fe 803d 1acd be38 5c6a 0b38 387a 293d
00000120: 99d5 43bd a27a 6cbd c791 2e3e eaba cab8
00000130: 7eed 1c3d f3b5 543d 59f9 ad3d c1f5 27bd
00000140: cc1f dc3d 6998 803d 39af 453d 6676 44b9
00000150: 61fc e13d cfc2 0dbe 8e29 ba3d 30da cb3c
00000160: 51a5 273c 449a da3d 8972 f43a 1cc1 88bd
00000170: 93ee c2b8 cee6 9a3c c7df 3d38 9555 9c3c
00000180: f111 ce3c 6c88 03be 9c10 093d 6095 9fbc
00000190: f683 a3b8 0861 9d38 f07b 38b7 7965 95b8
000001a0: 0c14 cfb7 0d35 acb8 61d8 1bb8 a2c3 1a38
000001b0: 461a 8037 a519 f437 04e1 a538 6267 19b8
000001c0: 386a 96b8 c243 1ab6 2475 e7b8 2bcd fe37
000001d0: af0c d237 dc9a 9837 19da fe38 63ac 0139
000001e0: 4eee 8a38 2b21 1237 0ebc dbb6 5575 9e37
000001f0: 8785 6cb6 50b7 bdb8 2e6f c036 c3da a237
00000200: 7ea1 a1b6 eee3 aa38 c7c3 bc38 5d8d 51b8
00000210: 8481 25b8 ca27 0d38 1834 5db8 1d33 a138
00000220: 629e ddb8 da27 0eb6 553d e137 ccda b4b7
00000230: 0779 1039 b621 b1b7 f9df 6438 ee3e e0b8
00000240: a593 ecb8 6ce0 9bb8 7f6e 6e36 e2f7 1739
00000250: be7d 1739 245e b5b7 8af6 453d 53e6 60bd
00000260: fcb1 61bd 65e0 8a3d fcde 243e cfd8 f23d
00000270: 899d c03c b0d7 fd3d 3bb4 6a3d 0cfb 86b6
00000280: 4688 023c 2bd3 b93d 67ba 0b3e 77bb 623e
00000290: 037c febd e85e d2b8 8e47 5c37 9a4f f63c
000002a0: 87b8 e7bd 601b dbb6 5ead e036 1ae3 b33d
000002b0: a045 1e3d b35f d8bc ef5c 633d bab1 0338
000002c0: 7cd0 0c3e f4c3 023e 4a1d 22bc 64af b4bd
000002d0: c24f bf3d 3d74 01be 8efb 333e 6a45 42b8
000002e0: 684a 013e 5b0c 03be baec f63d 543f 9f3d
000002f0: 9f01 b4bd f053 2fbd 456b 9cbd 4132 0dbe
00000300: 411a 19b8 c9e4 713d e23c 56b7 bb48 8ebc
00000310: f25e 5a3d a94f 29bd 76a4 0e3e 89b4 a13d
00000320: b373 8738 4351 84b8 b365 b5b7 c9a6 b7b8
00000330: 2065 12b7 033d 17b8 09d6 82b7 6aa7 ae38
00000340: 2524 f338 32bc bf38 26d0 8a37 79ae 03b8
00000350: b4fb 60b9 5d94 cdb8 aad2 bd38 9941 b936
00000360: 1d7b 1ab7 8d42 7237 c73d 35b6 e539 d238
00000370: 1369 2fb8 6d8d 1538 78df 09b9 bb09 20b8
00000380: 5330 1cb8 57d0 bd38 6ed8 98b8 0b64 3b38
00000390: be52 9a38 5c90 44b8 c660 36b9 a643 a0b8
000003a0: d328 1db8 1eeb e536 fc48 8eb8 b5a4 3839
000003b0: d74e 11b6 739b abb8 077c fe38 54f6 e337
000003c0: 1fe8 f9b7 8f65 2ab8 1285 8eb8 346d 3236
000003d0: 5326 83b9 dc2d 9437 d45e a738 1001 6338
000003e0: 2233 e738 a711 3939 63a3 0339 bc15 bf35
000003f0: 145e c4b7 484c 8636 3fbd 98b8 2244 24b9
-0.109808005 0.024453593 -0.019775974 0.06990904 0.112360395 -0.026452854 0.045460124 0.0391415
-0.05008139 -1.4876395e-05 0.017424192 0.06565 0.06806114 0.07214351 -0.1078531 -3.594827e-05
5.560092e-05 0.04763703 -0.08931141 7.03287e-06 -9.392961e-05 -0.013109565 -0.14923888 0.040632017
0.02790212 -4.9102513e-05 0.00558561 0.06348517 0.00012899932 0.11732047 -0.030597363 0.22311452
0.017623056 -4.3065804e-05 -0.26780212 0.0074091484 0.00028751476 0.15022469 0.17289543 -0.006869313
0.024059832 -0.092223845 -1.7025808e-05 0.117383815 7.750744e-05 0.027230244 0.05290927 0.13451521
0.06524275 -0.060993202 0.04129006 0.08546445 -0.006017342 0.14905079 0.0087681385 -0.13593067
0.036529813 0.091940254 -0.040142793 -2.1743102e-05 -0.024309091 0.13320458 -0.019484213 -0.015904164
0.1311693 -4.2025433e-05 -3.255745e-05 -0.012646533 0.06298507 9.098109e-05 3.3239237e-05 0.041376323
-0.047811124 -0.05773414 0.17047797 -9.666926e-05 0.038312428 0.051931333 0.08494825 -0.041005854
0.10748252 0.0627907 0.04826281 -0.00018736123 0.110344656 -0.13843845 0.09089957 0.024884313
0.010232286 0.10673955 0.0018649857 -0.06677458 -9.295079e-05 0.018908884 4.526952e-05 0.019083777
0.02515504 -0.1284501 0.033463106 -0.019480407 -7.797025e-05 7.504417e-05 -1.0996111e-05 -7.1237744e-05
-2.4685658e-05 -8.2114806e-05 -3.71564e-05 3.689866e-05 1.5271024e-05 2.9099008e-05 7.9097255e-05 -3.6574325e-05
-7.172342e-05 -2.2987228e-06 -0.000110367575 3.0374698e-05 2.5039857e-05 1.8191924e-05 0.00012152288 0.00012366618
6.6247405e-05 8.710001e-06 -6.548601e-06 1.8889705e-05 -3.5244464e-06 -9.046367e-05 5.734989e-06 1.9413774e-05
-4.816974e-06 8.148687e-05 9.001005e-05 -4.9961138e-05 -3.9459686e-05 3.3654076e-05 -5.2739022e-05 7.686599e-05
-0.00010567602 -2.1182846e-06 2.685065e-05 -2.1559557e-05 0.00013777996 -2.1115742e-05 5.4568027e-05 -0.00010692874
-0.00011280858 -7.432778e-05 3.552908e-06 0.00014492826 0.00014447325 -2.1620719e-05 0.04833082 -0.054907154
-0.05510138 0.06781081 0.16100687 0.11857759 0.023512619 0.12394655 0.057300787 -4.022737e-06
0.00796706 0.0907348 0.13645326 0.22141825 -0.12425997 -0.00010031258 1.3129682e-05 0.030067254
-0.11314493 -6.5298955e-06 6.695903e-06 0.087835506 0.03864062 -0.02641282 0.05550855 3.1398355e-05
0.13751405 0.12770063 -0.009894678 -0.088225156 0.093413845 -0.12641998 0.17576429 -4.631785e-05
0.1262604 -0.12797682 0.12056871 0.07775751 -0.08789372 -0.04280466 -0.076376475 -0.13788702
-3.6502493e-05 0.059056077 -1.2769569e-05 -0.017368665 0.053313203 -0.041335735 0.13929924 0.078957625
6.458852e-05 -6.309387e-05 -2.1624239e-05 -8.757186e-05 -8.725823e-06 -3.6058027e-05 -1.5596876e-05 8.32815e-05
0.000115938754 9.142644e-05 1.6547809e-05 -3.1395324e-05 -0.00021456071 -9.8027966e-05 9.0514615e-05 5.521066e-06
-9.20778e-06 1.4439819e-05 -2.700706e-06 0.00010024364 -4.182111e-05 3.565608e-05 -0.00013148587 -3.8156035e-05
-3.7238304e-05 9.0510286e-05 -7.288238e-05 4.4677447e-05 7.358704e-05 -4.6864487e-05 -0.00017392923 -7.641995e-05
-3.7469737e-05 6.852103e-06 -6.784682e-05 0.00017608966 -2.1652575e-06 -8.18287e-05 0.00012134766 2.7175214e-05
-2.9791203e-05 -4.0625742e-05 -6.795874e-05 2.6587632e-06 -0.0002501482 1.766433e-05 7.980844e-05 5.4122007e-05
0.000110244626 0.00017649551 0.00012554 1.4236934e-06 -2.340883e-05 4.0023915e-06 -7.283175e-05 -0.0001566564

9.bias f4 [50]
00000000: b3d7 3bbe 6ff3 09be f841 9cbd d638 d53d
00000010: 8e3f 06be c347 bbbd bf0a 973d 3ec5 5b3e
00000020: b82e f63d 8ccb e3bd 5445 cd3d bc10 e3bd
00000030: 339d 8bbd ab61 4cbd a959 ad3d 46eb 963c
00000040: 8777 aebd 1de0 063e 2eb2 433d b720 b7bc
00000050: a454 df3d 51ab 143e b91d b0bd 9024 a6bc
00000060: 19e7 0c3e b44f 263e be43 2dbd ddc6 92bc
00000070: 23c7 8b3e e98f 49bd 71b4 0bbb 376c bcbd
00000080: d0ea 8d3d 8480 e138 fb5e 783e 04f1 a6bd
00000090: 64df cd3d 5111 afbc 3dfd a6bc 06b9 dabd
000000a0: 5240 debd ceed e7bd 7dc2 9fbd 4efe 4b3d
000000b0: 7cca 523c 2c1b 2a3e 8d47 71bd 3c35 70be
000000c0: 9ede 863d d2b4 bdbc
-0.18344001 -0.13471769 -0.0762977 0.10411231 -0.13110182 -0.09144547 0.073750965 0.2146196
0.1202063 -0.11122808 0.10022989 -0.11087176 -0.06817093 -0.04989783 0.08464367 0.018422734
-0.08518892 0.1317143 0.047777347 -0.022354467 0.10904816 0.14518477 -0.08599419 -0.020281106
0.13760032 0.16241342 -0.042300932 -0.017917091 0.27300367 -0.04920951 -0.0021317268 -0.09200328
0.069295526 0.00010752774 0.24254982 -0.08151439 0.10052374 -0.021370562 -0.020384425 -0.10679822
-0.10852112 -0.113246545 -0.078007676 0.04980307 0.012865659 0.16611928 -0.058906127 -0.23457807
0.065854296 -0.02315751

11.weight f4 [50, 50]
00000000: 28f8 613e a7ab 1b3d 1e04 e937 8043 123e
00000010: 9ad9 2ab8 9116 1437 6ed8 29be 0f9b 483e
00000020: 8000 57bd 8fe2 3e3d 6fe4 ca3a 3e1b 4138
00000030: bc71 ebbd 2cd3 0b38 3f67 55bd f926 04be
00000040: 1611 3337 c376 e03d 6044 04bb 5223 b3bc
00000050: dab1 d8bc 9004 c33d cffe 2eb8 8835 2b38
00000060: 7679 963d 6b5c 923d 2160 7ab9 e748 89bd
00000070: fe61 d83d 2865 e3bb 5ee6 193e dc8d 8cb7
00000080: 2778 003e 5e10 5d3d 9c3e e7bd ff1f 6fb7
00000090: 230d 513e 2e52 08be bcb1 22be 05cc e7bb
000000a0: a92c 74b8 44b6 f137 5e77 913c 25d2 163e
000000b0: 3c74 d13d 0a04 863d 8455 8d3d 7cb0 6a3e
000000c0: 0c42 45be b144 28bd 8e7e 5e3d 4e54 4b3e
000000d0: 9bc0 7eb8 65f1 343d e0e6 10b7 1937 2db7
000000e0: 4931 eebc b9d9 cc3d 9992 5abb c38c b13d
000000f0: 95c0 0d3d 6cce 6437 a6b4 b73d db1d 1b39
00000100: c388 abbd bafe ed3d 1d53 9938 cc5b 3dbe
00000110: 0192 d23d 128f ad3d 5158 c6bd 8aae 5bbe
00000120: bacd b637 db5f 8fb8 b150 d3bd b0c5 71bd
00000130: 034b 1637 0b22 5cbd 347b 68bd 0b74 a5bc
00000140: 2809 593e 1a4e cf37 d1e4 05be 0884 193b
00000150: b4fe 5e3d 76d9 e5b8 6e38 353e b838 1a3e
00000160: 6f5f 20be 1692 363e 9205 28b7 7b3c 6c37
00000170: 8961 823d daea 073e 576c 36bc 0a68 383d
00000180: 014c 833d 7fd9 043e b896 7b3c a694 83be
00000190: c593 16bd 7ac7 923b 0812 dab7 75fc c73d
000001a0: 3500 6cb7 8b46 34b8 6d1c e93d e206 1c3e
000001b0: 7af9 393d 0f36 463e 8390 8b3d cfee 3b38
000001c0: c6c7 15bd 66e6 3bb8 d4a2 8ebe a8d4 c53c
000001d0: de09 a837 7aae 893e 2e03 96bd 1ff3 25be
000001e0: a8a9 66bd 42ab 92be f481 d938 428c 3939
000001f0: 1636 873d c47c fc3d af0b dbb8 4560 1fbd
00000200: 080b 9bbd b127 da3d a15b 40bc 65fa 94b8
00000210: 80b9 783d 3b7a 92bd 7c8a a1bd 0148 4038
00000220: 5796 233e 6a6e 31bd 923b 813c 0c79 00bc
00000230: 33f1 98b8 8f14 fab8 37a4 a33d 5c14 193d
00000240: 28d4 0bbe e100 783e 2369 643d 3ce2 843d
00000250: 6216 d9bd 7aa7 e3bc 72f2 1c3d 470a d4bc
00000260: e98f 0839 66f3 3a3e ecf7 6fb9 87c9 e937
00000270: 63bc 623e c7fd 9a3d e070 9e3d f8f1 9a3c
00000280: ef5d 563e 4736 b838 e93e fbbc 3bc8 b1b8
00000290: 7610 a73e c778 a9bd 8110 1538 cc0b bf3b
000002a0: 4cb7 cf3d a85d 7e3d 190e e43c a400 eebe
000002b0: 0f78 0b38 5dc8 0539 fed0 c13d 309d 1f3e
000002c0: d1e6 69b8 d22f b6ba cdff c63e 3f22 c13c
000002d0: f8ae c93c 0e9a 8d38 7318 a43d c286 c83d
000002e0: 8d90 143f 435d 74b8 f2b1 94bc c224 473c
000002f0: 6c60 8cbe d65f 2dbd 265d 27b9 b89d e8b8
00000300: 36cf 30be 2b8c 5d3e 2780 52bd 9203 1abe
00000310: a685 b1bd 44bc 41be 5f06 983d 138c f4bd
00000320: bfa4 1ebc 10f9 fa3c 0dc0 9136 e666 a23d
00000330: a211 fab7 83df 87b8 68b1 a8bd 79bc 2d3d
00000340: 6866 60bd 95c6 0d3d c251 093e ce1a f6b7
00000350: 047d 3a3c ed0f 8a39 a018 15be 3d9c 23bd
00000360: 3136 6738 ac95 433e 6392 0fbe 26df e03d
00000370: 9d6e 173e da6e 16be 091a 1cb8 3bdc 5fb6
00000380: c3d1 d5bd 5f6e db3d 1010 edb8 0aed 993c
00000390: f10d c4bc bcb2 323d 87d4 b83d 70bf bbb8
000003a0: 4885 1b3e 1395 083d 0e63 5ebd 99ce 8938
000003b0: 0370 e2bd ef9c 74bd 45ae 293c 5f79 743d
000003c0: d8e7 5b37 dc66 acb6 ea3b 1abc ec65 473d
000003d0: 6c32 59bd a989 e13d 1223 2d3c 02f2 053e
000003e0: 5a20 af3d f536 7d3d 3af5 353d ed2e 0bbd
000003f0: 3580 5534 0075 8a3d e0ef a438 d484 61b6
0.2206732 0.038005497 2.7777682e-05 0.14283562 -4.0733816e-05 8.826742e-06 -0.16586468 0.195904
-0.05249071 0.04660278 0.0015479455 4.6040157e-05 -0.114963025 3.333685e-05 -0.052100416 -0.12905492
1.06732095e-05 0.10960152 -0.0020182356 -0.021867428 -0.026451994 0.095223546 -4.172214e-05 4.0819432e-05
0.073473856 0.071465336 -0.00023877669 -0.06703358 0.105655655 -0.006939549 0.15029284 -1.6755359e-05
0.12545834 0.053970687 -0.11291239 -1.425296e-05 0.20415168 -0.13312599 -0.15888113 -0.0070738816
-5.8215726e-05 2.8814313e-05 0.017757114 0.14728601 0.10227248 0.06543739 0.069010764 0.22918886
-0.19263476 -0.041081134 0.05431991 0.19856378 -6.0737697e-05 0.044175524 -8.636824e-06 -1.0324432e-05
-0.029076235 0.10002465 -0.003335154 0.08669426 0.03460749 1.363792e-05 0.08970003 0.00014793074
-0.083756946 0.11620851 7.3110896e-05 -0.18492049 0.10281754 0.08474554 -0.09684814 -0.214533
2.179189e-05 -6.836626e-05 -0.10318125 -0.05902642 8.958162e-06 -0.053743403 -0.05675812 -0.020196935
0.21194899 2.4712692e-05 -0.13075568 0.0023424644 0.054442123 -0.00010960076 0.17697307 0.15060699
-0.15661405 0.17829165 -1.0014877e-05 1.4080778e-05 0.063662596 0.13273183 -0.011134229 0.045021094
0.06410981 0.12973593 0.015355758 -0.25699347 -0.036762018 0.004479346 -2.5996022e-05 0.09764949
-1.4066744e-05 -4.2981042e-05 0.11382375 0.15237 0.045403935 0.19356559 0.06814673 4.4806682e-05
-0.036567472 -4.479885e-05 -0.27858603 0.024149254 2.0031755e-05 0.26890928 -0.07324825 -0.16206025
-0.05631414 -0.28646284 0.00010371572 0.00017695225 0.06602113 0.12328485 -0.0001044491 -0.03891017
-0.075704634 0.10652102 -0.011740596 -7.1038296e-05 0.06072378 -0.0715222 -0.07887742 4.5843426e-05
0.15975319 -0.04331819 0.015775476 -0.00784136 -7.292852e-05 -0.00011924758 0.07990306 0.03737293
-0.1365515 0.24219085 0.05576433 0.06488463 -0.10599972 -0.02778982 0.03831715 -0.025883807
0.00013023581 0.18256912 -0.00022885174 2.7869608e-05 0.22142176 0.075679354 0.07736373 0.018914208
0.2093427 8.783914e-05 -0.030669646 -8.4773135e-05 0.32629746 -0.082749896 3.553974e-05 0.0058302637
0.10142383 0.062101036 0.027838754 -0.46484864 3.3251996e-05 0.0001275851 0.0946369 0.15587306
-5.5766493e-05 -0.001389975 0.38867036 0.0235759 0.024619564 6.752099e-05 0.08012476 0.09791328
0.58033067 -5.826099e-05 -0.018151257 0.01215476 -0.27417314 -0.042327724 -0.00015961062 -0.000110919995
-0.17266545 0.21635501 -0.051391747 -0.15040424 -0.086680695 -0.18919474 0.0742309 -0.119407795
-0.009682833 0.03063634 4.3436944e-06 0.079297826 -2.9810533e-05 -6.478934e-05 -0.082369626 0.04241607
-0.054785162 0.03461321 0.13410094 -2.9337967e-05 0.011382345 0.00026333277 -0.14560175 -0.039943922
5.512516e-05 0.19100064 -0.14020686 0.10980062 0.1478829 -0.14690724 -3.7217545e-05 -3.335778e-06
-0.104403995 0.10714411 -0.000113040325 0.018789787 -0.023932429 0.043627486 0.090249114 -8.952513e-05
0.15187562 0.033345293 -0.054293685 6.571151e-05 -0.11056521 -0.059719976 0.0103564905 0.05968606
1.31073975e-05 -5.137974e-06 -0.009413699 0.048681185 -0.0530266 0.11012585 0.010567443 0.130806
0.085510924 0.06181999 0.04442332 -0.0339803 1.9883812e-07 0.06760597 7.8648096e-05 -3.3604929e-06

11.bias f4 [50]
00000000: 65ef f03d 234b 83be e8dd 7c3c daf9 663e
00000010: fd9a 993d 5b99 e03e fbf6 30be ccf3 76bd
00000020: 3f41 6fbd 86c3 d33c 8f1f fd3c e44e 95be
00000030: 2dd3 25bd 85ab 17bd d464 aa3d 51f9 3e3e
00000040: 5df6 47bd 67d0 fa3d f94c 213f 34e8 99bc
00000050: f16c 663e d106 543e 5589 a2bb 173c 0ebe
00000060: f0d8 05be f02a 9eb9 d806 073e 89d5 1b3e
00000070: a274 2fbd 33f8 50bd 5c32 743d 2d02 543e
00000080: faea 833d 8915 0ebe 5655 243e 92ef 443e
00000090: 4a8e b6bd c4ee d53d 7cf1 a23d 0469 c73c
000000a0: b2f1 07bd d581 e03d 6280 2e3e 3dca 4d3e
000000b0: b183 2d3e 05d1 2a3c 3396 07be 38a4 41bd
000000c0: 26a6 f2bd b341 e13d
0.11764411 -0.25643262 0.015433766 0.22556248 0.07500265 0.43867 -0.17281716 -0.060291097
-0.058411833 0.025850069 0.030898837 -0.2916175 -0.040484596 -0.03702881 0.08320013 0.18649794
-0.048818935 0.12246781 0.63008076 -0.01878748 0.22502495 0.20705725 -0.004960219 -0.1389011
-0.13071036 -0.000301681 0.13186204 0.15218176 -0.04283584 -0.05101795 0.05961834 0.20703955
0.064413026 -0.13875403 0.16048178 0.19232014 -0.08913858 0.104459316 0.07956216 0.024342068
-0.033189483 0.109622635 0.17041162 0.20096679 0.16944768 0.010425811 -0.1324089 -0.04727575
-0.118480965 0.10998859
