models/mnist_skip6.pt (torch, 203649 bytes, 12 tensors)

1.weight f4 [50, 784]
-4.3492102e-05 -0.0006652063 -0.0009715705 -0.00039622554 -0.000367689 -0.00027312234 -0.0010304268 -0.00058763206
-0.00032473134 -0.00044992493 -0.0008756111 -0.0006151346 -0.00086481817 -0.0011023653 -0.00010740683 -0.00073224085
-0.00040223394 -0.00034084855 -0.0004459759 -0.0007089786 -0.00010843402 -0.00037824785 -0.00087598636 -0.00020874359
-0.0002918672 -0.00094428315 -2.5098812e-05 -0.0005411552 -0.00076974684 -0.00070866715 -0.00019661649 -0.0002960282
1.7456467e-05 -0.0008493245 -0.0009063561 -0.00052413525 -0.001015648 -0.0002044359 -0.0013282739 -0.0014081111
-0.0008227149 -0.00079655467 -0.00039644883 -0.00025535742 -0.0005312947 -0.000794782 -0.00024187297 -0.00047689592
-0.00031665154 -0.00085363723 -0.0006554575 -0.0006780228 -0.0007199711 -0.00039349194 -0.00043486664 -0.00010871746
-0.00047399552 -0.0006870302 -0.00026339953 -0.00025931545 -0.0007263962 -0.0006289217 -0.00076318235 -0.0005645965
-0.00056295167 -0.00041548847 -0.000375113 -0.0004864889 -0.00023561304 -0.00069621886 -0.00054185395 -0.0015272242
-0.001669284 -0.0006475026 2.4078632e-05 0.00090992975 0.00047004657 -0.00019071215 -0.00065016415 -0.00046956338
-0.00095229596 -0.00042095178 -0.0004962327 -0.0005817561 -0.0012468412 -0.00025023008 -0.00078303175 -0.00021826454
-0.00085496064 -0.00048311058 -0.0009877373 -4.5676938e-05 -0.0003967223 -0.00029173587 0.0002156818 0.0024770387
0.0017409746 -0.00093271834 -0.006574097 -0.010655129 -0.0041257013 -0.002252528 0.00084161205 0.0024353242
0.0009412681 -0.0004228547 0.0003770536 -1.5892212e-05 -0.00052574696 -0.00063565373 -0.00038324518 -0.00064023276
-0.0006754218 -0.0004927721 -0.00057251647 -0.00092274236 -0.00046222183 -0.0006546032 -0.00081266527 0.0003861767
0.00066548545 0.0039126724 0.008791373 0.021894377 -0.029141992 -0.052638974 -0.07926585 -0.14689516
-0.11959727 -0.027504278 0.006848965 0.008248255 0.0058390694 0.0014358099 0.000104183215 -0.0006577954
-0.0009816701 -0.00088005984 -0.00052197557 -0.0007657634 -0.0005995293 -0.00040164104 -0.00046838037 -0.0010386412
0.00019736668 0.00024612638 0.00096195494 0.0028211377 0.0045697484 0.023359878 0.017666107 -0.024142507
-0.047624815 -0.06712446 -0.16933408 -0.35943997 -0.3844482 -0.20491098 -0.011523844 0.09281831
0.06612095 0.011077271 0.0034959323 -0.0007656319 -0.0008841298 -0.0013024979 -0.0006048635 -0.00045909474
-0.00043868774 -0.00043972887 -0.00038588498 -0.00027146423 0.00031241783 0.00025028182 0.0023492319 0.00326181
0.0013630965 0.0062554833 0.012141271 0.04829679 0.05346507 0.15532607 0.15498443 0.029592752
-0.033116244 -0.004534002 0.083583206 0.19514053 0.17065972 0.037914686 0.0034579544 -0.0025847065
-0.0035632935 -0.00057939044 -0.00012374633 -0.00040407263 -0.00049314677 -0.00039446302 -0.0005395157 0.00024849374
0.0008861176 0.00048989704 0.00085005607 0.0028371532 0.008772946 0.00164268 0.013342259 0.087491244
0.13954207 0.22625962 0.25503746 0.055897426 0.053523473 0.04434886 0.08779762 0.12826397
0.021372695 -0.02547877 -0.083394855 -0.01118487 -0.0021931275 -0.000516924 0.0003941083 -0.0005168057
-0.0006439373 -0.00048704672 -0.0008008446 -0.00023189813 -0.0006253164 -0.00024048255 0.002325273 0.006082761
0.022889886 -0.04323729 -0.048076063 -0.013806467 0.03866336 0.085963905 0.08999919 -0.13078898
-0.17961234 -0.0849065 -0.13533421 -0.06760151 -0.09408816 -0.09747949 -0.0797383 -0.018159322
-0.0015219144 -0.0031871614 -0.00044413254 -0.00042484593 -0.0010228744 -0.00040906068 -0.0005316463 0.0002954754
00000000: 4a6b 36b8 3d61 2eba feb0 7eba 7ebc cfb9
00000010: 62c6 c0b9 dc31 8fb9 630f 87ba 520b 1aba
00000020: b440 aab9 e7e3 ebb9 4489 65ba fc40 21ba
00000030: f7b4 62ba 3e7d 90ba 9a3f e1b8 daf3 3fba
00000040: ede2 d2b9 ebb3 b2b9 dfd1 e9b9 c0da 39ba
00000050: 1267 e3b8 914f c6b9 73a2 65ba 2ee2 5ab9
00000060: c105 99b9 c589 77ba 4a8b d2b7 50dc 0dba
00000070: d6c8 49ba d9c5 39ba d62a 4eb9 3c34 9bb9
00000080: 7a6f 9237 34a5 5eba 8798 6dba 1f66 09ba
00000090: 7e1f 85ba d85d 56b9 7a19 aeba 5e90 b8ba
000000a0: 76ab 57ba e1cf 50ba 76da cfb9 7ee1 85b9
000000b0: 9546 0bba eb58 50ba 489f 7db9 e307 fab9
000000c0: 4004 a6b9 a0c6 5fba 02d3 2bba 57bd 31ba
000000d0: 71bc 3cba 984d ceb9 d0fe e3b9 3eff e3b8
000000e0: 9a82 f8b9 d119 34ba e318 8ab9 bbf4 87b9
000000f0: a06b 3eba 39de 24ba 4d10 48ba 6e01 14ba
00000100: 0c93 13ba ebd5 d9b9 d1aa c4b9 6f0f ffb9
00000110: e50e 77b9 7582 36ba 340b 0eba 242d c8ba
00000120: e0cb daba 2abd 29ba 78fc c937 5a88 6e3a
00000130: 9570 f639 e7f9 47b9 c76f 2aba bb2f f6b9
00000140: 80a3 79ba 31b3 dcb9 9d15 02ba fe80 18ba
00000150: 0c6d a3ba 5031 83b9 5f44 4dba f1dd 64b9
00000160: 701f 60ba 014a fdb9 f776 81ba 3d95 3fb8
00000170: 2aff cfb9 20f4 98b9 a428 6239 d055 223b
00000180: 6a31 e43a ab81 74ba 866b d7bb da92 2ebc
00000190: e430 87bb 269f 13bb a19f 5c3a f699 1f3b
000001a0: 6fbf 763a 99b2 ddb9 47af c539 4450 85b7
000001b0: 48d2 09ba 00a2 26ba 4cee c8b9 4bd5 27ba
000001c0: ca0e 31ba 602d 01ba ee14 16ba 31e4 71ba
000001d0: 5d56 f2b9 ad99 2bba 0b09 55ba c277 ca39
000001e0: f973 2e3a e035 803b b109 103c d65b b33c
000001f0: 30bb eebc f79b 57bd 2256 a2bd af6b 16be
00000200: 6aef f4bd a750 e1bc 486d e03b b023 073c
00000210: aa55 bf3b c931 bc3a f07c da38 e76f 2cba
00000220: 62ab 80ba d1b3 66ba 30d5 08ba 83bd 48ba
00000230: bb29 1dba 5993 d2b9 f390 f5b9 0423 88ba
00000240: 37f4 4e39 860a 8139 b42b 7c3a d6e2 383b
00000250: d4bd 953b 375d bf3c 83b8 903c 82c6 c5bc
00000260: 3d12 43bd 8d78 89bd ea65 2dbe 8408 b8be
00000270: 65d6 c4be 2fd4 51be 81ce 3cbc 8717 be3d
00000280: 6c6a 873d 717d 353c 031c 653b b0b4 48ba
00000290: f2c4 67ba 94b8 aaba b48f 1eba a7b2 f0b9
000002a0: acff e5b9 698b e6b9 9b50 cab9 5053 8eb9
000002b0: 03cc a339 4238 8339 92f5 193b 17c4 553b
000002c0: eea9 b23a ccfa cc3b 2eec 463c dbd2 453d
000002d0: 30fe 5a3d cc0d 1f3e 3db4 1e3e 806c f23c
000002e0: e6a4 07bd f791 94bb ac2d ab3d ebd2 473e
000002f0: 6cc1 2e3e 6e4c 1b3d d99e 623b 2e64 29bb
00000300: 2586 69bb 3ce2 17ba e7c1 01b9 b6d9 d3b9
00000310: 8546 01ba eecf ceb9 496e 0dba 4448 8239
00000320: 584a 683a 6f6c 003a 4cd6 5e3a 88ef 393b
00000330: 67bc 0f3c 324f d73a 7e99 5a3c 9c2e b33d
00000340: 1ee4 0e3e 9ab0 673e 4594 823e b3f4 643d
00000350: 6e3b 5b3d 26a7 353d 3dcf b33d a157 033e
00000360: ca15 af3c dab8 d0bc ecca aabd bf40 37bc
00000370: 93ba 0fbb 2f82 07ba 52a0 ce39 3e7a 07ba
00000380: e7cd 28ba 4e5a ffb9 c5ef 51ba ae29 73b9
00000390: 46ec 23ba 0b2a 7cb9 9b63 183b e651 c73b
000003a0: 9283 bb3c 9619 31bd 68eb 44bd 8534 62bc
000003b0: 795d 1e3d d80d b03d 7f51 b83d 8ced 05be
000003c0: 4cec 37be 76e3 adbd 0d95 0abe a972 8abd
000003d0: 4bb1 c0bd 54a3 c7bd d54d a3bd dcc2 94bc
000003e0: f97a c7ba b2df 50bb 76da e8b9 dbbd deb9
000003f0: f811 86ba 3277 d6b9 2e5e 0bba 09ea 9a39

1.bias f4 [50]
0.2545378 0.07591625 0.30602556 -0.23338567 -0.060645442 -0.12027361 -0.2908194 -0.04155951
-0.15376124 -0.115849756 0.106634535 -0.023489868 -0.25681213 -0.123558395 -0.014549923 0.30026585
0.14463452 0.26242068 -0.050762836 -0.083724655 0.24545436 -0.05340808 0.008639641 -0.17415968
-0.42667186 0.20235829 -0.0779655 -0.07207958 -0.32752708 0.1284224 0.12992808 -0.0059297876
0.03945932 -0.24338949 0.09037185 0.026822263 0.07663212 0.023441436 0.20952483 -0.3087335
0.025989171 -0.04257649 0.36379665 0.15171017 0.014741661 0.03823078 -0.010520282 0.21989925
0.13191666 0.26644668
00000000: c752 823e fb79 9b3d 62af 9c3e a7fc 6ebe
00000010: 5b67 78bd 0352 f6bd 48e6 94be 4e3a 2abd
00000020: 9673 1dbe a342 edbd 3563 da3d d36d c0bc
00000030: e17c 83be 2f0c fdbd cd62 6ebc 72bc 993e
00000040: 121b 143e 015c 863e b1ec 4fbd d577 abbd
00000050: 6358 7b3e 6ec2 5abd 488d 0d3c ea56 32be
00000060: bc74 dabe 0337 4f3e 60ac 9fbd 759e 93bd
00000070: a1b1 a7be 2981 033e de0b 053e aa4e c2bb
00000080: 19a0 213d 183b 79be e014 b93d 5dba db3c
00000090: 4df1 9c3d 4108 c03c ad8d 563e 5112 9ebe
000000a0: 3ee7 d43c b064 2ebd 8e43 ba3e e959 1b3e
000000b0: 0287 713c e197 1c3d 435d 2cbc 452d 613e
000000c0: 2915 073e b36b 883e

2.path.0.weight f4 [50, 50]
0.26716128 0.2789375 0.07800486 0.24294421 0.059651755 0.2537911 -0.20011964 0.085247785
0.08684356 0.11291818 0.19568928 -0.060086004 -0.011435211 0.07101919 -0.33469102 0.19071543
-0.31239748 -0.07253595 0.087542996 0.023252493 -0.20574638 0.09331079 0.016550858 0.008842168
0.07282397 -0.1839955 0.15375729 0.1653181 -0.051005494 -0.0074433642 0.1646775 0.1346186
0.09821144 0.16958655 -0.10579913 0.013378325 0.107249856 0.23592786 0.073454745 -0.18793184
0.2003439 -0.13282835 0.20556211 -0.048577357 -0.14053912 -0.079870455 -0.019570298 0.033573356
0.1615568 -0.10792704 -0.19319555 -0.025665367 -0.15724643 0.26057497 0.30043706 -0.037051044
-0.093367234 -0.02909949 -0.056955345 0.2356498 0.13020468 0.11570414 0.021278609 0.031176627
-0.02194805 0.12287553 -0.12066444 -0.0135430675 -0.019964023 -0.0643591 0.29996625 -0.034172155
-0.05842055 -0.056144357 -0.051545132 0.2336732 0.06648914 -0.05936124 -0.04316329 -0.1364353
-0.080590405 0.08356918 0.03580347 -0.15102421 -0.07682425 -0.37135106 0.36488193 -0.10432147
-0.24015427 -0.050948035 0.14736123 -0.22042713 -0.16697223 0.15004626 -0.016408116 0.15484758
0.06055299 0.07217358 -0.040925127 0.06691265 -0.053960014 -0.0621586 0.08156215 0.08859119
-0.16012388 0.039437212 0.111611255 -0.07530219 0.057594307 -0.1872574 -0.19559212 -0.053523656
0.071817875 -0.03627725 -0.25240898 -0.054750014 -0.023337143 0.31594244 0.014655341 -0.22976619
-0.20150788 0.06794338 0.2520209 0.08613643 -0.06793731 0.07363167 -0.13521287 0.048388388
-0.2891321 -0.17276561 -0.19025981 0.070119366 0.004522277 -0.37602368 0.16623951 -0.17769453
0.15955961 0.078039005 0.018680552 0.08422072 -0.06253941 -0.08315793 -0.10182758 -0.0034404378
-0.101415746 0.08591567 0.02286081 0.14927842 0.13046627 -0.105526075 -0.12539859 0.13275948
0.03834688 0.034674205 -0.030958122 -0.08205737 0.07146245 0.1974469 0.21471117 0.05537894
0.11401427 0.14685017 0.044513777 -0.026704947 0.30510274 0.06962148 -0.23691311 0.024801359
0.16442643 0.28828785 0.023817463 -0.012396894 0.17604275 0.1527114 -0.034307662 0.09970934
-0.026564764 0.142737 -0.1298426 -0.24918927 -0.2584922 -0.007986079 -0.10852338 0.33064276
0.14959243 -0.01319451 -0.0476017 0.019077042 0.1788475 0.045018222 -0.3719407 0.06606236
-0.25315475 -0.084684104 -0.20516431 0.22925894 -0.108112834 -0.029537763 0.10999951 0.064825416
-0.45724866 -0.22700168 0.019256722 0.08532071 -0.0061586443 0.08153037 -0.09209546 -3.0280602e-05
-0.028832758 -0.1239079 0.38666648 0.07113479 -0.21663533 -0.15798774 -0.10443424 -0.098797075
0.03727778 -0.2513804 0.22342288 0.054915372 0.03925149 0.03880982 0.1993917 -0.005267809
-0.03825071 0.060910337 0.20289959 -0.08167764 0.009547968 0.25925454 -0.1529722 0.013586595
0.046020493 -0.09666652 -0.038760155 -0.06115273 -0.004481936 0.094747335 0.2538407 0.06279378
-0.02698807 -0.044795185 -0.11327197 -0.14632042 0.31924835 0.11380117 -0.082717225 -0.11005542
0.07045235 -0.20320264 0.0016805284 -0.12218079 -0.09546573 0.05478374 -0.08043778 0.10125461
00000000: 5dc9 883e e5d0 8e3e 03c1 9f3d 5ec6 783e
00000010: 6655 743d e8f0 813e 2aec 4cbe 6496 ae3d
00000020: 09db b13d a641 e73d c562 483e be1c 76bd
00000030: c05a 3bbc 8272 913d 9f5c abbe e84a 433e
00000040: 90f2 9fbe ba8d 94bd be49 b33d 037c be3c
00000050: 2eaf 52be ba19 bf3d aa95 873c bede 103c
00000060: bc24 953d 5169 3cbe 8d72 1d3e 2649 293e
00000070: 23eb 50bd 77e7 f3bb 38a1 283e 75d9 093e
00000080: 1423 c93d 19a8 2d3e 37ad d8bd c330 5b3c
00000090: d0a5 db3d 1397 713e 716f 963d 3471 40be
000000a0: f426 4d3e 2804 08be e07e 523e 0df9 46bd
000000b0: 7de9 0fbe 1f93 a3bd e451 a0bc 3784 093d
000000c0: 256f 253e da08 ddbd 0ed5 45be 2d40 d2bc
000000d0: 3505 21be 156a 853e e3d2 993e d6c2 17bd
000000e0: 5237 bfbd 0e62 eebc 024a 69bd 2e4e 713e
000000f0: 6054 053e 4bf6 ec3d 7a50 ae3c 2066 ff3c
00000100: 66cc b3bc 2aa6 fb3d eb1e f7bd bee3 5dbc
00000110: 978b a3bc b4ce 83bd 2d95 993e 1af8 0bbd
00000120: 634a 6fbd a0f7 65bd fd20 53bd 0748 6f3e
00000130: 752b 883d c624 73bd fdcb 30bd b2b5 0bbe
00000140: 950c a5bd 5126 ab3d a9a6 123d 17a6 1abe
00000150: 0856 9dbd ba21 bebe ced1 ba3e 7fa6 d5bd
00000160: 00eb 75be e3ae 50bd dde5 163e a6b7 61be
00000170: c5fa 2abe baa5 193e 506a 86bc 5d90 1e3e
00000180: 6906 783d becf 933d 1ba1 27bd 8009 893d
00000190: 2d05 5dbd 049a 7ebd 0e0a a73d 4c6f b53d
000001a0: 84f7 23be ea88 213d 7194 e43d 0938 9abd
000001b0: 02e8 6b3d 67c0 3fbe 4d49 48be 9f3b 5bbd
000001c0: 4015 933d 7497 14bd c03b 81be 8d41 60bd
000001d0: 892d bfbc 35c3 a13e f51c 703c d447 6bbe
000001e0: 1558 4ebe e625 8b3d e208 813e 4c68 b03d
000001f0: b722 8bbd 33cc 963d 3e75 0abe e732 463d
00000200: 1f09 94be 78e9 30be 78d3 42be be9a 8f3d
00000210: 9c2f 943b 2d86 c0be b13a 2a3e 8ef5 35be
00000220: 9863 233e ead2 9f3d f507 993c ea7b ac3d
00000230: aa14 80bd b44e aabd fa8a d0bd f878 61bb
00000240: 0fb3 cfbd 8ef4 af3d 9846 bb3c 71dc 183e
00000250: f398 053e 0e1e d8bd 7d68 00be 1af2 073e
00000260: 9e11 1d3d 8a06 0e3d e39b fdbc b20d a8bd
00000270: e85a 923d 852f 4a3e 3fdd 5b3e 07d5 623d
00000280: 5080 e93d e45f 163e 1454 363d 55c4 dabc
00000290: 6d36 9c3e b595 8e3d 5a99 72be 382c cb3c
000002a0: 675f 283e 779a 933e d71c c33c 581c 4bbc
000002b0: 8d44 343e 6160 1c3e 3186 0cbd 6934 cc3d
000002c0: 599e d9bc a629 123e 75f5 04be 792b 7fbe
000002d0: 1759 84be 0bd8 02bc 8141 debd 024a a93e
000002e0: c22e 193e c92d 58bc 00fa 42bd 7547 9c3c
000002f0: cd23 373e 0765 383d 036f bebe b44b 873d
00000300: 809d 81be dc6e adbd 9816 52be dbc2 6a3e
00000310: 436a ddbd 2ef9 f1bc 6c47 e13d 30c3 843d
00000320: 7f1c eabe 2173 68be 46c0 9d3c a0bc ae3d
00000330: 74ce c9bb 65f9 a63d 8b9c bcbd 1903 feb7
00000340: ad32 ecbc 6dc3 fdbd 26f9 c53e 1eaf 913d
00000350: a7d5 5dbe 8ac7 21be 9ee1 d5bd 1f56 cabd
00000360: 96b0 183d efb4 80be f8c8 643e f1ee 603d
00000370: 2cc6 203d 0cf7 1e3d 562d 4c3e 969d acbb
00000380: c7ac 1cbd 1e7d 793d e9c4 4f3e 9b46 a7bd
00000390: 156f 1c3c 03bd 843e bfa4 1cbe 4f9a 5e3c
000003a0: fc7f 3c3d 19f9 c5bd f8c2 1ebd 497b 7abd
000003b0: 34dd 92bb e40a c23d 69f7 813e 069a 803d
000003c0: 1616 ddbc 287b 37bd 22fb e7bd 05d5 15be
000003d0: 8574 a33e 9610 e93d a667 a9bd bc64 e1bd
000003e0: 5249 903d 5a14 50be 2d45 dc3a ec39 fabd
000003f0: 8983 c3bd ea64 603d 90bc a4bd 945e cf3d

2.path.0.bias f4 [50]
-0.1014948 0.29898795 0.022121102 -0.12532581 -0.22019014 -0.0012019977 0.08406738 0.16400617
-0.13499543 0.1925905 -0.29522163 -0.18474181 0.12037336 -0.3165383 -0.046135373 -0.21229853
0.026279718 0.11308031 0.044160184 0.15122634 -0.13453521 0.124231145 -0.0702502 -0.037678666
0.025455767 0.067510635 0.0040018475 0.09042233 0.056920495 0.14783874 0.22430263 0.008418274
0.21964021 -0.23613079 -0.083319366 -0.02052511 -0.017004225 0.14658555 -0.30199665 -0.10391398
0.012322194 0.11885903 0.022030378 -0.0094987685 -0.26761824 -0.19489631 -0.12263423 -0.0036123516
-0.106165186 -0.19748215
00000000: 81dc cfbd f314 993e 5037 b53c 6955 00be
00000010: 8679 61be 5a8c 9dba 852b ac3d 3cf1 273e
00000020: 3e3c 0abe 7236 453e 4a27 97be f52c 3dbe
00000030: 4f86 f63d 4f11 a2be 72f8 3cbd c964 59be
00000040: 9048 d73c a696 e73d 4fe1 343d 14db 1a3e
00000050: 99c3 09be e66c fe3d 56df 8fbd f254 1abd
00000060: 9d88 d03c 0443 8a3d ee21 833b 582f b93d
00000070: 7725 693d 0a63 173e 97af 653e cdec 093c
00000080: 5de9 603e 45cc 71be 58a3 aabd 4724 a8bc
00000090: 724c 8bbc 861a 163e 4e9f 9abe dad0 d4bd
000000a0: 07e3 493c 5d6c f33d 0d79 b43c b9a0 1bbc
000000b0: 4205 89be e692 47be a827 fbbd 34bd 6cbb
000000c0: 226d d9bd c338 4abe

2.path.2.weight f4 [50, 50]
-0.019553881 0.43147326 -0.042109165 -0.04174164 0.10446925 -0.09695352 0.0304551 0.023313332
0.18647286 0.24835917 -0.059094068 -0.24952589 0.28712487 0.20003992 0.12915902 -0.055593647
-0.037844185 -0.12301247 0.080959834 -0.09613056 -0.1749932 0.60523576 0.1538343 -0.0520269
-0.23221979 -0.046943773 0.03272447 -0.108586416 0.07446508 -0.025895618 -0.001467495 -0.065439746
0.034805067 -0.022023005 -0.1782526 0.2942523 0.015546907 0.16885546 -0.11804684 0.026401598
0.21360128 -0.19085094 0.028692413 0.37116486 -0.20760275 -0.0795357 0.021881271 0.024066737
-0.08613549 -0.2159033 0.106976636 -0.09871338 -0.17521963 -0.27335066 0.15514064 -0.22228062
-0.07387948 0.022229498 0.022784248 -0.12503141 -0.16073215 0.21719202 -0.027277764 0.008223715
-0.24307068 0.06893838 0.03352798 -0.20941117 0.22877172 -0.274207 0.008678045 -0.051497944
0.11824238 -0.09491344 -0.012721219 0.0738898 -0.021127436 -0.31397542 -0.014533156 0.36742225
0.0018096917 -0.0011758461 -0.10741143 0.08691608 -0.041084312 0.21495298 0.09430343 0.013102816
-0.1097328 -0.1714697 0.08391189 -0.118068404 -0.0035384109 -0.023450155 -0.20700629 -0.051146474
-0.26140156 -0.06807955 -0.09266497 0.12421261 0.07742871 -0.15162307 -0.13357657 -0.33865267
0.1170028 -0.37283486 0.08631955 0.066426344 -0.010884635 -0.13964994 0.1453371 0.20713505
0.016749002 -0.14719333 0.11600078 0.08920848 0.010703351 -0.18151605 0.12851909 -0.142212
0.052658983 -0.12401714 0.03364047 0.14453934 0.07092914 0.15234487 0.013156512 -0.14193314
0.102528796 -0.10742498 -0.0917063 -0.065903 -0.06597881 0.2177842 -0.17589307 -0.058578227
-0.0020223928 0.055836707 0.03111973 0.14877842 -0.009730629 0.027911969 -0.12791967 -0.054537997
0.27036127 -0.13619058 -0.10961711 -0.03719635 -0.09556306 0.16305548 -0.19534892 -0.034114175
-0.08580402 -0.018740939 0.0034306769 0.006447556 0.17997567 0.05331662 0.052846834 -0.08491663
0.052051075 0.063928604 -0.026810447 0.054724008 0.1995629 0.08755984 -0.009018905 -0.009633491
0.04793755 -0.051823363 0.08466296 -0.13995156 0.21853006 0.10876238 0.06946464 0.03782954
-0.0045795017 0.17733227 0.0037093926 0.12792084 -0.082111046 0.14066707 0.26456538 0.095573656
-0.07530559 -0.039532516 0.17472404 -0.031963266 -0.104336515 -0.10665256 -0.030903032 -0.22017433
-0.20548916 -0.027245486 -0.081194304 -0.08194353 0.08634143 0.35551986 0.018226251 0.06817216
-0.09037718 -0.08002014 -0.017985793 0.04198984 0.23071034 0.30037042 0.015963718 0.014546562
-0.17889291 -0.070948474 -0.04351414 -0.11965216 0.15763263 0.09309556 -0.14633535 -0.09135957
-0.20211859 0.18910791 -0.044152472 -0.15108901 -0.2253378 -0.2177408 0.28962374 0.12419457
-0.025545172 0.18388312 -0.06840601 -0.067641206 0.020381669 -0.14130051 -0.36898258 0.16861047
0.042398572 -0.27474102 0.03950478 0.019961635 -0.121381365 -0.05952955 -0.08613213 -0.0072303023
0.04254698 0.18638176 -0.023952723 0.110647194 0.18403423 -0.16499746 0.03656649 0.017863398
0.14863682 -0.023472315 -0.050977375 0.1021684 -0.16927387 0.18858077 0.10400709 0.0675464
00000000: 762f a0bc 10ea dc3e a97a 2cbd 48f9 2abd
00000010: f9f3 d53d 918f c6bd f97c f93c 9afb be3c
00000020: bef2 3e3e de51 7e3e 9f0c 72bd b783 7fbe
00000030: 0802 933e 44d7 4c3e 4342 043e 2ab6 63bd
00000040: 8102 1bbd f6ed fbbd 45ce a53d 19e0 c4bd
00000050: 6b31 33be bbf0 1a3f bd86 1d3e 291a 55bd
00000060: 06cb 6dbe 1d48 40bd 180a 063d 8e62 debd
00000070: 2681 983d 0c23 d4bc f658 c0ba 4605 86bd
00000080: c28f 0e3d 9769 b4bc d987 36be 3da8 963e
00000090: 74b8 7e3c 72e8 2c3e 8bc2 f1bd 2a48 d83c
000000a0: 4bba 5a3e 6e6e 43be 5a0c eb3c 5209 be3e
000000b0: d195 54be 9de3 a2bd 5a40 b33c 9b27 c53c
000000c0: ce67 b0bd c115 5dbe 9116 db3d 3e2a cabd
000000d0: c66c 33be 9ef4 8bbe 30dd 1e3e 889d 63be
000000e0: 204e 97bd a31a b63c 08a6 ba3c 3c08 00be
000000f0: f896 24be 9667 5e3e 9e75 dfbc c3bc 063c
00000100: 85e7 78be 912f 8d3d a354 093d e26f 56be
00000110: 2243 6a3e dc64 8cbe 5c2e 0e3c 82ef 52bd
00000120: 1029 f23d fa61 c2bd a96c 50bc 8953 973d
00000130: 7213 adbc 63c1 a0be 791c 6ebc c51e bc3e
00000140: 2d33 ed3a d91e 9aba 86fa dbbd 0f01 b23d
00000150: 0648 28bd a21c 5c3e 2822 c13d 32ad 563c
00000160: 97bb e0bd c195 2fbe ffd9 ab3d d9cd f1bd
00000170: afe4 67bb 8a1a c0bc 75f9 53be f77e 51bd
00000180: 6dd6 85be 4b6d 8bbd 22c7 bdbd 2e63 fe3d
00000190: f292 9e3d 1443 1bbe 4cc8 08be e263 adbe
000001a0: 2a9f ef3d 36e4 bebe 4ec8 b03d 890a 883d
000001b0: 7855 32bc 6500 0fbe 40d3 143e 361b 543e
000001c0: 3435 893c d9b9 16be d191 ed3d f0b2 b63d
000001d0: 1c5d 2f3c 58df 39be 829a 033e 06a0 11be
000001e0: f2b0 573d b3fc fdbd 97ca 093d 1f02 143e
000001f0: 4c43 913d 4b00 1c3e 698e 573c ec56 11be
00000200: 9efa d13d a101 dcbd 83d0 bbbd 27f8 86bd
00000210: e61f 87bd d202 5f3e 501d 34be b9ef 6fbd
00000220: 1f8a 04bb 08b5 643d ceee fe3c 5f59 183e
00000230: 376d 1fbc a4a7 e43c 60fd 02be 3c63 5fbd
00000240: cb6c 8a3e 8b75 0bbe ef7e e0bd 335b 18bd
00000250: 91b6 c3bd 04f8 263e 8c09 48be 4ebb 0bbd
00000260: 05ba afbd 9986 99bc 35d5 603b 0546 d33b
00000270: 8b4b 383e 8762 5a3d ec75 583d c5e8 adbd
00000280: 8233 553d 00ed 823d 95a1 dbbc 4826 603d
00000290: 385a 4c3e 9352 b33d 08c4 13bc cad5 1dbc
000002a0: 2a5a 443d bc44 54bd c663 ad3d 764f 0fbe
000002b0: 58c6 5f3e d0be de3d 7a43 8e3d 26f3 1a3d
000002c0: a50f 96bb 9796 353e 4819 733b aefd 023e
000002d0: d629 a8bd 070b 103e 1d75 873e 1fbc c33d
000002e0: d139 9abd d9ec 21bd dcea 323e eaeb 02bd
000002f0: 62ae d5bd a86c dabd 5b28 fdbc 6175 61be
00000300: c06b 52be ed31 dfbc 3349 a6bd 02d2 a7bd
00000310: c7d3 b03d b306 b63e 384f 953c d89d 8b3d
00000320: ac17 b9bd 99e1 a3bd f156 93bc 8afd 2b3d
00000330: 553f 6c3e 27ca 993e 58c6 823c b454 6e3c
00000340: b42f 37be 6f4d 91bd e23b 32bd 310c f5bd
00000350: 736a 213e e3a8 be3d efd8 15be ba1a bbbd
00000360: 2df8 4ebe 81a5 413e 39d9 34bd 14b7 1abe
00000370: f4be 66be 72f7 5ebe 9049 943e b959 fe3d
00000380: 1c44 d1bc db4b 3c3e 7318 8cbd 7987 8abd
00000390: 75f7 a63c 15b1 10be 49eb bcbe 39a8 2c3e
000003a0: 20aa 2d3d dbaa 8cbe c4cf 213d 9586 a33c
000003b0: cb96 f8bd 42d5 73bd 0b66 b0bd 2cec ecbb
000003c0: be45 2e3d dcda 3e3e 8038 c4bc ff9a e23d
000003d0: 7873 3c3e 18f5 28be bec6 153d 4356 923c
000003e0: 4034 183e 0349 c0bc a7cd 50bd ab3d d13d
000003f0: 2156 2dbe 511b 413e ab01 d53d c455 8a3d

2.path.2.bias f4 [50]
0.07925697 0.27312237 0.041706774 -0.026181957 0.076584324 0.04966242 -0.11652236 0.03657421
-0.13181438 -0.10058991 0.21205921 -0.042328782 -0.17682219 -0.11919563 0.18788595 0.10227029
0.17859593 0.10995395 0.024335423 -0.12924436 0.23685166 0.014467905 -0.074043594 -0.17386429
-0.1584766 -0.04520528 0.20874406 -0.15354733 -0.08356804 0.05078768 0.09608543 0.2006723
0.02064748 -0.23127049 0.12930006 0.2703972 -0.025477968 0.24030738 0.1904411 -0.3919614
-0.07243636 -0.104270846 0.22455457 0.07500073 -0.13465294 -0.16227756 -0.27235097 -0.15608053
0.054736037 0.13789348
00000000: 7a51 a23d b2d6 8b3e b9d4 2a3d 8b7b d6bc
00000010: 3ed8 9c3d d26a 4b3d 46a3 eebd d7ce 153d
00000020: 59fa 06be 1502 cebd 0d26 593e f260 2dbd
00000030: e010 35be d71c f4bd 2d65 403e 1673 d13d
00000040: dae1 363e 892f e13d 155b c73c a258 04be
00000050: 3e89 723e cb0a 6d3c 2ba4 97bd 7b09 32be
00000060: b147 22be 2c29 39bd 01c1 553e 833b 1dbe
00000070: b825 abbd be06 503d 70c8 c43d 0a7d 4d3e
00000080: e724 a93c 2cd2 6cbe 3c67 043e 8071 8a3e
00000090: 2cb7 d0bc 2313 763e fe02 433e 2aaf c8be
000000a0: 8459 94bd f48b d5bd a2f1 653e fc99 993d
000000b0: 76e2 09be 172c 26be 9671 8bbe 93d3 1fbe
000000c0: e532 603d f333 0d3e

3.path.0.weight f4 [50, 50]
0.10492483 -0.012233794 0.16451615 0.030445827 0.25484467 -0.075134344 0.061416335 0.20244676
0.3277087 0.23742597 0.07674731 0.1000504 0.09141797 -0.11006406 0.12982452 0.09398905
-0.16317327 -0.012768929 -0.07454886 -0.0055828993 0.14907065 -0.08157891 -0.004238529 -0.08134405
-0.3156891 0.037823092 0.38600123 -0.08727587 0.15736815 -0.09411298 0.12397433 -0.17588422
-0.17402394 0.17785369 0.11386015 0.15330628 0.11651169 0.28673872 0.15924549 -0.015506345
-0.21044897 0.14036971 -0.09116525 -0.15503359 0.02225106 -0.013090453 0.05924175 0.07949526
-0.07465627 0.0052787256 0.005727636 0.13390465 0.15286541 0.19693756 0.09382663 -0.002495818
0.07315775 -0.11479697 -0.04205816 0.00069544226 -0.13927326 -0.17090802 0.20755889 -0.13452189
0.10162547 -0.17558457 0.0020489492 0.3859939 0.111640565 -0.013043747 0.0019812374 -0.018285334
-0.08878343 0.26561314 -0.008834725 0.062213577 0.019543253 0.14050503 -0.14104159 0.083095506
-0.16993621 0.11067241 -0.028131912 -0.073342144 -0.09780458 -0.032172143 -0.13642938 -0.040330417
0.2005115 0.15122777 -0.013777486 0.118685715 -0.23177037 0.04833552 -0.0037875988 0.032087844
-0.022275813 0.057980727 0.05010078 0.20073693 0.006483975 0.22230591 -0.08176052 -0.106324755
-0.12807555 0.09637808 0.05309118 0.27797717 0.15457666 0.38694823 0.16407067 0.0069151525
0.028600758 -0.029906591 0.17671195 -0.026887441 -0.35628015 -0.09587242 0.016638309 -0.10663607
-0.05368015 -0.025538418 0.088817365 -0.1663001 0.010263368 0.10771086 0.3333094 0.046609525
0.17665863 -0.040115822 0.12178828 -0.3140049 -0.020045932 0.08852944 0.14621824 0.12020989
-0.23845527 -0.11980384 0.06915307 -0.08049335 -0.20330042 -0.05292379 -0.018253397 -0.2795204
-0.030086046 0.10584279 -0.10556706 -0.05025692 -0.21016611 0.14032185 -0.13589615 0.12645431
-0.13374244 0.17159931 -0.039624173 0.1072729 0.08348962 0.009073129 -0.008188912 -0.09838962
0.13380916 -0.017399982 0.24543902 -0.017336894 0.065386735 -0.08514522 -0.009071168 -0.13079913
0.08557883 -0.31010136 -0.013273918 -0.18494047 -0.03206698 -0.002373112 0.049375065 -0.21728879
-0.06410639 0.016513154 -0.10673598 0.034006067 0.019887276 0.01441423 0.17371558 0.21782494
-0.09313439 0.117343225 0.3031324 0.12691107 -0.18862578 0.3079078 0.2817979 -0.21181026
-0.023561575 -0.1794953 -0.20248036 -0.029141497 -0.18055086 0.17426565 -0.20651144 -0.19443038
0.022225074 0.08608997 0.0068436847 0.16086504 0.12085733 -0.03165232 -0.2262333 -0.13208322
-0.08449366 -0.1338822 0.24606256 -0.00035076038 -0.08751513 -0.2651862 0.25436682 -0.0019677812
0.11391777 -0.031004706 0.09956118 0.092458084 0.32775077 -0.020685984 -0.103893474 0.09419314
-0.4336986 0.24873802 0.10585823 0.1616952 -0.080369554 -0.10601507 -0.040803436 0.05948168
-0.06481212 0.09534917 -0.26321507 0.12626028 -0.1594599 0.07512261 -0.027655654 -0.118303984
-0.001823369 0.11641851 -0.029002374 -0.04412848 0.0010048234 -0.23176241 0.025000522 -0.030475082
-0.0035624607 0.2216697 -0.025620202 0.01003071 0.19799587 -0.14993612 0.292832 0.102243036
00000000: d4e2 d63d 4070 48bc ec76 283e 8769 f93c
00000010: 007b 823e 09e0 99bd b28f 7b3d 344e 4f3e
00000020: 6fc9 a73e cb1f 733e b22d 9d3d 39e7 cc3d
00000030: 5839 bb3d 4469 e1bd b8f0 043e 557d c03d
00000040: e516 27be c534 51bc 13ad 98bd c1f0 b6bb
00000050: faa5 183e d812 a7bd 5ce3 8abb b697 a6bd
00000060: 00a2 a1be 63ec 1a3d f4a1 c53e b1bd b2bd
00000070: 1e25 213e 4ebe c0bd 41e6 fd3d fe1a 34be
00000080: 5533 32be 471f 363e 832f e93d 52fc 1c3e
00000090: ae9d ee3d 6bcf 923e 4011 233e 530e 7ebc
000000a0: ef7f 57be 14bd 0f3e d9b4 babd 20c1 1ebe
000000b0: db47 b63c 5779 56bc 7aa7 723d 69ce a23d
000000c0: 63e5 98bd 29f9 ac3b e5ae bb3b 4d1e 093e
000000d0: c088 1c3e 00aa 493e 2d28 c03d e190 23bb
000000e0: bbd3 953d ac1a ebbd 2d45 2cbd 574e 363a
000000f0: a69d 0ebe 8302 2fbe 518a 543e 1bc0 09be
00000100: 0421 d03d 71cc 33be aa47 063b fea0 c53e
00000110: cfa3 e43d 71b5 55bc a6d7 013b 20cb 95bc
00000120: 16d4 b5bd 72fe 873e 86bf 10bc aad3 7e3d
00000130: 2c19 a03c 8de0 0f3e 356d 10be fa2d aa3d
00000140: c203 2ebe 37a8 e23d e574 e6bc 6834 96bd
00000150: c54d c8bd f0c6 03bd 25b4 0bbe 8231 25bd
00000160: e352 4d3e 74db 1a3e f7ba 61bc 7f11 f33d
00000170: 3655 6dbe 77fb 453d 5d39 78bb 8b6e 033d
00000180: c47b b6bc 337d 6d3d 7a36 4d3d fb8d 4d3e
00000190: 8677 d43b 29a4 633e 0f72 a7bd cbc0 d9bd
000001a0: 3d26 03be df61 c53d 2376 593d 0653 8e3e
000001b0: 5849 1e3e 141e c63e 2402 283e 8198 e23b
000001c0: 234c ea3c abfe f4bc faf3 343e 0d43 dcbc
000001d0: 5a6a b6be c258 c4bd 104d 883c 0364 dabd
000001e0: b8df 5bbd f235 d1bc e1e5 b53d 934a 2abe
000001f0: af27 283c 8397 dc3d 88a7 aa3e a1e9 3e3d
00000200: 00e6 343e 7d50 24bd 226c f93d 40c5 a0be
00000210: 5e37 a4bc ec4e b53d 3cba 153e 9a30 f63d
00000220: 9e2d 74be b75b f5bd 20a0 8d3d b3d9 a4bd
00000230: fc2d 50be 9ec6 58bd 2688 95bc 4c1d 8fbe
00000240: 0377 f6bc 1bc4 d83d 8b33 d8bd 33da 4dbd
00000250: c935 57be 88b0 0f3e 5c28 0bbe 3d7d 013e
00000260: c7f3 08be bbb7 2f3e f54c 22bd e5b1 db3d
00000270: 9bfc aa3d 76a7 143c c92a 06bc 7f80 c9bd
00000280: 4505 093e 688a 8ebc 5e54 7b3e 1a06 8ebc
00000290: 7be9 853d 9e60 aebd 3c9f 14bc 35f0 05be
000002a0: f443 af3d 9bc5 9ebe d97a 59bc 0961 3dbe
000002b0: aa58 03bd 3686 1bbb 823d 4a3d f480 5ebe
000002c0: 364a 83bd 9846 873c 6598 dabd f249 0b3d
000002d0: a4ea a23c aa29 6c3c 7fe2 313e 800d 5f3e
000002e0: 3ebd bebd a551 f03d 2c34 9b3e faf4 013e
000002f0: 1e27 41be 17a6 9d3e d047 903e cae4 58be
00000300: 3404 c1bc 9ecd 37be 0357 4fbe 26ba eebc
00000310: 53e2 38be b272 323e bc77 53be c218 47be
00000320: 5c11 b63c f04f b03d fd40 e03b ceb9 243e
00000330: 0c84 f73d dda5 01bd b4a9 67be d340 07be
00000340: 030b adbd 6a18 09be d3f7 7b3e 43e6 b7b9
00000350: 223b b3bd 7cc6 87be 5e3c 823e e4f5 00bb
00000360: b84d e93d 95fd fdbc bbe6 cb3d aa5a bd3d
00000370: f3ce a73e a775 a9bc 1ac6 d4bd 55e8 c03d
00000380: be0d debe 2eb5 7e3e 33cc d83d 6d93 253e
00000390: cb98 a4bd 6e1e d9bd 8121 27bd 10a3 733d
000003a0: 37bc 84bd 6d46 c33d 20c4 86be 604a 013e
000003b0: 7549 23be e2d9 993d 1c8e e2bc 5c49 f2bd
000003c0: 1cfe eeba d46c ee3d 6396 edbc 11c0 34bd
000003d0: 47b4 833a 2053 6dbe e5cd cc3c e1a6 f9bc
000003e0: 2c78 69bb 62fd 623e 75e1 d1bc d957 243c
000003f0: 6ebf 4a3e db88 19be 13ee 953e cc64 d13d

3.path.0.bias f4 [50]
0.11880533 0.25445738 0.15572192 -0.14185144 0.24886537 0.22683936 -0.0494264 0.07995998
0.038652636 0.079472974 0.02099857 0.05446846 0.082238674 0.047935653 0.09908929 -0.031980556
-0.0782143 0.016912742 -0.09518856 -0.38498345 -0.07731152 0.05939681 0.17758815 0.12731467
-0.16505182 0.06680079 0.27037707 0.32232624 0.22699581 0.036101278 0.11182832 0.27578148
0.2014106 -0.13373241 0.15113978 -0.3346754 0.1567475 -0.1417883 0.03427721 -0.13346028
0.0043611648 0.06500739 -0.06957623 -0.12438447 -0.22324534 0.16246012 -0.07359163 0.29760176
0.00396721 0.08600659
00000000: 3550 f33d 3d48 823e 9175 1f3e 8141 11be
00000010: 90d6 7e3e 9448 683e 5673 4abd 0fc2 a33d
00000020: 3a52 1e3d bac2 a23d 3105 ac3c 521a 5f3d
00000030: c06c a83d 2d58 443d 53ef ca3d 0bfe 02bd
00000040: d22e a0bd 978c 8a3c 38f2 c2bd 8d1c c5be
00000050: 8155 9ebd 124a 733d abd9 353e c75e 023e
00000060: 5803 29be dace 883d dd6e 8a3e f207 a53e
00000070: 9771 683e efde 133d 3f06 e53d 3b33 8d3e
00000080: 953e 4e3e 26f1 08be 63c4 1a3e 935a abbe
00000090: 6b82 203e f430 11be 4266 0c3d d0a9 08be
000000a0: 1ae8 8e3b 9822 853d fc7d 8ebd 49bd febd
000000b0: 6d9a 64be f25b 263e 35b7 96bd 425f 983e
000000c0: 5fff 813b 3924 b03d

3.path.2.weight f4 [50, 50]
0.09223942 -0.059849795 -0.05411555 0.15801878 -0.07533422 0.09688646 -0.050428063 -0.14291415
-0.09123133 -0.009399902 0.015731385 -0.10266164 0.02791576 0.03477255 -0.17879352 0.04477587
0.13721567 -0.18483444 -0.32102746 -0.11409843 0.14701854 0.012929559 -0.15243681 0.22273214
0.0102575505 -0.053714626 0.046384063 0.13925695 0.017435558 -0.016066762 -0.19140472 -0.042645715
-0.13433933 0.03771506 0.31017262 0.12875523 -0.048793074 0.03836227 -0.032269407 0.07846675
-0.1508306 -0.14766148 0.06864548 0.2416841 -0.010303513 0.20651066 0.06575852 -0.1024658
0.025705963 -0.2350098 0.017778391 0.06542748 0.18348034 0.077067696 -0.018198447 -0.23295905
0.3385024 -0.063502885 -0.037272964 -0.129326 0.15209493 0.031570204 0.13274635 0.10294248
0.2897291 -0.007383737 -0.16728772 0.14893939 -0.054610144 -0.0038903358 -0.059849788 0.2207997
-0.23307158 0.009919149 0.024073092 0.042533726 -0.014483345 -0.1030767 -0.20478846 -0.024501886
0.10500974 0.13584913 -0.007156665 -0.24068642 -0.009304742 -0.25891268 -0.1806015 0.037579004
0.11964891 0.25864348 0.094822824 -0.19726129 -0.09877178 -0.09601786 -0.07646932 0.013255585
-0.107367806 -0.20321049 0.02935616 -0.14198396 0.16929263 0.09366319 0.15443663 0.17467453
-0.059944447 -0.10169742 0.15715703 -0.17140445 0.01976365 -0.12396418 -0.0062898025 -0.22685303
0.032306604 0.095527515 0.23836085 -0.15463537 -0.001364423 0.05371567 -0.25961244 -0.15898891
0.09030497 -0.14151323 -0.13738994 0.011321953 0.0003162288 0.0076252325 -0.11516083 0.024394462
-0.08371434 0.17578802 0.10240611 -0.02917831 -0.14279675 0.11470295 0.31687182 -0.14220574
-0.124085054 0.010972835 0.1569775 -0.010503118 -0.0055469926 -0.22907186 -0.03583777 -0.026953712
0.061774287 -0.0056248824 -0.16067317 -0.10672618 -0.26516578 -0.1838174 0.06653831 -0.30265787
0.042402018 -0.1331327 -7.9273195e-05 9.787531e-06 0.096333474 0.069162674 -0.0050413087 -0.026626097
0.07547878 -0.037797768 0.058658484 0.12158667 -0.116903715 -0.35342515 0.11271476 -0.03496527
-0.13581681 0.0016018702 -0.20523584 0.037508897 0.02817841 0.25013885 0.11320989 -0.11374255
0.0417284 0.0046403497 0.118671596 -0.0035532927 0.15714046 -0.0633302 0.10381591 0.014099049
-0.12778442 -0.33429226 0.11780305 0.04651402 0.07929268 0.10095255 0.08961296 -0.22017075
0.02266113 -0.04541784 -0.048617654 0.2304397 0.16319014 0.033763666 -0.02721964 0.15035342
-0.019570807 -0.20117314 -0.08191451 0.08065192 -0.105542414 0.14613982 0.042846624 0.0029187852
-0.17055501 0.119317725 0.17738657 0.031102313 0.01998517 -0.015895456 -0.112903655 -0.08739201
0.05421548 0.004960779 -0.15324807 -0.0850611 0.004937471 0.035807315 -0.12953342 0.08640194
0.03064062 0.022083703 -0.058250032 -0.092736825 -0.027603013 -0.0416481 -0.11378108 0.04544458
0.035251774 -0.17767645 -0.0065968824 -0.05503236 -0.14405395 0.26629922 -0.07356774 0.30534026
0.23060128 -0.06558295 -0.005575968 -0.15938771 -0.13156398 0.037653267 0.1054798 -0.20029034
0.060448326 -0.11075434 -0.34526685 -0.017044494 -0.20741507 -0.008038727 0.19695936 0.30633098
00000000: 05e8 bc3d 0f25 75bd 44a8 5dbd adcf 213e
00000010: d448 9abd 696c c63d a88d 4ebd 1658 12be
00000020: 7ed7 babd 0c02 1abc 1bdf 803c 4440 d2bd
00000030: 98af e43c a96d 0e3d a615 37be e766 373d
00000040: 4482 0c3e 3d45 3dbe b65d a4be 70ac e9bd
00000050: 078c 163e 80d6 533c 6518 1cbe e513 643e
00000060: 490f 283c de03 5cbd 37fd 3d3d 6099 0e3e
00000070: 04d5 8e3c 719e 83bc 99ff 43be 46ad 2ebd
00000080: 4090 09be 1b7b 1a3d f2ce 9e3e 69d8 033e
00000090: 3fdb 47bd c121 1d3d ed2c 04bd 2db3 a03d
000000a0: 5673 1abe 9234 17be 0096 8c3d 097c 773e
000000b0: 11d0 28bc 8877 533e 67ac 863d 97d9 d1bd
000000c0: 5095 d23c 69a6 70be fda3 913c d8fe 853d
000000d0: 45e2 3b3e abd5 9d3d e914 95bc d18c 6ebe
000000e0: 3050 ad3e cd0d 82bd 89ab 18bd 096e 04be
000000f0: c6be 1b3e c24f 013d a9ee 073e 82d3 d23d
00000100: 5f57 943e 46f3 f1bb 794d 2bbe 9183 183e
00000110: e3ae 5fbd 01f5 7ebb 0d25 75bd 5119 623e
00000120: 51aa 6ebe ed83 223c ef34 c53c d837 2e3d
00000130: 8d4b 6dbc e019 d3bd 11b4 51be 2eb8 c8bc
00000140: 590f d73d 091c 0b3e 7582 eabb 8076 76be
00000150: eb72 18bc 3490 84be 9aef 38be 71ec 193d
00000160: 7d0a f53d eb6c 843e 7832 c23d ddfe 49be
00000170: dc48 cabd 03a5 c4bd f29b 9cbd f42d 593c
00000180: a7e3 dbbd 6916 50be 547c f03c 3e64 11be
00000190: 0c5b 2d3e 7dd2 bf3d a324 1e3e e1dd 323e
000001a0: 4f88 75bd bd46 d0bd c6ed 203e a684 2fbe
000001b0: 61e7 a13c efe0 fdbd b01a cebb 294c 68be
000001c0: ee53 043d eea3 c33d de14 743e bc58 1ebe
000001d0: 70d6 b2ba f604 5c3d eceb 84be fdcd 22be
000001e0: d0f1 b83d d8e8 10be f3af 0cbe b67f 393c
000001f0: 83cb a539 16dd f93b 71d9 ebbd e5d6 c73c
00000200: 6d72 abbd c601 343e 4bba d13d 5a07 efbc
00000210: 5039 12be 61e9 ea3d 063d a23e 629e 11be
00000220: 4e20 febd 68c7 333c b6be 203e 4515 2cbc
00000230: 8cc3 b5bb d091 6abe a0ca 12bd 08ce dcbc
00000240: 0907 7d3d ef50 b8bb 8287 24be 4193 dabd
00000250: cfc3 87be a13a 3cbe 3d45 883d f9f5 9abe
00000260: bdad 2d3d f053 08be 793f a6b8 2035 2437
00000270: 7c4a c53d 29a5 8d3d 9031 a5bb f91e dabc
00000280: 9e94 9a3d d5d1 1abd e143 703d 6f02 f93d
00000290: 376b efbd 24f4 b4be ffd6 e63d be37 0fbd
000002a0: 9013 0bbe d8f5 d13a 5829 52be eea2 193d
000002b0: 69d6 e63c 3312 803e 96da e73d dbf1 e8bd
000002c0: 66eb 2a3d 130e 983b 180a f33d 5cde 68bb
000002d0: 6ee9 203e 44b3 81bd 709d d43d b3ff 663c
000002e0: ebd9 02be 5b28 abbe ba42 f13d 7c85 3e3d
000002f0: 3364 a23d 36c0 ce3d 0087 b73d 7174 61be
00000300: d6a3 b93c 0f08 3abd 4e23 47bd 62f8 6b3e
00000310: 511b 273e c54b 0a3d b9fb debc 3ff6 193e
00000320: f552 a0bc 5500 4ebe cbc2 a7bd d52c a53d
00000330: 9f26 d8bd ada5 153e f17f 2f3d 1749 3f3b
00000340: f9a5 2ebe da5c f43d d3a4 353e 47ca fe3c
00000350: f0b7 a33c 3037 82bc 083a e7bd 95fa b2bd
00000360: 0d11 5e3d 088e a23b 10ed 1cbe 8434 aebd
00000370: 82ca a13b b1aa 123d 69a4 04be 80f3 b03d
00000380: 0a02 fb3c e2e8 b43c 9697 6ebd ceec bdbd
00000390: b71f e2bc 3397 2abd 0e06 e9bd 1924 3a3d
000003a0: 2a64 103d d1f0 35be a92a d8bb 9d69 61bd
000003b0: e182 13be 5f58 883e afaa 96bd 8f55 9c3e
000003c0: be22 6c3e 5b50 86bd 9cb6 b6bb 8836 23be
000003d0: b5b8 06be 503a 1a3d cb05 d83d e918 4dbe
000003e0: aa98 773d 2cd3 e2bd d1c6 b0be e5a0 8bbc
000003f0: 9e64 54be ddb4 03bc b7af 493e 6ad7 9c3e

3.path.2.bias f4 [50]
-0.013671461 -0.11499307 -0.07713484 -0.048367925 0.008371897 -0.09095361 0.024672255 0.25783113
-0.041042555 -0.25411844 0.043607447 -0.17495024 -0.2286556 -0.014161984 0.14947373 -0.009833536
-0.013934889 -0.11077943 -0.09138578 -0.048222266 -0.052541845 0.083910994 0.14354733 -0.06699355
0.13117957 0.037809957 -0.027588066 -0.04170721 0.05105731 -0.030003268 -0.0069582453 -0.044067524
0.1636476 -0.010578046 0.18836409 0.027569046 0.07123989 -0.030768644 -0.017467957 -0.18491924
-0.121511996 0.012876337 -0.085536614 -0.030282993 0.10912751 0.12770222 -0.14175844 -0.034535985
0.008286645 0.10513451
00000000: 43fe 5fbc 7d81 ebbd dff8 9dbd 721d 46bd
00000010: 482a 093c e345 babd 781d ca3c 7102 843e
00000020: 3d1c 28bd d01b 82be b99d 323d 2826 33be
00000030: b224 6abe ab07 68bc a40f 193e d71c 21bc
00000040: 294f 64bc 53e0 e2bd 7828 bbbd b684 45bd
00000050: 1e36 57bd 87d9 ab3d 12fe 123e ea33 89bd
00000060: f053 063e 9dde 1a3d 5e00 e2bc 2ed5 2abd
00000070: 7821 513d 6ac9 f5bc fe01 e4bb 2680 34bd
00000080: 3d93 273e 8a4f 2dbc 84e2 403e 7bd8 e13c
00000090: 38e6 913d 860e fcbc f618 8fbc 785b 3dbe
000000a0: 48db f8bd 46f7 523c d22d afbd 0a14 f8bc
000000b0: 3e7e df3d 5fc4 023e 2029 11be 9b75 0dbd
000000c0: b5c4 073c c350 d73d

4.weight f4 [10, 50]
0.21242304 -0.06606605 0.23235261 0.06462013 0.107840255 -0.2921616 -0.06555759 0.26870957
-0.041625157 -0.1070894 -0.19286954 -0.11918277 -0.09794888 -0.13267007 -0.14680398 -0.20708951
-0.13783617 0.009425278 -0.29545867 -0.14058232 -0.094008006 -0.19563237 -0.18903844 0.25687012
0.03443778 0.0503512 0.011423321 -0.021468652 -0.026944483 0.07515994 0.018109886 -0.0749441
0.076644644 0.110252075 -0.15981148 0.03341138 0.36058825 -0.31316602 -0.009352516 -0.21818097
0.117141224 -0.27634335 -0.09886011 -0.079057924 0.1808329 -0.11163468 0.11955327 0.24499334
-0.049669266 0.1002253 -0.19778576 0.1375577 0.061584003 0.082842864 0.1245851 0.18525551
0.003630411 0.18815775 0.088405386 0.029728865 0.09985487 0.14691754 0.3140241 -0.17959645
-0.1588747 0.17605695 -0.25981876 0.10933322 0.31310084 -0.24607603 -0.1310973 0.026608897
-0.35829663 -0.07301137 -0.31647664 -0.15789282 0.046859577 -0.038425308 -0.11808733 -0.099388376
0.040156875 0.18245582 -0.117207214 -0.21520177 -0.083011255 0.20318481 -0.11144951 0.09872902
-0.19224411 0.2658577 -0.009616325 -0.25128874 0.29119256 0.0084715225 0.005027232 -0.014872685
0.04676645 0.2938586 -0.0646833 -0.15733804 -0.06695179 -0.16208324 -0.123616 0.03529507
0.08244035 -0.07368931 0.07394488 0.050125442 0.059102837 0.2537755 0.10005472 -0.16505271
-0.1497672 0.0075233 -0.19125073 0.086065196 -0.0031540808 0.07348673 0.113522835 -0.21643369
-0.17884035 -0.15149942 0.24818735 -0.09192398 -0.0066365246 0.22949627 -0.027221598 -0.09619302
-0.047324687 0.0647848 0.10849035 -0.16319966 -0.058281086 -0.26042515 0.084798776 0.036189534
0.14142251 -0.0511832 -0.050694123 0.05182508 -0.121459015 0.19827223 0.025236672 -0.06722248
0.046523083 0.31950384 0.061476503 0.19137453 -0.09520819 -0.08662849 0.030902077 -0.04904224
0.026827713 0.16128913 0.03551868 -0.022522982 0.1969111 -0.16329017 0.06806408 0.117066085
0.13932641 -0.11201323 -0.09069326 -0.02314491 -0.05004965 -0.06567026 -0.04765284 0.1982377
0.092444785 0.18518326 -0.10704372 -0.12749289 -0.21589409 -0.06434914 0.20367971 0.10717689
0.10089968 0.06581299 0.13904627 -0.12142979 0.086178504 -0.10912069 0.0010076461 0.022595316
-0.13234441 -0.09125191 -0.009941553 0.13031892 -0.057485882 0.11789825 0.2003359 -0.017938208
-0.20011955 0.20954572 -0.06719758 0.00427238 0.1576959 -0.22132668 -0.16809276 -0.19679825
-0.15648602 0.11147366 0.2228501 0.0012310073 -0.14954092 -0.07133757 -0.20199428 -0.03345105
-0.121067695 0.016453596 0.019614644 0.29550695 0.13652492 0.18124455 0.17485328 -0.089959174
-0.11585989 0.16885217 -0.08499829 0.15180601 0.16502589 0.011858511 -0.027877063 0.14338908
-0.26609617 0.047224507 -0.11001189 -0.14766072 0.014075017 -0.04771166 0.0511113 0.22993435
-0.100749806 -0.05928775 0.16085744 -0.10679927 -0.12532738 -0.09490855 0.028432045 0.12680976
0.10481874 0.13786985 0.0346116 0.0031600147 -0.120378025 0.058122817 -0.059983667 0.1571821
0.18554017 0.002078808 0.13194656 -0.12809917 -0.0796958 0.12876788 0.07966592 0.09153853
00000000: 6d85 593e a34d 87bd d8ed 6d3e 8f57 843d
00000010: 5adb dc3d 3596 95be 0f43 86bd 4d94 893e
00000020: 247f 2abd b051 dbbd 987f 45be 1916 f4bd
00000030: 6c99 c8bd aada 07be c853 16be 460f 54be
00000040: ed24 0dbe 7b6c 1a3c 5c46 97be d0f4 0fbe
00000050: 4587 c0bd da53 48be 4b93 41be 7b84 833e
00000060: a10e 0d3d 0f3d 4e3d e228 3b3c 07df afbc
00000070: adba dcbc 74ed 993d 2f5b 943c 4b7c 99bd
00000080: def7 9c3d d7cb e13d 9fa5 23be 5fda 083d
00000090: 069f b83e 4c57 a0be 4c3b 19bc d56a 5fbe
000000a0: bde7 ef3d e07c 8dbe 2b77 cabd 1fe9 a1bd
000000b0: 422c 393e b9a0 e4bd 58d8 f43d 89df 7a3e
000000c0: 0072 4bbd ec42 cd3d 5a88 4abe eddb 0c3e
000000d0: 823f 7c3d 85a9 a93d 7926 ff3d 9fb3 3d3e
000000e0: 31ec 6d3b 6dac 403e e20d b53d f389 f33c
000000f0: b680 cc3d 8d71 163e c4c7 a03e 22e8 37be
00000100: 0db0 22be 4648 343e f706 85be 18ea df3d
00000110: c14e a03e 5bfb 7bbe 5f3e 06be e7fa d93c
00000120: a872 b7be fc86 95bd 3a09 a2be a8ae 21be
00000130: d4ef 3f3d db63 1dbd c5d7 f1bd 228c cbbd
00000140: 897b 243d b3d5 3a3e 560a f0bd da5d 5cbe
00000150: ce01 aabd ae0f 503e a43f e4bd 7132 ca3d
00000160: a4db 44be 801e 883e ca8d 1dbc eba8 80be
00000170: 3117 953e 24cc 0a3c 7bbb a43b 90ac 73bc
00000180: 2d8e 3f3d a274 963e ae78 84bd 391d 21be
00000190: 051e 89bd 26f9 25be 632a fdbd 9091 103d
000001a0: 7cd6 a83d 6cea 96bd 6a70 973d 5650 4d3d
000001b0: d115 723d ddee 813e 7de9 cc3d 9403 29be
000001c0: 935c 19be 0486 f63b 3bd7 43be f342 b03d
000001d0: b2b4 4ebb 3680 963d a97e e83d cba0 5dbe
000001e0: ed21 37be aa22 1bbe d324 7e3e a442 bcbd
000001f0: 3477 d9bb 1201 6b3e d4ff debc d900 c5bd
00000200: 88d7 41bd e5ad 843d 3030 de3d d01d 27be
00000210: 26b8 6ebd 7256 85be fbaa ad3d 7a3b 143d
00000220: 10d1 103e 7aa5 51bd a4a4 4fbd 8946 543d
00000230: 81bf f8bd e007 4b3e 23bd ce3c f1ab 89bd
00000240: fd8e 3e3d 0296 a33e c9ce 7b3d aff7 433e
00000250: 83fc c2bd 476a b1bd 5a26 fd3c 84e0 48bd
00000260: cbc5 db3c fa28 253e 097c 113d 1e82 b8bc
00000270: 10a3 493e 8a35 27be 2e65 8b3d 58c0 ef3d
00000280: 95ab 0e3e 3167 e5bd 63bd b9bd 659a bdbc
00000290: dd00 4dbd 217e 86bd a02f 43bd d3fe 4a3e
000002a0: b153 bd3d aea0 3d3e bd39 dbbd 7f8d 02be
000002b0: 5713 5dbe 7bc9 83bd 6a91 503e 8f7f db3d
000002c0: 7ea4 ce3d f6c8 863d 2562 0e3e 2fb0 f8bd
000002d0: 5b7e b03d ab7a dfbd fe12 843a d019 b93c
000002e0: 4b85 07be 48e2 babd e5e1 22bc 5372 053e
000002f0: 5176 6bbd a374 f13d db24 4d3e 26f3 92bc
00000300: 24ec 4cbe 2793 563e e39e 89bd 52ff 8b3b
00000310: 097b 213e 76a3 62be 8220 2cbe 7b85 49be
00000320: df3d 20be 4d4c e43d d132 643e c059 a13a
00000330: 4121 19be 6f19 92bd 97d7 4ebe f803 09bd
00000340: 57f2 f7bd b1c9 863c e4ae a03c b04c 973e
00000350: 30cd 0b3e 2c98 393e bd0c 333e 843c b8bd
00000360: f347 edbd 95e7 2c3e 9513 aebd 0973 1b3e
00000370: 8cfc 283e 334a 423c 705e e4bc 96d4 123e
00000380: c23d 88be 7c6e 413d ea4d e1bd 5f34 17be
00000390: e69a 663c 4d6d 43bd 155a 513d e973 6b3e
000003a0: ea55 cebd b6d7 72bd d0b7 243e 93b9 dabd
000003b0: d255 00be 6a5f c2bd 52ea e83c 6bda 013e
000003c0: 35ab d63d c12d 0d3e e5c4 0d3d 4018 4f3b
000003d0: c188 f6bd 3112 6e3d 6fb1 75bd 58f4 203e
000003e0: 3efe 3d3e 9c3c 083b 001d 073e 6e2c 03be
000003f0: 8d37 a3bd badb 033e e327 a33d 8e78 bb3d

4.bias f4 [10]
-0.16866168 -0.14008714 0.075949915 -0.23612264 -0.18086138 0.103235714 -0.14787877 0.09097453
0.20980102 0.10922302
00000000: a6b5 2cbe 0173 0fbe a18b 9b3d 22ca 71be
00000010: ba33 39be 3f6d d33d 886d 17be db50 ba3d
00000020: 14d6 563e 52b0 df3d
