models/mnist_fc6_base.pt (torch, 182095 bytes, 8 tensors)

1.weight f4 [50, 784]
000000 ae f2 0c 39 d4 86 7f b9 22 f2 36 ba 51 2f 6d b9
       0.00013441846 -0.00024368922 -0.00069788296 -0.00022619708
000010 ef b2 09 b8 dc e8 1b ba d5 1f 59 b8 c8 4b 32 39
       -3.282999e-05 -0.00059474795 -5.1766478e-05 0.00017003634
000020 2a 4e a1 b8 1e db 5b b9 03 7f 08 b8 36 b5 a1 b9
       -7.6916374e-05 -0.00020967095 -3.2543216e-05 -0.00030843326
000030 fa 5a b0 38 dd fd 53 b9 1b a4 1b ba 79 b1 02 39
       8.40928e-05 -0.000202171 -0.00059372344 0.0001246388
000040 6c f0 d4 38 86 d6 c5 b9 03 99 8c b7 a7 dc 55 b8
       0.0001015373 -0.000377346 -1.6760552e-05 -5.0988656e-05
000050 56 a4 05 ba 8c 8b 8f b9 0e 81 61 b9 23 25 bd b9
       -0.00050980353 -0.00027379056 -0.00021505749 -0.00036076558
000060 84 e4 65 b6 02 e7 b8 36 b9 dd 6b 39 26 c3 66 38
       -3.4256673e-06 5.51052e-06 0.00022493945 5.501802e-05
000070 9e 5f d9 b9 70 a4 93 b9 f9 9a fd b8 46 96 15 39
       -0.00041460706 -0.0002816054 -0.00012092846 0.00014265729
000080 bd e2 56 39 37 c0 73 38 75 55 8e 38 d9 11 c7 39
       0.00020493097 5.811473e-05 6.787005e-05 0.00037969535
000090 01 15 a7 ba cc 3b 84 39 0d f0 10 39 af d7 e3 39
       -0.0012747349 0.00025221554 0.00013822336 0.0004345751
0000a0 b1 c4 a5 b8 d9 83 3b 39 2b f4 ee b9 f2 f2 91 ba
       -7.90445e-05 0.00017882827 -0.00045576817 -0.0011135025
0000b0 02 64 fb b9 5c ae 7a 39 3f 52 f4 b8 86 cb a9 b8
       -0.00047948962 0.00023906812 -0.00011650146 -8.096457e-05
0000c0 30 e9 3b b8 7b 9f c5 b8 77 69 1f 39 3d 21 39 ba
       -4.4801447e-05 -9.4233976e-05 0.0001520271 -0.0007062143
0000d0 b8 a2 61 36 49 89 13 b9 d8 0d f8 b9 28 7c 45 39
       3.3622327e-06 -0.00014070155 -0.0004731256 0.00018833636
0000e0 7f 03 19 b9 b5 b9 30 b9 1c b4 28 39 70 f5 3e 38
       -0.0001459252 -0.00016853849 0.00016088824 4.552811e-05
0000f0 ac ee 21 39 6e 6b 8f b8 94 96 1e 3a fb 58 cb 39
       0.00015443069 -6.838782e-05 0.00060496596 0.00038785473
000100 63 d7 ce ba 14 73 32 ba 7d 1f 82 b8 fc 76 8c b9
       -0.0015780743 -0.0006807309 -6.204748e-05 -0.0002679153
000110 7d 39 81 ba ae 9a ce ba 8f f5 57 bb 38 c2 14 bb
       -0.0009859052 -0.0015762651 -0.003295276 -0.0022698771
000120 4c 45 dc b9 1d 20 88 3a e2 b4 b9 b7 5c 81 0a 3a
       -0.000420133 0.0010385547 -2.2137949e-05 0.0005283558
000130 1c 5b 1f b8 64 55 0e 3a 4d db 05 38 44 c4 f7 39
       -3.7993406e-05 0.00054295943 3.191391e-05 0.0004725774
000140 d8 fd 10 38 f9 b7 e8 b6 6c 22 2f 39 49 f9 82 b7
       3.4568686e-05 -6.935556e-06 0.00016702124 -1.561329e-05
000150 83 83 f8 37 7e a7 97 39 58 46 65 38 00 48 ed b9
       2.9625144e-05 0.00028925756 5.4663367e-05 -0.00045257807
000160 ad 41 16 ba 9f 76 20 38 11 0e 2d 39 d9 75 59 3a
       -0.00057318324 3.8257447e-05 0.00016503806 0.0008295454
000170 9a 3a e1 39 6c 53 fb 38 b7 f9 16 b9 b8 c0 0f 3a
       0.00042959006 0.00011984151 -0.00014398141 0.00054837344
000180 79 df d3 bb 20 12 ae bd f0 58 51 be 6e 8d aa bd
       -0.006465849 -0.08499551 -0.20444083 -0.08327757
000190 25 f6 7e bd 6c cd 84 bb cb 4f f5 3a 8b f2 16 3b
       -0.06224646 -0.0040528085 0.0018715797 0.002303275
0001a0 60 2a 76 3a 88 32 eb 3a a5 73 d2 3a 8b 8b d1 38
       0.00093904696 0.0017944137 0.0016056193 9.9918885e-05
0001b0 83 ad 78 b9 4e da 7e b9 c4 6c 12 b9 a1 88 b9 b7
       -0.00023715761 -0.00024304652 -0.00013964163 -2.2117341e-05
0001c0 33 a6 81 b8 b5 f9 0f 39 8a 25 69 39 4c 8c 07 3a
       -6.182156e-05 0.00013730566 0.00022234596 0.0005170747
0001d0 84 2e 3a b9 16 2d cd 39 16 b9 50 3a 8f f0 8b 3a
       -0.0001775567 0.0003913424 0.000796215 0.001067655
0001e0 b9 a8 89 3b bb 07 4c 3c 8b 1b 85 3c 46 8e 85 bb
       0.0042010215 0.012453015 0.016248485 -0.004075798
0001f0 65 18 27 be e6 39 a2 be b5 37 c2 be 73 a8 36 be
       -0.163179 -0.31684798 -0.37933126 -0.17837696
000200 af 3d 58 bd 66 db 08 3d 20 2a 69 3c 25 5a 17 3d
       -0.0527932 0.03341236 0.014231235 0.036951203
000210 36 50 94 3b f2 e4 55 3a 72 6b 67 3b 31 00 93 3b
       0.0045261635 0.00081594207 0.0035311845 0.004486107
000220 21 ad 1d 3a a3 f7 82 38 6f e0 9d 39 2a 25 9b b7
       0.0006014873 6.245009e-05 0.0003011259 -1.8494746e-05
000230 36 06 0d b8 c6 56 1f b8 11 9d 24 ba a2 d3 f8 b9
       -3.3622804e-05 -3.7989368e-05 -0.0006279508 -0.00047459925
000240 05 42 21 ba b0 48 68 3a ac dc 17 3b 92 5d 0d 3c
       -0.00061515 0.0008860929 0.0023172302 0.008628266
000250 f9 4e 81 3d 31 b1 1b 3d 2a fc c8 3d ed b7 bd bd
       0.06313891 0.03801078 0.098137215 -0.09263597
000260 48 b1 c8 be ed 22 dd be 3b 72 b3 be fe 19 21 be
       -0.39197755 -0.4319071 -0.35048088 -0.15732571
000270 07 23 2f 3d 4d 2d 4e 3e 9b 55 29 3e a1 eb ba 3d
       0.042758014 0.20134468 0.16536562 0.09126974
000280 75 9e b6 3d 17 bc 92 3c f8 b2 c9 3b ab e0 a1 3b
       0.08916942 0.017911954 0.006155368 0.0049401126
000290 32 a0 79 3b e0 c9 e5 b9 aa b0 fb b9 19 56 19 b8
       0.0038089869 -0.00043828692 -0.00048006076 -3.6558227e-05
0002a0 1a d2 58 b9 d9 02 a6 b9 26 d2 f3 b8 61 e0 df 37
       -0.00020677634 -0.0003166411 -0.00011626286 2.6688156e-05
0002b0 b2 bf b7 b9 16 61 71 3a 21 08 32 3c f7 8a b4 3d
       -0.00035047304 0.00092078873 0.010866196 0.08815568
0002c0 a3 ad 0a 3e 8d a5 2a 3e 99 fc 01 3e 35 60 f5 bd
       0.135428 0.16664715 0.12694015 -0.11981241
0002d0 47 64 d9 be 0d e0 50 bf df 0b 8b be 56 43 02 3d
       -0.42459318 -0.81591874 -0.27157494 0.031802498
0002e0 69 e6 48 3e 85 1e 3e 3e c1 ab 85 3d 83 a0 04 bc
       0.19619144 0.1856633 0.065269 -0.00809491
0002f0 33 df 8f 3d 47 fc c1 3c 4a 34 cd 3c 93 f8 b5 3c
       0.07024994 0.023679866 0.025049347 0.022213256
000300 50 6d 8b 3b 99 78 b1 39 eb 7b 55 b8 71 ce 4e b9
       0.0042549744 0.00033849923 -5.0898565e-05 -0.00019722596
000310 3f 74 50 b9 42 d1 ed b9 58 3a 4e 38 68 1c c4 b9
       -0.00019879731 -0.00045360072 4.9168564e-05 -0.00037405198
000320 07 92 ad 3a 8d 15 d8 3b ef 60 00 3d 46 cb c0 3d
       0.0013242372 0.006594366 0.031342443 0.09413771
000330 02 73 20 3e 36 45 fa 3d 97 ce bb 3d 43 f7 6a bd
       0.15668872 0.12220232 0.09170263 -0.057364713
000340 9f 84 28 bf 70 8b 2c bf 57 d0 19 be 1f fb 62 3e
       -0.65827364 -0.67400265 -0.15020882 0.22166108
000350 f8 18 8e 3e b7 c7 8f 3e 8d 90 8b 3d 01 08 2e bd
       0.27753425 0.28082058 0.0681468 -0.042488102
000360 82 83 e2 bc a3 e5 d6 3c 6f f4 8c bc ec 27 0e bd
       -0.027650598 0.026232546 -0.017206399 -0.03470604
000370 9b af 37 39 f1 b0 c0 b9 58 66 87 b9 e9 8b 37 b9
       0.00017517658 -0.00036752925 -0.0002582546 -0.0001750436
000380 17 9c ed 39 65 b0 2d 36 d6 59 85 b9 05 6f 26 39
       0.0004532046 2.5881684e-06 -0.0002543467 0.00015872352
000390 18 00 1a 3b 2f 57 1d 3c 53 ec 7c 3b 31 ba 4e 3d
       0.002349859 0.009603306 0.0038593009 0.050470535
0003a0 6a c1 30 3e 26 6d 2a 3e 80 a3 ef 3d b8 12 dc bd
       0.17261282 0.166432 0.11701107 -0.10745758
0003b0 20 4a 48 bf 7f 35 ed be 00 64 cb bd 37 ba 8e 3e
       -0.78238106 -0.46329877 -0.09931183 0.27876446
0003c0 fe d5 b6 3e 74 46 6a 3e 8c 8c a0 3c 09 a4 99 bc
       0.35710138 0.22878438 0.019598268 -0.018754976
0003d0 99 e6 28 bd 4b 79 df bc ac fa 60 bd 0e 13 47 bd
       -0.04123554 -0.027279517 -0.05492656 -0.048602156
0003e0 65 fd c0 3a ec 17 5b ba fa 34 ba ba 98 d2 6c ba
       0.0014723955 -0.00083577516 -0.0014206462 -0.00090340665
0003f0 d1 70 9f b9 a8 ee 14 3a 1f 63 7c 39 cf 76 8c 39
       -0.00030410898 0.00056813145 0.00024069518 0.000267914

1.bias f4 [50]
000000 68 25 5f 3e 1a 84 f3 bc b0 ff fa 3c ee 80 54 3c
       0.21791613 -0.029726077 0.0306395 0.012970192
000010 bf 04 68 3d af f6 bf 3d dc fe d4 3d 7b 27 c1 bc
       0.05664515 0.09373223 0.10400173 -0.023578396
000020 13 86 c4 bd 9b e5 00 bd 0c 6c 7f 3e 2d 59 bc 3d
       -0.09595885 -0.03146897 0.2494356 0.091966964
000030 90 84 83 3e cd 93 3a 3e 44 e5 43 3e 4f 14 ad 3d
       0.25687075 0.18220444 0.19130427 0.08451139
000040 fa 9e f5 bb f3 78 9b bc 3c 88 1d 3e 23 9a fb bd
       -0.007495758 -0.018978572 0.15384 -0.122852586
000050 cc d9 94 3d 4b cc 39 3d 9a 0f c0 bd c4 82 bd 3d
       0.07268104 0.045360845 -0.09377976 0.09253457
000060 6c f6 3e 3c 44 83 b4 bd fc 38 65 3d 01 56 f1 bc
       0.011655431 -0.088140994 0.055962548 -0.029459955
000070 71 e8 18 be 57 87 df 3b c7 80 00 3e 59 86 5f 3e
       -0.1493242 0.0068215537 0.12549125 0.21828593
000080 d4 f7 42 3e 98 44 25 bd 5e 5a f6 bc 05 84 62 3d
       0.19039851 -0.04034862 -0.030072387 0.055301685
000090 db f8 69 3e dd ee 14 3e 01 38 a0 3e 7e 5b 74 bd
       0.22848837 0.14544244 0.31292728 -0.059657566
0000a0 d4 b8 6b 3e 55 81 0b bc 75 32 ac 3e d2 b9 aa 3c
       0.23019725 -0.008514722 0.33632246 0.02084056
0000b0 ad 9d 1c 3e 7c d6 b5 3d 2b 34 79 3e 19 7b ec bc
       0.15294524 0.088788 0.24336307 -0.028867291
0000c0 e5 ba 2e bd 04 a3 22 bd
       -0.042658705 -0.039706245

3.weight f4 [50, 50]
000000 4a 80 c3 3e eb f5 ae 3e 57 de c7 3e 7e 6c 86 3e
       0.38183814 0.34171996 0.3903682 0.26254648
000010 80 6e be bd 0c f6 55 3e 0b dc a5 bd b0 c2 91 b8
       -0.0929842 0.2089464 -0.080986105 -6.950402e-05
000020 0a a3 18 3e c3 96 a1 bc 45 1c 2c 3e 3f 5f c1 be
       0.14905944 -0.01972521 0.16807659 -0.3776798
000030 49 1c 18 3d 8d 30 25 3d 20 59 dd bd 7b 69 f8 3d
       0.03713635 0.040329505 -0.10808015 0.12129494
000040 e6 3f ab 3d b4 4d 76 b8 48 4a e1 bc c0 1a b4 3c
       0.08361797 -5.8723337e-05 -0.02750124 0.021985412
000050 d4 83 b0 be 46 81 5f bc e9 de 21 bc 90 f8 d5 3d
       -0.34475577 -0.013641661 -0.009879806 0.104478
000060 5d ff 64 3b 42 6a 4c 3c 33 a7 0b 3e ec 48 20 3e
       0.0034942247 0.012476506 0.13638 0.15652817
000070 a7 46 99 be bc 7c b2 3d ec ca 14 be a3 87 b3 bd
       -0.29936716 0.087151974 -0.14530534 -0.08766105
000080 6c 1e 8c 3e 0e 67 74 be d0 f4 15 be 39 71 75 3d
       0.2736696 -0.23867437 -0.1464417 0.05992243
000090 29 38 66 3e 0f 9a 7a 3d c1 34 bf 3d 01 70 d8 3c
       0.22482361 0.061182078 0.09336234 0.026420595
0000a0 bf c8 81 3e 67 45 4f bc ba b1 9d 3d e1 0c 22 bc
       0.2534847 -0.012650824 0.07699914 -0.009890766
0000b0 ac ed c9 bd ec 09 b7 3e aa 30 6c be 8b 15 94 36
       -0.098597854 0.35749757 -0.23065439 4.4132516e-06
0000c0 1d 4d e9 3e af 29 78 3e 53 51 20 bd 8e 55 a0 3e
       0.45566645 0.24234651 -0.039140057 0.31315273
0000d0 ec 19 73 3d 4e 0e 2d 3e 12 dc 00 bf 43 42 13 3e
       0.059350893 0.16899988 -0.503358 0.14380746
0000e0 42 33 20 be 77 41 85 b9 b9 d6 f6 bd 61 55 bb 3d
       -0.15644553 -0.00025416512 -0.12052674 0.09147144
0000f0 e1 54 41 3e 93 5f d0 bd 2e c6 6b 3d b6 8d 7f 3e
       0.18880035 -0.10174479 0.057562046 0.24956402
000100 4c 2c a3 bc 11 7b 09 3e b9 81 91 3b 4f 05 e4 b7
       -0.019918583 0.13425852 0.004440513 -2.718219e-05
000110 0c 73 8e be 05 5d c4 bc 9b 67 8f 3e 83 d1 61 3d
       -0.2782215 -0.023970136 0.28008732 0.055131447
000120 d5 2f c0 bd 27 cd 4d 3e 27 c0 bd 3d 54 9a 95 be
       -0.09384123 0.2009779 0.09265166 -0.29219306
000130 bd 8a a2 3d ba 22 85 3d bf 61 09 bd d3 9e 91 be
       0.079366185 0.06500764 -0.033540484 -0.28441486
000140 c2 6f ac bd 0f 79 08 3e 83 a2 d5 bb 0b 64 a9 bd
       -0.084197536 0.1332743 -0.006519617 -0.08271035
000150 c7 99 05 be 8e ef 70 be 1b 8b b6 bd c3 41 19 3e
       -0.13046943 -0.23528883 -0.08913251 0.14966492
000160 bd 5f 9f 3e e4 3b 0c 3c b0 a8 3e 3e fd fc 17 3e
       0.3112773 0.008559201 0.18619037 0.14842601
000170 24 7b c4 3d 63 8a af 3d 9c 8b 3a 3d 63 a1 79 3a
       0.095938 0.08571317 0.045543298 0.00095226447
000180 33 66 80 be 90 67 ea 38 e0 04 84 3d c8 dd 4f be
       -0.25077972 0.000111772795 0.06446242 -0.20299447
000190 e5 56 d6 3d 86 64 33 3e ed 63 f2 bd 0f a1 f4 3c
       0.104657926 0.17518815 -0.118354656 0.029861955
0001a0 1e 7f ac bd 64 ec 13 3e 99 bb c1 3d ec 60 9e b8
       -0.08422683 0.14445645 0.094596095 -7.55208e-05
0001b0 0b 72 f1 bb a3 d1 8a 3e d1 47 a9 3d 99 51 fc be
       -0.0073683313 0.27113065 0.08265651 -0.49281004
0001c0 b7 fc 4d 3e ac f1 f6 bc 31 92 98 be 6d 2b 0d 3e
       0.20115934 -0.030144535 -0.29799035 0.13786097
0001d0 11 5a 3d 3e 87 6c 5d b8 9b d3 9d 3d 84 8d a7 3d
       0.18491389 -5.279158e-05 0.07706376 0.08181289
0001e0 82 37 c5 be 3b 6c 3b 3e 1b bf 7f bc 30 bf 06 be
       -0.38518912 0.18303005 -0.015609528 -0.1315887
0001f0 c9 7a bd 3d 14 5a 4f 3b 78 6a 9f 3b 46 90 70 be
       0.09251935 0.0031639384 0.004864987 -0.23492536
000200 06 3a ac bd 14 7f b5 3d 97 e5 76 be 44 d8 54 3e
       -0.084095046 0.08862129 -0.24111019 0.20785624
000210 67 bf 27 3d 1b 80 3d be 8c dc 8e 3e 07 a9 f7 3d
       0.04095402 -0.185059 0.2790264 0.12092786
000220 8d 39 42 3e 10 4a a4 3e 68 35 e9 3d 58 88 2b 3e
       0.18967266 0.32087755 0.113871396 0.1675123
000230 68 8b 92 be 78 54 85 bc 04 34 c0 3e 4a 90 05 bd
       -0.28621984 -0.01627563 0.37539685 -0.032608308
000240 ba 08 99 be 94 54 16 3d ec 7c 43 bd df a6 a0 37
       -0.2988947 0.036701754 -0.047726557 1.9151192e-05
000250 09 81 11 bd 6f 14 32 be 01 cc c6 bd d1 17 b3 3d
       -0.03552345 -0.17390607 -0.097068794 0.08744777
000260 46 b2 8e 3e 72 4d 6c 3e 36 e2 9f be bf 6d 2c bd
       0.27870387 0.23076418 -0.31227273 -0.04209685
000270 a2 14 42 bd 85 af 52 38 fc 8a 68 3e 96 97 36 3e
       -0.04738296 5.0231367e-05 0.22709268 0.17831263
000280 c1 4a ba 3d 43 71 9a 3d b3 90 10 be b2 ee 13 bc
       0.090962894 0.07541134 -0.14117698 -0.009029077
000290 eb 10 9d 3e 0b c5 11 3e 75 55 29 be c5 23 85 b7
       0.3067697 0.14235322 -0.16536506 -1.5871492e-05
0002a0 6b 66 2c 3d 06 c5 b0 3e 37 7b 6e 3e 1a 57 00 be
       0.04208986 0.34525317 0.2328919 -0.12533227
0002b0 d4 d9 96 3e 59 3e 05 3f 86 6e b2 3d 17 d6 b3 bc
       0.29463065 0.5204826 0.08712487 -0.021952672
0002c0 c5 b1 eb 3c f5 c5 5a 3d f5 72 68 be 84 5d 9f be
       0.02877129 0.053411443 -0.22700103 -0.31126034
0002d0 3e 7c e9 bd 66 2a c0 bb 69 df d6 bd 7d ad e9 bd
       -0.114006504 -0.0058644293 -0.10491831 -0.114100434
0002e0 05 c1 7d 3e e1 45 d4 bd 82 31 c6 3d 89 2b fc 3c
       0.24780662 -0.10364891 0.096774116 0.030782478
0002f0 9d 0d 21 3e 46 c5 62 bc bb 5d 13 3c 67 7c a7 3d
       0.1572785 -0.013840979 0.008994515 0.08178025
000300 55 b0 d5 3d ef 8d 2a bd 17 af c5 be 87 9c 37 3d
       0.10434023 -0.041639265 -0.38610145 0.04482701
000310 bc 44 04 3b 38 b2 19 b8 91 a8 96 3d 9c d4 6e 3d
       0.002018257 -3.664402e-05 0.0735637 0.05830823
000320 9c fa 15 bf a3 60 8b bd 10 7b de bd 16 24 ec bd
       -0.58585525 -0.06805541 -0.10863316 -0.1153032
000330 26 f1 a3 3d 5b bd df 3e 77 d0 e9 3d 8d f7 bd b8
       0.0800498 0.43699154 0.11416715 -9.058332e-05
000340 5e ee 32 3e 32 8b fd be 84 39 3e 3c 68 a8 9b 3e
       0.17473742 -0.4952026 0.0116103925 0.3040192
000350 48 c5 9c bd 92 7a 7d bd 9d fb 29 3e 51 31 e9 b9
       -0.07654816 -0.06188447 0.16599889 -0.00044477967
000360 43 65 2f 3d a2 76 0d 39 f5 49 9a 3e 8b eb 5d bd
       0.04282118 0.00013491002 0.3013455 -0.05417971
000370 3f f6 03 3f 8a 15 19 3f 9b bb bc bd 0d 8a 73 3e
       0.51547617 0.5979849 -0.092154704 0.23783131
000380 87 ec 85 3d 61 c4 18 3e b8 8e a5 3e fc 39 00 be
       0.06539255 0.14918663 0.32335448 -0.1252212
000390 1c b7 88 3e 7d 5f ab 3d 96 cd 3f 3e 31 44 16 3f
       0.267022 0.08367822 0.18730769 0.586978
0003a0 ab 17 1e 3e 7a 33 15 be 17 00 10 bc b9 2d 12 3e
       0.15438716 -0.14570418 -0.008789084 0.14275254
0003b0 bd 75 f4 3d 9d 52 b5 be 62 eb db 3e 5a 45 90 3e
       0.11936519 -0.3541459 0.4295302 0.2817791
0003c0 43 40 c2 bd e4 c8 4d 3d c8 aa 34 bf 79 1d a1 3d
       -0.09484913 0.050240412 -0.7057309 0.078669496
0003d0 20 c4 21 3f 19 04 84 3e 84 21 91 3b d5 3d 13 b8
       0.6318989 0.25784376 0.004429044 -3.5105117e-05
0003e0 a5 26 99 3d b5 47 c5 bd 7f d6 39 bd 5c eb a0 be
       0.07478074 -0.09632818 -0.045370575 -0.31429565
0003f0 98 12 53 bd 31 26 48 3e 51 4f ba bd a6 55 82 3e
       -0.051531404 0.19545819 -0.0909716 0.2545597

3.bias f4 [50]
000000 40 6b c2 3d 26 1c c6 3e 98 68 5d 3b 49 ad 25 3d
       0.094931126 0.3869335 0.0033784267 0.04044846
000010 aa a2 11 3e 2e da 0c 3d 20 ae 08 3e bb 91 85 3e
       0.14222208 0.03438776 0.13347673 0.26087746
000020 da 08 e3 bc 20 01 08 bd 5b a6 42 be 89 42 da 3d
       -0.027714182 -0.033204198 -0.19008772 0.10657222
000030 c8 6f 28 3e 18 71 d5 39 45 b8 40 3e e9 61 d2 bd
       0.16448891 0.00040710787 0.18820293 -0.10272581
000040 11 8f 8a 3e bc 5f 92 bb 69 14 ef 3d 84 ad 9c bd
       0.27062276 -0.004466979 0.11673815 -0.07650283
000050 1e ee 08 be d0 d9 83 3e 1a 48 a4 3d ae b5 ba 3d
       -0.13372084 0.25752115 0.08021565 0.09116684
000060 4c 9e aa 3d 28 d3 09 3e 85 a3 5a 3d 25 db cb bc
       0.08330974 0.13459456 0.0533786 -0.02488477
000070 e5 47 ba 3d 27 c1 5e 3d f9 6f 34 3e 19 de 1f 3d
       0.09095744 0.054383423 0.17620839 0.03903017
000080 4f 07 8b 3d 1e 8c a5 bc 18 4f 8b 3c 64 e0 93 bd
       0.067885034 -0.020208415 0.017005488 -0.072205335
000090 c1 56 b6 3d 69 48 78 3d d4 1c 32 bd 94 32 e3 bd
       0.08903266 0.06061593 -0.043484524 -0.110936314
0000a0 ed e9 ae bd 27 42 2c 3e c9 cb 69 3e d0 c8 56 bd
       -0.085407116 0.1682211 0.22831644 -0.052437603
0000b0 8e 76 20 3e 35 3c 3f be 00 33 ef bd 68 03 e0 bd
       0.15670225 -0.18675311 -0.11679649 -0.1093815
0000c0 44 0a 8b 3d 23 f1 70 ba
       0.067890674 -0.00091912056

5.weight f4 [50, 50]
000000 fb 06 7c 37 08 5f 9c b8 01 9d f2 b7 69 18 63 38
       1.5021996e-05 -7.4563606e-05 -2.8921759e-05 5.414375e-05
000010 ac 1d c2 b7 1d 7a b6 b8 29 ed 8a 37 c4 fe 31 b7
       -2.314042e-05 -8.701182e-05 1.6561318e-05 -1.0609339e-05
000020 79 fc ca b8 cc 7a 93 b8 67 cc d9 38 b4 9e 76 38
       -9.679137e-05 -7.032379e-05 0.00010385439 5.8798774e-05
000030 ee dc 25 38 68 65 65 38 2a 90 cd b8 92 71 74 b8
       3.9544822e-05 5.4692297e-05 -9.8020144e-05 -5.8279904e-05
000040 97 d6 16 b8 fe 00 a0 38 bd ac eb 37 8e 20 ad b7
       -3.596264e-05 7.629579e-05 2.809462e-05 -2.0638367e-05
000050 bf 7a cc b8 7e 35 02 38 97 f9 c1 b8 c4 a0 a1 b7
       -9.750341e-05 3.1044234e-05 -9.249447e-05 -1.9267558e-05
000060 7a e2 1d 38 83 76 54 37 16 84 29 36 02 16 04 b9
       3.764264e-05 1.2663778e-05 2.5259847e-06 -0.000125967
000070 93 e7 d9 37 a2 51 e7 38 7d a9 cd 38 4c f6 1b b9
       2.5976251e-05 0.00011030144 9.8067314e-05 -0.00014873705
000080 9a ec e8 37 b4 7a e6 b5 48 d7 1a b8 8c 78 ab b8
       2.7766731e-05 -1.7172047e-06 -3.6916957e-05 -8.176369e-05
000090 d1 9b 10 38 b5 4c 16 37 bc 4c f2 b8 10 02 fb 36
       3.447739e-05 8.9585565e-06 -0.00011553752 7.480623e-06
0000a0 9f 3e 4f b8 c8 ca 2b 38 4f 55 74 37 b8 66 e3 38
       -4.9410966e-05 4.095843e-05 1.4563396e-05 0.00010843336
0000b0 af ae 2f b7 a0 02 b3 b7 47 26 d5 37 9f bb 00 b8
       -1.04714845e-05 -2.1339685e-05 2.5409403e-05 -3.0692314e-05
0000c0 a1 c4 37 b8 9b ee a7 37 71 48 a9 3d b1 e3 b8 3e
       -4.3813725e-05 2.001906e-05 0.0826577 0.36111215
0000d0 ba d4 9e 3d 5a 03 98 bd d9 da cc 3d cd 20 4c ba
       0.07755418 -0.07422514 0.100026794 -0.000778687
0000e0 cb e3 e1 3a 64 80 3c bf 55 73 28 bd fa 7e 61 be
       0.0017234025 -0.7363341 -0.041125614 -0.22021094
0000f0 0a 30 1b be be cb a9 bc 50 8a 44 3e af af bd bb
       -0.15155044 -0.020727035 0.19193387 -0.0057887654
000100 64 19 f4 bd 79 48 c0 3e 01 c3 25 3d e6 af 4c b9
       -0.119189054 0.37555292 0.040469173 -0.00019520483
000110 13 09 1f bd 87 43 23 be e3 ff 08 bf 9e 9c 2a 3e
       -0.038827013 -0.15943728 -0.5351545 0.16661307
000120 11 41 70 3e fc 19 34 be 54 ab 16 be de 06 43 3e
       0.23462321 -0.17588037 -0.14713794 0.19045588
000130 ad ff e8 bd 8c 2a 56 3d bf 87 9d be 20 c3 55 3e
       -0.11376891 0.05228667 -0.3076763 0.20875216
000140 c6 7b 10 be 1d 51 2a be bc 37 0a be 7f fe 12 bd
       -0.14109716 -0.16632505 -0.13497823 -0.035887238
000150 53 ee 1f 3e 43 b6 16 3e d7 4e f0 3c a9 29 19 3f
       0.15618257 0.14717965 0.029334469 0.59829193
000160 5c e8 b8 bd 0a 56 95 38 0f b8 28 3e c5 39 4c bb
       -0.09028694 7.1209e-05 0.16476463 -0.0031162363
000170 8c 4d 13 be d7 df 00 3d bd 81 bc 3e 10 77 79 be
       -0.1438505 0.03146347 0.36817732 -0.24361825
000180 f4 a7 9b bd b2 0a bf bc 3c a4 07 be c8 c0 be bd
       -0.07600394 -0.02332053 -0.13246244 -0.09314114
000190 0d 0a a2 bd f0 f6 ce 3e 4c 82 0b be 03 85 72 3c
       -0.07912073 0.40422773 -0.13623923 0.01480222
0001a0 17 fa 32 3d 21 b8 79 be 2e 16 d5 3d 44 7a ba 3d
       0.043695536 -0.24386646 0.10404621 0.091053516
0001b0 b5 1e 2f bd 34 66 9a bc 98 c3 98 3d 4d 4d 43 3e
       -0.042753894 -0.018847562 0.074591815 0.19072457
0001c0 89 e8 c6 3d e0 59 b0 bd 02 a7 e1 3d 40 e7 8d 3e
       0.09712321 -0.08610892 0.11018182 0.27715492
0001d0 7f 0c d2 3c 07 34 18 be 48 3d 4a 3e a3 9e 08 be
       0.025640724 -0.14863597 0.1974994 -0.13341765
0001e0 0d 9b 02 bf 44 e8 95 bd 5a ea 41 3e 60 ff c4 3d
       -0.5101784 -0.07319692 0.18937054 0.096190214
0001f0 1b 83 e6 3d 15 91 d6 3e f7 53 1d bd 19 08 1f be
       0.11255475 0.41907564 -0.038410153 -0.15530433
000200 70 4f bb bd 39 17 ac bb 1a e1 8e be e7 da b4 3b
       -0.09146011 -0.005251792 -0.27906114 0.0055192593
000210 f4 35 3c be 86 9f 9b 3d 9e db 78 bd 5f e1 d1 3d
       -0.18379956 0.07598786 -0.06075632 0.10248064
000220 96 1f 1b be 90 10 e0 3d 39 c6 54 3d 3d 37 6b b7
       -0.15148768 0.10940659 0.051946852 -1.4019953e-05
000230 7b 29 42 bd 47 15 85 3e f8 47 63 bd a9 91 8e 3d
       -0.04740284 0.25992796 -0.055488557 0.06961376
000240 69 11 8d 3e 00 38 83 bd 20 21 8c be ac 44 ad 3d
       0.27552345 -0.064071655 -0.27369022 0.08460364
000250 01 fb 4c 3e 6a 71 a5 3e e5 98 93 3e 51 61 c0 be
       0.20017625 0.3231309 0.28827587 -0.37574247
000260 c8 fe 16 bd 9f ac 27 be 90 73 93 3d fd 9c 50 3d
       -0.036864072 -0.16374443 0.07199776 0.050930966
000270 3a ce 02 3e 56 79 53 be e1 6b 65 3e bb 69 47 be
       0.12773982 -0.20651755 0.22404434 -0.19473927
000280 d0 f4 a6 3d 70 be 7c 3c 94 1a a7 bd 6a 57 fb bd
       0.08152163 0.015426263 -0.08159366 -0.12272532
000290 5c eb e5 3d 42 89 9c 3c b8 a1 2d be 3a 3b ea 3d
       0.11226532 0.019108418 -0.16956222 0.11437078
0002a0 67 58 c8 bd 40 08 4b 3e 9d 76 37 3e 52 62 2b 3d
       -0.097824864 0.19827366 0.17916341 0.041841812
0002b0 44 4c 2e 3e 96 22 83 be 70 57 ec 3c 99 ed e5 be
       0.1702128 -0.25612324 0.028850287 -0.44907835
0002c0 56 9b 0d 3e dd ce 8e be e0 f2 5f 3e c1 59 c8 3d
       0.13828787 -0.278922 0.21869993 0.09782744
0002d0 c6 20 37 be ae 65 4c 3e 8e 96 5c 3e 0d 2a 86 be
       -0.17883596 0.19960663 0.21541807 -0.26203957
0002e0 52 95 30 be 9c 7b 62 3d ec 62 92 3d 76 f5 ff bd
       -0.17244461 0.055293664 0.07147774 -0.1249799
0002f0 f8 5b 7f bd b3 dd c6 37 01 c3 87 3e 50 f2 4c bd
       -0.062343568 2.3706676e-05 0.26515964 -0.050035775
000300 b4 39 88 be 46 14 c9 3d ca ec 97 3d 8a 99 25 bd
       -0.26606524 0.0981832 0.07418211 -0.04042963
000310 00 ac 7a be 66 57 47 3e 4a b2 91 3d 37 5a 9b 3e
       -0.24479675 0.19466934 0.07114084 0.30342266
000320 e3 c7 9d 3d 04 72 e8 3d cf af 52 3e e1 95 0b 3d
       0.07704141 0.11349872 0.20574878 0.034078483
000330 0a 19 70 3e e9 49 db 3d 78 7d ec 3d 32 55 0e be
       0.23447052 0.107074566 0.11547369 -0.13899687
000340 ad 88 f6 ba 5c 3e 0e 3e b5 e4 58 bc be b4 a3 bd
       -0.0018809043 0.13890976 -0.013238122 -0.07993458
000350 e8 5b 12 3e 13 d3 62 3d 44 0b 9e bd 7a 80 4e 3c
       0.14292872 0.055377077 -0.077169925 0.012603873
000360 27 f9 dc 3d 0c 2a fd 3d 09 e9 2a be 26 4f 71 be
       0.107897095 0.123615354 -0.16690458 -0.23565349
000370 df bf e1 be 25 f3 1f bc 7e 97 97 3d 89 73 64 3e
       -0.440917 -0.00976256 0.07401942 0.22309698
000380 46 98 1d 3d e3 7e 2d 3e 60 a7 1f be 83 e0 11 3e
       0.038475297 0.16942935 -0.15591192 0.142458
000390 52 32 84 be 46 29 6c bc 1d e9 65 be c3 a4 10 be
       -0.2581964 -0.014414137 -0.22452207 -0.14125352
0003a0 ff 49 8c 3e d9 62 2c be bd c5 89 3e ae bc e2 bd
       0.27400205 -0.16834582 0.26908675 -0.11071144
0003b0 44 7a 13 3e 91 e0 b1 3e 80 59 9c bd c5 51 4a 37
       0.1440211 0.34741643 -0.07634258 1.2059177e-05
0003c0 d2 da 0c be a6 85 62 3e 12 2a 29 bc b5 6a bb 3c
       -0.13755348 0.22121295 -0.010324972 0.02287803
0003d0 d7 14 55 3e d3 d2 2b 3e d1 bc 09 3e f6 79 98 3d
       0.20808731 0.16779642 0.13450934 0.07445137
0003e0 3d 10 90 be 3e 65 00 bf b1 a7 44 be 0c da 30 3f
       -0.2813739 -0.50154483 -0.19204594 0.69082713
0003f0 c4 35 1a bd b6 cf f9 3e 60 06 5d 3e 9a c4 54 3d
       -0.03764893 0.48791283 0.21584463 0.051945306

5.bias f4 [50]
000000 ca 7c ca bc 08 a9 14 3e fc 0c f9 3d f1 88 58 3d
       -0.024717707 0.14517605 0.1216068 0.052864973
000010 1b f3 26 3e d1 a2 68 3e 71 1d db 3d e2 9d 6f 3e
       0.16303675 0.2271836 0.10698975 0.23400071
000020 d6 f2 ca 3d c7 fa a8 3c 04 f0 b5 bc d0 e7 e8 bc
       0.099095985 0.020627392 -0.022209175 -0.02843085
000030 26 53 d2 bc d3 46 39 bb a0 5d a7 3e bd 2f 2a 3e
       -0.025674414 -0.0028270974 0.32688618 0.16619773
000040 7a 8f f5 3d 54 73 71 3e 6f 97 00 3e b8 b3 53 be
       0.119902566 0.2357915 0.12557767 -0.20674026
000050 54 4d 69 3e b6 eb 8b bd 37 60 d5 bd 54 1d 8e bc
       0.22783405 -0.06832068 -0.10418742 -0.01734797
000060 88 6f ff 3d d8 82 70 3e e0 d9 3b 3b 80 ad 1a be
       0.12472445 0.23487413 0.00286638 -0.15105247
000070 bc 46 5d 3d 0a 00 2c be a1 1c cb 3d 59 bf 0a 3e
       0.054022536 -0.1679689 0.0991757 0.13549556
000080 67 ca 09 3d 0a 20 69 be 3c e2 72 3d 15 f9 01 3e
       0.03364029 -0.22766128 0.059297785 0.12692674
000090 26 6d 56 3d 2b 3e 80 bd ce 4c 6d 3e 82 8a 26 be
       0.052350186 -0.062618576 0.2317383 -0.16263774
0000a0 6d 5b 51 3d f8 3f 97 bd e5 db c3 3d 55 f8 71 3e
       0.05111258 -0.07385248 0.09563426 0.23629887
0000b0 c6 17 6b bd 78 64 14 be 24 fd 75 bd 76 8f 61 bd
       -0.05739572 -0.14491451 -0.060055867 -0.055068456
0000c0 91 81 d0 3d 5c ec 0e 3e
       0.10180963 0.13957351

7.weight f4 [10, 50]
000000 a6 b0 c2 38 d1 0b b9 be 8f 84 e3 3a 60 09 24 be
       9.283544e-05 -0.36141828 0.0017358231 -0.16019201
000010 1a 5f cf 3d c4 55 84 be 8b e1 69 be ba 49 2a be
       0.10125561 -0.25846684 -0.22839944 -0.16629687
000020 cd 68 53 3e ce 0f f5 3c b8 07 ca 37 80 92 b0 bd
       0.20645447 0.029914763 2.408387e-05 -0.08621693
000030 0f 88 dd 3c bc f2 1e be c0 48 99 be d3 2e 30 3e
       0.027042417 -0.15522283 -0.29938316 0.17205362
000040 51 42 a0 3b f9 da d4 3d f6 b3 c3 be aa a5 60 3e
       0.004890718 0.10393328 -0.38223237 0.21938196
000050 4b c9 28 bd 9b d0 50 3d 16 c4 ba b8 92 1c 05 3e
       -0.041207593 0.05098019 -8.905695e-05 0.1299918
000060 a9 30 87 be 53 f0 62 3b 0a 9d ae 3e 65 9e 01 bd
       -0.26404312 0.0034628108 0.34104186 -0.031645197
000070 91 df a7 3e 8f b5 2a bd b0 fc ca 3d f5 9f 69 be
       0.32787755 -0.041677054 0.099114776 -0.22814925
000080 e4 fd 6e bd 57 82 97 3d 08 df fc 3d 85 65 4f be
       -0.058347598 0.07397907 0.12347227 -0.2025357
000090 33 82 c3 bb ad 6a 2f 3e fd ec b2 be 44 ce f5 b8
       -0.0059664487 0.17130537 -0.34946433 -0.0001172093
0000a0 9f 68 97 bd 36 6c 83 3e b6 a9 90 be 72 e8 c8 bd
       -0.07393002 0.25668496 -0.2825448 -0.098099604
0000b0 8d 76 b4 be 26 bc 9d 3e 89 6a 77 3e 79 7f da 3e
       -0.35246697 0.30807608 0.24161734 0.4267538
0000c0 03 2d d9 3d 21 dc f7 bd 64 ee 5b b9 bb 14 00 be
       0.106042884 -0.12102533 -0.00020974275 -0.12507908
0000d0 48 32 52 3e cc 9c 7b be 08 4f 9c be bc 61 07 3e
       0.20526993 -0.24571532 -0.30529046 0.13220876
0000e0 ca 6e d7 bd d2 f7 1d be 19 90 4a 3d 2c a8 3f be
       -0.10519178 -0.15426567 0.04945383 -0.18716496
0000f0 e9 61 f7 37 00 94 a6 be 26 99 c4 3e 24 ff b7 bd
       2.9490287e-05 -0.3253479 0.38398093 -0.08984211
000100 6d 80 04 3f 7e f0 28 bd 3c 5b 69 3e 91 92 d7 3e
       0.5175846 -0.041244976 0.2278871 0.4210401
000110 08 48 18 3e 67 1d 9c 3c 27 da a2 3e e8 b7 9d be
       0.14871228 0.019056989 0.31807062 -0.30804372
000120 d1 7b 58 b8 36 2d 5d be 3e 7e 1a 3e 82 ce 8c 3e
       -5.1613726e-05 -0.21599278 0.1508722 0.27501303
000130 6f ea 85 3e fb 2c 7d be 79 fc 5b 3e 02 ba 71 be
       0.2615542 -0.2472419 0.2148303 -0.23606113
000140 79 b5 ed be 99 8e 41 3e fc 0a 73 be 74 00 af bd
       -0.46427515 0.18902053 -0.23734659 -0.08545008
000150 a8 f3 e9 bb df 96 f6 3e ee d8 ee bd c2 e5 d8 be
       -0.007139642 0.4816198 -0.1166247 -0.4236279
000160 45 49 f9 bd aa 39 9d 36 54 23 e8 3d 76 d8 64 3e
       -0.12172178 4.6856776e-06 0.11334863 0.22348198
000170 f6 98 4e 3e ff f5 af bd b4 53 fa be 2d 36 0f be
       0.20175537 -0.08591842 -0.48891985 -0.1398551
000180 a5 b6 30 be a4 8c 8c be 12 11 d1 3d e5 5c 22 3e
       -0.17257173 -0.2745105 0.10208334 0.15855749
000190 43 7d 5c 37 8a d1 d6 3d c5 4b 5b 3e 83 cb ad be
       1.3142187e-05 0.10489185 0.21415623 -0.3394433
0001a0 04 90 47 3e 4e 57 86 3e 71 8d 21 3d 21 5b 0f bd
       0.19488531 0.26238483 0.03944153 -0.034999017
0001b0 16 11 ae be bd aa 49 be ea 25 f9 b8 22 c2 3f bc
       -0.3399741 -0.19694038 -0.00011880307 -0.011704
0001c0 11 33 63 be db b4 01 bf 6a 55 89 be db c6 a8 bc
       -0.22187449 -0.5066659 -0.26822978 -0.020602634
0001d0 8c 20 44 be 5b 3d e6 3d 8c 71 60 3c 96 d8 d3 3d
       -0.1915304 0.112421714 0.013698947 0.10344045
0001e0 54 f9 9b be b9 9d cd be d2 fd 03 b7 49 5e 2c 3e
       -0.3046366 -0.40159395 -7.867306e-06 0.16832842
0001f0 9b 93 9b bc 7f ad 8a 3e a1 36 f7 bc 4d 00 79 3b
       -0.018991282 0.27085492 -0.030177416 0.0037994564
000200 2e 0e 27 3e 71 c4 9c 3d 9f 3d 2f 3e 2d d7 77 bd
       0.16314003 0.07654656 0.1711335 -0.060507942
000210 50 a9 38 be 44 27 66 3e 28 b5 2d 3e 85 3f 1c 3e
       -0.18033338 0.22475916 0.16963637 0.15258606
000220 72 61 e5 bd 24 48 54 be 76 7b 04 bf d2 7f 7d 38
       -0.11200227 -0.20730644 -0.51750886 6.0438942e-05
000230 61 4d c4 3d 47 ed 93 be 78 c8 f3 3d 41 87 00 3e
       0.09585071 -0.28891966 0.11903471 0.12551595
000240 80 76 cc 3d 9d 2b 27 be 3c e1 6d 3d ef 23 cf be
       0.099835396 -0.16325231 0.05807613 -0.40457103
000250 99 8b 16 bf 41 cd f8 3d 29 be 82 38 de f1 b1 3e
       -0.5880676 0.12148524 6.234303e-05 0.34754843
000260 d9 96 c3 bd 0a c4 63 3e 43 b2 5c bd 06 41 3e 3e
       -0.09550256 0.22242752 -0.05388094 0.18579492
000270 99 b0 18 3e 61 0b 8e 3e 13 90 07 be ef 83 3f be
       0.14911117 0.27743056 -0.13238554 -0.18702672
000280 ac 5a 20 b8 ba 3a 3c 3e c8 a8 1e 3e ff b7 0c 3e
       -3.8231417e-05 0.18381777 0.15494072 0.13742064
000290 54 c1 e2 be 0d b4 d0 bd d6 ae 0e 3e c0 c8 b9 be
       -0.44288123 -0.10190592 0.13933882 -0.36285973
0002a0 fb 05 3a 3e c4 37 f4 bd 6f af 23 be f5 49 df be
       0.18166344 -0.11924699 -0.15984891 -0.43611112
0002b0 3b a3 e5 b8 e8 65 9b 3e d5 11 d9 bc db 85 1d bf
       -0.00010949975 0.30351186 -0.02649776 -0.6153237
0002c0 51 ff 3d 3c 59 df 72 3e 74 e2 d0 be 52 44 60 be
       0.011596517 0.23718013 -0.4079777 -0.21901062
0002d0 40 b2 6b be 4d 94 0f 3d c6 f4 f3 3d 1a 3a 93 3e
       -0.23017216 0.03505354 0.11911921 0.28755265
0002e0 38 fd ac 3c 95 5a 57 be 9e 4e bb 3d ee 77 f8 3d
       0.021116838 -0.21030648 0.091458544 0.1213225
0002f0 27 3c 72 be be cb 1e b8 93 34 73 3e fc 95 eb bc
       -0.23655759 -3.7859885e-05 0.23750524 -0.028758042
000300 6e dc 74 bd d1 db 9b bc 64 47 ab be c7 d8 53 be
       -0.05978053 -0.019025715 -0.33452904 -0.20688163
000310 a4 e5 15 bf bc 08 08 bf 7d a5 51 be f6 95 80 be
       -0.5855353 -0.5313833 -0.20473285 -0.2511441
000320 29 14 5c 38 7d 55 24 be 8c 56 e9 be ff ee 85 3e
       5.2470863e-05 -0.16048236 -0.45573843 0.26158902
000330 35 16 df 3c 82 21 10 be e9 ef ed be a0 bf 80 3d
       0.027232269 -0.14075282 -0.464721 0.062865496
000340 d4 fe 84 bd d7 c0 9c be 87 f7 59 b7 71 4c 23 3e
       -0.06493917 -0.30615875 -1.299184e-05 0.15947129
000350 8f ae a7 3e db 1d 8c bd 16 3d a7 3e 30 77 19 bc
       0.32750365 -0.06841632 0.32663792 -0.009366795
000360 ca f1 aa 3e 1c 18 88 3e 38 38 06 3e 2b 6a 17 3e
       0.33387595 0.26580894 0.13107383 0.14786594
000370 f4 dd c9 3e f0 24 49 3e 7c 55 1a b8 e9 b0 1f be
       0.3942715 0.19642997 -3.6796075e-05 -0.1559483
000380 87 86 fa bd 9b f2 c2 3d b3 7d 9d be 66 4c 14 be
       -0.1223269 0.095189296 -0.30759963 -0.14482269
000390 8f 56 f6 bd fb 75 88 3d 26 2f e2 bc 8c 8e 14 be
       -0.120282285 0.06663128 -0.027610373 -0.14507502
0003a0 48 8b 17 bf 7e 21 75 be e1 79 ab bc c3 65 b4 be
       -0.591969 -0.23938558 -0.02093214 -0.35233888
0003b0 ce c3 e5 be 75 cb 39 3e 31 91 9e 3d 8d 9d 49 38
       -0.4487595 0.18144019 0.07742537 4.8068865e-05
0003c0 0e ae 32 bd 99 a9 5e bd f1 8d 1a be 3c ce c8 be
       -0.043623023 -0.05436096 -0.15093209 -0.39219844
0003d0 2d 1c 60 3e 83 1e ac 3e e3 a5 61 3d 0f c4 d4 3d
       0.21885748 0.3361703 0.055089843 0.10388958
0003e0 8b 09 8e be c4 cb 73 3d 05 d9 2d 38 ec 98 c2 bd
       -0.27741656 0.059520498 4.144853e-05 -0.09501824
0003f0 e9 c7 87 3b 7a 07 87 be 20 9a 73 3d 6d a1 94 3e
       0.004143704 -0.26372892 0.059473157 0.29029408

7.bias f4 [10]
000000 34 a6 f1 bd 3f 8d b7 3d 2b 14 2c be 99 1f 68 bd
       -0.11799279 0.089624874 -0.16804568 -0.05667076
000010 34 09 67 3d ee 67 f7 3d f9 5f 06 3e cc fd 50 3e
       0.05640526 0.1208037 0.13122548 0.20409316
000020 9f 19 6c be 46 49 6f 3d
       -0.23056649 0.05841949
